GP_MVC_hw_3view/results/checkpoints/experiment_name/10_net_AE.pth (torch_old, 935829 bytes, 17 tensors)

layer1_1.weight f4 [200, 216]
000000 d3 2a e3 3b ee 8d 49 bd ce 0c 3d bd de 5e 05 3d
       0.0069325953 -0.04920762 -0.04615479 0.032561176
000010 9d 2e 7f 3c 9a 04 84 bb a3 53 fd 3b bb be 46 3d
       0.015575078 -0.004028869 0.0077309175 0.04852174
000020 17 52 80 bd 2c ed 2c bd 40 11 3f bd ea ce 3a bd
       -0.062656574 -0.042218372 -0.04664731 -0.045607485
000030 3f f1 96 3b 7a 6d c7 bc 15 8f 3b bd f7 a2 81 bc
       0.0046063955 -0.024344195 -0.04579075 -0.015824778
000040 14 1f 90 bc 94 bf 4c bd ea c1 57 bd bb ca 52 3d
       -0.017592944 -0.04998739 -0.052675165 0.05146287
000050 58 29 20 3d b3 9f 6e 3d 7d fa 66 bc 5a 0c 17 3c
       0.03910193 0.05825777 -0.014097807 0.009219253
000060 da 1b 6a bc 35 1b 35 bd 7f bf 11 3d e5 00 cc bc
       -0.014288867 -0.0442154 0.035583016 -0.02490277
000070 fc b0 a4 3b ee 3d 02 3b e6 00 58 3c ff ad 8a bc
       0.005025981 0.0019873339 0.013183808 -0.01692867
000080 9a a3 23 3d 48 4b 1a 3d 44 0a 13 3b a1 c3 27 3d
       0.039950944 0.03766945 0.0022436539 0.04095805
000090 b0 9e 23 bc 65 3f 71 3d a5 ef 66 bd aa d4 4e bd
       -0.0099865645 0.05889835 -0.056380887 -0.05049578
0000a0 36 70 64 3d fa c7 1f 3d 6e 87 81 3d 4e 98 85 bd
       0.055771075 0.039009072 0.06324659 -0.065231904
0000b0 c6 14 27 3d b5 da 47 bd b7 b4 71 3b 3d 4e 7c 3d
       0.040791295 -0.04879256 0.0036881396 0.06159805
0000c0 57 3d 71 bd f6 97 5a bc 91 46 3b bc b5 2a 11 bd
       -0.05889639 -0.013341894 -0.011430399 -0.03544112
0000d0 31 00 51 3d 27 9d 16 bd e1 28 b6 bc 3a 4f 9d b9
       0.051025573 -0.036770966 -0.02223629 -0.00030004402
0000e0 21 4d 27 bc a4 cd 1f bc 00 7d 7d bc 3b d6 1f 3d
       -0.01021126 -0.009753618 -0.015471697 0.039022665
0000f0 36 b8 46 3d 3c 28 11 3d 4d 11 27 bd a0 ce 3a bb
       0.04851552 0.03543876 -0.040787984 -0.0028504506
000100 af d4 c0 3c 64 4c 54 bd 67 58 88 3d ad fc 3f 3d
       0.023538915 -0.051830664 0.066574864 0.04687183
000110 79 e1 70 3c 13 42 31 3d e4 51 4c bd 35 7c 43 bd
       0.014702194 0.043275904 -0.049882784 -0.047725875
000120 56 34 30 bd 3f ad 66 3c ae b6 84 bd 3b 66 51 bd
       -0.04301866 0.014079391 -0.06480156 -0.051122885
000130 8b 34 8e bd 5b 62 4b 3d 2c c6 1b bd d4 93 ac 3c
       -0.069436155 0.049654346 -0.03803079 0.021066584
000140 4c 26 f9 3c f1 8d f6 bc 8c 79 6e 3d 38 8e 81 bd
       0.03041377 -0.03009698 0.058221385 -0.06325954
000150 9f 48 96 3c a2 3b 89 3d ad a5 cb bc ce a3 2c bd
       0.018345175 0.06700827 -0.024859274 -0.042148404
000160 90 16 3f bd e9 0c ec bc 7f 65 f8 bc 69 2d 41 bd
       -0.046652377 -0.02881475 -0.030321835 -0.047162447
000170 c1 e5 2e bd 01 fc 86 bb 25 fe 69 3b 1a 48 44 3c
       -0.04269958 -0.0041193967 0.003570446 0.011980081
000180 2a 8d 29 3d 35 4b 75 3d ae 04 11 bd d1 3f 98 ba
       0.04139439 0.059886176 -0.035404854 -0.0011615698
000190 0b 59 67 bd 49 0e d7 3c fa d7 46 3d e8 0a 46 bd
       -0.056481402 0.026251929 0.048545815 -0.048350245
0001a0 7b 51 2b bd f0 45 f6 bc dd 61 d1 bc e1 7e 0c 3d
       -0.041825753 -0.030062646 -0.02555936 0.03430069
0001b0 0c 79 d6 3c 2c 9f 82 3d bd 2c 1d 3d 0d 2b 23 bb
       0.026180767 0.06378016 0.038372744 -0.0024897486
0001c0 f5 e2 2a bd 0f a8 db 3c 24 37 6b 3b 89 88 8d 3d
       -0.04172035 0.026813535 0.003589102 0.06910808
0001d0 25 e5 cc bc 30 a0 95 3b fd 43 2d 3d 6b 76 8a 3d
       -0.025011608 0.004566215 0.042301167 0.06760868
0001e0 cd 10 76 3c fc 70 69 bd 72 ab 21 3d 2c db 6c bd
       0.015018654 -0.056992516 0.039470144 -0.057826206
0001f0 1b 93 0b bd 57 af 4d 3d 36 4a f2 3c 83 15 61 3c
       -0.034075838 0.050216045 0.029576402 0.013738039
000200 b7 79 fd bb 86 98 3c 3d 19 ea 01 3c ac 08 87 3d
       -0.007735457 0.046043895 0.007929348 0.06593451
000210 7b e1 5a bd db e6 e0 bb 54 a4 35 3d 2d ba c7 3c
       -0.05343769 -0.0068634576 0.04434617 0.024380768
000220 ad 9f 69 3c a0 80 79 3b 9f 56 4b bd 28 23 83 bc
       0.014259261 0.0038071051 -0.049643155 -0.016007975
000230 9e f7 25 3d e3 78 1b 3d d1 c5 36 bd f6 3d b6 3c
       0.04051935 0.037957083 -0.044622246 0.022246342
000240 15 41 49 3c 9b a2 49 bd 4b df 11 bc f5 0b 96 bc
       0.012283583 -0.04922734 -0.008903335 -0.018316248
000250 e1 b7 21 3d 8a 0a ba 3c 02 23 72 bd 3a 81 12 bd
       0.039482 0.022710104 -0.059115417 -0.03576777
000260 46 df bc 3c 0b 6f 5c 3d 69 fd 19 3d 6a b1 3c bd
       0.023055684 0.053816836 0.037595186 -0.046067633
000270 58 cd f7 3c e6 f5 c7 bc 22 ae 84 bd 52 4d 4b bd
       0.030249283 -0.024409246 -0.06478526 -0.049634285
000280 ad 09 63 3d 9b 7e f2 bc fe ba 61 bd 8a 83 21 3d
       0.05542915 -0.029601386 -0.05510997 0.039432086
000290 6c df fd bc e5 ff 5a 3a 8c fa 82 3d c3 98 50 3d
       -0.030990325 0.00083541713 0.06395444 0.050926935
0002a0 94 d6 62 bd 19 b1 db bc 1a 9b 77 3d 38 f2 80 bd
       -0.05538042 -0.026817845 0.06045065 -0.062961996
0002b0 6e 9f 84 bc c9 f5 10 bd 50 68 3d bd 95 c6 a1 3c
       -0.016189303 -0.03539065 -0.04624206 0.019748012
0002c0 b2 8e 48 bd 80 b7 75 3b c6 b5 43 3c ac 01 c8 3b
       -0.04896421 0.0037493408 0.011945194 0.006103715
0002d0 54 01 71 3d 56 22 71 3d 5e 16 1f 3a 55 b0 4c 3d
       0.058839157 0.058870636 0.00060687016 0.04997285
0002e0 d8 3a 3f 3d cf 0c 49 bd 59 43 4b bd e5 23 a1 3c
       0.046686977 -0.04908448 -0.049624775 0.019670436
0002f0 18 72 d3 3b 0d 62 21 bd d3 0a eb bb db 73 1a bd
       0.00645281 -0.03940015 -0.007172921 -0.037708145
000300 4a d3 70 3d 99 86 10 bd 5a 1c 2f bd 6c 98 be bc
       0.05879525 -0.035284612 -0.042751648 -0.02326604
000310 6f 81 20 3c e7 58 45 bd 05 8c 11 3d ad 0f 52 3b
       0.009796484 -0.048180487 0.035533924 0.00320528
000320 b9 71 c3 bc ba fe 80 3c 16 d4 b5 3c 64 17 c8 3c
       -0.023857938 0.015746463 0.022195857 0.024425216
000330 ac 39 28 bc 8e c1 1b 3d b4 62 5b 3d f2 b8 19 bd
       -0.010267656 0.038026385 0.053560928 -0.037529893
000340 06 7d 6c 3d b5 b6 30 bc 5d 48 7d 3d 1b ee 86 3d
       0.05773642 -0.010785748 0.06183659 0.06588384
000350 ee 67 ef bc d7 34 f3 3c 65 ab 86 3c 59 f3 eb 3b
       -0.029224362 0.029688282 0.01643915 0.00720064
000360 00 f4 54 bb 4e 9e 1c bd ca 86 a4 bc 30 e2 63 3c
       -0.0032494068 -0.03823691 -0.020083804 0.013908908
000370 78 b8 81 bd ae b9 3c 3d 20 8a 98 3c f2 44 36 3d
       -0.06334013 0.046075515 0.01862055 0.044499345
000380 dc f6 56 3d 5c 33 67 bc 86 0c 93 bc 0e 1d 9b bc
       0.052481517 -0.014111366 -0.017950308 -0.018934753
000390 38 c6 85 bd 30 e1 22 bc 6e ae 04 3d 76 3b 54 3d
       -0.06531948 -0.009941384 0.03239291 0.05181452
0003a0 40 8e 70 bc e6 ad 3d 3d 55 9a 74 bd 14 80 71 3d
       -0.014682353 0.04630842 -0.059717495 0.058960035
0003b0 20 9d 40 3c d0 a6 7d 3d 9c 79 da bc f0 3e 5a 3d
       0.0117562115 0.061926663 -0.026669316 0.053282678
0003c0 e4 00 c4 3c 76 f2 6e bd 14 cc 7d bc 48 cd 71 3d
       0.023926206 -0.058336698 -0.015490551 0.059033662
0003d0 44 df 4c bd e4 c5 ce 3c 1c a0 75 bc d2 65 18 3d
       -0.05001761 0.025240846 -0.014991786 0.03720648
0003e0 2e 6c 7e bd c0 bb b1 ba 24 d9 c6 3c 34 0b 40 bc
       -0.062114887 -0.0013559982 0.024273463 -0.011721421
0003f0 17 7d 2f bd ba e8 08 3d bc a3 42 bd 22 4d 57 3d
       -0.042843904 0.03342507 -0.04751943 0.052563794

layer1_2.weight f4 [200, 76]
000000 e0 be fc bc 83 41 1c 3e df 37 8a bc 79 b3 0e 3d
       -0.030852735 0.15259366 -0.016872345 0.034839127
000010 a1 94 a7 bc ad 2d 1c be 1a 6c 07 be e7 bf 9f bd
       -0.020456614 -0.15251799 -0.13224831 -0.07800274
000020 48 e3 2f be bb 41 cb bd b6 d6 95 bc f0 7d 08 be
       -0.17176545 -0.099246465 -0.018290859 -0.13329291
000030 29 0f d8 bd 28 b2 f9 bd ba c5 b2 bd e0 a2 0a 3d
       -0.105497666 -0.12192184 -0.087291196 0.033846736
000040 50 4c b3 bd 4d 4a 5c 3d 15 e7 c8 3d 4b c1 34 bd
       -0.0875479 0.053781796 0.098097004 -0.04412965
000050 89 70 8c bd c6 74 f1 bb c1 8e c9 bd b2 6e 5b bc
       -0.06857402 -0.007368657 -0.09841681 -0.013393091
000060 8d ab 33 3d cc 5c c8 bd d4 54 94 bd a2 1a 71 3d
       0.043864775 -0.097833246 -0.07242742 0.05886329
000070 53 05 33 bd 46 10 3e 3d 55 30 7d bd 78 23 d0 3d
       -0.04370625 0.04640224 -0.06181367 0.10163015
000080 26 cf ac bd 5a a9 eb 3d fd 1f 49 3b 73 e8 e3 3c
       -0.08437948 0.115069106 0.0030689233 0.027820801
000090 12 26 0d bc 1f 7a c3 bd 39 5f dd bb 43 1f af bc
       -0.008615034 -0.09544777 -0.006755736 -0.021377211
0000a0 d8 88 7c 3d 66 4e 49 bd 88 a6 de ba 37 c7 60 3d
       0.061653942 -0.049147032 -0.0016986886 0.054877486
0000b0 47 72 05 3d 68 3e 82 3d f3 08 e7 bc c9 2b 0d bd
       0.032579686 0.06359559 -0.02820251 -0.034465585
0000c0 d2 f7 21 3b 27 f0 aa bd 22 b2 8e 3d f6 95 16 bd
       0.0024714363 -0.08346587 0.0696757 -0.036764108
0000d0 6e a9 06 3d 0a 6a cf bd 70 08 09 bd 65 9b 7f 3c
       0.032876424 -0.10127647 -0.033455312 0.015601014
0000e0 15 87 98 bd fe 4b ac bd e5 e6 2e bb fd 48 b0 3d
       -0.0744764 -0.08412932 -0.0026687917 0.086076714
0000f0 0b a7 ab bd 0c f8 83 3d 3a 2c 37 3d 1d 0b 08 bd
       -0.0838147 0.064437956 0.044719912 -0.033213723
000100 eb 0c d1 bd f6 8b fd bc 15 d3 7c bc aa 3d 70 bd
       -0.10207542 -0.030950528 -0.015431185 -0.058652557
000110 b0 bf 4f 3d ff 2c 81 3d 74 15 b1 3c 6b 1b 36 bd
       0.050719917 0.063074104 0.021616675 -0.04445974
000120 c3 31 9b bd 1e 56 ff 3d f2 d2 62 3d 67 49 4a 3d
       -0.07577851 0.124675974 0.055376954 0.04938641
000130 a3 a6 24 be 28 bd 05 bd b5 ab be bd f0 c3 7f 3d
       -0.16079192 -0.032651097 -0.09310094 0.06244272
000140 e5 2f 29 3e a3 64 3c be 83 df 29 3d 43 9a 09 be
       0.16522177 -0.18397765 0.041472923 -0.13437752
000150 60 c5 51 3e 13 30 7f 3d 10 56 a8 bc 36 15 fa bd
       0.20485449 0.062301707 -0.02054885 -0.12211077
000160 fb fe d4 bd 8d d1 a9 3d db 14 79 3d d2 55 e3 bd
       -0.10400196 0.08291922 0.060810905 -0.11100353
000170 5c ad 46 3d 91 a0 b7 bd dd 8d c0 bc 47 8f e2 b9
       0.048505172 -0.089661725 -0.023505146 -0.0004321283
000180 4b 13 a2 3d be e0 c5 bd 93 71 73 3c ee e9 58 3d
       0.07913836 -0.09662007 0.014858621 0.052957468
000190 c9 2b df 3d c7 c2 b5 3c fd 26 bf bd c4 cc 20 3c
       0.10897023 0.022187604 -0.09333608 0.009814445
0001a0 ef 6e cd 3d 71 8f 83 3c cf 00 65 bc ab c9 37 3d
       0.100309245 0.01605961 -0.013977244 0.04487006
0001b0 48 8e d5 3d c0 ae 95 3b 45 6e dd bd 12 d2 7d 3d
       0.104275286 0.004567951 -0.10812048 0.061967917
0001c0 85 67 6c bc 0e bd 0e bd 5f 5e ad bd d1 56 ed 3d
       -0.014428978 -0.034848265 -0.084652655 0.115888245
0001d0 ce 48 6a bd 9f c6 ac 3b b6 0f bc bd 35 57 93 bd
       -0.05719834 0.005272701 -0.09182684 -0.07194368
0001e0 2f c4 46 bb e5 97 3d 3d f9 4a 08 38 c9 07 a7 3d
       -0.0030329337 0.046287436 3.249475e-05 0.08155782
0001f0 db fb 33 3d 5e b7 04 be 68 ba 06 3d b2 3b 9f 3d
       0.04394136 -0.12960574 0.032892615 0.07775058
000200 d9 a3 9e 3d 7d 84 13 3d 9c 8a ec bd a4 6d a1 bd
       0.07746095 0.036015023 -0.11549875 -0.078822404
000210 ae 0e 39 3d 14 f1 38 3d 39 33 ab 3c 02 35 30 bd
       0.045180015 0.045151785 0.020898448 -0.043019302
000220 6e 0f 1c 3c 2b b7 0a be 65 c1 83 ba 08 a6 0d 3e
       0.009525163 -0.13546436 -0.0010052143 0.13832867
000230 f5 16 32 bd dc 80 17 bc ec 38 84 bd bc 20 01 bd
       -0.043478925 -0.009247031 -0.064561695 -0.03152536
000240 5a 70 4a bd 4d e4 9c bd 82 05 66 bd 29 60 90 3d
       -0.049423553 -0.076607324 -0.056157596 0.07049591
000250 e5 1c c5 bd 75 29 3a 3e 7a 1b 9f bd 40 c5 6b 3e
       -0.09624652 0.18179877 -0.077689126 0.23024464
000260 3b a9 a8 bd c0 2e 02 bd 46 c8 2e be 88 1f 23 be
       -0.08235403 -0.031782866 -0.17068586 -0.15929997
000270 11 b1 31 3e cd 2f 8c bd b3 27 ed bc be cb f5 bd
       0.17352702 -0.06845055 -0.028949594 -0.12001751
000280 e7 24 0f bc 3c 73 50 bd 1e 3b 04 3c 86 b8 3f 3d
       -0.008736826 -0.050891146 0.008070735 0.046806835
000290 ca 00 0b bd 9d b7 49 3e b2 92 9d 3d 56 d4 7d bc
       -0.0339363 0.19698949 0.076939955 -0.015492519
0002a0 af ef ba 3d f4 4f 61 3d a9 cf b2 bc 4a 47 93 bd
       0.09127747 0.05500789 -0.021827536 -0.07191332
0002b0 f5 03 84 3d fb a4 61 3d 62 14 3e 3d 2d e4 61 bd
       0.06446067 0.05508898 0.046406157 -0.055149246
0002c0 01 38 2f 3d 78 6a a2 3d 5d 5e 80 3d 3c 4b 4f bd
       0.04277802 0.079304636 0.06267998 -0.05060886
0002d0 b3 71 89 3d 84 25 b5 bd 02 42 d0 bd 4d fb 8b bd
       0.067111395 -0.08845046 -0.1016884 -0.06835041
0002e0 cc 5b 7c 3d 5e 13 9f 3d 3e 27 9e 3d a4 c4 69 3d
       0.06161098 0.07767366 0.077223286 0.057072297
0002f0 de bd b1 3d e4 47 7e 3d 65 d4 82 3c 46 f1 bb 3d
       0.086787924 0.06208028 0.015970418 0.09176879
000300 d9 c8 54 bd 86 06 d7 3d a6 9b e9 bc 1e 3e 57 3d
       -0.051949356 0.10499291 -0.028516602 0.052549474
000310 53 0b c7 bd 4b 83 90 bd 92 93 80 bc d3 8e 99 3d
       -0.09718957 -0.07056292 -0.015695367 0.07497945
000320 8b 66 96 bd b3 6e 61 3d 91 d7 d9 3c 0e 44 bf 3c
       -0.07343777 0.05503721 0.026592048 0.02334788
000330 c4 4b ec 3c 75 30 4f bd c4 5a b8 bd 3b c0 10 bc
       0.028844722 -0.05058332 -0.09001687 -0.008834894
000340 8e 21 32 3d ed 50 00 3d 84 ad 5b bd 3c 53 c4 bd
       0.04348903 0.031327177 -0.053632274 -0.09586188
000350 0a 65 22 3d fa b9 f0 bd 49 ab fa bc d4 b2 5a 3d
       0.03964714 -0.11754222 -0.030599253 0.0533932
000360 a7 b6 21 be b2 c9 01 3e 7f ee 36 3d de f7 ed 3c
       -0.15792333 0.12674597 0.04466104 0.029048856
000370 b6 e7 0e be 84 6f a6 3d 26 4b ea bd 6e 46 23 3e
       -0.13955578 0.08126739 -0.11440115 0.15944836
000380 36 67 ae bd 0b 0e 2a 3d 1f d0 0f ba e2 12 cf 3d
       -0.0851578 0.0415173 -0.00054860295 0.101110235
000390 a8 36 0e 3d 20 60 98 bc b3 18 8f bd ac bf bb 3d
       0.034720093 -0.018600523 -0.06987133 0.09167418
0003a0 01 ce c6 bc ac e4 e6 bc b7 3c ae 3d 58 67 a7 3d
       -0.024268152 -0.028185211 0.08507674 0.08174008
0003b0 48 d7 31 3c 45 83 dd 3d 2b 6b 11 bc 52 9a 99 3d
       0.01085455 0.10816053 -0.0088756485 0.075001374
0003c0 54 21 87 bd 4a 59 b0 bd 99 60 e3 3d 7c c4 f4 3b
       -0.06598154 -0.086107805 0.11102409 0.007469712
0003d0 f3 22 e0 3d c9 ea 8c 3d 1e eb 12 bd d5 4d f4 3c
       0.10944166 0.06880719 -0.035868756 0.02982227
0003e0 c0 85 00 bd ea 65 d4 3d 9b f8 b7 3d e6 5c 00 bd
       -0.031377554 0.10371001 0.089829646 -0.031338595
0003f0 00 c3 ae bd bc 0e b4 3b 2c 23 65 bd 08 e3 b0 bd
       -0.08533287 0.0054949205 -0.055941746 -0.08637053

layer1_3.weight f4 [200, 64]
000000 90 9d ef bd 57 04 9a 3e e0 bf 8f 3d d3 fa cf 3c
       -0.116999745 0.30081436 0.07019019 0.025388157
000010 55 13 c5 3d cc 40 95 3a 1f b9 1c be 36 99 8e 3d
       0.09622828 0.0011387109 -0.15304993 0.069628164
000020 ea 01 e4 3d 52 40 19 be 38 db 0d be 94 37 23 bb
       0.111331776 -0.14965943 -0.13853157 -0.0024904953
000030 20 3a 72 bd 1e f5 ae bd 8f 6e 16 3e 5c fb a5 3c
       -0.059137464 -0.08542846 0.14690612 0.020261459
000040 4e ff b9 bd 59 d2 d3 ba 9b 34 4f 3c b8 02 06 3e
       -0.09081899 -0.0016160711 0.012646819 0.13086975
000050 41 68 03 be ce 3c 85 3c 69 9e 0c bc 8c 89 4c 3d
       -0.12832738 0.016264345 -0.00858269 0.049935862
000060 7a 37 07 3e 3c 6c 4b 3d 56 01 68 3d 3e bc 78 bd
       0.13204756 0.049663767 0.0566419 -0.060726397
000070 1e ef 18 3d c7 ad ac bc 97 31 5b bd d5 f2 b6 3d
       0.037337415 -0.021078957 -0.05351409 0.08933035
000080 71 a4 42 3d be 01 ee bc 7a 93 93 3d 10 bf 0f bd
       0.047520105 -0.029053565 0.07205863 -0.03509432
000090 b3 b5 05 3e 9d 22 83 bd 22 87 30 3e 4e 97 c6 3d
       0.13057594 -0.06403086 0.17239049 0.09696828
0000a0 19 9d 98 3d 0c a6 ee 3d cf 33 dd ba 06 6d ed bd
       0.07451839 0.11652765 -0.0016876402 -0.1159306
0000b0 dc 90 1f be e9 1b 1d bc 8b c0 e2 3d 84 62 2d 3d
       -0.15582603 -0.009589174 0.11071881 0.04233028
0000c0 f8 b3 ef ba 98 84 47 3d 04 63 87 bd 83 86 67 3b
       -0.0018287888 0.048710436 -0.066106826 0.0035327978
0000d0 9d ae ba bd f0 f0 04 3d dd a6 da bc 2f da 1e 3d
       -0.09115336 0.03245634 -0.026690895 0.038782295
0000e0 f3 ae 34 bd 6d ef 7f bc 40 a4 e9 bc 29 66 b2 3c
       -0.044112157 -0.015621048 -0.028520703 0.02177723
0000f0 bf c7 1d bd b1 c5 cf bd 35 15 ed bd c8 f5 81 3d
       -0.03852057 -0.101451285 -0.115763105 0.06345707
000100 ef 49 01 bd 8b 01 6f 3d 79 3f 7f bc 92 66 d9 3d
       -0.03156465 0.05835108 -0.015579098 0.10615267
000110 4d 0a bf 3d 38 5d 5e 3c 76 c9 4a be 9b 9f c7 3d
       0.093281366 0.01357203 -0.19803414 0.09747239
000120 84 63 5d 3d 22 ad 09 be 67 b2 3c be 84 04 a6 3d
       0.054049984 -0.13444951 -0.1842743 0.0810633
000130 d7 c0 e7 bc ca bf aa 3d 23 53 ea 3d 1b ee 12 bd
       -0.028290195 0.08337362 0.11441638 -0.035871606
000140 83 d2 0d 3d 48 e0 e5 bd 68 85 7e 3d c2 58 fa 3d
       0.034624588 -0.11224419 0.062138945 0.122239605
000150 63 9c ce 3d f2 ee 08 3e bc 17 a7 bc d3 ba 43 3e
       0.10088422 0.133724 -0.02039706 0.19114237
000160 9f a5 87 bd ee 50 39 3c 29 d3 cd bd 9f a5 45 3d
       -0.066233866 0.011310799 -0.10050041 0.04825365
000170 64 d6 21 3e f9 78 18 bd d7 54 5f 3d 46 42 b3 bd
       0.1580444 -0.037224744 0.05452427 -0.08752875
000180 74 15 65 bd 7d ec 57 bc 2e f8 6e 3d 79 c4 9e 3d
       -0.055928662 -0.013178942 0.05834215 0.07752318
000190 18 26 01 3e cb f0 de 3c f4 5a 7d bc 40 80 72 3d
       0.12612188 0.027214428 -0.015463579 0.05920434
0001a0 76 0b 66 bd ed 86 93 3d 59 19 1d bd 95 26 45 bd
       -0.056163274 0.072034694 -0.03835425 -0.048132498
0001b0 ce a8 2d 3e f6 40 89 3d b5 c4 09 3c ba 1a ad bd
       0.16958925 0.067018434 0.008408715 -0.08452363
0001c0 f0 02 03 3c 61 9a 21 3d b7 bb 17 bd 4e c4 df 3c
       0.007996306 0.039453868 -0.037044253 0.027315285
0001d0 f7 6b 67 3c ae 49 41 3d b0 05 90 bd 09 86 63 3d
       0.014124862 0.047189407 -0.07032335 0.055547748
0001e0 8c 16 ad bd 2f 6f 3a 3e 98 ff b0 3d 4d 71 e9 bd
       -0.08451566 0.18206476 0.08642501 -0.113985635
0001f0 79 76 00 3e 7d 3a 92 3d 70 60 99 3d 2a 58 c0 bd
       0.12545194 0.07140062 0.07489097 -0.09391816
000200 cf b9 43 be a4 2a 2d be 47 1a 32 3e 23 27 59 be
       -0.19113849 -0.16910797 0.17392837 -0.21206336
000210 20 c3 06 3d 01 62 df 3d 78 eb 2d be 14 6c 55 bd
       0.03290093 0.10907365 -0.16984355 -0.052105024
000220 ad 6c 26 3d c3 a9 0d be 2e af 3c 3d ca 6b 86 bd
       0.040630985 -0.1383429 0.046065502 -0.06563528
000230 26 8e 21 3e 17 fb 2a be e9 d3 24 3e 6c 42 bc 3d
       0.15776882 -0.16697346 0.16096462 0.091923565
000240 2e 96 17 3e 56 30 9d 3c 37 1c 0c bd c9 91 2b 3e
       0.14803383 0.019188087 -0.034206595 0.16754831
000250 c0 05 24 bd e2 ab a5 3d 91 02 27 3e b1 70 ba 3d
       -0.040044546 0.08089425 0.16309573 0.091035254
000260 d5 ea db 3c 3d fc d2 bd b9 e8 1f bd c0 56 6c 3d
       0.026845375 -0.10302017 -0.0390403 0.05769992
000270 2d 08 b5 bd 8a 8c 77 3d 5c be 9f 3d 32 d6 ab 3d
       -0.0883945 0.060436763 0.0779998 0.08390464
000280 19 ce f6 bd 5d ae 45 3c 0c ef 02 3c a0 d9 94 bd
       -0.12051029 0.012065497 0.0079915635 -0.07268071
000290 7c 02 2a 3e 02 8e 12 ba 0c 30 d8 ba 41 ce 96 ba
       0.1660251 -0.0005590619 -0.0016493811 -0.001150556
0002a0 41 cf 27 bd 2a 95 be 3c bc 46 d0 3d b8 3d 9e 3d
       -0.040969137 0.023264486 0.101697415 0.07726616
0002b0 63 99 e8 3d 61 90 54 3d 38 08 07 3d 6e cc 96 bd
       0.11357381 0.051895503 0.032966822 -0.073632106
0002c0 37 4f b3 3d cc 3e d8 3d 9b 5e 85 3c ce 4e a9 3d
       0.087553434 0.105588526 0.016280463 0.08266984
0002d0 50 d1 0d be cf f5 69 bc 96 72 95 bd 66 f8 31 3e
       -0.13849378 -0.014279797 -0.07297246 0.17379913
0002e0 a6 8f 65 bd 47 43 80 bd d2 fc 07 3d 15 be 02 3d
       -0.056045197 -0.06262832 0.033200093 0.031919558
0002f0 d0 e0 7b bd 44 87 df bc e6 60 c1 bd 54 9b c9 bd
       -0.061493695 -0.02728618 -0.0944231 -0.098440796
000300 11 d4 fb 3d b8 0d 96 3d 53 6f 35 be 07 6a 26 bd
       0.12296308 0.073268354 -0.17718248 -0.04062846
000310 0f 94 fc 3d 50 63 36 be 23 de 5e 3e e1 cc 96 3d
       0.123329274 -0.17811322 0.21764426 0.07363296
000320 fa 8f e5 bd 77 13 7f 38 1a 69 4b 3d b1 56 9f 3d
       -0.11209102 6.0814866e-05 0.04966078 0.07780207
000330 91 0e 8c bd d5 fb 31 bd 9f e8 d0 bd 9b f9 74 3d
       -0.06838716 -0.043453056 -0.10200619 0.059808355
000340 44 41 77 3d bc 1a 26 3d a8 4a f8 3c de 1b d9 bd
       0.060364977 0.04055284 0.030309036 -0.10601018
000350 11 5e 07 3e 36 6c ee 3d 85 fd e1 3a 46 a9 06 be
       0.13219477 0.11641733 0.0017241692 -0.1315051
000360 33 b9 cc 3c 75 c4 e5 bd 60 32 a6 3d 26 4f 1d be
       0.024990654 -0.11219112 0.08115077 -0.15362224
000370 27 df 2d bd ef 3a 9f 3d 99 56 98 bd 1f 9a d2 bd
       -0.042449143 0.077749126 -0.07438392 -0.102833025
000380 ba 4c 03 3d 05 dd 70 bc fe 2e 80 bb 71 0f 05 bd
       0.032055594 -0.014701133 -0.003911852 -0.03248543
000390 61 fc 48 3e 3a 35 03 3e 58 12 9f 3d 8b 2c c1 bd
       0.19627525 0.12813273 0.07767171 -0.09432324
0003a0 12 fe 7b 3c 3d e7 bc 3d 1a 06 31 bd e7 6b 23 bd
       0.015380399 0.09223793 -0.04321871 -0.039897826
0003b0 0f 6a 93 bd 55 c2 ab bd 10 26 2c bd b4 e7 3c bd
       -0.071979634 -0.08386675 -0.042028487 -0.046119407
0003c0 b1 42 1b 3e e1 8e d9 bc 2b f7 cd 3d f4 03 3c bd
       0.1516216 -0.026557388 0.10056909 -0.045902207
0003d0 d8 bc 0c bd 7d 97 1b 3e 11 19 c4 3d 6b b9 79 bc
       -0.034359783 0.15194507 0.095750935 -0.015241961
0003e0 7d 91 83 bd 6b 2d 72 3d 2b e6 bc 3c 9e e6 50 bd
       -0.06424234 0.059125345 0.023058971 -0.051001184
0003f0 91 d7 a0 bd 00 fa 4f bd 38 ee ca 3b cb 62 b8 3d
       -0.07853616 -0.050775528 0.0061929487 0.09003218

layer2.weight f4 [150, 200]
000000 59 4c 8d 3b 67 34 31 3d 71 2b d0 bd 6c 63 85 3d
       0.00431208 0.043262865 -0.10164536 0.06513104
000010 0a 3b c7 ba ed ee ee 3d d0 8d 80 bd 62 5d 30 bb
       -0.001520009 0.11666665 -0.062770486 -0.002691113
000020 0f 1d ec 3d d9 66 15 3e c5 db 1f 3c 31 a8 68 bb
       0.1152898 0.14590015 0.009756987 -0.003550064
000030 ac 6e d7 bb 38 3d 14 3d b1 c0 90 be cd b2 ef 3d
       -0.0065744724 0.036191195 -0.28272012 0.117040254
000040 f3 1d 8a bd d2 31 9e 3d ee 39 9f 3d 22 ae e3 3c
       -0.067439936 0.07724346 0.07774721 0.027792994
000050 df d5 0a 3e 0b 12 94 bc 27 aa 2f bd 7c b8 f9 3c
       0.13558148 -0.01807501 -0.04288688 0.030483477
000060 23 24 b2 bc cd a3 06 bc 7b 23 f8 bc 0d db af bd
       -0.021745747 -0.008217764 -0.030290356 -0.085867025
000070 2d a7 6b 3c d1 e7 7d bc ee 0f 15 3e ac 80 14 3d
       0.0143831195 -0.015497164 0.14556858 0.036255524
000080 36 39 e9 3d dd 4c ec bd 37 02 a6 3d c0 22 59 bd
       0.11387865 -0.11538098 0.08105891 -0.053011656
000090 12 74 8e bd f6 6c 9b 3c 5a 8b 16 3d f9 ec 77 bd
       -0.069557324 0.018972855 0.03675399 -0.06052873
0000a0 7c 29 5c 3d e5 ce 3e bd da db a2 3d f3 03 fe bd
       0.0537505 -0.04658403 0.079520896 -0.12403097
0000b0 9a 42 a8 bd c4 2f de bc 31 80 14 be d0 22 62 bd
       -0.08215828 -0.027122386 -0.14502026 -0.05520898
0000c0 32 a6 fe 3d 0d 5e 23 be 00 3b 1a 3d 06 91 2b bd
       0.12434043 -0.15953846 0.037653923 -0.041886352
0000d0 5a 5c 6f 3d d2 d4 f5 bd 24 31 4a 3d f4 da ac 3b
       0.058437683 -0.12003483 0.04936327 0.0052751247
0000e0 a3 c5 3e ba 78 8b da bd c4 85 b6 3a dd ca 07 bc
       -0.0007277375 -0.10671133 0.0013925363 -0.0082881125
0000f0 05 9b 42 3d 90 ec 12 3c f6 96 2f 3d bd c1 18 3d
       0.04751112 0.008967534 0.042868577 0.03729414
000100 1a 98 9c 3c 82 fa eb bb 3d fc d5 3c bf 46 3e 3d
       0.019115496 -0.0072014937 0.026121253 0.046454187
000110 e5 ed 7b bc 9c f2 0c ba 02 28 59 3c 9e 0b 7f bd
       -0.015376543 -0.0005376728 0.0132541675 -0.06226694
000120 b3 d5 08 3d 7d b8 44 3c f2 56 c6 bd 61 18 7f bd
       0.033406924 0.012006876 -0.09684552 -0.06227911
000130 6d 44 e3 bb 66 c6 22 3d c8 ee 37 3e 71 48 48 bc
       -0.006935647 0.03973999 0.17962182 -0.012224303
000140 cd 98 d3 3b 8d b6 98 3c 15 5b 5a 3c 68 40 8c 3b
       0.0064574243 0.018641734 0.01332738 0.0042801388
000150 22 f1 a2 3d c5 15 28 3d 86 54 c9 bc 7a b6 b4 bc
       0.07956149 0.041036386 -0.024576437 -0.022059668
000160 ff 46 09 3d a1 e0 9c bc a1 b5 b1 bd 08 ba 83 bd
       0.033514973 -0.01915008 -0.08677221 -0.06431967
000170 99 fb 48 3d 0a 97 05 3d 5c e7 88 3d 88 27 96 3d
       0.049068067 0.032614745 0.06684753 0.07331759
000180 1b 1c de bc cd 7e 42 3c ea 12 79 bc 1d 14 c1 bc
       -0.027113011 0.011871052 -0.015202263 -0.023569161
000190 81 0b 7b 3d d3 46 c3 3c a4 c4 75 bc c1 77 82 bd
       0.061290268 0.023837483 -0.015000496 -0.063704975
0001a0 31 b4 b4 3d 46 02 c9 bc 57 68 7f 3d 69 26 b6 bd
       0.08823431 -0.024537217 0.062355366 -0.08894045
0001b0 34 b6 8f bd a8 d7 10 bd 2d 41 56 bd 88 e0 bd bd
       -0.07017174 -0.035361916 -0.05230825 -0.092713416
0001c0 2b 0d c0 3d b4 24 34 bd c8 62 4d 3e 8f 9d 3a 3c
       0.093775116 -0.043980315 0.20057213 0.011390104
0001d0 20 81 af bb 7c dd 63 bc 01 59 04 3e b5 e9 c9 3d
       -0.005355969 -0.013907786 0.12924577 0.09859029
0001e0 9d 43 f1 3b 1d 9f fa b9 a9 71 12 3c 60 8a 0d bd
       0.0073627965 -0.00047802264 0.0089382315 -0.034555793
0001f0 bf 92 1d be bc 13 80 bc cf 69 f5 3c 5f 2f 96 3d
       -0.1538801 -0.01563441 0.02995768 0.07333254
000200 89 d0 bc bb 31 cc f7 3d 8e ee 59 bb 54 af aa bd
       -0.005762164 0.12099493 -0.0033253762 -0.083342224
000210 f5 90 14 3e 08 95 3c 3d 81 70 66 3d 54 95 a9 bc
       0.14508422 0.046040565 0.056259636 -0.020701088
000220 61 68 b9 bd ee 91 ba bd f2 0f be 3c e0 aa cb 3d
       -0.09053112 -0.09109865 0.023200963 0.09944701
000230 0f ce 94 3d 6a 95 74 3d 8a 35 97 bd 6b 39 34 bc
       0.07265865 0.059712805 -0.07383259 -0.011000018
000240 20 6a 43 bc 0a 04 17 bd 17 a5 07 3d 64 d2 16 3d
       -0.011927158 -0.036869086 0.033116426 0.036821738
000250 e6 c9 89 bd 06 44 b3 3c 36 8c ab 3d 13 54 f2 3c
       -0.06727962 0.021883022 0.083763525 0.029581105
000260 cb f2 89 3c 0c 86 3c bc fa 24 7a bd bf 00 fa bd
       0.016839406 -0.011506569 -0.06107042 -0.122071736
000270 48 22 c2 bd c2 83 65 3d 03 eb 33 3d 60 0c fa bc
       -0.09479195 0.056033857 0.043925297 -0.030523479
000280 f6 f8 1f 3d 50 3a d5 bc 90 d9 cd bd e4 dc 07 bc
       0.039055787 -0.026028782 -0.100512624 -0.0082924105
000290 3f c1 a4 3c 65 10 00 3d 41 af 9c bd 8f ef ca 3c
       0.020111678 0.031265635 -0.076506145 0.024772434
0002a0 3f 11 c3 bd 05 2b ee 3c ce f9 cf 3d 23 bd 5f bd
       -0.09524774 0.029073248 0.10155068 -0.054623734
0002b0 56 44 60 bc 42 42 bd 3d 85 b7 87 3c d1 da b9 3c
       -0.013688168 0.09241153 0.016567001 0.022687348
0002c0 f0 08 f6 3c de 37 ca 3c 4c 05 36 3d 93 7c 47 bd
       0.030033559 0.024684843 0.044438645 -0.048702788
0002d0 f2 48 ad 3c 68 d0 1a bb 01 f8 b5 3d 19 0a 56 bd
       0.021152947 -0.0023622755 0.088851936 -0.052255724
0002e0 29 da 85 3d 8b 02 cd 39 e7 93 66 3d ff 0a ef bc
       0.065357514 0.00039102542 0.056293394 -0.029180048
0002f0 f0 d2 d8 bb df d4 24 bd 45 7d a3 3c f9 4f 13 3d
       -0.0066169426 -0.040242072 0.019957194 0.03596494
000300 ca 88 87 bd 20 73 80 bd f1 33 2f be 83 05 7f 3d
       -0.06617887 -0.06271958 -0.17109658 0.062261116
000310 f7 f0 75 bc 04 8a fb 3c 9f 0b 92 38 d6 e3 0f 3d
       -0.015011064 0.03070546 6.963987e-05 0.03512939
000320 b4 ef 92 bd 66 96 9b bc 9f ed 43 bd 95 61 c2 3d
       -0.07174626 -0.018992614 -0.047834035 0.094912685
000330 8c 47 ad bd a5 ad 01 be 60 07 bc 3d c5 ec 03 3d
       -0.08460912 -0.12663896 0.09181094 0.032208223
000340 e1 f5 62 3d 80 94 a7 bd 4a bc b3 bd 34 aa 1f bd
       0.05541027 -0.08182621 -0.08776148 -0.038980678
000350 ad 98 ce 3d ac 3a 32 3d 11 bc d7 3c 88 d7 2f bc
       0.10087714 0.043512985 0.026334794 -0.010732539
000360 33 13 ed 3c 1e 4e ad 3c 7e 54 e8 bc f1 b5 db bd
       0.028939819 0.021155413 -0.028360602 -0.10728062
000370 d3 4a c7 bd 7f bc a2 3b ad 28 b2 3c 94 cb 19 bd
       -0.097310685 0.004966318 0.021747911 -0.037547663
000380 49 37 a2 ba bf f9 09 3d 3a e9 4b bd 6b 1d c4 3d
       -0.0012376095 0.033685442 -0.04978297 0.095759235
000390 02 dd c0 3c 15 8c f0 bc bd 4b ff 3d f0 6d c7 3c
       0.023542885 -0.029363671 0.12465618 0.024344414
0003a0 10 87 9c 3d e2 f2 a0 bd cf b0 19 3d 7f 04 df ba
       0.07642949 -0.07858826 0.037522133 -0.001701489
0003b0 a8 57 ca 3d b8 d5 e5 bc 7b 0d 64 3c be 09 fa bc
       0.0988 -0.02805601 0.01391923 -0.030522224
0003c0 0d 82 a5 3d 18 7c 7f 3c 19 27 4e 3d 86 05 a2 3c
       0.08081446 0.015593551 0.050330255 0.019778024
0003d0 ac e5 3c 3d f6 37 88 bc 4e e2 d5 3c 55 18 32 bd
       0.04611747 -0.016628247 0.026108887 -0.043480236
0003e0 cc 74 8f 3d 32 91 6a bd 82 86 2e bd 29 59 1a 3e
       0.07004699 -0.057267375 -0.042608745 0.15073074
0003f0 cf dc 5a 3c 6a 8b 2e 3d 64 36 a1 3c 7a ee ae 3d
       0.013358309 0.042613424 0.019679256 0.085415795

layer2.bias f4 [150]
000000 88 44 a4 3c e9 24 c6 bc 6c dd 83 3c a2 48 89 3d
       0.02005221 -0.024187522 0.016096793 0.06703307
000010 f2 64 b5 bb cc f9 23 3c 4c 9f 6a bd 68 ae 10 bc
       -0.0055357153 0.010008287 -0.057280824 -0.008830644
000020 44 e3 4a bc aa d2 25 3d 32 ed 08 3d 19 fa c9 bc
       -0.012383286 0.040484108 0.033429332 -0.024655389
000030 50 01 50 3d 83 6e 98 3d 72 01 05 3d d2 83 15 bc
       0.0507825 0.074429534 0.03247208 -0.009125667
000040 98 62 88 3c 47 e3 2e 3d dc 0d 51 bc f5 64 21 3c
       0.016648576 0.042697217 -0.012759652 0.00985073
000050 e0 72 03 bd a3 9a a5 3d 3a 96 59 bd 0b 42 93 3d
       -0.032091975 0.08086135 -0.053121783 0.07190331
000060 13 57 29 bd 32 73 09 bd b4 f0 5c bd c6 c6 1f bd
       -0.041342806 -0.033557124 -0.05394049 -0.039007924
000070 bf 1e 2c 3d ec c3 c1 bc bd 35 d4 bc cb ea 3c 3d
       0.04202151 -0.023652993 -0.02590453 0.046122354
000080 ff 82 9f 3d 57 a3 23 bd e0 74 ed bc e5 65 9d 3d
       0.077886574 -0.039950695 -0.028986394 0.076854505
000090 7c 57 f2 bc f5 75 ba bb d8 92 6b 3c 68 28 af bc
       -0.029582731 -0.005690331 0.014378272 -0.021381572
0000a0 27 9e 83 bd f6 1e 04 bd e9 67 52 bd a3 17 58 bd
       -0.064266495 -0.03225609 -0.051368628 -0.052756917
0000b0 1f 30 56 3c 5e 27 e8 bc d5 f9 7f 3d e1 9c 2c bd
       0.013072996 -0.028339084 0.062494118 -0.0421418
0000c0 b2 0c 56 3d 21 05 99 ba d1 97 8e 3d 1a 7c 00 3d
       0.0522582 -0.0011674502 0.069625504 0.031368352
0000d0 d0 90 a0 3d 29 2b 58 bd 33 46 e0 3d 24 80 9e bc
       0.07840121 -0.052775536 0.109508894 -0.019348212
0000e0 83 fe 2a bb b5 da 72 3d bd 77 40 bd 2d c2 a9 bc
       -0.0026091642 0.059290607 -0.04698919 -0.020722473
0000f0 1c 79 71 3c b4 25 f9 3b 82 01 f6 3d 26 39 34 3b
       0.014738347 0.0076033715 0.12012006 0.0027499883
000100 c7 9e 8c 3d 55 be dc 3c aa fd 86 3d 2a 7d fa bc
       0.06866222 0.026946226 0.06591351 -0.030577261
000110 7b f5 38 bd 0c a7 9d 3c 49 3a 3b bd 8b 67 a2 3d
       -0.045155983 0.019244693 -0.045709882 0.079299055
000120 70 ae ac 3d bb 58 54 3b 60 7f 45 bd ea 29 ae bc
       0.08431709 0.003240152 -0.048217177 -0.02126022
000130 d8 da 3b 3c 0a 5c b5 3d 90 19 09 3d 21 ce 89 bd
       0.011465751 0.08855446 0.033471644 -0.06728769
000140 fc 62 7e bb 23 29 77 3d 6a 5c 9b 3d 53 54 27 bc
       -0.0038816324 0.060341965 0.07585986 -0.010212976
000150 ca ad 94 3c 04 55 a9 3d e5 93 32 bd d6 20 db 3b
       0.018149275 0.082681686 -0.043598074 0.006687264
000160 95 24 bc 3b 87 44 da bc 55 94 86 3b f7 97 b0 bc
       0.0057416656 -0.026644005 0.004107038 -0.021556837
000170 cc 9b 66 3d f1 c9 04 bb 84 1a 1a bd e7 4d 12 3b
       0.056300923 -0.0020261968 -0.037622944 0.0022324265
000180 36 24 01 3d 1b 6b 28 bc 31 7e 44 3d 55 97 06 bd
       0.031528674 -0.010279442 0.047971908 -0.032859165
000190 0f 93 c9 3c dc de 3b 3d 31 36 d7 3b 5b ae 35 bd
       0.024606256 0.045866832 0.0065677394 -0.04435573
0001a0 f5 08 98 bd a6 bb 8f bc 08 ae 0d bd 46 21 ab 3d
       -0.074235834 -0.017545532 -0.034589797 0.08355956
0001b0 b1 f4 f1 3c 01 94 e6 39 8e 3d f5 bc f8 90 97 3d
       0.029535623 0.0004397929 -0.029936578 0.074006975
0001c0 24 30 32 3c 09 f0 28 bd d4 f5 2f 3b 0c ed 03 bd
       0.010875735 -0.04124454 0.0026849406 -0.032208487
0001d0 06 99 9a bb ff 1f 37 3d d4 60 33 3d 1c 57 39 3d
       -0.004717949 0.04470825 0.043793514 0.04524909
0001e0 06 91 20 b9 98 79 f5 bc 7c 6d 0b bd e9 f4 1a bd
       -0.00015312815 -0.029965207 -0.03403996 -0.03783122
0001f0 c9 57 33 bd 5e a6 2a 3d e1 96 2a 3b da 5a 8e bd
       -0.04378489 0.041662566 0.0026029872 -0.06950922
000200 a1 94 9e bd 35 a9 ab 3d b6 c1 5e bd 5b d8 ae bb
       -0.077431925 0.08381883 -0.054383956 -0.00533585
000210 84 4c d7 3c c3 61 51 bd 97 c6 40 3d d5 3e 27 3d
       0.026281603 -0.051118623 0.04706439 0.040831406
000220 9a 28 1a 3d c3 08 3b bc 2b ae 68 3c 9f 40 49 3d
       0.037636377 -0.011415663 0.014201681 0.049133893
000230 f2 85 1e 3d 19 85 2f 3d f9 06 b0 bc 45 7e 10 3d
       0.03870196 0.04285154 -0.0214877 0.03527667
000240 1c 46 57 3c 4b 5f 82 3d 54 a9 88 3c fb af 22 bd
       0.013139274 0.06365832 0.016682304 -0.03971861
000250 c7 46 50 bd 3c 67 96 bb
       -0.05084875 -0.004589943

layer3.weight f4 [100, 150]
000000 b0 e8 45 bd dd 2d 04 3d 55 ff fe 3c ef 9c df 3c
       -0.04831761 0.0322703 0.031127611 0.027296511
000010 a7 34 1c 3e f5 6e 13 3d 61 e7 5a bb c4 d1 d6 3d
       0.1525446 0.03599449 -0.0033402073 0.10489228
000020 28 ce 26 3d 6a e7 a1 3e 37 d9 5c bd c4 7c c7 bd
       0.04072395 0.31621867 -0.05391809 -0.09740594
000030 c0 40 cc bc 12 db 51 bd da 1a 24 bd 3f d0 4f bd
       -0.024933219 -0.051234312 -0.04006467 -0.05073571
000040 59 27 a8 3c 1e cf 0f be bc 5c c9 bc 90 08 01 3e
       0.020526575 -0.14043853 -0.024580352 0.12600923
000050 d1 77 f4 bd d6 4b f8 3d af dd ce bd 90 f9 b9 3d
       -0.11936916 0.121238396 -0.101008765 0.090808034
000060 f8 d4 03 bc c2 87 c2 3c 37 ee ba bd 00 b6 24 3e
       -0.008046381 0.023746375 -0.09127467 0.16085052
000070 01 de 84 3d e0 53 42 3d 92 79 02 be 08 7b 8b bc
       0.064876564 0.04744327 -0.12741688 -0.01702644
000080 bd 2d ae 3d 3f cf 26 3d 7c 5e 7b bd 74 d3 0d 3b
       0.08504818 0.04072499 -0.061369404 0.0021640928
000090 77 bf 72 bd 47 de 9c 39 9e 32 91 3d 52 4c 1d 3e
       -0.059264626 0.00029920248 0.070897326 0.15361145
0000a0 84 26 3b 3d f3 d9 fb 3c a9 0b f1 3c 18 cc 93 bd
       0.04569103 0.030743575 0.029424505 -0.07216662
0000b0 25 dc 5e bd b4 83 31 3e af b2 36 bc 74 5b ba 3d
       -0.054409165 0.17335397 -0.011151 0.090994745
0000c0 e5 81 97 3d 89 d0 b6 bd d0 8c f2 bc 45 7f 3c 3d
       0.07397822 -0.08926494 -0.02960816 0.04601981
0000d0 64 77 b2 3b c6 65 97 3d 34 22 1a bd d8 80 b6 3d
       0.0054463614 0.073924586 -0.037630275 0.08911294
0000e0 1d fb af 3a f0 7c 28 be 02 47 a9 bc d4 db ea 3d
       0.0013426278 -0.1645391 -0.020663742 0.1146771
0000f0 8e 69 00 3d 41 d8 99 bb a9 79 07 3e 01 e2 54 be
       0.031350665 -0.004694969 0.13230003 -0.20789339
000100 c6 ce ad 3c 5f dd 63 bd 89 f4 14 3e c8 98 02 bc
       0.021216761 -0.055631038 0.14546408 -0.007970996
000110 1a ff 26 be de cc 34 3c 4b 6e 58 3d ba 2d 89 3d
       -0.16308251 0.011035172 0.05283956 0.06698175
000120 b6 b8 08 3e 73 e2 ab bd 82 d3 8d 3c aa ea c0 3d
       0.13351712 -0.08392801 0.017312769 0.094197586
000130 b6 1a c6 bd d0 4b 3b 3d 92 01 4e 3d 9f 7e 8f bd
       -0.096730635 0.045726597 0.050294466 -0.07006573
000140 c4 24 d3 3d 05 80 2d 3d a4 0e 72 3b 51 b6 67 3c
       0.10309747 0.042358417 0.0036934996 0.014142589
000150 0a f2 10 3e bd 8c 8c 3d 4c 55 b3 3d b7 b7 50 3c
       0.1415483 0.06862781 0.087565035 0.0127391135
000160 2e db 14 bd 7e 8b 54 bd 6a 22 78 3c bf 6f ca 3b
       -0.03634184 -0.051890843 0.015144924 0.006177872
000170 17 ab 09 3d a4 e9 e4 3d f0 15 2b 3c 1f 1b 2e bd
       0.03361043 0.11177376 0.010442242 -0.042506333
000180 33 6f 9e bd 04 22 29 be 35 dc 50 bd 1f 64 50 bd
       -0.07736053 -0.16516882 -0.050991256 -0.050876733
000190 7c e1 a4 bc 8f 85 9f 3d 91 7e fb bc 55 c9 71 bb
       -0.02012705 0.07789146 -0.0307 -0.0036893685
0001a0 3e 33 0e 3c 44 bc fe bc 14 18 cd bd 5d 1d 23 3d
       0.008679209 -0.031095631 -0.10014358 0.039822925
0001b0 9c cd d3 3b 3e b1 fd 3d 17 5b e4 3d 5e 8e a6 bd
       0.0064637195 0.12387322 0.111501865 -0.08132623
0001c0 4a 17 4f 3d a7 87 0d bd 75 53 74 3d eb 0e f3 bd
       0.05055932 -0.034553196 0.059649903 -0.1186808
0001d0 77 48 49 bc 11 2e 1c 3e 3f 92 ae 3c e1 62 14 3d
       -0.012285343 0.15251948 0.02130997 0.03622711
0001e0 de bd 08 3d 80 9d 31 bd 3e 51 25 bc d3 ca 60 3d
       0.033384196 -0.043363094 -0.01009017 0.05488093
0001f0 88 1b b7 3d ac b0 27 3d 27 f0 0d 3d 50 34 3f bb
       0.08940798 0.04093997 0.034652855 -0.0029175468
000200 ae 96 92 3d 0b 64 4e bd ef 19 c7 bd 90 7d f5 bd
       0.07157646 -0.050388377 -0.09721743 -0.1198684
000210 c2 ad 89 3d cb d3 66 bd 20 38 d6 bc 94 69 c6 3d
       0.06722595 -0.056354325 -0.02614981 0.09688106
000220 c0 e8 11 3e df c4 ad 3c 19 1a ab bc 8f bc 55 3d
       0.14248943 0.02121204 -0.020886468 0.052181777
000230 68 55 f4 3d 33 84 5c bd bc 01 3c bd dc 2f 6b 3d
       0.119303524 -0.053837012 -0.04590009 0.05741869
000240 e7 20 ae 3d d9 47 11 bd 7f 37 1b 3b d8 0a ab bd
       0.085023694 -0.03546891 0.0023684201 -0.08351678
000250 f4 72 de 3d e7 2c 99 bd 74 bd 9f 3d bb b9 23 38
       0.10861769 -0.074792676 0.07799807 3.9035203e-05
000260 c6 d6 85 bc ae 8c 74 3d b7 54 80 3d 0b 4a 98 bd
       -0.016337764 0.059704475 0.06266158 -0.074359976
000270 c7 6e cb bc f4 1e 47 bd d0 92 d3 3d 83 42 97 3e
       -0.024833096 -0.048613504 0.10330737 0.29542932
000280 5c 1a 61 3c 62 d7 87 bc 5f 0c 24 bc 17 6b 28 3d
       0.013739195 -0.016582195 -0.010012715 0.041117754
000290 81 a1 9d 3d 20 fa 08 3c 88 ee 83 3d b2 69 95 3c
       0.0769682 0.008360416 0.064419806 0.018238876
0002a0 0c 68 93 bd 47 58 c0 bc 6f 73 82 3b e0 70 fc bc
       -0.0719758 -0.023479594 0.003981046 -0.030815542
0002b0 0d 16 60 bc c1 39 39 3d ef ca 83 bd a4 af f5 bd
       -0.013677132 0.045221094 -0.06435191 -0.119963914
0002c0 ef 2c 47 bc b0 d8 27 bd 3e 64 ca 3c de 6a f1 3d
       -0.012156709 -0.040978134 0.024706002 0.117879614
0002d0 51 51 07 3d 35 52 0b 3e 36 ae 97 bc 42 a1 04 3e
       0.033036534 0.13605578 -0.018515687 0.1295214
0002e0 a5 a4 23 bd 1d f2 48 bd ea c2 80 bd be 20 a1 bd
       -0.03995194 -0.049059022 -0.06287177 -0.07867573
0002f0 e1 52 1e 3d 32 fa ca 3d 79 21 bc 3c 2e 6f 71 3d
       0.03865326 0.09911002 0.02296518 0.05894392
000300 78 20 a2 bc 7d ac f4 bc 64 74 cf bc 57 95 f1 bc
       -0.019790873 -0.029867405 -0.025324054 -0.029490156
000310 91 d5 00 bd d3 fe 98 3d 3e da dd ba 1d 69 f6 bc
       -0.031453673 0.07470479 -0.0016926003 -0.030079419
000320 ac 67 9d bd d0 cb f7 bd 78 e7 d3 3d 38 83 f5 3d
       -0.076857895 -0.12099421 0.103468835 0.119879186
000330 39 53 01 3d c7 d5 d6 bc 1b 4d 44 bd 85 f2 00 bc
       0.031573508 -0.026224984 -0.047925096 -0.007870321
000340 b5 45 d3 bd 0a a4 52 bc 8b d3 db 3d 0a 04 b8 3c
       -0.1031603 -0.012856493 0.10733708 0.022462863
000350 e6 c4 cd 3d fd 27 2d be 91 d9 f3 bc ee 94 9c bd
       0.10047321 -0.16909786 -0.02976683 -0.076455936
000360 9d 75 3c 3d 9e 02 7f 3d f8 45 a2 bd c4 c5 9f 3d
       0.046010602 0.062258355 -0.07923502 0.07801393
000370 cf ca 3a 3d d0 e8 d4 3d ea 00 df 3b db bd ff 3d
       0.04560357 0.10395968 0.006805529 0.12487384
000380 b2 99 20 3d c9 25 c9 3d 53 2b ae bd f9 b8 24 3d
       0.039209075 0.0982166 -0.08504357 0.040215466
000390 0c 56 88 bd 7c 7e 0d 3e 1c be 9d 3d f0 04 82 3d
       -0.06657037 0.13817781 0.07702276 0.06348598
0003a0 bc 6e a9 bd 15 ae 03 bd 37 cf 86 3d 95 c7 91 bd
       -0.08273074 -0.03214844 0.06582492 -0.071181454
0003b0 29 6d 43 bb 91 15 07 be 32 b9 cd bd ed b0 16 3c
       -0.0029819703 -0.1319182 -0.10045089 0.009197456
0003c0 75 67 86 bb a9 e9 41 3d 2b ef e7 3c 9d fc 61 3b
       -0.0041016885 0.047341976 0.028312286 0.0034482845
0003d0 fa a0 9f 3d 4b b5 1b 3d 3f 12 25 be 98 16 e9 bc
       0.07794376 0.03801469 -0.16120242 -0.028453156
0003e0 e7 01 ad bd a5 16 1d bc fc b6 63 bd 7c 68 72 3b
       -0.084476285 -0.009587918 -0.05559443 0.0036988547
0003f0 53 70 a1 bd 26 8c 8a 3d 6d 77 0e 3d 82 f0 d3 3d
       -0.07882752 0.067650124 0.034781862 0.103486076

layer3.bias f4 [100]
000000 a9 7e 9b 3d e9 03 62 bd 52 66 7c 3d 5f c1 88 3d
       0.07592518 -0.05517951 0.061621018 0.066775076
000010 c9 8f b6 3d 9a 24 dc 3d 5c 99 df 3c ab c2 9f 3d
       0.089141436 0.10749169 0.027294807 0.07800802
000020 81 df 9b bd 73 fd b6 3d 54 7f 5c bd d2 c6 93 3d
       -0.07610989 0.0893506 -0.053832367 0.07215656
000030 ee 1e 40 ba 6f 35 07 bd b5 e5 96 3d 52 91 b6 bd
       -0.00073288276 -0.033009943 0.07368032 -0.089144364
000040 48 01 2f bd d5 35 e4 3d 8a 63 c5 3d 0c 9b 11 3c
       -0.04272583 0.1114308 0.09638126 0.008887064
000050 45 4b cb 3d 1c d3 a5 bb b9 16 de 3d 85 94 a0 3d
       0.09926466 -0.0050605666 0.10844178 0.07840828
000060 dd 0c c6 3d f7 d9 9d bd 59 27 a4 3c 3d e8 32 bd
       0.09670422 -0.07707589 0.020038294 -0.04367851
000070 ae 6f a4 bc 43 5f 3b 3b fa 4d 95 3d 75 12 98 3d
       -0.020072784 0.0028590716 0.072902635 0.074253954
000080 25 82 e4 bc e4 f4 a8 3d dc c2 67 bd 5d 32 60 3c
       -0.027894089 0.08249834 -0.056582317 0.013683883
000090 76 de 90 3d e0 b4 8a bd ac 52 e5 3a 4d f1 a0 bc
       0.07073681 -0.067727804 0.0017495952 -0.019646311
0000a0 41 de 89 3b b9 44 ce bc a4 1a cf 3c 84 eb 50 3b
       0.004207403 -0.025179254 0.025281258 0.003187866
0000b0 fa 8e 41 bd e3 f2 19 3d bf 5b e0 3c 61 0b 75 3d
       -0.047255494 0.03758515 0.027387498 0.059825305
0000c0 1d 06 04 bc b0 d2 2c 3b 8f 71 a5 3b a1 77 cb bb
       -0.008058098 0.0026370697 0.0050489376 -0.0062093292
0000d0 6e 9f 4e 3d 03 f0 55 bd 7e 22 71 3d 6e 5f 06 3d
       0.050445013 -0.052230846 0.058870785 0.032805853
0000e0 c9 de 93 3d c7 7e e0 3d 4b 5a d6 3d 7c 65 c6 3d
       0.07220227 0.10961681 0.10466441 0.09687325
0000f0 3a d2 16 bd 21 bb 36 3d 78 e9 5c bc 19 4e 9b 3d
       -0.03682158 0.044612054 -0.013483398 0.07583255
000100 0a f3 a8 3d 1d 15 84 3d 2c cf 53 3d 96 88 90 3d
       0.08249481 0.064493395 0.051711246 0.07057302
000110 0c d5 78 bd 4c 0f 24 3d 36 90 18 3c 64 df 16 bd
       -0.060750052 0.04005365 0.009311726 -0.036834136
000120 55 cd 31 bc f1 21 3b bd d6 52 23 bd 56 f8 fc 3d
       -0.010852178 -0.045686666 -0.03987392 0.12352054
000130 36 cd 14 bd 5a 66 0a 3d b1 6b d2 3d 62 c8 e2 3d
       -0.036328517 0.033789016 0.10274447 0.11073376
000140 63 8b 9c bd 45 a0 bf bd 84 41 57 bd 10 3e cf 3b
       -0.076437734 -0.09356741 -0.052552715 0.006324537
000150 38 de 54 bd af 4c d7 3b 22 e4 8b bb ae 0a d4 3d
       -0.051969737 0.0065704207 -0.004269139 0.103535995
000160 0c ec 7d 3d cf 7e d1 3c 6b a1 90 3d 85 80 07 3d
       0.06199269 0.025573162 0.07062038 0.03308155
000170 b3 6f ad 3a 4b de 0a bd f7 e0 b3 bc ca 11 99 3d
       0.0013232142 -0.0339034 -0.021957858 0.07474096
000180 43 32 93 bd 4f 7c 1b 3d 35 0b a9 bb 8c e2 0a 3e
       -0.07187321 0.037960347 -0.0051588067 0.13562983

layer4.weight f4 [150, 100]
000000 6b 62 24 3c 45 5d 9c 3b 75 2a fb bd 7b 96 dd bd
       0.01003323 0.004771861 -0.122639574 -0.108197175
000010 0f f2 68 3d 84 40 79 3d f5 f5 ea 3c 88 22 9f 3d
       0.05687147 0.060852543 0.028681735 0.07770258
000020 73 13 02 bd c6 37 da bd 84 c4 e0 bd 8f 9d 28 bc
       -0.03175683 -0.10655169 -0.109749824 -0.010291471
000030 61 b0 64 3d 88 a8 ab bd 63 6d 58 3c ed 90 f9 3c
       0.05583227 -0.08381754 0.013209674 0.030464614
000040 1f 73 e9 bc fa 21 d8 3d 2c 30 3e 3b e9 aa 9b bd
       -0.028497277 0.105533555 0.0029020412 -0.07600958
000050 28 d3 a8 3c 5b 64 42 bd be b2 a9 bd a9 9c 7e 3d
       0.0206085 -0.047458988 -0.082860455 0.06216112
000060 c0 f1 a9 3d 26 fd 85 3d 2e 5a 95 bb 3a fa 0f be
       0.08298063 0.06542425 -0.0045578694 -0.14060298
000070 21 55 51 bd 75 9d ee 3c 25 4f 33 3d 82 70 2d 3c
       -0.051106576 0.029127816 0.04377665 0.010585906
000080 12 99 50 bd c5 04 07 bd ac 51 cd bd ff 3c ec bd
       -0.05092723 -0.032963533 -0.10025343 -0.115350716
000090 60 43 08 be 12 cb 93 bd 8c 87 ca 3d af d6 cb 3d
       -0.13306952 -0.07216467 0.09889135 0.09953057
0000a0 6d 52 fc bd 10 77 65 bb 7e d2 b7 3d af 59 5d 3d
       -0.12320409 -0.0035013594 0.08975695 0.054040607
0000b0 9c 40 78 bd 6c 06 de 3c e9 72 46 3d f4 8b 20 3d
       -0.06060849 0.027102672 0.04844943 0.03919597
0000c0 a8 5e fd bc e6 95 75 bd 1f 50 b7 3d d6 de cf 3c
       -0.030928925 -0.059957407 0.08950829 0.025374811
0000d0 66 c1 3e bd 7f 14 19 bd 57 90 35 3c f2 ba 86 3d
       -0.046571158 -0.037373062 0.011081777 0.06578626
0000e0 5a 0a 95 bd 0b fc 68 3d 4e 53 b0 bd ee d0 00 3d
       -0.07277365 0.056880992 -0.08609639 0.03144925
0000f0 98 bb 1a 3d 39 73 43 3d b2 6a d2 3d cf 4d ae bc
       0.03777656 0.047717307 0.10274257 -0.021277336
000100 0f 5c ce bc 60 61 76 bc 60 7b 5d be bf 70 08 3d
       -0.025190381 -0.015037864 -0.21629095 0.033310648
000110 03 39 b3 bd ad 5b 88 3c 6e 4b 99 bd f1 43 dc 3b
       -0.087511085 0.016645277 -0.0748509 0.0067219664
000120 92 9b bc bd f0 98 81 bd 43 72 54 bb 8a 89 25 bd
       -0.0920936 -0.06327999 -0.0032416738 -0.04041437
000130 f7 f1 92 bd 7e 8f dc 3d 98 cd a2 3d 6b 03 af 3d
       -0.071750574 0.107695565 0.0794937 0.08545574
000140 38 b3 a5 bd 9a fc 01 3d 1d e2 a0 bd a6 7b 77 3b
       -0.08090824 0.03173504 -0.07855628 0.003776291
000150 a9 01 67 ba e8 d1 a0 39 20 04 da 3c f6 2e 22 bd
       -0.0008812198 0.0003067397 0.026613295 -0.039595567
000160 a8 21 83 3d ed 83 62 3c 50 48 d7 bd 27 63 8c 3d
       0.06402904 0.013825399 -0.105118394 0.06854849
000170 55 c4 ad 3d 40 64 82 bd e5 37 dd 3d e4 42 16 3e
       0.08484713 -0.063667774 0.10801677 0.14673954
000180 28 29 5a 3d 7f 30 b1 3d 99 8f 20 bc bc 4d a5 3d
       0.053261906 0.08651828 -0.009799861 0.08071467
000190 00 7e 40 3d 7d 96 6f 3d a2 8f 8a bc c9 d8 a4 3c
       0.046995163 0.058493126 -0.016914193 0.020122902
0001a0 c5 f1 9d bc 79 c8 8f 3d 92 bd a1 3d 88 77 84 bd
       -0.019280324 0.07020659 0.07897486 -0.06468111
0001b0 12 09 17 3d ee fe ce bd 20 dd 61 3c 6d c0 c3 3d
       0.036873884 -0.10107218 0.01378563 0.09558187
0001c0 e4 b2 64 bc a7 91 c7 bd 99 72 c9 bd 80 1d c4 bc
       -0.0139586665 -0.09744578 -0.09836311 -0.023939848
0001d0 44 2f 3c bd f3 01 cf bd 20 57 a0 bd 37 34 bd 3d
       -0.045943514 -0.10107794 -0.07829118 0.09238475
0001e0 b6 42 18 bd 78 af 0d bd f5 44 53 3d b0 3b ba 3d
       -0.037172996 -0.03459117 0.051579434 0.09093416
0001f0 e7 3f 9b 3d ca 72 29 3b 76 52 c1 3d ec db c0 bd
       0.07580548 0.0025855773 0.09439556 -0.09416947
000200 44 a6 9a bc 7e f2 a2 bd a9 60 8e bd 35 d7 75 3d
       -0.01887811 -0.07956408 -0.0695203 0.06001969
000210 a3 8f c2 bd 31 ea e0 bb 8b 16 94 3d d2 5e 81 bd
       -0.09500053 -0.0068638553 0.07230862 -0.06316914
000220 34 fa 3d bc 66 4b 21 bc eb cd 97 bd 53 ba b1 3d
       -0.011595298 -0.009844637 -0.074123226 0.08678117
000230 d0 1a c3 3c f1 40 8b bc d2 dd 81 3c 88 0a da 3b
       0.023816496 -0.01699874 0.015852842 0.0066540875
000240 e0 f4 02 3d 4b 6c 28 bd 0d 73 15 bd 2b 2b ad 3d
       0.031971812 -0.0411189 -0.036486674 0.08455499
000250 54 73 ca 3c dc ce 4b 3d 8a b1 4f 3d c2 10 9c bc
       0.024713196 0.049757823 0.050706424 -0.01905096
000260 95 21 61 bd 1a e9 51 3d 31 29 79 3b 07 24 7e 3d
       -0.054963667 0.051247694 0.0038018937 0.062046077
000270 fd 0e c3 bd 46 41 5c 3d 5d f1 93 bd f9 7d fa 3c
       -0.09524343 0.053773187 -0.07223771 0.030577647
000280 fc 5f 98 3d a1 ae 8f bd 35 3c b7 bd 51 f9 4c 3d
       0.074401826 -0.0701573 -0.089470305 0.050042454
000290 67 a6 5b bd 59 07 c8 bd 0f 38 94 3d 0f 38 55 bc
       -0.05362549 -0.097670265 0.07237255 -0.013013854
0002a0 82 ac 97 3a 26 a0 f8 3b 8e 52 7d bd b0 ae a9 bd
       0.0011571797 0.0075874506 -0.06184631 -0.08285272
0002b0 05 32 c5 bd 75 ed d9 3c 2c cd 2d bc 8c 80 cc bd
       -0.09628681 0.026602486 -0.010607999 -0.09985456
0002c0 ab 1f ad bc 64 90 ac bd d3 5b 51 bd 51 e1 8d bd
       -0.021133265 -0.08425978 -0.05111296 -0.06927741
0002d0 0c 42 e3 bc f8 1b c5 bd 42 c1 07 3d d9 88 83 3b
       -0.027741455 -0.09624475 0.03314329 0.0040141162
0002e0 ee af 89 bd 55 1a e3 3c dc c2 3f 3d ee a1 a5 bd
       -0.06723009 0.027722517 0.04681669 -0.08087526
0002f0 19 a6 b3 bc 5d a7 c9 bd 7a 50 5d 3d 0c ef 5e bd
       -0.021929787 -0.09846375 0.054031827 -0.05442719
000300 f1 f8 de bc 66 d8 a3 bd bc df 2c bc d7 c7 27 bd
       -0.027218314 -0.08000259 -0.010551389 -0.040962067
000310 af a9 98 3d 5b 22 5e bd 6c 9a 48 3c 48 a6 c6 bc
       0.074542396 -0.054231983 0.012243848 -0.024249211
000320 60 48 a9 3d b5 88 44 3d de 8b 0d be fe 5a 10 bd
       0.082657576 0.047981936 -0.13822886 -0.035243027
000330 68 e5 79 bd d6 48 52 bc f7 d6 0f be d4 ce b6 3c
       -0.061009794 -0.012834748 -0.14046846 0.02231542
000340 2d 9c 44 be f1 7f 36 bb 5d b8 2d bd b9 94 35 3c
       -0.19200201 -0.0027847255 -0.04241215 0.0110828215
000350 40 9c 23 be bd 1c 74 3d 02 49 aa bd 4f b7 a7 3d
       -0.15977573 0.05959772 -0.083147064 0.0818926
000360 ff b0 ed bc d1 b8 aa 3d f2 ba b1 3d 39 9c a4 3d
       -0.029015062 0.08336032 0.08678235 0.080376096
000370 99 8a a7 bd 9c f2 c4 3d 84 16 51 3b e9 e4 6a 3d
       -0.08180732 0.096165866 0.003190429 0.057347212
000380 5d cd a2 bd 8f 55 24 3e b7 03 30 3c 7a 8c 62 bd
       -0.07949326 0.16048263 0.010743073 -0.05530975
000390 4e 64 cb 3b 3e 82 e4 3d bc ce 03 3c f1 9b b5 3d
       0.0062070256 0.11157654 0.008044895 0.08867634
0003a0 48 31 87 bd 59 5f db 3c 94 55 2a 3d 7f bf c6 3b
       -0.066011965 0.026778864 0.04158552 0.0060653086
0003b0 64 77 d6 3d 00 09 df 3d 60 3b d8 bc 3f 30 0b 3d
       0.10471991 0.108903885 -0.0263955 0.033981558
0003c0 62 7b ef bd eb e7 d9 3d ee dc a8 3d 93 9e 3e bd
       -0.11693455 0.10639938 0.08245264 -0.046537947
0003d0 2e 28 bd 3c 35 f1 02 3e 29 36 e4 3d 0c be 31 bd
       0.023090448 0.12787326 0.11143143 -0.043394133
0003e0 90 41 15 bd ff d9 ef bd ed b2 9c 3d c4 1b a8 3d
       -0.03643948 -0.11711501 0.07651315 0.08208421
0003f0 af 9a c3 3d 5d 75 c3 bd 44 e0 06 3d 65 54 ce bd
       0.09550988 -0.0954387 0.03292872 -0.10074691
