GP_MVC_hw_3view/results/checkpoints/experiment_name/11_net_AE.pth (torch_old, 935829 bytes, 17 tensors)

layer1_1.weight f4 [200, 216]
00000000: d32a e33b ee8d 49bd ce0c 3dbd de5e 053d
00000010: 9d2e 7f3c 9a04 84bb a353 fd3b bbbe 463d
00000020: 1752 80bd 2ced 2cbd 4011 3fbd eace 3abd
00000030: 3ff1 963b 7a6d c7bc 158f 3bbd f7a2 81bc
00000040: 141f 90bc 94bf 4cbd eac1 57bd bbca 523d
00000050: 5829 203d b39f 6e3d 7dfa 66bc 5a0c 173c
00000060: da1b 6abc 351b 35bd 7fbf 113d e500 ccbc
00000070: fcb0 a43b ee3d 023b e600 583c ffad 8abc
00000080: 9aa3 233d 484b 1a3d 440a 133b a1c3 273d
00000090: b09e 23bc 653f 713d a5ef 66bd aad4 4ebd
000000a0: 3670 643d fac7 1f3d 6e87 813d 4e98 85bd
000000b0: c614 273d b5da 47bd b7b4 713b 3d4e 7c3d
000000c0: 573d 71bd f697 5abc 9146 3bbc b52a 11bd
000000d0: 3100 513d 279d 16bd e128 b6bc 3a4f 9db9
000000e0: 214d 27bc a4cd 1fbc 007d 7dbc 3bd6 1f3d
000000f0: 36b8 463d 3c28 113d 4d11 27bd a0ce 3abb
00000100: afd4 c03c 644c 54bd 6758 883d adfc 3f3d
00000110: 79e1 703c 1342 313d e451 4cbd 357c 43bd
00000120: 5634 30bd 3fad 663c aeb6 84bd 3b66 51bd
00000130: 8b34 8ebd 5b62 4b3d 2cc6 1bbd d493 ac3c
00000140: 4c26 f93c f18d f6bc 8c79 6e3d 388e 81bd
00000150: 9f48 963c a23b 893d ada5 cbbc cea3 2cbd
00000160: 9016 3fbd e90c ecbc 7f65 f8bc 692d 41bd
00000170: c1e5 2ebd 01fc 86bb 25fe 693b 1a48 443c
00000180: 2a8d 293d 354b 753d ae04 11bd d13f 98ba
00000190: 0b59 67bd 490e d73c fad7 463d e80a 46bd
000001a0: 7b51 2bbd f045 f6bc dd61 d1bc e17e 0c3d
000001b0: 0c79 d63c 2c9f 823d bd2c 1d3d 0d2b 23bb
000001c0: f5e2 2abd 0fa8 db3c 2437 6b3b 8988 8d3d
000001d0: 25e5 ccbc 30a0 953b fd43 2d3d 6b76 8a3d
000001e0: cd10 763c fc70 69bd 72ab 213d 2cdb 6cbd
000001f0: 1b93 0bbd 57af 4d3d 364a f23c 8315 613c
00000200: b779 fdbb 8698 3c3d 19ea 013c ac08 873d
00000210: 7be1 5abd dbe6 e0bb 54a4 353d 2dba c73c
00000220: ad9f 693c a080 793b 9f56 4bbd 2823 83bc
00000230: 9ef7 253d e378 1b3d d1c5 36bd f63d b63c
00000240: 1541 493c 9ba2 49bd 4bdf 11bc f50b 96bc
00000250: e1b7 213d 8a0a ba3c 0223 72bd 3a81 12bd
00000260: 46df bc3c 0b6f 5c3d 69fd 193d 6ab1 3cbd
00000270: 58cd f73c e6f5 c7bc 22ae 84bd 524d 4bbd
00000280: ad09 633d 9b7e f2bc feba 61bd 8a83 213d
00000290: 6cdf fdbc e5ff 5a3a 8cfa 823d c398 503d
000002a0: 94d6 62bd 19b1 dbbc 1a9b 773d 38f2 80bd
000002b0: 6e9f 84bc c9f5 10bd 5068 3dbd 95c6 a13c
000002c0: b28e 48bd 80b7 753b c6b5 433c ac01 c83b
000002d0: 5401 713d 5622 713d 5e16 1f3a 55b0 4c3d
000002e0: d83a 3f3d cf0c 49bd 5943 4bbd e523 a13c
000002f0: 1872 d33b 0d62 21bd d30a ebbb db73 1abd
00000300: 4ad3 703d 9986 10bd 5a1c 2fbd 6c98 bebc
00000310: 6f81 203c e758 45bd 058c 113d ad0f 523b
00000320: b971 c3bc bafe 803c 16d4 b53c 6417 c83c
00000330: ac39 28bc 8ec1 1b3d b462 5b3d f2b8 19bd
00000340: 067d 6c3d b5b6 30bc 5d48 7d3d 1bee 863d
00000350: ee67 efbc d734 f33c 65ab 863c 59f3 eb3b
00000360: 00f4 54bb 4e9e 1cbd ca86 a4bc 30e2 633c
00000370: 78b8 81bd aeb9 3c3d 208a 983c f244 363d
00000380: dcf6 563d 5c33 67bc 860c 93bc 0e1d 9bbc
00000390: 38c6 85bd 30e1 22bc 6eae 043d 763b 543d
000003a0: 408e 70bc e6ad 3d3d 559a 74bd 1480 713d
000003b0: 209d 403c d0a6 7d3d 9c79 dabc f03e 5a3d
000003c0: e400 c43c 76f2 6ebd 14cc 7dbc 48cd 713d
000003d0: 44df 4cbd e4c5 ce3c 1ca0 75bc d265 183d
000003e0: 2e6c 7ebd c0bb b1ba 24d9 c63c 340b 40bc
000003f0: 177d 2fbd bae8 083d bca3 42bd 224d 573d
0.0069325953 -0.04920762 -0.04615479 0.032561176 0.015575078 -0.004028869 0.0077309175 0.04852174
-0.062656574 -0.042218372 -0.04664731 -0.045607485 0.0046063955 -0.024344195 -0.04579075 -0.015824778
-0.017592944 -0.04998739 -0.052675165 0.05146287 0.03910193 0.05825777 -0.014097807 0.009219253
-0.014288867 -0.0442154 0.035583016 -0.02490277 0.005025981 0.0019873339 0.013183808 -0.01692867
0.039950944 0.03766945 0.0022436539 0.04095805 -0.0099865645 0.05889835 -0.056380887 -0.05049578
0.055771075 0.039009072 0.06324659 -0.065231904 0.040791295 -0.04879256 0.0036881396 0.06159805
-0.05889639 -0.013341894 -0.011430399 -0.03544112 0.051025573 -0.036770966 -0.02223629 -0.00030004402
-0.01021126 -0.009753618 -0.015471697 0.039022665 0.04851552 0.03543876 -0.040787984 -0.0028504506
0.023538915 -0.051830664 0.066574864 0.04687183 0.014702194 0.043275904 -0.049882784 -0.047725875
-0.04301866 0.014079391 -0.06480156 -0.051122885 -0.069436155 0.049654346 -0.03803079 0.021066584
0.03041377 -0.03009698 0.058221385 -0.06325954 0.018345175 0.06700827 -0.024859274 -0.042148404
-0.046652377 -0.02881475 -0.030321835 -0.047162447 -0.04269958 -0.0041193967 0.003570446 0.011980081
0.04139439 0.059886176 -0.035404854 -0.0011615698 -0.056481402 0.026251929 0.048545815 -0.048350245
-0.041825753 -0.030062646 -0.02555936 0.03430069 0.026180767 0.06378016 0.038372744 -0.0024897486
-0.04172035 0.026813535 0.003589102 0.06910808 -0.025011608 0.004566215 0.042301167 0.06760868
0.015018654 -0.056992516 0.039470144 -0.057826206 -0.034075838 0.050216045 0.029576402 0.013738039
-0.007735457 0.046043895 0.007929348 0.06593451 -0.05343769 -0.0068634576 0.04434617 0.024380768
0.014259261 0.0038071051 -0.049643155 -0.016007975 0.04051935 0.037957083 -0.044622246 0.022246342
0.012283583 -0.04922734 -0.008903335 -0.018316248 0.039482 0.022710104 -0.059115417 -0.03576777
0.023055684 0.053816836 0.037595186 -0.046067633 0.030249283 -0.024409246 -0.06478526 -0.049634285
0.05542915 -0.029601386 -0.05510997 0.039432086 -0.030990325 0.00083541713 0.06395444 0.050926935
-0.05538042 -0.026817845 0.06045065 -0.062961996 -0.016189303 -0.03539065 -0.04624206 0.019748012
-0.04896421 0.0037493408 0.011945194 0.006103715 0.058839157 0.058870636 0.00060687016 0.04997285
0.046686977 -0.04908448 -0.049624775 0.019670436 0.00645281 -0.03940015 -0.007172921 -0.037708145
0.05879525 -0.035284612 -0.042751648 -0.02326604 0.009796484 -0.048180487 0.035533924 0.00320528
-0.023857938 0.015746463 0.022195857 0.024425216 -0.010267656 0.038026385 0.053560928 -0.037529893
0.05773642 -0.010785748 0.06183659 0.06588384 -0.029224362 0.029688282 0.01643915 0.00720064
-0.0032494068 -0.03823691 -0.020083804 0.013908908 -0.06334013 0.046075515 0.01862055 0.044499345
0.052481517 -0.014111366 -0.017950308 -0.018934753 -0.06531948 -0.009941384 0.03239291 0.05181452
-0.014682353 0.04630842 -0.059717495 0.058960035 0.0117562115 0.061926663 -0.026669316 0.053282678
0.023926206 -0.058336698 -0.015490551 0.059033662 -0.05001761 0.025240846 -0.014991786 0.03720648
-0.062114887 -0.0013559982 0.024273463 -0.011721421 -0.042843904 0.03342507 -0.04751943 0.052563794

layer1_2.weight f4 [200, 76]
00000000: 75cb f0bc 2b76 1b3e 22d6 9bbc a12c 063d
00000010: 0882 a2bc a0c7 1cbe 4594 06be fe48 9fbd
00000020: 3cc6 35be 9d39 ccbd 3274 86bc 40cd 05be
00000030: 5670 d7bd c935 fabd c87a b0bd 92ff 0c3d
00000040: 8155 b3bd 75d3 5c3d 7b78 cd3d c486 35bd
00000050: b9b3 8bbd bdab efbb 8c77 c9bd 53c7 38bc
00000060: 6206 343d fc6c c8bd 7f60 98bd 11db 723d
00000070: 0a12 2cbd 3881 413d e6f5 7cbd 9d85 d03d
00000080: a83a adbd a89d eb3d 3d02 533b 4fc0 e23c
00000090: 4e0e 1ebc 960e c4bd c626 d6bb 99ae acbc
000000a0: c065 7b3d ba54 47bd 4232 29bb 70c6 5e3d
000000b0: 33f0 033d 0e23 833d ef38 e6bc f885 0dbd
000000c0: e326 013b 9ced abbd 3d06 8d3d df5f 17bd
000000d0: 1374 073d 3804 cfbd a110 08bd 939e 763c
000000e0: 0de6 98bd 76a7 aebd 769b 6fbb 068f b03d
000000f0: 8e33 adbd 1c65 843d 4111 383d aaea 07bd
00000100: 1c1c d0bd 23af 01bd 437c 69bc ee6a 6cbd
00000110: 4aae 573d ae06 833d cb4a a13c 99b6 41bd
00000120: f6e0 97bd 7e6a fe3d bfa4 5b3d 56c5 4b3d
00000130: 9a9f 24be 0373 03bd bb3c b9bd 9df8 7b3d
00000140: 46d9 293e 37aa 3dbe 6a3f 223d 8391 09be
00000150: 0b84 4e3e 5765 863d 6d5a a8bc b36a fdbd
00000160: 8063 d2bd 7da3 ad3d 0a9f 7e3d b82f e0bd
00000170: 52ef 423d 9444 b9bd b21d cebc b41a 36b6
00000180: 4c2a a53d c276 c8bd 27d6 7c3c 7d57 593d
00000190: 759a e23d 0241 b83c 47ae bebd 38ff 293c
000001a0: aede ca3d 8ea0 873c e4a3 4abc 5a8a 323d
000001b0: 9239 d73d 6af5 6d3b e9f5 dbbd e933 7e3d
000001c0: c08d 66bc e34d 0ebd 2c19 aebd 9f03 ed3d
000001d0: 6d71 66bd 485b b63b a3f5 babd 9230 94bd
000001e0: 5cb9 1ebb 8bea 3f3d 4560 06ba 906f a63d
000001f0: 8297 353d 7c0d 05be d00e 063d f0d8 9e3d
00000200: 0557 9e3d 9fd9 113d ea44 ebbd d250 a2bd
00000210: 6762 3a3d 0f18 393d ad30 a43c cf94 2bbd
00000220: 4bba 1f3c 17ce 0abe 5c4b bf39 fa18 0e3e
00000230: 3b95 2dbd 652f 12bc 3bd2 82bd bf8c fcbc
00000240: c64d 4dbd 75a3 99bd b497 66bd 2592 883d
00000250: 755a c0bd ef65 3c3e c8f4 9dbd dc8e 6e3e
00000260: 3b24 aabd ecc4 dbbc 0c4a 2abe 0abe 24be
00000270: b6df 373e 5b0a 8abd e975 edbc 4f9b f7bd
00000280: 8086 0bbc af1b 46bd bab0 113c 231a 553d
00000290: fb00 ffbc 5fe6 463e b2df a03d e63c 71bc
000002a0: 825a c13d 38d3 693d 24c2 bcbc d073 90bd
000002b0: c382 883d a6c5 5e3d bd32 463d d15f 57bd
000002c0: d5e0 303d 3a18 a43d 9789 813d 9dbc 43bd
000002d0: 7aec 883d 13f7 b3bd c0db cdbd c642 8cbd
000002e0: 6027 813d 7190 a03d 28aa 9d3d 6976 6b3d
000002f0: 4c49 b23d c697 823d fb24 823c d014 bd3d
00000300: 12b4 4ebd d292 d83d 536a e4bc 7c5a 5d3d
00000310: 01c2 c5bd 7a29 8fbd c6f9 64bc 7e36 9d3d
00000320: fe4e 93bd edf1 653d 77d1 e63c 0fb4 c93c
00000330: 1c61 f53c 8054 4bbd c507 b4bd 0682 e9bb
00000340: c2fc 3b3d 3444 043d 414d 59bd 8f77 c2bd
00000350: cbe7 243d c05a f0bd 95f3 ecbc a102 603d
00000360: d345 20be a1f0 043e c9c8 3a3d ac66 f23c
00000370: 7b71 0fbe 71a3 b23d f96d e7bd c86a 253e
00000380: 8afe b0bd 9247 303d 0793 7fba c014 cc3d
00000390: a836 0e3d 2060 98bc b318 8fbd acbf bb3d
000003a0: 01ce c6bc ace4 e6bc b73c ae3d 5867 a73d
000003b0: 48d7 313c 4583 dd3d 2b6b 11bc 529a 993d
000003c0: 5421 87bd 4a59 b0bd 9960 e33d 7cc4 f43b
000003d0: f322 e03d c9ea 8c3d 1eeb 12bd d54d f43c
000003e0: c085 00bd ea65 d43d 9bf8 b73d e65c 00bd
000003f0: 00c3 aebd bc0e b43b 2c23 65bd 08e3 b0bd
-0.02939389 0.15181796 -0.019023005 0.032757405 -0.019837394 -0.15310526 -0.13142498 -0.07777594
-0.17751402 -0.09971926 -0.016412828 -0.13066578 -0.10519473 -0.1221729 -0.08617169 0.03442342
-0.08756543 0.0539126 0.100327455 -0.044317976 -0.06821389 -0.007314174 -0.09837255 -0.011277991
0.0439514 -0.09786412 -0.0744028 0.05929095 -0.04200939 0.047242373 -0.061757945 0.10181735
-0.084584534 0.1150468 0.003219738 0.02767959 -0.009646965 -0.095730945 -0.006535384 -0.021079348
0.061376333 -0.048664786 -0.002581731 0.054388463 0.032211494 0.064031705 -0.02810332 -0.03455159
0.0019707016 -0.0839493 0.068859555 -0.036956664 0.03306968 -0.101082265 -0.033218984 0.0150524555
-0.07465754 -0.085280344 -0.0036561168 0.086210296 -0.08457099 0.064645976 0.04493833 -0.033182777
-0.101616114 -0.031661164 -0.014250818 -0.057719164 0.05265645 0.063977584 0.019688984 -0.04729328
-0.07415955 0.124226555 0.05362391 0.04974874 -0.16076508 -0.032092106 -0.090447865 0.061516393
0.1658679 -0.18521963 0.039611258 -0.13434415 0.20167558 0.06562298 -0.02055093 -0.12373867
-0.10272884 0.084784485 0.06216339 -0.10946602 0.047591515 -0.09046283 -0.025160644 -2.7135657e-06
0.08064708 -0.09788276 0.015431917 0.05306195 0.110646166 0.022491936 -0.093105845 0.01037579
0.09905754 0.01655605 -0.012368176 0.043588974 0.105090275 0.0036309608 -0.10740263 0.062061224
-0.014071882 -0.034742247 -0.08500895 0.11572956 -0.056260515 0.005565081 -0.09128883 -0.072358266
-0.002421937 0.046854537 -0.00051260396 0.081267476 0.044333942 -0.12993425 0.03272897 0.07756221
0.077314414 0.03560793 -0.11487754 -0.079255715 0.045504 0.04518896 0.020042742 -0.04188996
0.009749006 -0.1355518 0.00036486506 0.13876715 -0.042378645 -0.008922433 -0.063877545 -0.030828832
-0.050123 -0.0750188 -0.05629702 0.066685 -0.09392253 0.1839826 -0.07712704 0.23296684
-0.08307692 -0.026827298 -0.16629809 -0.16088119 0.17956433 -0.067402564 -0.028986888 -0.1209017
-0.008515954 -0.048366245 0.008892233 0.05202688 -0.031128397 0.19423817 0.078551665 -0.014723992
0.09441091 0.0570862 -0.023041792 -0.070533395 0.06665566 0.05438771 0.04838823 -0.052581612
0.043183167 0.08012433 0.06325071 -0.047787298 0.06685729 -0.0878736 -0.100516796 -0.068486735
0.06306338 0.0784005 0.0769847 0.05748597 0.087053865 0.06376605 0.015886774 0.09232485
-0.050464697 0.10574879 -0.02788273 0.05404137 -0.09656144 -0.06990333 -0.013975566 0.07676409
-0.07192801 0.05613892 0.028176052 0.024621991 0.029953532 -0.049641132 -0.087905444 -0.0071260957
0.045895346 0.032291606 -0.05305219 -0.0949546 0.040260118 -0.11736059 -0.028924743 0.054690007
-0.15651636 0.12982418 0.04560164 0.029589973 -0.14008133 0.0872258 -0.113002725 0.16154015
-0.086422995 0.043037005 -0.0009749387 0.09964895 0.034720093 -0.018600523 -0.06987133 0.09167418
-0.024268152 -0.028185211 0.08507674 0.08174008 0.01085455 0.10816053 -0.0088756485 0.075001374
-0.06598154 -0.086107805 0.11102409 0.007469712 0.10944166 0.06880719 -0.035868756 0.02982227
-0.031377554 0.10371001 0.089829646 -0.031338595 -0.08533287 0.0054949205 -0.055941746 -0.08637053

layer1_3.weight f4 [200, 64]
00000000: 4f59 efbd 72b9 9b3e 47f5 973d 9b3e bc3c
00000010: 103b c33d 0a1c f5b9 8947 1bbe 0e68 8f3d
00000020: 9e15 e23d fbd3 15be 6649 0fbe b856 19bb
00000030: 15b3 80bd 15e8 aabd a75a 173e c125 8f3c
00000040: df46 c0bd 04f4 91bb c579 503c 5cc2 033e
00000050: fe2f 03be 0d00 443c 5605 dbbb e888 583d
00000060: e01b 0a3e f86a 623d d6a0 6a3d b265 87bd
00000070: aa0b 183d 8b23 b2bc 4d6d 5dbd 5d98 b73d
00000080: 2e87 503d f06e f5bc cbc5 963d 5e31 10bd
00000090: 45f9 023e a927 81bd 3328 313e c0ef cc3d
000000a0: 694c 9d3d b729 f03d 6567 1dbb b9fd ebbd
000000b0: 8051 1fbe f0bd 05bc 4f27 e73d 5ced 323d
000000c0: 165a 583a 421b 413d b1e9 80bd 50fc 3e3b
000000d0: fbfc bbbd 9422 073d eb17 e1bc 1443 213d
000000e0: 1637 28bd 0f1e 77bc 4963 e2bc c030 b03c
000000f0: 115b 16bd 0290 d2bd 1cbe e8bd 3bda 823d
00000100: 2cc0 f5bc 2637 7b3d 08d9 7fbc 5f96 d93d
00000110: 827f c13d 31a2 1a3c 3f5b 49be 8142 c73d
00000120: 03c7 5a3d 7963 09be d40c 3bbe 7748 a93d
00000130: 1600 e2bc fc0f b43d b1c9 e53d 55d6 19bd
00000140: 8456 1c3d dce6 eabd 7610 823d 39d7 fc3d
00000150: 137f d13d 5927 083e 34bd bbbc 8ca3 423e
00000160: 0e9d 79bd e437 773c 080f d2bd c1d5 473d
00000170: c437 223e 1192 1bbd 2ca8 593d 09fe b4bd
00000180: 2e3d 47bd a2ab 6dbc 7e6c 733d d399 a33d
00000190: c96e 003e 81f2 f13c d016 80bc 054d 753d
000001a0: 12db 57bd 56f2 8d3d 9a2e 20bd 9905 39bd
000001b0: 05ab 2e3e 5290 853d ab51 3d3c 8a59 a5bd
000001c0: b836 323c e329 213d 86d3 0bbd 4718 ce3c
000001d0: 8600 673c 602c 413d ad38 8fbd d6b2 623d
000001e0: 1a72 a8bd 5e9e 3b3e 43c4 b83d 69f6 ebbd
000001f0: cb43 fd3d c752 933d 6c75 9d3d dbb1 c3bd
00000200: 166d 45be 9666 2fbe 372c 313e 6cf5 5bbe
00000210: acad 0c3d e327 d73d 21b1 2fbe 90cb 52bd
00000220: 1cff 183d 60e5 0ebe 6f53 3e3d e01e 86bd
00000230: 4382 243e c86a 2fbe 4d49 273e 693e c23d
00000240: 8c57 1d3e 10e5 a43c 18c9 0fbd e30a 2a3e
00000250: bd67 23bd ce24 a33d 04d2 283e 6bb2 bd3d
00000260: e30e c23c cb9e dbbd 5a43 30bd c395 7f3d
00000270: 4a60 b4bd 3d15 853d d239 9f3d 2736 af3d
00000280: b17e f9bd 4eca 7c3c bd3e 993b c29e 94bd
00000290: 9f73 283e 2123 883a 880f 8cbb f46c 77bb
000002a0: 014f 21bd 6eb6 a83c 4c26 d33d 98f3 a13d
000002b0: 114e e83d 82ae 493d e0a1 063d 380a 95bd
000002c0: fc57 af3d 43d6 dd3d 13a0 863c fe98 a53d
000002d0: 3068 0ebe c28a 59bc 27be 96bd f6d3 2f3e
000002e0: ab73 5fbd d16f 80bd fbc9 133d a632 f43c
000002f0: 5bb2 80bd 59a9 d2bc e146 c6bd a29a c8bd
00000300: 6899 f83d d4cc 9a3d d7b2 3abe aa7a 31bd
00000310: 0cf6 003e d156 35be 8000 623e 5252 8b3d
00000320: bdac f0bd 63de 983b 12cd 583d ce7c a23d
00000330: f9e1 91bd 92d1 1ebd 39fb c9bd c928 7c3d
00000340: 6306 803d 16a3 213d 2ff9 fe3c 5d0e d7bd
00000350: f832 093e 1585 f33d b794 063a f659 05be
00000360: 5994 c43c f995 debd e4c4 a73d 1be3 1dbe
00000370: 1632 35bd 03a7 a53d bc7f 95bd 3c87 d1bd
00000380: 92a9 f13c 4b4c 6ebc 7cbe 5ebb 3cc4 06bd
00000390: 3818 4b3e 4332 023e b5cc a23d b54e c2bd
000003a0: 16cf 6e3c e731 bb3d ea46 2fbd 4fbc 23bd
000003b0: 990f 8cbd 6549 abbd 3356 25bd 5142 47bd
000003c0: f297 183e 4e4d d3bc 9668 cf3d 137e 35bd
000003d0: ef52 f3bc b7ef 1a3e 2752 c23d 5c5e 8cbc
000003e0: 3306 80bd 1078 763d 71a8 d63c 88af 4cbd
000003f0: 3fde 98bd 4fae 4ebd 214a 063c 9a71 bc3d
-0.11686956 0.3041492 0.0741983 0.022979071 0.0953275 -0.00046750932 -0.15164007 0.07002269
0.110392794 -0.14631645 -0.13992843 -0.0023397636 -0.06284157 -0.083450474 0.14780675 0.017474057
-0.093885176 -0.0044541378 0.012724345 0.12867111 -0.12811276 0.011962903 -0.0066839857 0.05286494
0.13487196 0.055277795 0.05728229 -0.06611194 0.0371205 -0.021745464 -0.054059315 0.08964608
0.050910167 -0.029960126 0.07361945 -0.03520333 0.12790401 -0.06306393 0.17300491 0.10006666
0.0768059 0.117267065 -0.0024017927 -0.11523003 -0.15558434 -0.00816296 0.112867944 0.043683395
0.000825317 0.047145136 -0.06294573 0.002914209 -0.091791116 0.03299196 -0.027477225 0.03937061
-0.04106816 -0.01508285 -0.027635233 0.02150762 -0.03670794 -0.102813736 -0.113643855 0.063892804
-0.029998861 0.06133189 -0.015615709 0.10624384 0.09448148 0.0094380835 -0.19663714 0.097294815
0.05341245 -0.13416852 -0.18266612 0.08265775 -0.027587932 0.08792111 0.1122011 -0.03755792
0.038168445 -0.11469814 0.06350796 0.12345738 0.102293156 0.1329626 -0.022917368 0.190077
-0.060940795 0.015089009 -0.10256773 0.048787836 0.15841585 -0.037981097 0.053138897 -0.08837516
-0.04864233 -0.0145062525 0.059429638 0.07988324 0.12542261 0.02953458 -0.015635878 0.059887905
-0.052699156 0.069309875 -0.039106943 -0.045171354 0.17057426 0.065216675 0.011555116 -0.08073719
0.010877304 0.039346587 -0.03413727 0.02515806 0.014099246 0.04716146 -0.06993232 0.055346332
-0.08224888 0.18322131 0.09021809 -0.115216084 0.12366446 0.07193523 0.07688412 -0.095554076
-0.19279894 -0.17128977 0.17302023 -0.2148034 0.034345314 0.10505655 -0.17157413 -0.051463664
0.037352666 -0.13954687 0.046466287 -0.06548858 0.16065316 -0.17130578 0.16336556 0.0948456
0.15365428 0.020128757 -0.035103887 0.16605715 -0.039893854 0.07966004 0.16486365 0.09262546
0.02368874 -0.10723647 -0.04303298 0.062398683 -0.08807428 0.064981915 0.077747 0.085552506
-0.121823676 0.015429093 0.0046766684 -0.07256843 0.16450356 0.0010386446 -0.0042743124 -0.003775415
-0.039381985 0.020594802 0.10310039 0.0790779 0.11343015 0.04923869 0.03286922 -0.0727734
0.085617036 0.10831883 0.016433751 0.080858216 -0.13906932 -0.013277711 -0.073604874 0.171707
-0.05455367 -0.06271327 0.036081295 0.029809307 -0.062840186 -0.025715517 -0.09681488 -0.09795119
0.12138635 0.07558599 -0.18232284 -0.043329872 0.1259386 -0.17708899 0.22070503 0.06802811
-0.11751697 0.0046651824 0.052929945 0.07933961 -0.07123179 -0.03877408 -0.0986237 0.061562333
0.06251218 0.03946217 0.03112468 -0.105007865 0.1339835 0.11890618 0.00051338546 -0.13022599
0.023996519 -0.10868449 0.08191851 -0.15418665 -0.04423722 0.080884956 -0.07299754 -0.10230872
0.029499803 -0.014544557 -0.003398805 -0.032901987 0.19833457 0.12714486 0.07949201 -0.094876684
0.01457574 0.091403775 -0.04279224 -0.039974507 -0.068389125 -0.08363608 -0.04036541 -0.04864723
0.14901713 -0.025793698 0.1012737 -0.044309687 -0.029702632 0.15130506 0.094883256 -0.017134838
-0.062511824 0.060173094 0.026203366 -0.049972087 -0.07464265 -0.050459202 0.008196385 0.09201355

layer2.weight f4 [150, 200]
00000000: fdfe ca3b 040a 3c3d de9f d1bd dd22 843d
00000010: e8d5 1fbb ca22 f13d f106 80bd f2b7 90b9
00000020: 90f8 ee3d e02c 153e 11c8 393c 6912 63bb
00000030: c02b 24bc e23b 163d 3c55 92be 3a6d ee3d
00000040: 84cc 8bbd 18d3 aa3d 19c8 9f3d 20cb c23c
00000050: 8bcf 103e a4fd 87bc ec63 31bd 792d fd3c
00000060: d3b4 c1bc 7624 32bb cb7b 0bbd 1597 b1bd
00000070: 8759 753c e24d 77bc 70a0 133e 2209 f13c
00000080: aee8 eb3d 59bf debd e679 a83d f868 7bbd
00000090: 7e92 92bd d16c 8c3c 7f05 123d 0761 81bd
000000a0: 0d83 603d 0aec 3cbd 9afc a83d 80ca f9bd
000000b0: 7236 a6bd b0bd ecbc 0ad4 1abe 3ad1 57bd
000000c0: 69f2 fd3d 6155 26be 49f4 203d 71ad 1ebd
000000d0: 185d 783d 0657 03be d765 4f3d d5f7 363b
000000e0: bcdd 21bb fb17 e5bd 59c4 563b 6624 27bc
000000f0: 66e6 403d 3ed0 2b3c 8be1 383d ba8f 153d
00000100: ed5f bb3c c007 fcbb 67cd dd3c 4237 2d3d
00000110: ca84 97bc 29b7 c5ba ace8 543c 0bde 76bd
00000120: 04f3 f93c 7c2c 393c e2d3 cbbd 6714 7ebd
00000130: 3ed6 14bc 4709 2b3d f034 353e 2568 61bc
00000140: 4a2b 9b3b 090d 8a3c 2ea2 5b3c d28e 523b
00000150: d4f1 a73d 38e4 323d f3bf c1bc e583 d1bc
00000160: 7090 0b3d 14b0 8cbc e896 b5bd 9416 88bd
00000170: 2c30 5d3d ca23 013d 3891 863d ff9d 993d
00000180: fdb7 e5bc 35f4 f13b 491b 97bc ae10 c3bc
00000190: 54bb 7a3d 389a e03c d8d8 70bc 465d 7cbd
000001a0: c7b7 b83d 90cc f3bc e8c5 863d a48e bebd
000001b0: 09fb 8dbd f97c 0bbd 5660 58bd 3d58 c0bd
000001c0: f997 ce3d fc59 37bd 3875 4f3e cefe 353c
000001d0: 9059 07bb 6c7c dfbb 1ede 043e b67b d13d
000001e0: e2e9 013c 7ec2 47bb 6df8 ca3b 68a0 16bd
000001f0: d324 16be 8b56 73bc 1d1e ed3c 6c72 8e3d
00000200: 9a58 90bb 44a1 f03d 9c04 b3bb 19e8 abbd
00000210: eca7 103e 7b9f 3c3d 8f7f 693d de52 b2bc
00000220: aa00 c3bd d2ec c6bd 4b09 aa3c 20c5 c23d
00000230: f3e4 8f3d b3ee 803d 5b3c 9abd 453c 4bbc
00000240: d48f 0cbc c786 1ebd 3cc3 0c3d 5c30 093d
00000250: 6ede 8cbd 38dc bc3c a75d b03d 8029 bf3c
00000260: 90ee 833c 45ab 5cbc aee1 81bd 7db1 f5bd
00000270: c881 c9bd edab 643d 43e8 1f3d c080 00bd
00000280: 2c9d 1b3d 9964 ccbc 584d d7bd 6808 c4bb
00000290: 7839 9c3c e920 0f3d bc0b a2bd 9e32 be3c
000002a0: bd06 bfbd 148a f03c 4429 d03d ee8c 62bd
000002b0: 61a6 4dbc d4d3 ba3d 83b8 723c 3c5c b83c
000002c0: 1e8e f93c cef8 d83c 2698 303d cc4e 54bd
000002d0: 6632 c73c b79d ccbb a319 c23d fb8a 52bd
000002e0: edfe 893d 8717 9839 8789 6a3d 95a8 ebbc
000002f0: 2eca 4ebc 5ab6 22bd 28b2 c33c 475d 183d
00000300: 0232 8fbd c795 79bd 63bd 2fbe e36a 893d
00000310: 29e3 96bc eeed f03c 9a67 02bb 63d6 193d
00000320: 114d 92bd a585 90bc e6cd 34bd 0e2b c43d
00000330: 4b6f adbd a909 03be 39d8 bd3d 3eee 073d
00000340: 6c9a 743d af6e a9bd beef b9bd ed9d 1cbd
00000350: 51e3 d63d e159 2e3d 4bff e23c 1f89 43bc
00000360: 1d46 d83c 4b67 ca3c 5ab0 d2bc c166 d9bd
00000370: edcb cdbd ec87 773b 386d bb3c eab6 0dbd
00000380: f4cf ec3b 3573 163d 2257 59bd 7930 c03d
00000390: cd13 c53c 023b f9bc 6a64 093e 037b e43c
000003a0: 74d6 9e3d 7bde 97bd df7b 0d3d 37a4 21bc
000003b0: d712 ca3d 82db ccbc f951 8d3c df94 02bd
000003c0: 0bde ba3d f198 773c a031 553d c248 a03c
000003d0: fb1f 553d 25de acbc be23 eb3c 85af 47bd
000003e0: b8ae 973d 1814 69bd 2346 36bd e1b7 143e
000003f0: 0726 603c 283d 2d3d 9d73 b93c 6c76 b43d
0.0061949478 0.04590799 -0.1023557 0.06451962 -0.0024388973 0.117742136 -0.06251324 -0.0002760287
0.11668503 0.145679 0.011339203 -0.0034648424 -0.010020196 0.036678202 -0.28580654 0.11641927
-0.06826118 0.08341044 0.078018375 0.023778498 0.14141671 -0.016600437 -0.043308184 0.030905472
-0.023645794 -0.0027182377 -0.034053605 -0.08671395 0.014974958 -0.015094252 0.14416671 0.0294233
0.115189895 -0.108763404 0.08226375 -0.061379403 -0.071568474 0.017141731 0.035649773 -0.063173346
0.05481248 -0.046123542 0.08251305 -0.12196827 -0.08115853 -0.028899044 -0.15119949 -0.05268977
0.12399752 -0.16243507 0.03929547 -0.038739625 0.060635656 -0.12826166 0.05063423 0.0027918715
-0.0024698814 -0.111862145 0.003277084 -0.010201549 0.047094725 0.0104866605 0.04513697 0.03651402
0.02287289 -0.0076913536 0.027075483 0.042289026 -0.018495936 -0.0015084493 0.012994926 -0.06027035
0.030511387 0.01130211 -0.09952523 -0.062031176 -0.009084282 0.041756894 0.17695975 -0.01375774
0.004735385 0.016851919 0.013405366 0.0032128585 0.08200422 0.043674678 -0.023651099 -0.025575588
0.034073293 -0.017173804 -0.08866674 -0.066449314 0.05400102 0.03152827 0.06570667 0.075008385
-0.028041834 0.007383848 -0.018445628 -0.023811664 0.061213806 0.027417287 -0.014700137 -0.06161239
0.09019428 -0.029760629 0.06580716 -0.0930455 -0.06932647 -0.03405473 -0.052826248 -0.0939183
0.1008758 -0.04476355 0.20259559 0.011108113 -0.0020652749 -0.006820252 0.12975356 0.10228674
0.007929297 -0.0030480917 0.0061941654 -0.03677407 -0.14662485 -0.014852176 0.028945023 0.06955418
-0.0044050934 0.11749509 -0.005463196 -0.083938785 0.14126557 0.04605053 0.057006415 -0.02176803
-0.09521611 -0.09713139 0.020756384 0.09510255 0.070260905 0.06295528 -0.07531043 -0.012404506
-0.008579213 -0.038702752 0.034365878 0.033493385 -0.068783626 0.023054227 0.08611613 0.023335218
0.016104966 -0.013468568 -0.06341873 -0.11996744 -0.09839207 0.055828024 0.03903986 -0.031372786
0.037991688 -0.024950312 -0.10512799 -0.0059824474 0.019070372 0.034943495 -0.079123944 0.023217496
-0.09327457 0.029362716 0.10164121 -0.055310182 -0.012551875 0.09122434 0.014814499 0.022504918
0.030463275 0.026485827 0.04311385 -0.05183296 0.024316024 -0.006244387 0.09477546 -0.051402073
0.06738076 0.00029009228 0.057260063 -0.02876691 -0.012621446 -0.039724685 0.023888662 0.03719833
-0.0699196 -0.060933854 -0.17162089 0.0670984 -0.018418865 0.029410329 -0.0019898177 0.03755797
-0.071436055 -0.017641852 -0.044141673 0.095785245 -0.08468493 -0.12796654 0.09269757 0.03318619
0.05971758 -0.08273064 -0.0907893 -0.038236547 0.10492576 0.042566184 0.027709624 -0.011934548
0.02640062 0.024707457 -0.025718857 -0.10615302 -0.100486614 0.0037770225 0.022879228 -0.03459827
0.0072269384 0.036730964 -0.053061612 0.093842454 0.024057293 -0.030423645 0.13417211 0.027890688
0.077557474 -0.07415482 0.03454196 -0.009865812 0.09866875 -0.025007013 0.017251002 -0.031880256
0.091243826 0.015112148 0.05204928 0.019565944 0.052032452 -0.02110202 0.028703567 -0.048751373
0.07406372 -0.05690393 -0.04450048 0.14523269 0.013680941 0.04229465 0.022638137 0.0881165

layer2.bias f4 [150]
00000000: 2d78 9d3c ffde bebc 3794 8d3c 838b 8d3d
00000010: 6a38 acbb 05db 323c e3d2 6ebd 28cf febb
00000020: 7456 3bbc ea11 3c3d 54d9 0a3d 6271 c4bc
00000030: b71a 523d 6553 983d 7201 053d 1dd7 07bc
00000040: 5c61 8b3c 9aca 313d 8cac 34bc ea0f 2a3c
00000050: d74a 05bd ebd7 a63d 1bb5 58bd 7d69 953d
00000060: 02a9 26bd 1fa3 09bd 508e 5cbd 617c 1dbd
00000070: 3853 2f3d d68d 9bbc 670c cebc e278 413d
00000080: a1fd a03d 568d 22bd 9001 dabc 5bd7 9d3d
00000090: da33 f1bc 882a d9bb ad39 753c 6979 b1bc
000000a0: 10bd 84bd d605 eabc 4388 55bd d859 5ebd
000000b0: 3ca4 613c 36fc d4bc e9f9 7d3d c32b 2dbd
000000c0: bb0f 543d 701a 3eba 2dea 903d d824 073d
000000d0: 6cfb 9f3d 08d4 51bd 27c7 e13d 6190 9bbc
000000e0: 4466 2cbb 5236 713d fba4 44bd 3d02 afbc
000000f0: f9fe 6a3c 3df0 043c ff36 fb3d 6814 7e3b
00000100: 0bf2 8c3d 7591 e13c e6df 883d e7ba f7bc
00000110: 46f6 37bd ad25 a03c 36c6 3bbd 1bd7 a33d
00000120: b52d b03d 8cd1 243b 3e58 47bd 9c70 a7bc
00000130: bbf9 3c3c 6bbd b53d b0ff 0c3d e9a3 88bd
00000140: baf1 6fbb f5ff 7a3d b85f 993d 5354 27bc
00000150: e0f3 a03c ffcc ab3d 542a 33bd 2cbc f73b
00000160: a269 b63b aa56 dfbc 3a50 b03b 5dda 9cbc
00000170: 39ef 6a3d be11 3bba e3cb 0dbd 62bd 163b
00000180: 0604 fe3c 268f 11bc 5fa4 493d 2765 03bd
00000190: 91cd d23c 868e 453d d25e e53b 24cb 35bd
000001a0: 1da7 98bd 1da1 87bc c253 0bbd bb95 ae3d
000001b0: e878 f63c a860 a83b d224 f4bc bcb4 973d
000001c0: 2c8a 313c 3219 2bbd e4b3 4d3b 7c53 03bd
000001d0: 613d c6bb 2cea 3a3d 003d 353d 6c44 3b3d
000001e0: b965 293a 265a e3bc 7c6d 0bbd 393c 15bd
000001f0: 4d7e 30bd 9eff 2b3d 4082 203b 8c7e 90bd
00000200: 6357 9dbd 10b3 ad3d 2c11 5fbd 8ba7 cabb
00000210: 7514 db3c e500 4ebd d8d9 413d 2c3f 2c3d
00000220: 1530 1f3d c308 3bbc eaea 753c c20f 4e3d
00000230: a347 1f3d 3c7d 303d b3f9 a9bc 449c 133d
00000240: 9711 533c 09d5 853d ef01 903c 8335 22bd
00000250: 0b29 50bd 135d 5ebb
0.019222343 -0.023299692 0.017282588 0.069113754 -0.0052557485 0.010916476 -0.058306586 -0.00777616
-0.011434186 0.04591552 0.033898667 -0.023979846 0.05129501 0.07437781 0.03247208 -0.008291033
0.017014198 0.043406107 -0.0110274665 0.010379771 -0.032542076 0.08146652 -0.05290709 0.07295511
-0.040688522 -0.03360283 -0.053846657 -0.038448695 0.042803973 -0.018988531 -0.025152398 0.047234423
0.07860876 -0.03968557 -0.026612073 0.077070914 -0.02944367 -0.0066273846 0.014967364 -0.021664338
-0.06481373 -0.028567236 -0.052131902 -0.0542849 0.013772067 -0.02599917 0.06200591 -0.042278063
0.051772814 -0.00072518643 0.070759155 0.03299412 0.07811627 -0.0512276 0.110243134 -0.018989744
-0.0026306072 0.058889695 -0.0480089 -0.021363372 0.014343017 0.008113918 0.12266349 0.0038769487
0.068821035 0.02753518 0.0668333 -0.03024049 -0.0449126 0.019549215 -0.045843326 0.080000125
0.08602468 0.0025149314 -0.04866814 -0.020439439 0.01153415 0.08874019 0.03442353 -0.066718884
-0.0036612586 0.061279256 0.0748896 -0.010212976 0.019647539 0.08388709 -0.04374154 0.0075602736
0.0055667916 -0.027263004 0.0053806575 -0.019147092 0.057357047 -0.00071361277 -0.03461827 0.0023001065
0.031007778 -0.008884227 0.049229022 -0.03207889 0.025732787 0.048231624 0.006999829 -0.044383183
-0.07453749 -0.016556317 -0.034015425 0.085246526 0.03008695 0.0051384754 -0.029802714 0.07407519
0.010836165 -0.041772075 0.003138774 -0.03206204 -0.0060497974 0.04563348 0.044247627 0.04571955
0.0006461996 -0.027752947 -0.03403996 -0.036434386 -0.0430892 0.041991822 0.0024491698 -0.07055387
-0.07682683 0.08481419 -0.054459736 -0.0061845235 0.026743153 -0.05029382 0.047326893 0.042052433
0.038864214 -0.011415663 0.015009621 0.050307997 0.038886677 0.043088183 -0.020748949 0.0360377
0.012882612 0.06534774 0.017579047 -0.039601814 -0.05082039 -0.0033929988

layer3.weight f4 [100, 150]
00000000: 0349 49bd b7d9 fe3c 9054 f23c e66b d23c
00000010: d923 1c3e 2e08 183d 6e3b 8bbb d367 d93d
00000020: 6ff7 293d 2f35 ad3e 0edd 61bd 3bac c9bd
00000030: 7767 cfbc f428 52bd da1a 24bd 2f64 51bd
00000040: f403 9f3c 539d 12be 61f6 ccbc b889 013e
00000050: 0499 f9bd fc6b f93d f504 cdbd 4495 b83d
00000060: 6bf7 10bc 16cc bb3c 2242 bcbd cb15 243e
00000070: b51b 823d 5530 593d 41a8 03be ceca 8fbc
00000080: 3eca ae3d 6c82 203d 0ee1 7ebd 1277 8e3b
00000090: 183c 80bd 11d4 f539 a63f 8e3d 483e 1c3e
000000a0: 9df0 363d 6908 173d 1ee5 eb3c 5493 93bd
000000b0: 5a44 55bd cbdd 313e cb79 46bc ba7f b73d
000000c0: 23f2 953d f85f b5bd fd4a f9bc 6eaa 423d
000000d0: 4cc1 a63b 45f6 953d 099c 1cbd f902 b83d
000000e0: 2480 8d3a 3f3a 30be 3bfe 9cbc 6818 e63d
000000f0: 136a fa3c 526e a7bb 1ee4 063e 1de5 58be
00000100: 19bf a53c b185 69bd b96d 143e 431a fbbb
00000110: a1c6 27be 13d8 223c 282d 523d 2687 853d
00000120: f7ba 093e e439 b0bd fafd 8c3c e882 bf3d
00000130: 24ed c4bd 00bc 373d a454 533d bfed 8fbd
00000140: 8018 d43d ac3a 2e3d 2ba2 a13b 51b6 673c
00000150: eeb8 113e 35c5 8c3d 49ee b33d dbb3 523c
00000160: 4558 16bd 1d4d 4ebd 83fa 633c ba64 853b
00000170: 9c81 0b3d e3ff e13d f9db fa3a 2107 2ebd
00000180: d252 9fbd 8a6d 2abe 521a 5abd 6728 4fbd
00000190: 4217 97bc 45e6 9b3d 4d64 06bd 8ea2 04bb
000001a0: 9cbe ed3b 9194 00bd 0145 cebd 02e8 223d
000001b0: bf85 ed3b 0948 013e f96d df3d 76a0 a5bd
000001c0: 154c 4e3d ae70 0ebd fff8 733d a1cf f1bd
000001d0: 8ab2 84bc a123 1e3e 9e1f 993c 9d2c 113d
000001e0: eb38 043d 64be 35bd 3e51 25bc cbce 5a3d
000001f0: 82be b73d 4149 263d ff8b 0d3d 093c 07bc
00000200: 8cc5 933d e95f 4dbd 32d6 c7bd f4ab f7bd
00000210: 53df 883d dbdf 69bd 7f8d e4bc 2510 c93d
00000220: d3db 113e dfc4 ad3c b361 adbc 246f 553d
00000230: 5e43 f03d b1d4 65bd c3d8 44bd 0f1c 6f3d
00000240: b9d1 ab3d 6908 19bd 2ec2 453b ae58 aabd
00000250: 6d53 dc3d 4646 9bbd c6cb 9e3d 2f31 183b
00000260: 85a1 97bc 3d85 7c3d 7335 803d a7e5 9dbd
00000270: 5944 f9bc b714 44bd df05 d93d d3af 9f3e
00000280: e605 773c 28ef 84bc f93f 1bbc 0146 303d
00000290: 81a1 9d3d d3eb 163c a532 863d dba1 8a3c
000002a0: 4aa5 91bd 4eb2 c8bc 8b3d b13b fb89 fabc
000002b0: d684 6bbc 38b2 363d f404 8cbd a596 f6bd
000002c0: 3321 66bc b831 2fbd f1c3 cf3c 41b1 f23d
000002d0: bfc6 013d 146c 0b3e e2d1 a3bc 9891 033e
000002e0: a6ca 13bd 5f27 4fbd ec2d 81bd 1c3a abbd
000002f0: 1ad2 173d d207 cd3d 41f4 933c 4c50 833d
00000300: 3f75 97bc b578 f5bc 4416 cdbc 516f ffbc
00000310: 9ce5 02bd 2a05 973d 6d3e d0b9 5349 ddbc
00000320: 665b 96bd 5664 ffbd 99d5 d23d 4d34 f83d
00000330: e25d 083d 505e e2bc 24e5 4cbd c6d0 15bc
00000340: 4295 cfbd 8817 80bc a9ad d93d 22c8 ba3c
00000350: 2e91 ca3d 8ddc 2fbe f404 f9bc a203 a2bd
00000360: 217b 3a3d d50c 813d 74fc a1bd 4b67 9e3d
00000370: b745 373d 235a da3d a0e9 bc3b e7a6 ff3d
00000380: c47e 1e3d cf97 c73d afee a6bd 3609 263d
00000390: c825 88bd 840f 0f3e d93a 9e3d ede9 803d
000003a0: b13f a6bd 15ae 03bd 2328 893d 6d03 93bd
000003b0: 3722 2cbb 37e0 09be 8cb0 d1bd d9d5 0e3c
000003c0: 28e6 55bb 4dce 3c3d 5bce e83c dcb0 843b
000003d0: 8915 a43d dbea 1a3d 89d0 24be 6d4f eabc
000003e0: 40e8 abbd 2c10 2fbc 38b9 61bd 2b32 ab3b
000003f0: 5415 9fbd 8f9b 8e3d e1cd 0f3d f8f4 d43d
-0.049141895 0.031109674 0.029581338 0.025686216 0.1524805 0.037117176 -0.004249028 0.10615506
0.041495737 0.33829638 -0.055142455 -0.098473035 -0.02531789 -0.051308587 -0.04006467 -0.051120933
0.019411065 -0.14317827 -0.025019826 0.12650192 -0.121873885 0.121787995 -0.10010711 0.09012845
-0.008848052 0.022924464 -0.09192301 0.16023938 0.06352941 0.05302461 -0.12857153 -0.01755276
0.085346684 0.03918688 -0.062226348 0.0043476904 -0.06261462 0.00046888043 0.06945734 0.15258133
0.04466306 0.036873255 0.028795775 -0.07205835 -0.05206714 0.17369764 -0.012113999 0.08959909
0.073215745 -0.08856195 -0.030431265 0.047525816 0.0050889608 0.07322363 -0.038234744 0.08984942
0.0010795635 -0.17209719 -0.019164195 0.11235124 0.030568158 -0.0051095868 0.13172957 -0.2118115
0.020232724 -0.057012264 0.14494981 -0.0076630428 -0.16384365 0.009939211 0.051312596 0.06519918
0.13450228 -0.08604792 0.01721095 0.0935114 -0.096155435 0.044857025 0.05159439 -0.07027768
0.103562355 0.042536423 0.004932662 0.014142589 0.14230701 0.06873552 0.08785684 0.012860264
-0.036705274 -0.05036651 0.013914707 0.0040708454 0.034059152 0.11035135 0.0019139043 -0.042487267
-0.077794686 -0.16643348 -0.053247757 -0.05057564 -0.018443707 0.0761228 -0.032810498 -0.0020238492
0.0072553884 -0.031391684 -0.10071755 0.03977204 0.00724861 0.12625135 0.109096475 -0.08087246
0.050365526 -0.03477543 0.059563633 -0.1180718 -0.016198415 0.15443279 0.018691834 0.035442937
0.032280844 -0.044371024 -0.01009017 0.05341987 0.08971883 0.040597204 0.03455734 -0.00825406
0.072154135 -0.050140295 -0.097576514 -0.12093344 0.06683221 -0.05709825 -0.027899502 0.098175324
0.14244013 0.02121204 -0.02116475 0.052107945 0.11731599 -0.05611104 -0.048058283 0.058376368
0.08389611 -0.037361536 0.0030175555 -0.083176956 0.107581 -0.07581763 0.077537104 0.0023222675
-0.018509636 0.061650503 0.06260195 -0.07709818 -0.030428099 -0.047871318 0.10596823 0.3118883
0.01507709 -0.01622732 -0.0094757015 0.04303551 0.0769682 0.009211498 0.065526284 0.016922882
-0.071116045 -0.024499085 0.005408948 -0.030583372 -0.014374932 0.044603556 -0.06836882 -0.12040452
-0.014046001 -0.042772025 0.025361987 0.11850215 0.03168368 0.13615447 -0.01999754 0.12848508
-0.036081932 -0.050574657 -0.06307587 -0.08360693 0.037065603 0.10011257 0.018060805 0.064118
-0.018488524 -0.029964784 -0.025035031 -0.03118101 -0.031957254 0.07374032 -0.00039719362 -0.027012503
-0.073416516 -0.124703094 0.10294647 0.121193506 0.03329266 -0.027632862 -0.050023213 -0.009144014
-0.101358905 -0.01563622 0.10628826 0.022800509 0.09890972 -0.17173977 -0.03039787 -0.07910849
0.04552758 0.06301276 -0.0790948 0.07734545 0.04474422 0.106617235 0.005765155 0.12483006
0.038695112 0.09745752 -0.08150994 0.040536128 -0.06647831 0.13970762 0.07726068 0.06294618
-0.08117617 -0.03214844 0.066971086 -0.07178388 -0.002626551 -0.13464437 -0.10238752 0.008717977
-0.0032638405 0.04609518 0.02841871 0.0040494036 0.0801192 0.037821632 -0.16095175 -0.028602326
-0.083939075 -0.010685008 -0.05510828 0.0052244863 -0.0776774 0.06963264 0.03510845 0.103982866

layer3.bias f4 [100]
00000000: a6c0 9c3d 81d0 5dbd a943 843d dacc 8a3d
00000010: aa94 b73d 6685 dd3d 27f5 e53c b1d4 a03d
00000020: 112a 9bbd e0a0 b73d f7da 56bd 2b3c 953d
00000030: e905 7fb9 d9a8 07bd 6cc5 973d 5291 b6bd
00000040: 3579 29bd 4c4f e83d 73d1 c43d c458 193c
00000050: 2a7c ca3d 42f4 88bb 3f1c de3d b5a4 a13d
00000060: 2f89 c63d 09e1 9cbd fd0a ab3c 8abe 2ebd
00000070: 97b1 a0bc 5789 803b 6669 933d 6f89 973d
00000080: 6fb9 d5bc cd71 a73d dcc2 67bd c635 7e3c
00000090: 3353 933d 996e 89bd ae8f 213b 54b4 9dbc
000000a0: 33b1 a93b 1743 cbbc 9ff4 cd3c fb74 913b
000000b0: 2bfe 3abd 8c7d 1b3d 6457 df3c bad2 773d
000000c0: 915a 09bc 57dd 733b 13d4 cf3b fb9a c1bb
000000d0: 4e62 4e3d 8a7e 4fbd ebb6 6d3d c624 0b3d
000000e0: 66c3 953d e1a9 df3d d3f6 d73d 8af4 c83d
000000f0: 3ad2 16bd b9f8 3a3d 36f9 51bc 5e6b 9d3d
00000100: c93a ac3d 11a7 833d 0486 573d a105 943d
00000110: 1f7c 76bd 14bf 2d3d 4c60 343c 606c 14bd
00000120: 3ebe 1cbc 32e9 38bd 7deb 21bd ec78 fd3d
00000130: 38b0 0fbd 9cc0 0e3d e6ce d43d cf92 e33d
00000140: 638b 9cbd 45a0 bfbd 8441 57bd 103e cf3b
00000150: 38de 54bd 04ec fd3b f91e 31bb 7567 d63d
00000160: 854c 803d beec d83c afe4 913d b95a 0a3d
00000170: 7c89 8a3a aab4 0bbd 3634 aabc 9519 9b3d
00000180: 15c7 91bd 0f93 213d 05b0 5dbb 73fb 0c3e
0.07653932 -0.054153923 0.06458218 0.067773536 0.08963902 0.10816459 0.028071 0.07853068
-0.07576383 0.08966231 -0.052454915 0.07286867 -0.00024320897 -0.03312001 0.07410702 -0.089144364
-0.041375358 0.1134325 0.09610262 0.009359542 0.09886964 -0.0041795084 0.10845231 0.078927435
0.096941344 -0.076601095 0.020879263 -0.04266218 -0.019615931 0.003922622 0.071978375 0.0739926
-0.026089398 0.08176003 -0.056582317 0.01551575 0.07193603 -0.06710548 0.002465229 -0.019251026
0.0051785945 -0.024812264 0.025141058 0.004438994 -0.04565255 0.037961528 0.02726335 0.0605037
-0.008383409 0.0037210786 0.00634242 -0.0059083677 0.05038672 -0.050657786 0.058035772 0.033970617
0.0731266 0.10921074 0.10545125 0.09812267 -0.03682158 0.045647357 -0.012815764 0.07686494
0.0840965 0.0642835 0.05261804 0.07227636 -0.060176965 0.042418554 0.011009287 -0.036236167
-0.009566842 -0.045144267 -0.03953122 0.1237658 -0.035080165 0.034851655 0.10391025 0.11111986
-0.076437734 -0.09356741 -0.052552715 0.006324537 -0.051969737 0.0077490825 -0.0027026518 0.104689516
0.06264595 0.026480075 0.07123696 0.033777926 0.0010569538 -0.03410784 -0.02077685 0.07573239
-0.0711805 0.039446887 -0.003382684 0.13767795

layer4.weight f4 [150, 100]
00000000: 3f36 363c f7af a93b e640 fdbd f62f e0bd
00000010: 7c7e 673d 9122 7a3d eefd f03c aa7c a03d
00000020: 3200 06bd 6f45 d8bd 2d83 e0bd 8e5c 20bc
00000030: ae37 643d dadd 9abd ba0b 833c ed90 f93c
00000040: 1a22 e6bc 3cf4 d83d ce2e 333b 6940 99bd
00000050: cc92 a63c ef95 42bd 78c7 a8bd 2c7a 803d
00000060: 3a5e a93d a596 843d d251 6abb 8acb 0fbe
00000070: eae7 53bd 5c84 ed3c db04 333d eef9 4e3c
00000080: 49c7 4ebd d3d6 0cbd ac51 cdbd 8973 eebd
00000090: 16a3 09be 4444 9abd 3c02 d03d 1936 ce3d
000000a0: 2e56 fabd e5ee 913a efad bb3d 0f3c 643d
000000b0: 047a 7abd ce73 f23c 8e2f 443d c12f 243d
000000c0: f5d3 fdbc 41da 78bd 3884 b33d 0e26 df3c
000000d0: 63da 40bd 4245 14bd 7f51 493c 033f 873d
000000e0: 2722 99bd 546f 6c3d 750d aebd 328c 0a3d
000000f0: 98bb 1a3d 7800 453d d2b1 d23d 9c86 a7bc
00000100: 8df7 b0bc 8d1a 5fbc 26a6 5ebe c985 073d
00000110: 588c b3bd 3b70 873c 0ee6 98bd ed3f d23b
00000120: 3b1f b7bd 7223 83bd 6479 4bbb 01be 1fbd
00000130: 4875 93bd 0568 dc3d 2c58 a33d 447a b13d
00000140: 38b3 a5bd 9afc 013d 1de2 a0bd a67b 773b
00000150: a901 67ba 03ec e43a 5319 de3c f81c 24bd
00000160: 888c 853d f85a 643c 7027 d3bd aa1a 8e3d
00000170: 9294 ac3d 844e 7fbd 4cbe de3d 60e9 173e
00000180: c3b6 5d3d dcde b13d b9ee 45bc e57e a63d
00000190: 007e 403d 7d96 6f3d a28f 8abc c9d8 a43c
000001a0: c5f1 9dbc 79c8 8f3d 92bd a13d 8877 84bd
000001b0: 1209 173d eefe cebd 20dd 613c 6dc0 c33d
000001c0: e4b2 64bc a791 c7bd 9972 c9bd 801d c4bc
000001d0: 442f 3cbd f301 cfbd 2057 a0bd 3734 bd3d
000001e0: b642 18bd 78af 0dbd f544 533d b03b ba3d
000001f0: e73f 9b3d ca72 293b 7652 c13d ecdb c0bd
00000200: 44a6 9abc 7ef2 a2bd a960 8ebd 35d7 753d
00000210: a38f c2bd 31ea e0bb 8b16 943d d25e 81bd
00000220: 34fa 3dbc 664b 21bc ebcd 97bd 53ba b13d
00000230: d01a c33c f140 8bbc d2dd 813c 880a da3b
00000240: e0f4 023d 4b6c 28bd 0d73 15bd 2b2b ad3d
00000250: 5473 ca3c dcce 4b3d 8ab1 4f3d c210 9cbc
00000260: 9521 61bd 1ae9 513d 3129 793b 0724 7e3d
00000270: fd0e c3bd 4641 5c3d 5df1 93bd f97d fa3c
00000280: fc5f 983d a1ae 8fbd 353c b7bd 51f9 4c3d
00000290: 67a6 5bbd 5907 c8bd 0f38 943d 0f38 55bc
000002a0: 82ac 973a 26a0 f83b 8e52 7dbd b0ae a9bd
000002b0: 0532 c5bd 75ed d93c 2ccd 2dbc 8c80 ccbd
000002c0: ab1f adbc 6490 acbd d35b 51bd 51e1 8dbd
000002d0: 0c42 e3bc f81b c5bd 42c1 073d d988 833b
000002e0: eeaf 89bd 551a e33c dcc2 3f3d eea1 a5bd
000002f0: 19a6 b3bc 5da7 c9bd 7a50 5d3d 0cef 5ebd
00000300: f1f8 debc 66d8 a3bd bcdf 2cbc d7c7 27bd
00000310: afa9 983d 5b22 5ebd 6c9a 483c 48a6 c6bc
00000320: 2282 a83d b044 453d 9588 0cbe 80f3 15bd
00000330: 98a7 7bbd ca9d 5bbc a230 10be ff9b b23c
00000340: f205 47be 3c96 34bb 6daf 2fbd a18c 193c
00000350: c018 27be b093 823d 43e4 aabd 4fb7 a73d
00000360: 688a fbbc 6b71 a93d 718d af3d 27f7 a23d
00000370: 9efb aabd d5b5 c63d 2ae1 383b a53e 673d
00000380: ab9c a4bd 6982 263e ca5e 063c 1697 62bd
00000390: 4ea7 a93b 5113 e53d 1b82 f23b fa2c b73d
000003a0: 7b78 87bd ccb3 cb3c 9455 2a3d 133b d73b
000003b0: 67cd d43d 19af dc3d 91e8 d5bc aab8 083d
000003c0: 99b4 f0bd 758b e33d 4a37 aa3d a617 32bd
000003d0: 7590 bb3c 62ba 043e e476 e83d f771 33bd
000003e0: 9b93 14bd 7bf7 f3bd f203 993d 0def a83d
000003f0: 2ea6 c33d 069c c2bd 12dc 083d f78c cfbd
0.011121332 0.0051784473 -0.12365894 -0.10946648 0.05651711 0.06106812 0.029417958 0.07836278
-0.03271503 -0.105601184 -0.1096252 -0.009787692 0.055717163 -0.07561846 0.015996803 0.030464614
-0.028092433 0.10593459 0.002734113 -0.074829884 0.02033367 -0.04750627 -0.08241171 0.062733024
0.082699254 0.06474046 -0.0035754335 -0.14042488 -0.051734842 0.028993778 0.043705802 0.01263283
-0.050483022 -0.03438456 -0.10025343 -0.1164313 -0.13441119 -0.07532552 0.10156676 0.10068912
-0.12223469 0.0011133818 0.091640346 0.05572134 -0.06115152 0.029596236 0.047896914 0.040084604
-0.030984858 -0.06075502 0.08765453 0.027239826 -0.04708327 -0.036198862 0.012287497 0.066038154
-0.07477217 0.05772336 -0.084986605 0.033825107 0.03777656 0.04809615 0.10287823 -0.020449929
-0.021602416 -0.01361717 -0.21743068 0.03308657 -0.08767003 0.016533008 -0.074657544 0.006416312
-0.089415036 -0.06403245 -0.0031047696 -0.03899956 -0.07200104 0.10762028 0.07975802 0.086658984
-0.08090824 0.03173504 -0.07855628 0.003776291 -0.0008812198 0.0017465357 0.027111685 -0.04006669
0.06520945 0.013937704 -0.103102565 0.069386795 0.08426775 -0.062330738 0.1087614 0.14835119
0.054129373 0.08685085 -0.012080842 0.08129672 0.046995163 0.058493126 -0.016914193 0.020122902
-0.019280324 0.07020659 0.07897486 -0.06468111 0.036873884 -0.10107218 0.01378563 0.09558187
-0.0139586665 -0.09744578 -0.09836311 -0.023939848 -0.045943514 -0.10107794 -0.07829118 0.09238475
-0.037172996 -0.03459117 0.051579434 0.09093416 0.07580548 0.0025855773 0.09439556 -0.09416947
-0.01887811 -0.07956408 -0.0695203 0.06001969 -0.09500053 -0.0068638553 0.07230862 -0.06316914
-0.011595298 -0.009844637 -0.074123226 0.08678117 0.023816496 -0.01699874 0.015852842 0.0066540875
0.031971812 -0.0411189 -0.036486674 0.08455499 0.024713196 0.049757823 0.050706424 -0.01905096
-0.054963667 0.051247694 0.0038018937 0.062046077 -0.09524343 0.053773187 -0.07223771 0.030577647
0.074401826 -0.0701573 -0.089470305 0.050042454 -0.05362549 -0.097670265 0.07237255 -0.013013854
0.0011571797 0.0075874506 -0.06184631 -0.08285272 -0.09628681 0.026602486 -0.010607999 -0.09985456
-0.021133265 -0.08425978 -0.05111296 -0.06927741 -0.027741455 -0.09624475 0.03314329 0.0040141162
-0.06723009 0.027722517 0.04681669 -0.08087526 -0.021929787 -0.09846375 0.054031827 -0.05442719
-0.027218314 -0.08000259 -0.010551389 -0.040962067 0.074542396 -0.054231983 0.012243848 -0.024249211
0.08227946 0.04816121 -0.13723977 -0.036609173 -0.061439127 -0.013404319 -0.14081052 0.0218029
-0.19435862 -0.0027555367 -0.04289191 0.009371907 -0.16318035 0.063758254 -0.08344319 0.0818926
-0.030705646 0.08273586 0.085719 0.07957297 -0.083487734 0.097026505 0.002821038 0.056456227
-0.080376945 0.16260685 0.00820131 -0.055319868 0.005177415 0.11185325 0.0074007637 0.089441255
-0.06614777 0.024866007 0.04158552 0.0065683215 0.1039074 0.10775585 -0.026111873 0.033379234
-0.11753196 0.11110584 0.08311327 -0.043479584 0.02289603 0.12961724 0.113508016 -0.043809857
-0.03627358 -0.119124375 0.07471456 0.0824872 0.09553181 -0.09502415 0.033413 -0.10134309

layer4.bias f4 [150]
00000000: fd7e 783c b92f 3d3d 11de b03c a107 64bd
00000010: 97ee 63bd 3c1e b03d c41f a23d a305 623c
00000020: 0cc4 8c3b 39f4 353d 9e21 ba3d c222 4a3d
00000030: 4964 cbbd 7287 fd3c 4bc5 b5bc cb27 7ebc
00000040: e871 d93d 8ba4 a5bd f546 f5bc a889 adbd
00000050: a138 763d 49de 4abd 9845 cabd 3eb1 303d
00000060: 651a a03d 47dd 9b3d 7193 12bc 5d1e 9e3b
00000070: aa8e d73d f80d 39bd 5dc0 7c3d 3ad2 d3bd
00000080: 8a7f 78bd be9f b9bd 224b 3e3d bdf4 28bd
00000090: 0f32 79bd 0ab9 7fbd 00a0 f33d e8c0 bdbd
000000a0: 0bdd 05bd 36ed c8bd c7b6 1a3e 286e 25bd
000000b0: 6045 913d 368a a33d 8e56 93bd d766 403c
000000c0: 1f20 e63d 979f 36bd 30e9 ecbc e3e8 ba3d
000000d0: 2318 bf3d 4627 cbbb bd77 febb 87c4 203c
000000e0: c604 8dbc 5a5e 2a3b 1431 8bbc 98a0 003e
000000f0: ab7c a53d a0ba 65bd f50a 01bd 2c9d c33c
00000100: e373 803d 7d2a 7abd 328b 293d 2921 c4bc
00000110: d960 c0bc fc25 a1bd 07fa f33c 7d04 ca3a
00000120: 6789 36bd 3430 943c 6f83 87bd 5d0e 6a3b
00000130: 47aa 633c b85d cb3d 02c7 ed3c 42a0 e03c
00000140: 8ad8 3d3c a9e6 1b3d 8b3e 833d c9e8 95bd
00000150: bfdb e73d 2287 543d 80b2 e53d 1515 813d
00000160: 0e35 e03d f615 c23d c351 cebd ba39 4e3d
00000170: 73d5 e33c 64b6 ed3c 8231 393b 7da7 1abd
00000180: 8580 40bd 0560 b0bb b512 383d 090a 193d
00000190: d212 843c 5939 d63c 0e39 ab3d 3abc fc3d
000001a0: 7639 b03c dfbb 3d3d 4f79 92bd b012 f2bd
000001b0: b004 28bc 3cd4 f03d 274d 3a3c 4f95 c73b
000001c0: 54bd d4bd 3e6f f83b f166 183b 8058 8c3d
000001d0: a187 a03d 99c3 6bbd efcb ca3d 1459 9a3c
000001e0: 5a6d be3c 2941 933b df7b 6f3d 1f84 a5bc
000001f0: 448c d93d ba11 0a3d dbe7 d03c 35f3 5fbd
00000200: 208d c9bc b51a cabd 4878 efbd afe3 da3d
00000210: bc25 6b3d ef8c a3bd e204 873b 3d62 03be
00000220: 120e fcbc 1b69 8f3d d9b2 373d 39af bdbd
00000230: 4007 b33c f0e3 623d 899f cf3d 2124 763c
00000240: 1fd6 c53d cead e03d f5ee 9bbd b0bf 913d
00000250: a8ee d13d e0e9 d83d
0.015166995 0.04618809 0.021590265 -0.055671338 -0.05564746 0.08599517 0.07916215 0.013795289
0.0042958315 0.044422362 0.09088443 0.049349554 -0.09931237 0.030948374 -0.022188803 -0.015512417
0.10617429 -0.08088025 -0.029941062 -0.084735215 0.0601126 -0.049528394 -0.09876555 0.04313778
0.07817534 0.07610565 -0.008946286 0.004825397 0.10525258 -0.045179337 0.06170689 -0.10342832
-0.060668506 -0.090636715 0.04645837 -0.041249026 -0.060838755 -0.062432326 0.11895752 -0.092653096
-0.032681506 -0.098108694 0.15108787 -0.040388256 0.0709331 0.07985346 -0.07194243 0.011743269
0.11236595 -0.04458579 -0.028919786 0.09126451 0.093307756 -0.00619975 -0.0077657388 0.009812481
-0.01721419 0.002599618 -0.016991176 0.12561262 0.08080419 -0.056086183 -0.03150459 0.023878656
0.06272104 -0.061075676 0.041392513 -0.023941593 -0.02348368 -0.07868573 0.029782308 0.0015412715
-0.04456463 0.018089391 -0.06616866 0.0035714128 0.013895578 0.09929985 0.029025558 0.027420167
0.0115872715 0.03806177 0.064084135 -0.07319791 0.1132121 0.051886685 0.11215687 0.06302849
0.109476194 0.09476845 -0.100741886 0.05034802 0.027811741 0.029017635 0.0028258269 -0.037757386
-0.046997566 -0.00538254 0.044939715 0.037363086 0.016122255 0.026150392 0.08360492 0.12340589
0.021511775 0.046321746 -0.07152044 -0.118199706 -0.010255024 0.117592305 0.011370934 0.006090797
-0.10387674 0.0075816205 0.0023254717 0.068528175 0.07838369 -0.057559583 0.099021785 0.018841304
0.023245502 0.0044938517 0.058467742 -0.020204602 0.10622457 0.03370831 0.025501182 -0.0546753
-0.024603426 -0.09868375 -0.11692864 0.106879584 0.057409033 -0.07985865 0.004120455 -0.12830444
-0.030768428 0.07002469 0.044848297 -0.09261937 0.021854043 0.05539316 0.10137851 0.015023262
0.09659981 0.109706506 -0.07613937 0.071166396 0.10250598 0.10591483
