GP_MVC_hw_3view/results/checkpoints/experiment_name/12_net_AE.pth (torch_old, 935829 bytes, 17 tensors)

layer1_1.weight f4 [200, 216]
0	0x3be32ad3	0.0069325953
1	0xbd498dee	-0.04920762
2	0xbd3d0cce	-0.04615479
3	0x3d055ede	0.032561176
4	0x3c7f2e9d	0.015575078
5	0xbb84049a	-0.004028869
6	0x3bfd53a3	0.0077309175
7	0x3d46bebb	0.04852174
8	0xbd805217	-0.062656574
9	0xbd2ced2c	-0.042218372
10	0xbd3f1140	-0.04664731
11	0xbd3aceea	-0.045607485
12	0x3b96f13f	0.0046063955
13	0xbcc76d7a	-0.024344195
14	0xbd3b8f15	-0.04579075
15	0xbc81a2f7	-0.015824778
16	0xbc901f14	-0.017592944
17	0xbd4cbf94	-0.04998739
18	0xbd57c1ea	-0.052675165
19	0x3d52cabb	0.05146287
20	0x3d202958	0.03910193
21	0x3d6e9fb3	0.05825777
22	0xbc66fa7d	-0.014097807
23	0x3c170c5a	0.009219253
24	0xbc6a1bda	-0.014288867
25	0xbd351b35	-0.0442154
26	0x3d11bf7f	0.035583016
27	0xbccc00e5	-0.02490277
28	0x3ba4b0fc	0.005025981
29	0x3b023dee	0.0019873339
30	0x3c5800e6	0.013183808
31	0xbc8aadff	-0.01692867
32	0x3d23a39a	0.039950944
33	0x3d1a4b48	0.03766945
34	0x3b130a44	0.0022436539
35	0x3d27c3a1	0.04095805
36	0xbc239eb0	-0.0099865645
37	0x3d713f65	0.05889835
38	0xbd66efa5	-0.056380887
39	0xbd4ed4aa	-0.05049578
40	0x3d647036	0.055771075
41	0x3d1fc7fa	0.039009072
42	0x3d81876e	0.06324659
43	0xbd85984e	-0.065231904
44	0x3d2714c6	0.040791295
45	0xbd47dab5	-0.04879256
46	0x3b71b4b7	0.0036881396
47	0x3d7c4e3d	0.06159805
48	0xbd713d57	-0.05889639
49	0xbc5a97f6	-0.013341894
50	0xbc3b4691	-0.011430399
51	0xbd112ab5	-0.03544112
52	0x3d510031	0.051025573
53	0xbd169d27	-0.036770966
54	0xbcb628e1	-0.02223629
55	0xb99d4f3a	-0.00030004402
56	0xbc274d21	-0.01021126
57	0xbc1fcda4	-0.009753618
58	0xbc7d7d00	-0.015471697
59	0x3d1fd63b	0.039022665
60	0x3d46b836	0.04851552
61	0x3d11283c	0.03543876
62	0xbd27114d	-0.040787984
63	0xbb3acea0	-0.0028504506
64	0x3cc0d4af	0.023538915
65	0xbd544c64	-0.051830664
66	0x3d885867	0.066574864
67	0x3d3ffcad	0.04687183
68	0x3c70e179	0.014702194
69	0x3d314213	0.043275904
70	0xbd4c51e4	-0.049882784
71	0xbd437c35	-0.047725875
72	0xbd303456	-0.04301866
73	0x3c66ad3f	0.014079391
74	0xbd84b6ae	-0.06480156
75	0xbd51663b	-0.051122885
76	0xbd8e348b	-0.069436155
77	0x3d4b625b	0.049654346
78	0xbd1bc62c	-0.03803079
79	0x3cac93d4	0.021066584
80	0x3cf9264c	0.03041377
81	0xbcf68df1	-0.03009698
82	0x3d6e798c	0.058221385
83	0xbd818e38	-0.06325954
84	0x3c96489f	0.018345175
85	0x3d893ba2	0.06700827
86	0xbccba5ad	-0.024859274
87	0xbd2ca3ce	-0.042148404
88	0xbd3f1690	-0.046652377
89	0xbcec0ce9	-0.02881475
90	0xbcf8657f	-0.030321835
91	0xbd412d69	-0.047162447
92	0xbd2ee5c1	-0.04269958
93	0xbb86fc01	-0.0041193967
94	0x3b69fe25	0.003570446
95	0x3c44481a	0.011980081
96	0x3d298d2a	0.04139439
97	0x3d754b35	0.059886176
98	0xbd1104ae	-0.035404854
99	0xba983fd1	-0.0011615698
100	0xbd67590b	-0.056481402
101	0x3cd70e49	0.026251929
102	0x3d46d7fa	0.048545815
103	0xbd460ae8	-0.048350245
104	0xbd2b517b	-0.041825753
105	0xbcf645f0	-0.030062646
106	0xbcd161dd	-0.02555936
107	0x3d0c7ee1	0.03430069
108	0x3cd6790c	0.026180767
109	0x3d829f2c	0.06378016
110	0x3d1d2cbd	0.038372744
111	0xbb232b0d	-0.0024897486
112	0xbd2ae2f5	-0.04172035
113	0x3cdba80f	0.026813535
114	0x3b6b3724	0.003589102
115	0x3d8d8889	0.06910808
116	0xbccce525	-0.025011608
117	0x3b95a030	0.004566215
118	0x3d2d43fd	0.042301167
119	0x3d8a766b	0.06760868
120	0x3c7610cd	0.015018654
121	0xbd6970fc	-0.056992516
122	0x3d21ab72	0.039470144
123	0xbd6cdb2c	-0.057826206
124	0xbd0b931b	-0.034075838
125	0x3d4daf57	0.050216045
126	0x3cf24a36	0.029576402
127	0x3c611583	0.013738039
128	0xbbfd79b7	-0.007735457
129	0x3d3c9886	0.046043895
130	0x3c01ea19	0.007929348
131	0x3d8708ac	0.06593451
132	0xbd5ae17b	-0.05343769
133	0xbbe0e6db	-0.0068634576
134	0x3d35a454	0.04434617
135	0x3cc7ba2d	0.024380768
136	0x3c699fad	0.014259261
137	0x3b7980a0	0.0038071051
138	0xbd4b569f	-0.049643155
139	0xbc832328	-0.016007975
140	0x3d25f79e	0.04051935
141	0x3d1b78e3	0.037957083
142	0xbd36c5d1	-0.044622246
143	0x3cb63df6	0.022246342
144	0x3c494115	0.012283583
145	0xbd49a29b	-0.04922734
146	0xbc11df4b	-0.008903335
147	0xbc960bf5	-0.018316248
148	0x3d21b7e1	0.039482
149	0x3cba0a8a	0.022710104
150	0xbd722302	-0.059115417
151	0xbd12813a	-0.03576777
152	0x3cbcdf46	0.023055684
153	0x3d5c6f0b	0.053816836
154	0x3d19fd69	0.037595186
155	0xbd3cb16a	-0.046067633
156	0x3cf7cd58	0.030249283
157	0xbcc7f5e6	-0.024409246
158	0xbd84ae22	-0.06478526
159	0xbd4b4d52	-0.049634285
160	0x3d6309ad	0.05542915
161	0xbcf27e9b	-0.029601386
162	0xbd61bafe	-0.05510997
163	0x3d21838a	0.039432086
164	0xbcfddf6c	-0.030990325
165	0x3a5affe5	0.00083541713
166	0x3d82fa8c	0.06395444
167	0x3d5098c3	0.050926935
168	0xbd62d694	-0.05538042
169	0xbcdbb119	-0.026817845
170	0x3d779b1a	0.06045065
171	0xbd80f238	-0.062961996
172	0xbc849f6e	-0.016189303
173	0xbd10f5c9	-0.03539065
174	0xbd3d6850	-0.04624206
175	0x3ca1c695	0.019748012
176	0xbd488eb2	-0.04896421
177	0x3b75b780	0.0037493408
178	0x3c43b5c6	0.011945194
179	0x3bc801ac	0.006103715
180	0x3d710154	0.058839157
181	0x3d712256	0.058870636
182	0x3a1f165e	0.00060687016
183	0x3d4cb055	0.04997285
184	0x3d3f3ad8	0.046686977
185	0xbd490ccf	-0.04908448
186	0xbd4b4359	-0.049624775
187	0x3ca123e5	0.019670436
188	0x3bd37218	0.00645281
189	0xbd21620d	-0.03940015
190	0xbbeb0ad3	-0.007172921
191	0xbd1a73db	-0.037708145
192	0x3d70d34a	0.05879525
193	0xbd108699	-0.035284612
194	0xbd2f1c5a	-0.042751648
195	0xbcbe986c	-0.02326604
196	0x3c20816f	0.009796484
197	0xbd4558e7	-0.048180487
198	0x3d118c05	0.035533924
199	0x3b520fad	0.00320528
200	0xbcc371b9	-0.023857938
201	0x3c80feba	0.015746463
202	0x3cb5d416	0.022195857
203	0x3cc81764	0.024425216
204	0xbc2839ac	-0.010267656
205	0x3d1bc18e	0.038026385
206	0x3d5b62b4	0.053560928
207	0xbd19b8f2	-0.037529893
208	0x3d6c7d06	0.05773642
209	0xbc30b6b5	-0.010785748
210	0x3d7d485d	0.06183659
211	0x3d86ee1b	0.06588384
212	0xbcef67ee	-0.029224362
213	0x3cf334d7	0.029688282
214	0x3c86ab65	0.01643915
215	0x3bebf359	0.00720064
216	0xbb54f400	-0.0032494068
217	0xbd1c9e4e	-0.03823691
218	0xbca486ca	-0.020083804
219	0x3c63e230	0.013908908
220	0xbd81b878	-0.06334013
221	0x3d3cb9ae	0.046075515
222	0x3c988a20	0.01862055
223	0x3d3644f2	0.044499345
224	0x3d56f6dc	0.052481517
225	0xbc67335c	-0.014111366
226	0xbc930c86	-0.017950308
227	0xbc9b1d0e	-0.018934753
228	0xbd85c638	-0.06531948
229	0xbc22e130	-0.009941384
230	0x3d04ae6e	0.03239291
231	0x3d543b76	0.05181452
232	0xbc708e40	-0.014682353
233	0x3d3dade6	0.04630842
234	0xbd749a55	-0.059717495
235	0x3d718014	0.058960035
236	0x3c409d20	0.0117562115
237	0x3d7da6d0	0.061926663
238	0xbcda799c	-0.026669316
239	0x3d5a3ef0	0.053282678
240	0x3cc400e4	0.023926206
241	0xbd6ef276	-0.058336698
242	0xbc7dcc14	-0.015490551
243	0x3d71cd48	0.059033662
244	0xbd4cdf44	-0.05001761
245	0x3ccec5e4	0.025240846
246	0xbc75a01c	-0.014991786
247	0x3d1865d2	0.03720648
248	0xbd7e6c2e	-0.062114887
249	0xbab1bbc0	-0.0013559982
250	0x3cc6d924	0.024273463
251	0xbc400b34	-0.011721421
252	0xbd2f7d17	-0.042843904
253	0x3d08e8ba	0.03342507
254	0xbd42a3bc	-0.04751943
255	0x3d574d22	0.052563794

layer1_2.weight f4 [200, 76]
0	0xbce4d082	-0.027931456
1	0x3e1afc79	0.15135373
2	0xbca9a7bb	-0.020709863
3	0x3cfc9154	0.030831017
4	0xbca29152	-0.019844685
5	0xbe1cf61e	-0.15328261
6	0xbe05cba5	-0.13065965
7	0xbd9dc8e7	-0.07704335
8	0xbe3ba857	-0.18325935
9	0xbdcc0ba2	-0.09963156
10	0xbc7352c5	-0.014851277
11	0xbe041b55	-0.12901051
12	0xbdd78cad	-0.10524879
13	0xbdfb2662	-0.1226318
14	0xbdae6901	-0.08516122
15	0x3d0d0ea7	0.0344378
16	0xbdb36080	-0.0875864
17	0x3d5dcb53	0.054148983
18	0x3dd16b87	0.10225587
19	0xbd382a08	-0.04496196
20	0xbd8b02e7	-0.06787663
21	0xbbfd4f14	-0.007730374
22	0xbdc9e107	-0.09857374
23	0xbc19c8ac	-0.009386223
24	0x3d344e84	0.04402019
25	0xbdc94146	-0.09826903
26	0xbd9c8101	-0.07641793
27	0x3d73ba76	0.059503995
28	0xbd26b0a0	-0.040695786
29	0x3d431e69	0.047636423
30	0xbd7d94b7	-0.061909404
31	0x3dcfc575	0.10145084
32	0xbdae9f03	-0.08526423
33	0x3deb3c35	0.11486093
34	0x3b5923f4	0.0033133002
35	0x3cdddef5	0.027083853
36	0xbc35eeba	-0.01110428
37	0xbdc573ba	-0.09641214
38	0xbbcfd11f	-0.006342068
39	0xbcac647b	-0.021044007
40	0x3d785071	0.06062359
41	0xbd48298a	-0.04886774
42	0xbb6527e4	-0.0034966404
43	0x3d5bfc2e	0.053707294
44	0x3d025d15	0.03182705
45	0x3d835a2f	0.064136855
46	0xbce9fba1	-0.028562369
47	0xbd0e711f	-0.03477585
48	0x3a8c7f5c	0.0010719108
49	0xbdad9465	-0.0847557
50	0x3d8b3e87	0.067990355
51	0xbd191b8d	-0.03737979
52	0x3d078cf2	0.0330934
53	0xbdcee9d0	-0.1010319
54	0xbd08fc28	-0.0334436
55	0x3c6ab563	0.0143254725
56	0xbd9a2e69	-0.07528383
57	0xbdb1654c	-0.08661899
58	0xbb9bbac1	-0.0047524874
59	0x3db0b2b0	0.08627832
60	0xbdaea3ca	-0.08527334
61	0x3d847d6a	0.06469233
62	0x3d3912af	0.045183834
63	0xbd096d28	-0.033551365
64	0xbdcec2dc	-0.1009576
65	0xbd04e369	-0.032443438
66	0xbc5b97ae	-0.0134028625
67	0xbd685432	-0.05672092
68	0x3d5efe82	0.054441936
69	0x3d84c65d	0.06483147
70	0x3c8ba1ce	0.017044928
71	0xbd509062	-0.050918944
72	0xbd93fe32	-0.07226218
73	0x3dfc0c3b	0.1230702
74	0x3d573eaa	0.052549995
75	0x3d4b342c	0.0496103
76	0xbe245a29	-0.16050018
77	0xbcfd4afc	-0.030919544
78	0xbdb39969	-0.08769495
79	0x3d7651ce	0.06013661
80	0x3e29dcc4	0.16588122
81	0xbe3e13ef	-0.18562292
82	0x3d1c4353	0.038150143
83	0xbe08b286	-0.13349351
84	0x3e4c5033	0.19952469
85	0x3d8e1dac	0.06939253
86	0xbcaa1d6e	-0.020765986
87	0xbe007a37	-0.12546621
88	0xbdcfa03d	-0.10137985
89	0x3db07902	0.086168304
90	0x3d8209de	0.06349538
91	0xbddca8c8	-0.1077438
92	0x3d3f11ea	0.046647944
93	0xbdbb5c6c	-0.091484874
94	0xbcdaefdd	-0.026725704
95	0x3a35d670	0.0006936556
96	0x3da8b0a7	0.08236819
97	0xbdcae65e	-0.0990722
98	0x3c7f2ea7	0.015575088
99	0x3d57ac55	0.052654583
100	0x3de61e6e	0.11236273
101	0x3cbc3b28	0.022977427
102	0xbdbe6eed	-0.09298501
103	0x3c2f800b	0.01071168
104	0x3dc7996e	0.09746061
105	0x3c8c454a	0.017122883
106	0xbc32d1ff	-0.010914325
107	0x3d2ceb62	0.042216666
108	0x3dd8fdf1	0.105953105
109	0x3b334c76	0.0027358807
110	0xbdda7319	-0.106664844
111	0x3d7da3d9	0.061923835
112	0xbc602bce	-0.013682319
113	0xbd0e82e0	-0.03479278
114	0xbdaf0ff0	-0.08547962
115	0x3dec611e	0.11541961
116	0xbd62a8bf	-0.05533671
117	0x3bb53588	0.005530063
118	0xbdba7917	-0.09105127
119	0xbd94f154	-0.07272592
120	0xbaeb770f	-0.0017964559
121	0x3d415a15	0.04720505
122	0xba88fe7f	-0.0010451822
123	0x3da606fb	0.081068
124	0x3d3743ef	0.04474252
125	0xbe050631	-0.12990643
126	0x3d066ca3	0.032818448
127	0x3d9e2d75	0.07723514
128	0x3d9ee440	0.07758379
129	0x3d109f12	0.03530795
130	0xbdeac75f	-0.11463808
131	0xbda32ddd	-0.07967732
132	0x3d3cc5d4	0.0460871
133	0x3d387741	0.045035604
134	0x3c9d906a	0.019233901
135	0xbd265efd	-0.04061793
136	0x3c239d88	0.009986289
137	0xbe0af2cf	-0.13569187
138	0x3b059eae	0.002038877
139	0x3e0e33dc	0.1388697
140	0xbd26de3f	-0.040739294
141	0xbc0df9eb	-0.008665542
142	0xbd8189bc	-0.06325099
143	0xbcf52fd2	-0.029930029
144	0xbd50bf31	-0.050963584
145	0xbd974362	-0.07385899
146	0xbd6585c7	-0.056035783
147	0x3d80534a	0.06265886
148	0xbdb9b3dd	-0.09067509
149	0x3e3e2abf	0.18570994
150	0xbd9bd3fd	-0.07608793
151	0x3e717798	0.23580778
152	0xbdac6874	-0.0841836
153	0xbcaad7fa	-0.020854939
154	0xbe272183	-0.16321377
155	0xbe27b232	-0.1637657
156	0x3e3cf629	0.18453278
157	0xbd8803f9	-0.06641383
158	0xbcde33b9	-0.027124273
159	0xbdf9955a	-0.1218669
160	0xbbd5edc0	-0.006528586
161	0xbd3e253e	-0.046422236
162	0x3c18221c	0.009285476
163	0x3d655a41	0.055994276
164	0xbcec9009	-0.028877275
165	0x3e4459fa	0.19174948
166	0x3da30f10	0.07961857
167	0xbc6e765f	-0.014554589
168	0x3dc52f2c	0.09628138
169	0x3d6f997c	0.058495983
170	0xbcc6927a	-0.024239767
171	0xbd904810	-0.07044995
172	0x3d8ba0f8	0.06817812
173	0x3d593276	0.05302664
174	0x3d4abf9d	0.049499143
175	0xbd509ee9	-0.0509328
176	0x3d2f203b	0.042755347
177	0x3da4987c	0.080368966
178	0x3d805f65	0.06268195
179	0xbd3c081f	-0.045906182
180	0x3d8685ba	0.06568475
181	0xbdb53477	-0.088478975
182	0xbdccfef3	-0.10009565
183	0xbd8ebace	-0.06969224
184	0x3d828f7e	0.06375025
185	0x3d9f8f0a	0.077909544
186	0x3d9b9efd	0.07598684
187	0x3d6ae598	0.057347864
188	0x3db10a01	0.08644486
189	0x3d841f1d	0.06451247
190	0x3c6fdbd7	0.014639816
191	0x3dbc8b12	0.09206213
192	0xbd4c8836	-0.04993459
193	0x3dd85c7c	0.10564515
194	0xbce7ad98	-0.028281018
195	0x3d5f5f4a	0.054534234
196	0xbdc674b3	-0.09690227
197	0xbd8fdb19	-0.070242114
198	0xbc5a01cc	-0.0133060925
199	0x3d9f6960	0.077837706
200	0xbd91f159	-0.071261115
201	0x3d67cd77	0.05659243
202	0x3ced8a1c	0.02899652
203	0x3ccc320b	0.024926206
204	0x3cfa04f4	0.03051994
205	0xbd4c4a19	-0.049875353
206	0xbdb15758	-0.086592376
207	0xbbcaae12	-0.0061853016
208	0x3d421e48	0.04739216
209	0x3d063f11	0.03277499
210	0xbd59484a	-0.053047456
211	0xbdc25a51	-0.09489883
212	0x3d259098	0.0404211
213	0xbdf12f52	-0.11776604
214	0xbce67b78	-0.028135046
215	0x3d616e7a	0.055037
216	0xbe1f39b2	-0.15549353
217	0x3e06c6c8	0.13161767
218	0x3d3cb046	0.046066545
219	0x3cf09f1b	0.029372742
220	0xbe10c642	-0.1413813
221	0x3dbc5053	0.09195008
222	0xbde41786	-0.11137299
223	0x3e257434	0.16157609
224	0xbdb221f4	-0.08697882
225	0x3d342732	0.043982692
226	0xbad6ebaa	-0.0016397138
227	0x3dc7e457	0.09760349
228	0x3d0e36a8	0.034720093
229	0xbc986020	-0.018600523
230	0xbd8f18b3	-0.06987133
231	0x3dbbbfac	0.09167418
232	0xbcc6ce01	-0.024268152
233	0xbce6e4ac	-0.028185211
234	0x3dae3cb7	0.08507674
235	0x3da76758	0.08174008
236	0x3c31d748	0.01085455
237	0x3ddd8345	0.10816053
238	0xbc116b2b	-0.0088756485
239	0x3d999a52	0.075001374
240	0xbd872154	-0.06598154
241	0xbdb0594a	-0.086107805
242	0x3de36099	0.11102409
243	0x3bf4c47c	0.007469712
244	0x3de022f3	0.10944166
245	0x3d8ceac9	0.06880719
246	0xbd12eb1e	-0.035868756
247	0x3cf44dd5	0.02982227
248	0xbd0085c0	-0.031377554
249	0x3dd465ea	0.10371001
250	0x3db7f89b	0.089829646
251	0xbd005ce6	-0.031338595
252	0xbdaec300	-0.08533287
253	0x3bb40ebc	0.0054949205
254	0xbd65232c	-0.055941746
255	0xbdb0e308	-0.08637053

layer1_3.weight f4 [200, 64]
0	0xbdf134f6	-0.117776796
1	0x3e9cb1e8	0.30604482
2	0x3d9ee245	0.07758001
3	0x3caaf446	0.020868432
4	0x3dc4c2f5	0.096074976
5	0xbb218f8f	-0.0024652218
6	0xbe1b5573	-0.15169315
7	0x3d9084f3	0.07056608
8	0x3de17ba9	0.110099144
9	0xbe1465cd	-0.14491959
10	0xbe10db28	-0.14146101
11	0xbb182b16	-0.002321904
12	0xbd8b2564	-0.06794241
13	0xbda5df9b	-0.0809929
14	0x3e175f09	0.14782347
15	0x3c834269	0.016022878
16	0xbdc50a59	-0.09621114
17	0xbbdb885f	-0.0066996063
18	0x3c6bf569	0.014401772
19	0x3e01cc92	0.12675694
20	0xbe02bc51	-0.1276715
21	0x3bcd01ae	0.0062563037
22	0xbb9f8779	-0.0048684445
23	0x3d668205	0.05627634
24	0x3e0d354b	0.13789861
25	0x3d762150	0.060090363
26	0x3d6f22d5	0.058382828
27	0xbd918446	-0.07105307
28	0x3d1c381b	0.038139444
29	0xbcba6ac7	-0.022755994
30	0xbd5e9b48	-0.054347306
31	0x3dbaa08c	0.09112653
32	0x3d5d1257	0.05397257
33	0xbcff0c76	-0.031133872
34	0x3d9a0b03	0.075216316
35	0xbd10d419	-0.035358522
36	0x3e005305	0.1253167
37	0xbd7f629c	-0.0623499
38	0x3e3161e0	0.17322493
39	0x3dd387ee	0.10328661
40	0x3da0f3c7	0.07858997
41	0x3df0ef75	0.11764423
42	0xbb57267a	-0.003282933
43	0xbde9473b	-0.11390539
44	0xbe1d7d82	-0.15379909
45	0xbbf35725	-0.00742616
46	0x3deac1cf	0.11462747
47	0x3d361739	0.04445574
48	0x3b0c2fd3	0.002139081
49	0x3d3cba63	0.04607619
50	0xbd751804	-0.059837356
51	0x3b31b283	0.0027114458
52	0xbdbcdba3	-0.0922158
53	0x3d09e828	0.033668667
54	0xbce38109	-0.02777149
55	0x3d252736	0.040320598
56	0xbd199121	-0.03749192
57	0xbc82000e	-0.015869167
58	0xbcdc9c60	-0.026930034
59	0x3cb0454c	0.021517418
60	0xbd0e85ef	-0.034795698
61	0xbdd47a21	-0.10374857
62	0xbde3b7d7	-0.11119049
63	0x3d84d509	0.06485946
64	0xbcece53c	-0.028917901
65	0x3d83173e	0.064009175
66	0xbc7c3220	-0.01539281
67	0x3dd94fbe	0.10610913
68	0x3dc40dd7	0.09572952
69	0x3bd24752	0.0064171935
70	0xbe48cab2	-0.19608572
71	0x3dc676e5	0.09690646
72	0x3d59b397	0.053149786
73	0xbe095785	-0.13412292
74	0xbe3a1f39	-0.18175973
75	0x3daba6a8	0.083813965
76	0xbce376ed	-0.02776667
77	0x3dbdd0f2	0.09268369
78	0x3de2e28d	0.110783674
79	0xbd22cb27	-0.039744522
80	0x3d29247a	0.041294552
81	0xbdf17952	-0.11790718
82	0x3d8551fb	0.06509777
83	0x3dffcda9	0.124903984
84	0x3dd0bfb9	0.10192818
85	0x3e076435	0.1322182
86	0xbcd2d622	-0.025736872
87	0x3e41d9b1	0.18930699
88	0xbd63de6e	-0.055632047
89	0x3c9e47d0	0.019321352
90	0xbdd5ee5a	-0.104458526
91	0x3d4340c3	0.047669183
92	0x3e21f16e	0.15814754
93	0xbd1f44e9	-0.038884077
94	0x3d535484	0.051594272
95	0xbdb6baee	-0.08922373
96	0xbd2b2d6a	-0.041791357
97	0xbc87757f	-0.016535519
98	0x3d7a4111	0.06109721
99	0x3da4883f	0.080337994
100	0x3dff8866	0.12477188
101	0x3d0110e3	0.031510245
102	0xbc7d09bd	-0.015444216
103	0x3d77d806	0.06050875
104	0xbd48abd8	-0.048992008
105	0x3d887666	0.06663208
106	0xbd239855	-0.039940197
107	0xbd2da155	-0.042390186
108	0x3e2f9990	0.17148423
109	0x3d827f8e	0.063719854
110	0x3c672d56	0.01410993
111	0xbd9e0221	-0.0771525
112	0x3c5fba35	0.013655235
113	0x3d1ebb01	0.03875256
114	0xbcfcaf45	-0.030845294
115	0x3cbd07ac	0.023074947
116	0x3c611081	0.013736845
117	0x3d3e3e44	0.0464461
118	0xbd8e8f6f	-0.069609515
119	0x3d5fea04	0.054666534
120	0xbda495e3	-0.08036401
121	0x3e3c589b	0.18393175
122	0x3dbf9b23	0.09355762
123	0xbded9282	-0.1160021
124	0x3dfaad86	0.12240128
125	0x3d93a110	0.072084546
126	0x3da1bd2f	0.07897412
127	0xbdc88bd8	-0.09792298
128	0xbe475a0e	-0.19467947
129	0xbe30ee66	-0.17278442
130	0x3e304249	0.17212786
131	0xbe5f743b	-0.21821682
132	0x3d11610c	0.03549294
133	0x3dd0484d	0.1017004
134	0xbe306c47	-0.17228805
135	0xbd5155fb	-0.051107388
136	0x3d0dd28c	0.03462462
137	0xbe1060b5	-0.14099391
138	0x3d40b2bc	0.047045454
139	0xbd86b7ef	-0.06578051
140	0x3e269b61	0.1627021
141	0xbe335b8e	-0.17515394
142	0x3e28dd44	0.16490656
143	0x3dc8cb66	0.0980442
144	0x3e224e7c	0.15850252
145	0x3caa644d	0.02079978
146	0xbd10f40c	-0.03538899
147	0x3e28d045	0.16485699
148	0xbd20d7cd	-0.039268304
149	0x3da2162a	0.07914384
150	0x3e2af68d	0.16695614
151	0x3dc1869b	0.09449502
152	0x3cabef99	0.020988273
153	0xbde1ee23	-0.11031749
154	0xbd3ed810	-0.046592772
155	0x3d88cff5	0.0668029
156	0xbdb2d3cd	-0.08731804
157	0x3d8d8c26	0.06911497
158	0x3da060b6	0.07830946
159	0x3db35bbb	0.087577306
160	0xbdfb21c4	-0.122623
161	0x3c98fb31	0.018674465
162	0x3b14341f	0.0022614074
163	0xbd9530e4	-0.07284716
164	0x3e26f413	0.16304044
165	0x3b3d4a8a	0.002888354
166	0xbbcd3880	-0.006262839
167	0xbbd37f6b	-0.0064543984
168	0xbd1b58ef	-0.03792661
169	0x3c995555	0.018717447
170	0x3dd5938e	0.104285344
171	0x3da690fd	0.08133123
172	0x3de957dc	0.11393711
173	0x3d402c33	0.04691715
174	0x3d07bae2	0.03313721
175	0xbd91a71b	-0.07111951
176	0x3dac79e6	0.08421688
177	0x3de365e4	0.111034185
178	0x3c8dac10	0.01729396
179	0x3da34285	0.07971672
180	0xbe0f0679	-0.13967313
181	0xbc471d77	-0.012153021
182	0xbd97c271	-0.07410134
183	0x3e2dbe9d	0.16967244
184	0xbd585d51	-0.05282337
185	0xbd811cd4	-0.06304327
186	0x3d1f2bd9	0.038860176
187	0x3ce5f5d2	0.028071318
188	0xbd81d4ce	-0.063394174
189	0xbcca3fc8	-0.024688616
190	0xbdc952cb	-0.09830245
191	0xbdc739c8	-0.09727818
192	0x3df475a8	0.11936504
193	0x3da01864	0.07817152
194	0xbe3dc9fa	-0.18534079
195	0xbd41d571	-0.047322694
196	0x3e044720	0.12917757
197	0xbe3559b7	-0.17710005
198	0x3e652051	0.22375609
199	0x3d8000d4	0.06250158
200	0xbdfa6731	-0.122267134
201	0x3bddbb78	0.006766733
202	0x3d640d98	0.055677027
203	0x3da478e6	0.08030872
204	0xbd986ba4	-0.07442406
205	0xbd0b09f2	-0.03394503
206	0xbdc54156	-0.096316025
207	0x3d7e3fb1	0.06207246
208	0x3d85a9fe	0.06526564
209	0x3d1ab156	0.037766777
210	0x3d05d614	0.032674864
211	0xbdd51986	-0.10405259
212	0x3e098603	0.13430028
213	0x3df6d369	0.12052042
214	0x38e754dd	0.000110307454
215	0xbe03e729	-0.1288115
216	0x3cbc2bf9	0.022970187
217	0xbdd87cd5	-0.10570685
218	0x3daa7e7b	0.083249055
219	0xbe1fa70b	-0.15591066
220	0xbd3c1927	-0.045922425
221	0x3dab8fc7	0.08377033
222	0xbd926dc1	-0.0714984
223	0xbdd0f9e4	-0.10203913
224	0x3ceb73e4	0.028741784
225	0xbc5f1e76	-0.013618102
226	0xbb51946f	-0.0031979342
227	0xbd07f657	-0.033193912
228	0x3e4cbd27	0.19994031
229	0x3e00f2fa	0.12592688
230	0x3da8c59f	0.08240818
231	0xbdc06582	-0.09394361
232	0x3c690e0e	0.014224542
233	0x3dbbbb90	0.09166634
234	0xbd283289	-0.04106382
235	0xbd255f9f	-0.040374395
236	0xbd847910	-0.06468403
237	0xbda95611	-0.08268369
238	0xbd20a505	-0.039219875
239	0xbd526dfd	-0.051374424
240	0x3e1647c6	0.14675817
241	0xbcd23b92	-0.025663171
242	0x3dd0cea5	0.10195664
243	0xbd2d8b0f	-0.042368945
244	0xbcccdf1b	-0.025008729
245	0x3e197395	0.14985497
246	0x3dc30522	0.095224634
247	0xbc98a395	-0.01863269
248	0xbd78e24e	-0.060762696
249	0x3d7d4bfc	0.061840042
250	0x3cf1ea74	0.029530741
251	0xbd46c4ac	-0.048527405
252	0xbd90e344	-0.070745975
253	0xbd49e2f1	-0.049288694
254	0x3c24aed2	0.010051446
255	0x3dc04e5f	0.09389948

layer2.weight f4 [150, 200]
0	0x3c0281f0	0.00796555
1	0x3d4628ff	0.04837894
2	0xbdd3f700	-0.10349846
3	0x3d837a20	0.06419778
4	0xbb72b19e	-0.0037032138
5	0x3df3347a	0.118752435
6	0xbd7d4f5d	-0.061843265
7	0x3abac8eb	0.0014250552
8	0x3df1d630	0.11808431
9	0x3e1438a8	0.14474738
10	0x3c4b6fe8	0.012416817
11	0xbb5a99eb	-0.0033355902
12	0xbc5535fe	-0.013013361
13	0x3d17977d	0.037009705
14	0xbe94259e	-0.2893495
15	0x3dedae5d	0.11605523
16	0xbd8df3f0	-0.06931293
17	0x3db7c89e	0.089738116
18	0x3da029a0	0.07820439
19	0x3ca4facf	0.020139126
20	0x3e16a35a	0.14710751
21	0xbc77057d	-0.015076992
22	0xbd333394	-0.04375036
23	0x3cfc7b99	0.030820655
24	0xbccd901a	-0.025093127
25	0x3b081fc3	0.0020770885
26	0xbd1a12d3	-0.03761561
27	0xbdb2e2b0	-0.087346435
28	0x3c790b0b	0.015200387
29	0xbc6d17f2	-0.014471041
30	0x3e11b68d	0.14229794
31	0x3cc07492	0.023493085
32	0x3dee9f13	0.11651435
33	0xbdd16fd6	-0.10226409
34	0x3daaf631	0.083477385
35	0xbd8c9986	-0.0686522
36	0xbd956ddd	-0.072963454
37	0x3c7b7a24	0.015348945
38	0x3d0facdd	0.035076965
39	0xbd86b775	-0.065779604
40	0x3d637e19	0.055540178
41	0xbd3a557b	-0.045491677
42	0x3dae16d4	0.08500448
43	0xbdf6af50	-0.12045157
44	0xbda2694b	-0.07930239
45	0xbcfadc82	-0.030622724
46	0xbe209351	-0.15681197
47	0xbd4c2f80	-0.049849987
48	0x3dfdabf7	0.12386315
49	0xbe292e6a	-0.16521612
50	0x3d259d25	0.040433068
51	0xbd138785	-0.036017913
52	0x3d80e01c	0.062927455
53	0xbe0b2990	-0.13590074
54	0x3d534eec	0.051588938
55	0x382190f7	3.85204e-05
56	0xbb7cd540	-0.0038579255
57	0xbdee3b96	-0.11632459
58	0x3b8ff7f3	0.0043935715
59	0xbc3ba574	-0.011453021
60	0x3d3ccc2e	0.04609316
61	0x3c4475ca	0.011990974
62	0x3d42b9a6	0.04754033
63	0x3d118592	0.035527773
64	0x3cda5368	0.0266511
65	0xbc0b420b	-0.008499633
66	0x3ce9db4c	0.028546952
67	0x3d20d831	0.039268676
68	0xbcabe11a	-0.02098136
69	0xbb450100	-0.003006041
70	0x3c54020c	0.012939941
71	0xbd6e748e	-0.058216624
72	0x3ce2fcf8	0.027708516
73	0x3c2eaa8a	0.010660777
74	0xbdd04444	-0.10169271
75	0xbd7a1774	-0.061057523
76	0xbc33db96	-0.010977646
77	0x3d33e647	0.04392078
78	0x3e33bbe1	0.17552139
79	0xbc73664c	-0.014855932
80	0x3b56b1da	0.0032759816
81	0x3c73b51d	0.014874724
82	0x3c59af95	0.013286491
83	0x3b455997	0.0030113214
84	0x3dac89fe	0.084247574
85	0x3d3abca7	0.04559007
86	0xbcb88de3	-0.022528594
87	0xbcf1a92a	-0.029499609
88	0x3d0e9939	0.034814093
89	0xbc723ccc	-0.014785003
90	0xbdba19d1	-0.09086955
91	0xbd8cad45	-0.06868986
92	0x3d7072f7	0.05870339
93	0x3cf9bda3	0.030485934
94	0x3d84dac8	0.06487042
95	0x3d9c6fd6	0.076385185
96	0xbceebdc0	-0.029143214
97	0x3b5de103	0.0033856041
98	0xbcb1802a	-0.021667559
99	0xbcc355d0	-0.02384463
100	0x3d7a843a	0.061161257
101	0x3cfbc430	0.030733198
102	0xbc621c09	-0.013800629
103	0xbd7392e9	-0.059466276
104	0x3dbd4fbb	0.09243723
105	0xbd0fef5f	-0.03514039
106	0x3d8d9575	0.06913272
107	0xbdc5e813	-0.09663405
108	0xbd8b94b7	-0.068154745
109	0xbd075e81	-0.03304911
110	0xbd5956e8	-0.053061396
111	0xbdc10d34	-0.094263464
112	0x3ddd6936	0.10811083
113	0xbd3952de	-0.045245044
114	0x3e519696	0.204676
115	0x3c2c400e	0.010513319
116	0x3a8d3b29	0.0010775077
117	0xba232c88	-0.0006224592
118	0x3e04e328	0.12977278
119	0x3dd7b659	0.10532827
120	0x3c08889c	0.008333351
121	0xbbc84c36	-0.0061126007
122	0x3b560fe3	0.0032663278
123	0xbd204324	-0.03912653
124	0xbe0eb751	-0.13937117
125	0xbc7005cb	-0.014649819
126	0x3ce400aa	0.027832348
127	0x3d868c6c	0.06569752
128	0xbb3f22f6	-0.0029165125
129	0x3de95203	0.113925956
130	0xbbe1e826	-0.0068941293
131	0xbdaccac8	-0.08437115
132	0x3e0d0115	0.13769944
133	0x3d3d57d5	0.04622634
134	0x3d6cdf2e	0.05783003
135	0xbcb9715f	-0.022637067
136	0xbdca8d27	-0.09890204
137	0xbdd1c8f8	-0.1024341
138	0x3c945b2f	0.018109886
139	0x3dba9ffd	0.091125466
140	0x3d89b8fa	0.067247346
141	0x3d85f29b	0.06540414
142	0xbd9c9037	-0.07644694
143	0xbc59a378	-0.013283603
144	0xbbadba4f	-0.0053017507
145	0xbd2309fb	-0.03980444
146	0x3d149602	0.03627587
147	0x3d007237	0.031358924
148	0xbd8ee5b9	-0.0697741
149	0x3cc7e013	0.02439884
150	0x3db46e96	0.08810155
151	0x3c8f3361	0.017480554
152	0x3c7aa8c8	0.01529903
153	0xbc61f746	-0.013791865
154	0xbd86b452	-0.06577362
155	0xbdf249a1	-0.1183045
156	0xbdcebbad	-0.1009439
157	0x3d630a87	0.05542996
158	0x3d0e8b94	0.03480108
159	0xbd002070	-0.031280935
160	0x3d162d03	0.03666402
161	0xbcc2c8cb	-0.023777386
162	0xbddceb83	-0.10787108
163	0xbb8af3de	-0.004240497
164	0x3c92d668	0.017924502
165	0x3d1ca9fc	0.038248047
166	0xbda617ff	-0.08110046
167	0x3cb2209b	0.021744063
168	0xbdbae09a	-0.091248706
169	0x3cf1050f	0.029421357
170	0x3dcf7ccf	0.10131227
171	0xbd663e57	-0.056211796
172	0xbc49d514	-0.012318868
173	0x3db9442e	0.09046207
174	0x3c52d3f7	0.012867919
175	0x3cb6e9be	0.022328254
176	0x3d00d60f	0.031454142
177	0x3ce826c8	0.028338805
178	0x3d2caa5d	0.04215466
179	0xbd61b73c	-0.055106387
180	0x3ce02a94	0.027364053
181	0xbc205fdb	-0.009788479
182	0x3dcdb4bd	0.10044239
183	0xbd4d664c	-0.050146386
184	0x3d8db08d	0.0691844
185	0x38fbbd2e	0.0001200385
186	0x3d6e80b0	0.058228195
187	0xbce7a81c	-0.028278403
188	0xbc984826	-0.01858909
189	0xbd1e9ce3	-0.038723838
190	0x3ce869c9	0.028370755
191	0x3d1d4911	0.03839976
192	0xbd950172	-0.07275666
193	0xbd70c9d7	-0.05878624
194	0xbe307a14	-0.17234069
195	0x3d92c116	0.071657345
196	0xbcb6ead9	-0.022328781
197	0x3ce56909	0.028004186
198	0xbb91fa6e	-0.0044549024
199	0x3d2438c6	0.040093206
200	0xbd937ea6	-0.07201891
201	0xbc918038	-0.017761335
202	0xbd2c9863	-0.042137515
203	0x3dc29240	0.09500551
204	0xbdaee3c6	-0.08539538
205	0xbe03bd4e	-0.12865183
206	0x3dbf8d78	0.09353155
207	0x3d0773eb	0.033069532
208	0x3d82decc	0.063901514
209	0xbdaab691	-0.08335603
210	0xbdbf01af	-0.09326493
211	0xbd1bcbac	-0.038036034
212	0x3ddd8d27	0.10817938
213	0x3d2b4be3	0.041820418
214	0x3cf0fada	0.02941649
215	0xbc4baf88	-0.012431987
216	0x3cc94ba8	0.024572209
217	0x3ce8b088	0.02840449
218	0xbcc0216d	-0.023453439
219	0xbdd6b347	-0.10483413
220	0xbdd5b985	-0.10435776
221	0x3b3891d3	0.002816309
222	0x3cc01aad	0.02345022
223	0xbd0639f0	-0.032770097
224	0x3c591345	0.013249223
225	0x3d1c4771	0.03815407
226	0xbd63a21f	-0.055574533
227	0x3dbb91e6	0.09158687
228	0x3cc6ec63	0.02428264
229	0xbd003d0b	-0.031308215
230	0x3e1136a5	0.14181001
231	0x3cfd9d4b	0.030958792
232	0x3da00a19	0.07814426
233	0xbd90f68d	-0.07078276
234	0x3d026b8e	0.031840853
235	0xbc91164a	-0.017710824
236	0x3dcadd51	0.09905494
237	0xbcb1c5d2	-0.021700773
238	0x3ca2c60c	0.019869827
239	0xbd053576	-0.032521687
240	0x3dcf1a64	0.101124555
241	0x3c7bb547	0.015363044
242	0x3d5a1eb4	0.053251937
243	0x3c9b12f0	0.018929929
244	0x3d6fddb9	0.05856106
245	0xbccbf98a	-0.024899263
246	0x3cf92b3d	0.030416125
247	0xbd56bb27	-0.052424576
248	0x3da09c13	0.07842269
249	0xbd7064d7	-0.05868992
250	0xbd3ef407	-0.04661944
251	0x3e0e36ef	0.13888143
252	0x3c6f6e4e	0.014613701
253	0x3d314b57	0.04328474
254	0x3cd4d4f6	0.025980454
255	0x3db8df8f	0.090270154

layer2.bias f4 [150]
0	0x3c964942	0.018345479
1	0xbcb73045	-0.022361884
2	0x3c960305	0.018311987
3	0x3d9176df	0.07102751
4	0xbba0cfa1	-0.004907564
5	0x3c34f6d5	0.0110451775
6	0xbd755aab	-0.05990092
7	0xbbdc09b2	-0.006715023
8	0xbc278445	-0.010224407
9	0x3d53c289	0.051699195
10	0x3d0d2e06	0.03446772
11	0xbcbf2359	-0.023332285
12	0x3d54f204	0.051988617
13	0x3d98ccb7	0.07460921
14	0x3d050172	0.03247208
15	0xbc0069d4	-0.007837731
16	0x3c9102d7	0.01770155
17	0x3d3419e4	0.043970004
18	0xbc1f9e30	-0.009742305
19	0x3c360d9c	0.011111643
20	0xbd08eb12	-0.033427306
21	0x3da725ac	0.08161482
22	0xbd5718e2	-0.052513964
23	0x3d9800af	0.074220054
24	0xbd24f0cb	-0.0402687
25	0xbd0ad1bd	-0.03389143
26	0xbd5b1c89	-0.05349401
27	0xbd1a8381	-0.03772307
28	0x3d32acbc	0.043621764
29	0xbc71d364	-0.014759872
30	0xbcc896c4	-0.024485953
31	0x3d442365	0.047885317
32	0x3da2e97d	0.079546906
33	0xbd225911	-0.03963572
34	0xbcc6f198	-0.024285123
35	0x3d9e3ebd	0.0772681
36	0xbcf126ea	-0.029437501
37	0xbbfbdd1e	-0.0076862713
38	0x3c80b09e	0.015709218
39	0xbcb36dce	-0.021902945
40	0xbd85bfe8	-0.06530744
41	0xbccb2949	-0.02479996
42	0xbd587b8f	-0.05285221
43	0xbd60c104	-0.054871574
44	0x3c707223	0.01467565
45	0xbcc75b97	-0.024335666
46	0x3d7bae7c	0.0614457
47	0xbd2dc3de	-0.04242312
48	0x3d52666f	0.05136722
49	0xba3ed803	-0.0007280113
50	0x3d935747	0.07194381
51	0x3d0da23b	0.034578543
52	0x3d9ff2f2	0.0781001
53	0xbd4adae0	-0.04952514
54	0x3de3601c	0.11102316
55	0xbc9b5f41	-0.018966319
56	0xbb30d5bd	-0.0026982867
57	0x3d7104c5	0.05884244
58	0xbd47e149	-0.048798833
59	0xbcb31258	-0.021859333
60	0x3c64d886	0.013967639
61	0x3c0ccafc	0.008593317
62	0x3e005d06	0.12535486
63	0x3ba0aec8	0.004903648
64	0x3d8d3a63	0.06895902
65	0x3cdf14b1	0.027231546
66	0x3d8addd7	0.06780594
67	0xbcf420cc	-0.029800795
68	0xbd37a8c5	-0.044838686
69	0x3ca4f2d5	0.020135323
70	0xbd3e1c76	-0.04641386
71	0x3da58d86	0.08083634
72	0x3db296cb	0.08720168
73	0x3aca8e73	0.001545383
74	0xbd484732	-0.048896022
75	0xbca0d13c	-0.01963102
76	0x3c417933	0.011808681
77	0x3db5e4fc	0.08881566
78	0x3d113b12	0.035456724
79	0xbd879cf4	-0.06621733
80	0xbb4d083a	-0.003128542
81	0x3d7ffb14	0.062495306
82	0x3d9861dd	0.07440541
83	0xbc275453	-0.010212976
84	0x3caf9f5b	0.021438291
85	0x3dae9f27	0.0852645
86	0xbd32e014	-0.04367073
87	0x3c097239	0.008389049
88	0x3ba4e3fe	0.0050320616
89	0xbce3c766	-0.027805042
90	0x3bd968d8	0.006634813
91	0xbc847904	-0.016170986
92	0x3d6ff347	0.058581617
93	0x3a8ee8c2	0.0010903107
94	0xbd01a58e	-0.031652026
95	0x3b23ec01	0.0025012495
96	0x3cf83e91	0.030303271
97	0xbbf295f3	-0.0074031292
98	0x3d4e3f9e	0.05035364
99	0xbd02eefd	-0.0319662
100	0x3cd849d6	0.026402395
101	0x3d4e921b	0.050432306
102	0x3bed6445	0.007244619
103	0xbd35e51f	-0.04440796
104	0xbd99b016	-0.07504289
105	0xbc8099be	-0.01569831
106	0xbd073505	-0.033009548
107	0x3db0d05d	0.08633492
108	0x3cf9d943	0.030499106
109	0x3c1ad252	0.009449558
110	0xbcf45087	-0.029823555
111	0x3d98b5ca	0.074565485
112	0x3c2b6124	0.010460172
113	0xbd2bdc32	-0.04195804
114	0x3b6113db	0.003434411
115	0xbd0343ac	-0.03204696
116	0xbbf0dbb2	-0.0073504085
117	0x3d3d5ff7	0.046234097
118	0x3d36db33	0.04464264
119	0x3d3c61e8	0.04599181
120	0x3abd0a00	0.0014422536
121	0xbccc6534	-0.024950601
122	0xbd0b6d7c	-0.03403996
123	0xbd0f99b3	-0.03505869
124	0xbd2d605f	-0.042328235
125	0x3d2d3ec1	0.042296175
126	0x3b15abe2	0.0022838046
127	0xbd924268	-0.07141572
128	0xbd9b7bfe	-0.07592009
129	0x3db01ff1	0.08599842
130	0xbd5e4f3b	-0.05427478
131	0xbbec640e	-0.007214076
132	0x3ce002b0	0.027345031
133	0xbd49adc8	-0.049237996
134	0x3d43a53b	0.047764998
135	0x3d312012	0.043243475
136	0x3d2391ba	0.039933898
137	0xbc3b08c3	-0.011415663
138	0x3c7cd20e	0.01543094
139	0x3d50bdb5	0.05096217
140	0x3d203968	0.039117247
141	0x3d321213	0.04347427
142	0xbca3d2ca	-0.019997973
143	0x3d17e059	0.03707919
144	0x3c53922e	0.01291327
145	0x3d88d475	0.06681148
146	0x3c98ebda	0.01866715
147	0xbd2141d1	-0.039369408
148	0xbd505052	-0.05085785
149	0xbb1f6179	-0.0024319573

layer3.weight f4 [100, 150]
0	0xbd4cfee6	-0.050047778
1	0x3cfad03b	0.03061687
2	0x3ce76b58	0.028249428
3	0x3cc84287	0.024445785
4	0x3e1c1d8f	0.1524565
5	0x3d1dc126	0.03851428
6	0xbba8fa33	-0.005156779
7	0x3ddc2d54	0.10750833
8	0x3d2c9390	0.042132914
9	0x3eb7d74a	0.3590644
10	0xbd66095f	-0.05616128
11	0xbdcae055	-0.09906069
12	0xbcd3fbb2	-0.025876854
13	0xbd52cdc1	-0.051465753
14	0xbd241ada	-0.04006467
15	0xbd53f759	-0.05174956
16	0x3c957f77	0.018249257
17	0xbe1513e5	-0.1455837
18	0xbccd4b5e	-0.025060352
19	0x3e0262f6	0.12733063
20	0xbdfddd4f	-0.12395727
21	0x3dfa6f6c	0.12228283
22	0xbdcbf36c	-0.099585384
23	0x3db710a2	0.08938719
24	0xbc2071a2	-0.009792717
25	0x3cb89708	0.022532955
26	0xbdbce427	-0.09223204
27	0x3e23a13b	0.15979473
28	0x3d802757	0.062575035
29	0x3d6de075	0.058075387
30	0xbe0480af	-0.12939714
31	0xbc90ae9d	-0.017661387
32	0x3dafd442	0.08585407
33	0x3d1aec6c	0.037823126
34	0xbd814c6c	-0.063134044
35	0x3bd0143a	0.0063500674
36	0xbd86a54d	-0.06574497
37	0x3a7360c0	0.0009284131
38	0x3d8c9caf	0.068658225
39	0x3e1aec3b	0.15129177
40	0x3d3371b5	0.04380961
41	0x3d2fd82a	0.04293076
42	0x3ce4497b	0.02786707
43	0xbd927a95	-0.07152287
44	0xbd4d61b9	-0.050142024
45	0x3e328438	0.1743325
46	0xbc5927f8	-0.013254158
47	0x3db4eb88	0.088339865
48	0x3d94b8be	0.07261799
49	0xbdb45021	-0.08804346
50	0xbcfeb6a6	-0.031092953
51	0x3d483c4d	0.048885632
52	0x3b9ec30b	0.0048450283
53	0x3d9560f1	0.07293881
54	0xbd1edd38	-0.03878519
55	0x3dba967b	0.09110733
56	0x3a78bc0f	0.0009488472
57	0xbe3763e2	-0.17909196
58	0xbc8e41d5	-0.017365376
59	0x3de1eda6	0.11031656
60	0x3cedf9cc	0.029049776
61	0xbbb2512a	-0.0054418044
62	0x3e066926	0.13126048
63	0xbe5be6a8	-0.21474707
64	0x3c9f14d5	0.019419113
65	0xbd6e847d	-0.05823182
66	0x3e140738	0.14455879
67	0xbbfacfff	-0.0076541896
68	0xbe28c018	-0.16479528
69	0x3c14079c	0.009035017
70	0x3d4d9eb5	0.050200183
71	0x3d82b024	0.063812524
72	0x3e0b2327	0.13587628
73	0xbdb4d2ce	-0.0882927
74	0x3c8c3eb5	0.017119745
75	0x3dbea810	0.09309399
76	0xbdc5e182	-0.09662153
77	0x3d366885	0.04453327
78	0x3d57d6cb	0.052695077
79	0xbd8f5ecf	-0.07000505
80	0x3dd457b4	0.103682905
81	0x3d2f879a	0.04285393
82	0x3bb9c433	0.0056691407
83	0x3c67b651	0.014142589
84	0x3e12d4c2	0.14338973
85	0x3d8d6a36	0.06905024
86	0x3db504ec	0.088388294
87	0x3c5c99f6	0.0134644415
88	0xbd199fe3	-0.037505995
89	0xbd48fdc2	-0.049070127
90	0x3c58ad29	0.013224878
91	0x3b1da86e	0.002405669
92	0x3d0cd5f4	0.03438373
93	0x3ddfcd14	0.109277874
94	0xbbb30fae	-0.0054645156
95	0xbd2dca8f	-0.042429503
96	0xbda04655	-0.07825915
97	0xbe2cfb5a	-0.16892758
98	0xbd654b5b	-0.055980068
99	0xbd4c02b6	-0.049807273
100	0xbc8bcaa8	-0.017064407
101	0x3d9a4243	0.0753217
102	0xbd0f307e	-0.034958355
103	0xba897b38	-0.0010488993
104	0x3bbc9f3f	0.0057562883
105	0xbd008993	-0.0313812
106	0xbdcfb4c1	-0.10141898
107	0x3d2343da	0.03985963
108	0x3c05cceb	0.008166532
109	0x3e030e13	0.12798338
110	0x3ddbb3e0	0.10727668
111	0xbda65453	-0.08121552
112	0x3d4e502b	0.050369423
113	0xbd0edd70	-0.034879148
114	0x3d755cee	0.059903078
115	0xbdf0e93a	-0.117632344
116	0xbca16aea	-0.0197043
117	0x3e2050cc	0.15655822
118	0x3c889c28	0.016676024
119	0x3d0e6a00	0.03476906
120	0x3cfe0605	0.03100873
121	0xbd3966e5	-0.045264143
122	0xbc25513e	-0.01009017
123	0x3d56455e	0.052312247
124	0x3db88327	0.0900939
125	0x3d253d5d	0.040341724
126	0x3d0c6d60	0.034283996
127	0xbc55db9e	-0.013052849
128	0x3d950a41	0.072773464
129	0xbd4c77e8	-0.04991904
130	0xbdc8f119	-0.09811611
131	0xbdf95513	-0.1217443
132	0x3d892814	0.066970974
133	0xbd6dc150	-0.058045685
134	0xbcf2e978	-0.029652342
135	0x3dcc0869	0.099625416
136	0x3e11d085	0.142397
137	0x3cadc4df	0.02121204
138	0xbcacb29f	-0.021081267
139	0x3d56cd23	0.052441727
140	0x3dec88a8	0.115495026
141	0xbd713198	-0.058885187
142	0xbd4c25d4	-0.049840763
143	0x3d748558	0.05969748
144	0x3daa37c6	0.08311419
145	0xbd224697	-0.0396181
146	0x3b7e7400	0.0038826466
147	0xbdaa189f	-0.08305477
148	0x3dda6927	0.106645875
149	0xbd9ccdd1	-0.07656444
150	0x3d9e69d8	0.07735032
151	0x3b99035f	0.0046695913
152	0xbca8caba	-0.02060448
153	0x3d81f6fc	0.06345937
154	0x3d7f6568	0.062352568
155	0xbda3053a	-0.07959981
156	0xbd113fae	-0.03546112
157	0xbd4100b1	-0.0471198
158	0x3dddf3a7	0.108374886
159	0x3ea7689c	0.32696998
160	0x3c86b576	0.01644395
161	0xbc7c881a	-0.0154133085
162	0xbc162a22	-0.009165319
163	0x3d3835b5	0.044973094
164	0x3d9da181	0.0769682
165	0x3c278676	0.010224929
166	0x3d88d28f	0.06680786
167	0x3c80cadf	0.015721736
168	0xbd8f9581	-0.070109375
169	0xbcce30db	-0.02516978
170	0x3bdc8ef3	0.006730908
171	0xbcfa8746	-0.030582082
172	0xbc7596dd	-0.014989582
173	0x3d34a45b	0.044102054
174	0xbd933ded	-0.07189546
175	0xbdf76dbe	-0.120814785
176	0xbc82ee19	-0.015982674
177	0xbd3582b2	-0.044314094
178	0x3cd51315	0.026010076
179	0x3df2ee2c	0.11861834
180	0x3cf8dc9a	0.030378629
181	0x3e0b151e	0.13582274
182	0xbcad5d33	-0.021162605
183	0x3e02728d	0.1273901
184	0xbd042ecc	-0.03227119
185	0xbd544e84	-0.05183269
186	0xbd80d266	-0.0629013
187	0xbdb38197	-0.08764952
188	0x3d1290ca	0.035782613
189	0x3dcef2ea	0.10104926
190	0x3c5eb2cb	0.013592432
191	0x3d8bf23d	0.06833313
192	0xbc8b3110	-0.016991168
193	0xbcf510b5	-0.029915193
194	0xbcc8ff75	-0.024535874
195	0xbd05ec0a	-0.032695808
196	0xbd022170	-0.03177017
197	0x3d9520a1	0.07281614
198	0x3a4be6d3	0.0007778231
199	0xbcc86097	-0.02446012
200	0xbd8f2c4b	-0.0699087
201	0xbe031a51	-0.12803008
202	0x3dd170b5	0.10226575
203	0x3dfab231	0.122410186
204	0x3d0e9100	0.03480625
205	0xbcec609c	-0.02885466
206	0xbd54defd	-0.05197047
207	0xbc2ac977	-0.0104240095
208	0xbdcc84be	-0.09986256
209	0xbc96e988	-0.018421903
210	0x3dd73de3	0.10509851
211	0x3cbeceb5	0.023291925
212	0x3dc730c6	0.097261
213	0xbe323972	-0.17404726
214	0xbcfda344	-0.03096164
215	0xbda79fb5	-0.081847586
216	0x3d3a2632	0.045446582
217	0x3d826703	0.06367304
218	0xbda1da29	-0.07902939
219	0x3d9c782a	0.07640107
220	0x3d340c93	0.043957304
221	0x3ddfbc5f	0.10924601
222	0x3ba8adf9	0.0051476923
223	0x3dfe9f54	0.12432733
224	0x3d1c8cca	0.038220204
225	0x3dc6cca3	0.09707
226	0xbd9f2749	-0.07771165
227	0x3d27759a	0.040883638
228	0xbd8882b2	-0.06665553
229	0x3e1092c5	0.14118488
230	0x3d9e3882	0.07725622
231	0x3d804182	0.062624946
232	0xbda38185	-0.07983688
233	0xbd03ae15	-0.03214844
234	0x3d8b0c6c	0.06789479
235	0xbd93919c	-0.07205507
236	0xbb325b7f	-0.002721518
237	0xbe0c0838	-0.1367501
238	0xbdd5f2eb	-0.104467236
239	0x3c04d993	0.008108514
240	0xbb3a7144	-0.002844886
241	0x3d365262	0.04451216
242	0x3ceab329	0.028649883
243	0x3b93c00a	0.004508977
244	0x3da720bd	0.08160541
245	0x3d1a1cad	0.037625004
246	0xbe24846f	-0.16066144
247	0xbce82ccf	-0.028341679
248	0xbdab1d67	-0.083552174
249	0xbc3b1903	-0.0114195375
250	0xbd60ba48	-0.05486515
251	0x3be32a4b	0.006932532
252	0xbd9d3985	-0.076769866
253	0x3d9240c2	0.07141258
254	0x3d140be8	0.036144167
255	0x3dd62b98	0.104575336

layer3.bias f4 [100]
0	0x3d9e11e4	0.07718256
1	0xbd591140	-0.052994967
2	0x3d895cc4	0.06707147
3	0x3d8d3e61	0.068966635
4	0x3db8e930	0.09028852
5	0x3dde5a61	0.10857082
6	0x3cee83a8	0.029115513
7	0x3da1ed50	0.07906592
8	0xbd9a9925	-0.07548741
9	0x3db7f885	0.08982948
10	0xbd50c26c	-0.050966665
11	0x3d96c2ac	0.073613495
12	0x3929b30c	0.00016183796
13	0xbd07732c	-0.03306882
14	0x3d98c29c	0.07458994
15	0xbdb69152	-0.089144364
16	0xbd2428af	-0.04007786
17	0x3dec5c87	0.11541086
18	0x3dc4392a	0.09581216
19	0x3c269e74	0.010169614
20	0x3dc9d074	0.098542124
21	0xbb58c9d3	-0.003307928
22	0x3dddbcd5	0.108270325
23	0x3da39612	0.07987608
24	0x3dc73e7a	0.09728713
25	0xbd9d1a3d	-0.0767102
26	0x3cb5623b	0.022141567
27	0xbd29248e	-0.041294627
28	0xbc9bc45a	-0.019014526
29	0x3baa7e11	0.0052030166
30	0x3d925ec2	0.0714698
31	0x3d971f39	0.07379002
32	0xbcc98402	-0.024599079
33	0x3da65a0e	0.08122645
34	0xbd67c2dc	-0.056582317
35	0x3c8df465	0.01732845
36	0x3d95bf60	0.073118925
37	0xbd881e05	-0.06646351
38	0x3b4b4108	0.0031014103
39	0xbc968640	-0.018374562
40	0x3bc70fa6	0.0060748635
41	0xbcca4f1c	-0.024695925
42	0x3ccc2a8c	0.024922632
43	0x3c12431d	0.008927134
44	0xbd332b70	-0.043742597
45	0x3d1d542a	0.038410343
46	0x3cdf2b0c	0.027242206
47	0x3d7aed6f	0.06126159
48	0xbc0f2100	-0.008735895
49	0x3b9c198f	0.004763789
50	0x3c0265a7	0.007958806
51	0xbbb40469	-0.00549369
52	0x3d4f6045	0.05062892
53	0xbd4850e8	-0.048905283
54	0x3d6a57d8	0.05721268
55	0x3d0f250e	0.034947447
56	0x3d9815c3	0.07426026
57	0x3ddf027b	0.10889145
58	0x3dd9f103	0.106416725
59	0x3dcb5da9	0.09929974
60	0xbd16d23a	-0.03682158
61	0x3d4018ea	0.04689876
62	0xbc4b4998	-0.012407683
63	0x3d9f6a7a	0.07783981
64	0x3daff3b4	0.085914046
65	0x3d83a33f	0.06427621
66	0x3d5cb4a6	0.053883217
67	0x3d978175	0.07397739
68	0xbd740100	-0.059571266
69	0x3d37eb95	0.044902403
70	0x3c52a09d	0.012855676
71	0xbd11a6cb	-0.035559457
72	0xbc0c692a	-0.008569995
73	0xbd35da7c	-0.044397816
74	0xbd206bfc	-0.039165482
75	0x3dfdf770	0.124007106
76	0xbd0af44e	-0.033924393
77	0x3d142952	0.03617222
78	0x3dd704c9	0.104989596
79	0x3de42185	0.11139206
80	0xbd9c8b63	-0.076437734
81	0xbdbfa045	-0.09356741
82	0xbd574184	-0.052552715
83	0x3bcf3e10	0.006324537
84	0xbd54de38	-0.051969737
85	0x3c16a3f9	0.009194368
86	0xba9fc22a	-0.0012188603
87	0x3dd91377	0.10599416
88	0x3d822d7e	0.06356333
89	0x3ce02ed2	0.027366076
90	0x3d92faf3	0.07176771
91	0x3d0e51cf	0.034745988
92	0x3a5e5696	0.000848153
93	0xbd0c3d1d	-0.03423797
94	0xbca0ceb3	-0.019629812
95	0x3d9cb598	0.07651824
96	0xbd908791	-0.07057107
97	0x3d277ca8	0.040890366
98	0xbacd0a38	-0.0015643304
99	0x3e0f09ff	0.13968657

layer4.weight f4 [150, 100]
0	0x3c491170	0.012272224
1	0x3baee6f3	0.00533759
2	0xbdfee88f	-0.12446701
3	0xbde1d7c7	-0.110274844
4	0x3d6534e1	0.055958632
5	0x3d7c824b	0.061647695
6	0x3cf8cee1	0.030372085
7	0x3da1d6e5	0.07902316
8	0xbd0b1bfb	-0.03396223
9	0xbdd62360	-0.10455966
10	0xbde02782	-0.109450355
11	0xbc1c1dde	-0.009528605
12	0x3d65bf3a	0.05609057
13	0xbd8b1dc8	-0.0679279
14	0x3c966e11	0.01836303
15	0x3cf990ed	0.030464614
16	0xbce8224f	-0.028336672
17	0x3dda90a3	0.106721185
18	0x3b26e67a	0.0025466965
19	0xbd97169b	-0.073773585
20	0x3ca4a059	0.020095991
21	0xbd438645	-0.04773547
22	0xbda7a522	-0.081857935
23	0x3d81b6e7	0.06333714
24	0x3da87768	0.082259
25	0x3d82a00d	0.063781835
26	0xbb06ab3d	-0.0020548843
27	0xbe0f59df	-0.13999127
28	0xbd550347	-0.05200508
29	0x3cea5983	0.028607136
30	0x3d3168ec	0.043312952
31	0x3c7980ba	0.015228445
32	0xbd4c584e	-0.0498889
33	0xbd12724e	-0.03575354
34	0xbdcd51ac	-0.10025343
35	0xbdefad1e	-0.11702941
36	0xbe0b2490	-0.13588166
37	0xbd9ebb37	-0.07750552
38	0x3dd553e4	0.104163915
39	0x3dd0cff0	0.10195911
40	0xbdf83b20	-0.12120652
41	0x3bdd297f	0.0067493315
42	0x3dbf009c	0.09326288
43	0x3d6929dd	0.05692469
44	0xbd7cc5f6	-0.061712228
45	0x3cfe63d0	0.031053454
46	0x3d3fdd6d	0.046842027
47	0x3d2584b8	0.040409774
48	0xbcfcffae	-0.030883636
49	0xbd7ca61e	-0.06168186
50	0x3db1df2d	0.086851455
51	0x3cebb86f	0.028774468
52	0xbd45dd95	-0.04830702
53	0xbd0d863d	-0.034551848
54	0x3c5c1c66	0.013434505
55	0x3d88535c	0.066565245
56	0xbd9d63e0	-0.07685065
57	0x3d705bc7	0.058681276
58	0xbda9f63e	-0.0829892
59	0x3d14f374	0.036364987
60	0x3d1abb98	0.03777656
61	0x3d476054	0.04867585
62	0x3dd2e46a	0.10297473
63	0xbca0f412	-0.019647632
64	0xbc93e745	-0.018054614
65	0xbc4b07fe	-0.012392042
66	0xbe5f43d6	-0.21803221
67	0x3d056de5	0.032575507
68	0xbdb3b971	-0.087756045
69	0x3c8489ce	0.016178992
70	0xbd99356c	-0.074808925
71	0x3bd67819	0.0065450785
72	0xbdaf5c1b	-0.085624896
73	0xbd849b32	-0.06474914
74	0xbb38dd76	-0.0028208173
75	0xbd17efde	-0.03709399
76	0xbd941df2	-0.07232274
77	0x3ddbac02	0.10726167
78	0x3da47d58	0.0803172
79	0x3db4234d	0.087957956
80	0xbda5b338	-0.08090824
81	0x3d01fc9a	0.03173504
82	0xbda0e21d	-0.07855628
83	0x3b777ba6	0.003776291
84	0xba6701a9	-0.0008812198
85	0x3b400c4a	0.00293042
86	0x3ce1d0b5	0.02756534
87	0xbd259cfc	-0.040432915
88	0x3d87c955	0.06630198
89	0x3c6a2685	0.01429141
90	0xbdd0f4b1	-0.10202921
91	0x3d8f8e6e	0.07009588
92	0x3daaf8ee	0.08348261
93	0xbd78d882	-0.060753353
94	0x3ddfb685	0.10923485
95	0x3e191f4b	0.14953344
96	0x3d606594	0.054784372
97	0x3db24fe0	0.08706641
98	0xbc7186cd	-0.014741612
99	0x3da85990	0.08220208
100	0x3d407e00	0.046995163
101	0x3d6f967d	0.058493126
102	0xbc8a8fa2	-0.016914193
103	0x3ca4d8c9	0.020122902
104	0xbc9df1c5	-0.019280324
105	0x3d8fc879	0.07020659
106	0x3da1bd92	0.07897486
107	0xbd847788	-0.06468111
108	0x3d170912	0.036873884
109	0xbdcefeee	-0.10107218
110	0x3c61dd20	0.01378563
111	0x3dc3c06d	0.09558187
112	0xbc64b2e4	-0.0139586665
113	0xbdc791a7	-0.09744578
114	0xbdc97299	-0.09836311
115	0xbcc41d80	-0.023939848
116	0xbd3c2f44	-0.045943514
117	0xbdcf01f3	-0.10107794
118	0xbda05720	-0.07829118
119	0x3dbd3437	0.09238475
120	0xbd1842b6	-0.037172996
121	0xbd0daf78	-0.03459117
122	0x3d5344f5	0.051579434
123	0x3dba3bb0	0.09093416
124	0x3d9b3fe7	0.07580548
125	0x3b2972ca	0.0025855773
126	0x3dc15276	0.09439556
127	0xbdc0dbec	-0.09416947
128	0xbc9aa644	-0.01887811
129	0xbda2f27e	-0.07956408
130	0xbd8e60a9	-0.0695203
131	0x3d75d735	0.06001969
132	0xbdc28fa3	-0.09500053
133	0xbbe0ea31	-0.0068638553
134	0x3d94168b	0.07230862
135	0xbd815ed2	-0.06316914
136	0xbc3dfa34	-0.011595298
137	0xbc214b66	-0.009844637
138	0xbd97cdeb	-0.074123226
139	0x3db1ba53	0.08678117
140	0x3cc31ad0	0.023816496
141	0xbc8b40f1	-0.01699874
142	0x3c81ddd2	0.015852842
143	0x3bda0a88	0.0066540875
144	0x3d02f4e0	0.031971812
145	0xbd286c4b	-0.0411189
146	0xbd15730d	-0.036486674
147	0x3dad2b2b	0.08455499
148	0x3cca7354	0.024713196
149	0x3d4bcedc	0.049757823
150	0x3d4fb18a	0.050706424
151	0xbc9c10c2	-0.01905096
152	0xbd612195	-0.054963667
153	0x3d51e91a	0.051247694
154	0x3b792931	0.0038018937
155	0x3d7e2407	0.062046077
156	0xbdc30efd	-0.09524343
157	0x3d5c4146	0.053773187
158	0xbd93f15d	-0.07223771
159	0x3cfa7df9	0.030577647
160	0x3d985ffc	0.074401826
161	0xbd8faea1	-0.0701573
162	0xbdb73c35	-0.089470305
163	0x3d4cf951	0.050042454
164	0xbd5ba667	-0.05362549
165	0xbdc80759	-0.097670265
166	0x3d94380f	0.07237255
167	0xbc55380f	-0.013013854
168	0x3a97ac82	0.0011571797
169	0x3bf8a026	0.0075874506
170	0xbd7d528e	-0.06184631
171	0xbda9aeb0	-0.08285272
172	0xbdc53205	-0.09628681
173	0x3cd9ed75	0.026602486
174	0xbc2dcd2c	-0.010607999
175	0xbdcc808c	-0.09985456
176	0xbcad1fab	-0.021133265
177	0xbdac9064	-0.08425978
178	0xbd515bd3	-0.05111296
179	0xbd8de151	-0.06927741
180	0xbce3420c	-0.027741455
181	0xbdc51bf8	-0.09624475
182	0x3d07c142	0.03314329
183	0x3b8388d9	0.0040141162
184	0xbd89afee	-0.06723009
185	0x3ce31a55	0.027722517
186	0x3d3fc2dc	0.04681669
187	0xbda5a1ee	-0.08087526
188	0xbcb3a619	-0.021929787
189	0xbdc9a75d	-0.09846375
190	0x3d5d507a	0.054031827
191	0xbd5eef0c	-0.05442719
192	0xbcdef8f1	-0.027218314
193	0xbda3d866	-0.08000259
194	0xbc2cdfbc	-0.010551389
195	0xbd27c7d7	-0.040962067
196	0x3d98a9af	0.074542396
197	0xbd5e225b	-0.054231983
198	0x3c489a6c	0.012243848
199	0xbcc6a648	-0.024249211
200	0x3da80e6d	0.082058765
201	0x3d4656dc	0.04842268
202	0xbe0af67b	-0.13570587
203	0xbd1abae9	-0.037775908
204	0xbd7b7c15	-0.06139763
205	0xbc5dce62	-0.013537975
206	0xbe1094eb	-0.14119308
207	0x3cb26d17	0.021780534
208	0xbe488923	-0.19583564
209	0xbb16d6dd	-0.0023016252
210	0xbd306eda	-0.043074466
211	0x3bffd7b6	0.007807697
212	0xbe29a12d	-0.1656539
213	0x3d8b8ace	0.06813584
214	0xbdab5fa5	-0.08367852
215	0x3da7b74f	0.0818926
216	0xbd01a5d5	-0.03165229
217	0x3da8b724	0.08238056
218	0x3dae6205	0.085147895
219	0x3da2c127	0.07946997
220	0xbdaceb63	-0.08443334
221	0x3dc9aa95	0.09846989
222	0x3b405b67	0.0029351355
223	0x3d65410c	0.055970237
224	0xbda58bd1	-0.080833085
225	0x3e297e08	0.16551983
226	0x3bdce918	0.006741654
227	0xbd5fc1d3	-0.054628205
228	0x3b9117a7	0.0044278684
229	0x3de62fc5	0.1123958
230	0x3beaf6d5	0.007170538
231	0x3db928f7	0.090410165
232	0xbd884e28	-0.06655532
233	0x3cc0df7b	0.023544064
234	0x3d2a5594	0.04158552
235	0x3bddf601	0.0067737107
236	0x3dd4d2cc	0.10391769
237	0x3ddab667	0.10679322
238	0xbcd0e32c	-0.025498949
239	0x3d0767b6	0.03305789
240	0xbdf1e981	-0.118121155
241	0x3dee7ba7	0.116446786
242	0x3dabd14f	0.08389532
243	0xbd2e4b20	-0.042552114
244	0x3cbe01e4	0.02319426
245	0x3e065d75	0.13121589
246	0x3dec4341	0.11536265
247	0xbd34e305	-0.044161815
248	0xbd14cf57	-0.036330547
249	0xbdf783c4	-0.12085679
250	0x3d961ba1	0.073294885
251	0x3daa2dfe	0.083095536
252	0x3dc41b80	0.09575558
253	0xbdc222ea	-0.094793156
254	0x3d0be170	0.03415054
255	0xbdd002f2	-0.10156812
