GP_MVC_hw_3view/results/checkpoints/experiment_name/13_net_CLU.pth (torch_old, 4413 bytes, 1 tensors)

weights f4 [10, 100]
000000 d1 e0 6f 3f 0b 69 0f 3f 87 cb 80 3f f8 1f c4 3d
       0.9370242 0.5601966 1.0062112 0.0957641
000010 21 49 3f 3f 86 30 c3 3f 31 99 12 3f 84 71 a5 3e
       0.7472096 1.5249183 0.57265 0.32313168
000020 d2 41 af 3e c7 26 36 3f ae 56 ec 3d df e5 68 3e
       0.34229904 0.7115292 0.1153997 0.22743939
000030 0c 47 9c 3e 46 a4 aa 3d 19 7b 06 3f 7c 34 1c 2d
       0.30522954 0.08332114 0.5253158 8.879227e-12
000040 af 53 fc 3a e5 ec 2e 3f b3 19 26 3e 32 23 15 3d
       0.0019251014 0.6833022 0.16220741 0.036410518
000050 e0 70 9b 3f bd 10 b9 3f 60 9c ec 3f 9b b1 ae 3d
       1.2143822 1.4458233 1.8485222 0.08529969
000060 27 95 9b 3e 19 07 11 3e dc 1b 18 3e fc 4c a4 3f
       0.30387232 0.14162864 0.14854378 1.2835994
000070 47 4c bb 3d e7 0f 4c 3f 08 59 c8 3e fd 59 83 3f
       0.09145408 0.79711765 0.39130425 1.0261837
000080 ba d7 0a 3e f3 d7 0e 3f 01 00 00 00 70 6f f1 3c
       0.13558856 0.5579826 1e-45 0.029472083
000090 5c a7 b9 3e 14 fa 99 3b 37 9a af 3f 5f 5c 2e 3b
       0.36260498 0.004699001 1.3718938 0.002660535
0000a0 a8 8e 64 3f 55 20 f2 3d 42 37 82 3f 36 e2 f6 39
       0.89280176 0.11822573 1.0173113 0.00047089317
0000b0 07 02 fc 3e 24 52 57 3f c3 58 f9 3c ac 10 87 3f
       0.49220297 0.8410971 0.030437833 1.0551963
0000c0 9a 35 8a 3e be f0 31 3e f0 8d e9 b9 e2 c7 a4 3f
       0.2699402 0.17376992 -0.00044546975 1.2873499
0000d0 b5 52 81 3f 1f d6 4e 3e ed 89 46 3f 79 69 80 3f
       1.0103365 0.20198868 0.7755421 1.0032188
0000e0 33 1b ad 3e a4 3c 74 3f 60 99 3b 3f cd fe 9b 3d
       0.33809814 0.9540503 0.73280907 0.07616959
0000f0 00 00 00 00 2d ad b3 3e 9c d4 77 3f 9f 49 39 3f
       0.0 0.3509306 0.9680879 0.7237796
000100 b7 3d 97 bb d2 55 09 3f 05 78 dc 3c 22 b5 d7 3f
       -0.0046155113 0.53646576 0.026912699 1.6852152
000110 e6 86 50 bc 38 88 4c 3f 35 6e af 3f ca 2e 24 3f
       -0.012727475 0.79895353 1.3705508 0.64133894
000120 40 62 16 3c 8f 8a fa 3e 2b 8b 65 3e 6d 2b 2f 3f
       0.009178698 0.48933837 0.2241637 0.6842564
000130 78 57 9a 3f 47 0a 33 3f c9 91 8d 3e e9 df ef 3e
       1.2057943 0.69937557 0.27650288 0.46850517
000140 01 00 00 00 02 00 00 00 02 00 00 80 02 00 00 00
       1e-45 3e-45 -3e-45 3e-45
000150 01 00 00 80 1a b8 a7 3f a6 63 82 3f e6 c0 26 3d
       -1e-45 1.3103058 1.018666 0.040711306
000160 df 97 d0 3f d6 1a 5d 3f 22 b3 3e 3d 13 d9 05 3f
       1.6296347 0.86369073 0.046557553 0.52284354
000170 2a ec c8 3e aa 34 61 3f 61 b3 98 3e c9 ab 94 3e
       0.3924268 0.87970984 0.29824355 0.29037312
000180 71 7c d2 3e 73 69 8e 3f 06 7f 91 3e d3 59 95 3f
       0.41110566 1.112593 0.28417224 1.1668037
000190 cd 42 25 3f e8 cf 2d 3f 08 1e 2f 3e 3f d3 67 3f
       0.64555055 0.67895365 0.171013 0.9055671
0001a0 ed 31 87 3f de a6 3f 3f a3 7f 0d 3f 1c de 2a 3f
       1.0562111 0.74863994 0.55272883 0.6674516
0001b0 0f 84 05 3f 2f d0 2c 3f c2 aa 84 3f de 9b 1a 3d
       0.5215463 0.6750516 1.0364611 0.037746303
0001c0 7e 90 3c 3f 6a b4 df 3d ef 1c 06 3f 02 00 00 80
       0.7365798 0.10923083 0.523879 -3e-45
0001d0 11 ae 68 39 3f 19 83 3f 89 92 34 3f cb 32 39 3f
       0.00022190089 1.024208 0.70536095 0.7234313
0001e0 72 86 68 3f be 9c 88 3f 3b f2 05 3f 9f ec 33 3f
       0.9083015 1.0672834 0.5232274 0.7028293
0001f0 c8 bb 76 3f 5b db 5a 3c 10 4d 1b 3f 49 1d 3e 3e
       0.9638028 0.0133579625 0.60664463 0.18565859
000200 56 9a 15 3e e1 97 28 3f 5e 85 95 3f e8 65 a6 3f
       0.14609656 0.6585675 1.1681325 1.2999849
000210 fe 3d c4 3e 1e 59 05 3f 01 00 00 00 28 c8 86 3d
       0.38328546 0.5208911 1e-45 0.065811455
000220 e9 46 9d 3f 99 8e 70 3c ad 25 dc 3e e9 9b 5b 3f
       1.2287265 0.014682435 0.42997494 0.85784775
000230 65 fb 8f 3e 37 51 b0 3d 0b a1 9a 3e 16 66 6a 9f
       0.28121486 0.086092405 0.3020099 -4.963587e-20
000240 d5 52 a8 3f 8b af 16 3f 52 37 d7 3d 9f 38 42 3e
       1.3150278 0.5886161 0.105085984 0.18966912
000250 1f bd 83 3e 56 43 3f 3e 8d b2 58 3a 8e f6 bd 3f
       0.25730225 0.1867803 0.0008266352 1.4840868
000260 fd ce 60 3f 50 c0 9f 3d 80 78 94 3f 44 4a fb 3e
       0.8781584 0.078003526 1.1599274 0.49080098
000270 84 c0 b0 3f c3 06 18 3f b8 79 31 3f a7 7c 04 3e
       1.3808751 0.5938532 0.69326353 0.12938176
000280 00 00 00 00 1d b3 da 3f fe 05 a1 3f 31 b7 d8 3e
       0.0 1.7085911 1.2579954 0.42327264
000290 ad bd 08 3c d1 e7 ab 3e a7 da 46 3e f7 6f e9 3f
       0.0083460035 0.335753 0.19419347 1.8237294
0002a0 ba f1 38 3f df 9a 97 3f e6 1b 1a 3f b5 41 9e 3e
       0.72243845 1.1844138 0.6019882 0.30909505
0002b0 4a 87 30 3c 16 5f 89 3f 41 e9 b4 3f cd 8c f8 3e
       0.010774443 1.0732143 1.4133683 0.48544922
0002c0 b2 bb c1 3e 8d d9 bc 3f 94 42 63 3f dc a0 85 3f
       0.37838513 1.4753891 0.88773465 1.0439715
0002d0 01 00 00 00 03 00 00 00 03 00 00 00 03 00 00 00
       1e-45 4e-45 4e-45 4e-45
0002e0 03 00 00 00 ea 01 8c 3e d5 f8 d2 3e e3 57 c4 3f
       4e-45 0.2734521 0.4120547 1.5339321
0002f0 98 22 f7 3e 7d 6b 1b 3f de 6f 73 3d 28 e4 df 3e
       0.4826858 0.6071089 0.059432857 0.43728757
000300 f9 9e 2c 3f 64 01 69 3f 23 6e 5d 3f ed ff 49 3f
       0.67430073 0.91017747 0.8649618 0.78906137
000310 86 bf 80 3f 42 d8 44 3f c8 0f 82 3f 0d 49 0d 3f
       1.0058448 0.76892483 1.0161066 0.5518959
000320 10 bb 0a 40 29 25 3b 3f cf 8b 52 3c de f5 47 3f
       2.1676674 0.73103577 0.012850716 0.7810954
000330 1a 4c c4 3d 30 05 de 3f 7d 74 8b 3f 71 79 77 3e
       0.09584828 1.7345333 1.0894924 0.2416742
000340 d1 62 9b 3e 36 28 f5 3e 6a f8 96 bb 33 42 2d 3f
       0.30348828 0.4788224 -0.00460725 0.67679137
000350 e6 2d 01 3f 59 b0 ae 3d b2 73 11 3f 03 00 00 80
       0.5046066 0.085297294 0.5681716 -4e-45
000360 2f ef 83 39 a4 a8 df 3f 58 2c 55 3e b5 c5 bb bb
       0.00025164473 1.747334 0.20817697 -0.0057303556
000370 3d 40 0c 3f a6 17 cd 3e 26 f9 0a 40 2d 2b e5 3d
       0.5478552 0.40057105 2.1714568 0.11189876
000380 73 49 07 3c 3c e3 37 3e d3 1e d5 3d e5 7a a3 3f
       0.008257258 0.17957777 0.1040627 1.277188
000390 57 95 1a 3e a2 77 b3 3f 38 38 d5 3e 4c 33 b2 3f
       0.15096031 1.4020884 0.41644454 1.3921905
0003a0 e9 98 68 3f 3f 7c 60 3f 6e df 37 95 3f 2b 73 3f
       0.9085832 0.87689584 -3.713281e-26 0.94987863
0003b0 ec 3c bc 3e 29 e9 10 3c 7a 4a 81 3f ac c6 68 bb
       0.3676523 0.008844652 1.0100853 -0.0035518808
0003c0 bc fd ae 3f a1 10 e4 3d ab 0f 77 3f 30 b4 20 21
       1.3671184 0.11135984 0.9650828 5.4448585e-19
0003d0 d8 f1 c6 3e d5 b2 15 3f fc 34 ad ba 0f 5c 4d 3f
       0.38856387 0.58476 -0.0013214643 0.80218595
0003e0 a0 3f a9 3f 60 6f c5 3d 0e 77 31 3c 69 73 b7 3f
       1.3222542 0.09640384 0.0108316075 1.4332095
0003f0 55 39 81 3e 7a f1 9e 3f d0 d7 3d 3f 31 ab f8 3f
       0.25239053 1.2417443 0.7415743 1.9427243
