GP_MVC_hw_3view/results/checkpoints/experiment_name/13_net_D_C.pth (torch_old, 17755 bytes, 3 tensors)

model.0.weight f4 [64, 64]
0.066816926 0.11693564 0.07787644 0.07994727 0.035298962 -0.046135634 0.11275353 -0.009197439
-0.10841012 0.0020324874 -0.12419305 -0.071640596 -0.0040478874 -0.021020774 0.034335364 0.01751161
0.07215043 0.06119409 -0.12042735 0.065444484 -0.014789992 -0.020562751 0.06313212 0.06658102
-0.13950783 -0.018375318 -0.0074309963 -0.07656555 -7.0024864e-05 0.17462838 -0.08207978 -0.1241766
-0.05245319 -0.013012869 0.0041857306 0.093417004 -0.0462212 0.13981703 -0.012893808 0.080322765
-0.059725735 0.12199194 -0.03480952 -0.10203751 -0.068837374 -0.13885285 0.16064213 0.021566337
-0.041837342 0.14286533 -0.09827906 0.07090578 0.023829745 0.1384375 0.073209025 -0.011522327
0.21682136 -0.053862378 -0.1454219 -0.14133243 0.0038098278 0.14145143 -0.08205491 -0.08653955
-0.010410887 0.063761786 -0.023196507 0.12374541 -0.015790574 -0.1032796 0.04468342 -0.021706132
-0.11093694 0.10236506 -0.074891575 0.056017112 0.079953454 -0.011136051 -0.0062257294 0.07021503
-0.0064381533 -0.003321419 0.0368175 0.045437798 0.04597949 0.023758726 0.063635625 -0.060609587
0.03866102 -0.035684068 0.08659899 0.04852733 -0.06349839 0.060151972 0.008416508 -0.077607416
-0.014489905 -0.021590715 0.02539719 0.015153156 0.06404887 0.14476368 0.10942877 0.09662564
0.021188606 -0.03508534 0.035632975 -0.060059443 -0.08435292 0.025713796 -0.037201997 0.005852069
0.17984071 0.0719968 0.08171706 0.06058548 0.05981328 0.055946562 0.071936525 -0.1279255
0.038587887 0.09782935 0.004818795 0.07369191 -0.015436063 -0.024841527 -0.111284055 0.034280784
0.21348362 0.123944595 0.1278705 -0.34981066 -0.24249148 -0.21604241 0.035021335 0.31971216
0.00464014 -0.05124943 -0.034765378 0.04422933 -0.07875015 -0.03780615 -0.067141116 0.008078734
0.14556798 -0.006006636 -0.01807797 0.044572115 -0.014411644 -0.13793766 -0.00072830677 -0.09715702
-0.10090235 -0.077203125 0.17612238 0.13421121 0.070092864 -0.06579605 -0.10801163 0.019373128
0.03146148 -0.051198963 -0.0010688888 -0.12241203 0.048768632 0.020899765 -0.13440447 -0.051223893
0.07554206 -0.08310367 0.075012885 -0.047601286 0.066161424 0.06847065 0.0716591 0.031673543
-0.05572551 -0.023557678 -0.122598924 -0.12157517 -0.07590368 0.05859672 -0.030343913 0.10778525
0.06816895 0.04648348 0.002647327 -0.053949226 0.042084683 -0.02528821 0.044815984 0.024805784
-0.120462574 -0.11946645 -0.089167975 -0.09208777 -0.05507748 0.08725016 0.016842056 -0.05280045
0.103280336 0.04095005 0.14302503 0.11415362 0.06944344 0.21133104 -0.047461122 -0.15283157
-0.0740151 -0.1521001 0.025377199 -0.14702012 -0.077721514 -0.08235916 -0.017849157 0.066974595
0.0908907 0.007277403 0.08079222 -0.06969714 -0.032192893 -0.11143315 0.20652002 0.043251146
0.023737343 -0.090761855 -0.09768 -0.0034346108 -0.06218741 -0.032221053 -0.16361177 0.051500045
0.021945368 -0.04837066 -0.06472328 0.07302699 0.08495346 0.18570936 -0.06961293 0.020423261
-0.021748045 -0.12483829 0.072661884 -0.116682835 0.05769906 -0.14369214 -0.16094254 0.10262813
-0.029990321 0.024619188 0.0027319072 -0.083278276 -0.043541495 -0.049979076 0.04275777 0.08609743
00000000: 50d7 883d f47b ef3d af7d 9f3d 65bb a33d
00000010: a595 103d b8f8 3cbd 53eb e63d dbb0 16bc
00000020: 2006 debd 7b33 053b ed58 febd 4eb8 92bd
00000030: 24a4 84bb c233 acbc 3da3 0c3d 8274 8f3c
00000040: 9bc3 933d a7a6 7a3d 9da2 f6bd c207 863d
00000050: b951 72bc 3773 a8bc 6a4b 813d a15b 883d
00000060: 24db 0ebe d687 96bc b77f f3bb 66ce 9cbd
00000070: 50da 92b8 c8d1 323e 7219 a8bd 4d50 febd
00000080: 28d9 56bd ee33 55bc 7428 893b 6a51 bf3d
00000090: 7152 3dbd 322c 0f3e 8d40 53bc 4380 a43d
000000a0: f9a2 74bd e9d6 f93d 6d94 0ebd 0bf9 d0bd
000000b0: 9cfa 8cbd 712f 0ebe 5f7f 243e e3ab b03c
000000c0: a25d 2bbd 4a4b 123e 8846 c9bd 0d37 913d
000000d0: 9936 c33c 8fc2 0d3e 9dee 953d 24c8 3cbc
000000e0: 6b06 5e3e cc9e 5cbd 7be9 14be 73b9 10be
000000f0: 4eae 793b a5d8 103e 680c a8bd a63b b1bd
00000100: 6d92 2abc 8a95 823d 9a06 bebc 3c6e fd3d
00000110: 3c5b 81bc 4184 d3bd f605 373d 0fd1 b1bc
00000120: e832 e3bd c6a4 d13d c160 99bd 3372 653d
00000130: a3be a33d fc73 36bc 3401 ccbb e6cc 8f3d
00000140: 25f7 d2bb 2aac 59bb f2cd 163d fc1c 3a3d
00000150: fd54 3c3d a9a1 c23c 6553 823d c241 78bd
00000160: 055b 1e3d 7529 12bd d05a b13d 98c4 463d
00000170: 720b 82bd ea61 763d 65e5 093c a3f0 9ebd
00000180: 1167 6dbc 03df b0bc c50d d03c f144 783c
00000190: 0e2c 833d ee3c 143e 311c e03d aae3 c53d
000001a0: ba93 ad3c a5b5 0fbd e2f3 113d e400 76bd
000001b0: 39c1 acbd bda5 d23c 1f61 18bd b6c2 bf3b
000001c0: 2a28 383e 0f73 933d 465b a73d 7b28 783d
000001d0: c5fe 743d 3928 653d 7553 933d e7fe 02be
000001e0: 550e 1e3d c15a c83d fbe6 9d3b c9eb 963d
000001f0: 8ae7 7cbc 7580 cbbc e5e8 e3bd 026a 0c3d
00000200: 739b 5a3e aad6 fd3d 7cf0 023e 621a b3be
00000210: b04f 78be 393a 5dbe 8872 0f3d 50b1 a33e
00000220: 510c 983b ecea 51bd 2466 0ebd d029 353d
00000230: c247 a1bd 9fda 1abd 4881 89bd ab5c 043c
00000240: c60f 153e 51d3 c4bb 4018 94bc 4091 363d
00000250: d11e 6cbc 883f 0dbe d7eb 3eba 42fa c6bd
00000260: e4a5 cebd ac1c 9ebd 6d59 343e aa6e 093e
00000270: d98c 8f3d 14c0 86bd 3435 ddbd 65b4 9e3c
00000280: c1dd 003d 01b6 51bd f519 8cba 29b3 fabd
00000290: 9ec1 473d fc35 ab3c 53a1 09be 25d0 51bd
000002a0: ccb5 9a3d 4232 aabd 5ba0 993d 91f9 42bd
000002b0: a47f 873d 573a 8c3d 02c2 923d 1ebc 013d
000002c0: 6f40 64bd 08fc c0bc 2515 fbbd 67fc f8bd
000002d0: 6373 9bbd 1d03 703d cc93 f8bc 83be dc3d
000002e0: 2a9c 8b3d 7665 3e3d c77e 2d3b ddf9 5cbd
000002f0: fd60 2c3d 3829 cfbc f790 373d 8035 cb3c
00000300: 15b5 f6bd d3aa f4bd b39d b6bd 8398 bcbd
00000310: ec98 61bd 36b0 b23d 5af8 893c 4945 58bd
00000320: a484 d33d 3dbb 273d 2775 123e 60c9 e93d
00000330: 5d38 8e3d 2a67 583e 9866 42bd e17f 1cbe
00000340: 3b95 97bd 21c0 1bbe d8e3 cf3c 718c 16be
00000350: 752c 9fbd ebab a8bd 6538 92bc fa29 893d
00000360: e724 ba3d 4877 ee3b 6476 a53d 60bd 8ebd
00000370: b2dc 03bd 1037 e4bd fc79 533e 1d28 313d
00000380: d174 c23c 5ae1 b9bd 740c c8bd 3517 61bb
00000390: 3ab8 7ebd 39fa 03bd d889 27be b6f1 523d
000003a0: c6c6 b33c 5020 46bd a48d 84bd 2d8f 953d
000003b0: 14fc ad3d 982a 3e3e 3991 8ebd af4e a73c
000003c0: f528 b2bc 38ab ffbd c1cf 943d 69f7 eebd
000003d0: d955 6c3d 0824 13be 1fce 24be b22e d23d
000003e0: 43ae f5bc 2eae c93c cc09 333b cd8d aabd
000003f0: 9158 32bd dcb6 4cbd c522 2f3d d953 b03d

model.0.bias f4 [64]
0.009349783 -0.14978431 -0.10686366 -0.055699445 0.051107347 0.09075685 0.03291709 0.21404654
0.04458616 -0.11430209 -0.046444803 0.030183194 -0.07735855 -0.04881474 0.103509285 -0.037017528
-0.057317324 0.05652376 0.0033418897 -0.13755007 -0.0795271 0.18345287 -0.077599294 0.16449752
0.094355665 -0.05363323 0.032133892 0.0020917791 -0.10161924 -0.09548968 -0.10972444 0.061582528
-0.013252144 0.08654468 0.07150776 -0.14925168 -0.011710986 -0.008529826 0.042587683 0.05021456
0.009423828 0.13890728 -0.09749872 -0.034927826 -0.014144116 0.021457855 -0.05128662 0.05244303
-0.006868404 0.009067776 0.07718574 0.09798098 -0.004534852 -0.021503802 -0.028014263 -0.14722383
0.01651531 -0.040449716 -0.003571641 0.031482972 -0.17318083 -0.13618481 0.03537382 -0.04767548
00000000: d52f 193c 0f61 19be 56db dabd 1a25 64bd
00000010: f055 513d bade b93d 12d4 063d 042f 5b3e
00000020: fa9f 363d 3717 eabd e83c 3ebd bf42 f73c
00000030: 296e 9ebd f7f1 47bd adfc d33d b19f 17bd
00000040: 92c5 6abd 7585 673d 9b03 5b3b edd9 0cbe
00000050: 1bdf a2bd 12db 3b3e 61ec 9ebd 0a72 283e
00000060: 8b3d c13d 85ae 5bbd d49e 033d 3b16 093b
00000070: c01d d0bd 1890 c3bd 35b7 e0bd f63d 7c3d
00000080: 851f 59bc 563e b13d a972 923d 6fd5 18be
00000090: 6fdf 3fbc afc0 0bbc 6c70 2e3d c8ad 4d3d
000000a0: 6666 1a3c b63d 0e3e 69ad c7bd 7b10 0fbd
000000b0: b9bc 67bc 62c8 af3c eb11 52bd 81ce 563d
000000c0: 5910 e1bb 0291 143c 8f13 9e3d 41aa c83d
000000d0: 1999 94bb be28 b0bc 2b7e e5bc d8c1 16be
000000e0: 1e4b 873c 9aae 25bd 3112 6abb 4af4 003d
000000f0: 5156 31be 0874 0bbe 24e4 103d 5d47 43bd

model.2.weight f4 [1, 64]
-0.22331598 -0.08202758 0.30231315 -0.15789627 -0.14602643 0.22069016 -0.2435027 -0.12819336
0.27999303 -0.27279916 0.22687012 0.15768827 0.31055164 0.28406087 -0.1754579 0.11515047
-0.26122344 -0.16655149 0.16678703 0.22524612 0.2836804 -0.17705919 -0.16902372 -0.07587351
0.16611373 0.2543112 0.27421653 -0.14039229 0.23209433 -0.27073044 0.2380167 -0.28938302
0.23036599 -0.1576483 -0.078973435 -0.21468404 0.17088683 0.21164836 0.30533546 -0.27197447
-0.28109244 -0.059297267 -0.18370864 0.27203155 0.28708735 -0.17295195 0.22991672 0.20799501
-0.16693908 0.20724468 -0.21913855 -0.16750771 0.24959502 0.27097878 0.30680203 0.1322705
-0.18589722 0.2541912 0.20578104 -0.10508607 0.2904904 -0.18752316 0.25530785 0.23788118
00000000: f2ac 64be 13fe a7bd cac8 9a3e 8faf 21be
00000010: f487 15be 9afc 613e c658 79be 1f45 03be
00000020: 3f5b 8f3e 55ac 8bbe a450 683e 0979 213e
00000030: a000 9f3e 6d70 913e 3cab 33be 02d4 eb3d
00000040: 14bf 85be 798c 2abe 38ca 2a3e eba6 663e
00000050: 8f3e 913e 014f 35be 8e14 2dbe 9263 9bbd
00000060: b819 2a3e 1435 823e 1c66 8c3e ffc2 0fbe
00000070: 23aa 6d3e 2e9d 8abe a6ba 733e 032a 94be
00000080: 10e5 6b3e 8e6e 21be d3bc a1bd 22d6 5bbe
00000090: f5fc 2e3e 59ba 583e ee54 9c3e 3d40 8bbe
000000a0: 59eb 8fbe b1e1 72bd 1e1e 3cbe b847 8b3e
000000b0: 1dfd 923e 511a 31be 4a6f 6b3e a5fc 543e
000000c0: 14f2 2abe f337 543e db65 60be 2487 2bbe
000000d0: d695 7f3e bbbd 8a3e 2815 9d3e eb71 073e
000000e0: d75b 3ebe 5925 823e 44b8 523e 5e37 d7bd
000000f0: 28bb 943e 1206 40be b6b7 823e 2097 733e
