GP_MVC_hw_3view/results/checkpoints/experiment_name/13_net_AE.pth (torch_old, 935829 bytes, 17 tensors)

layer1_1.weight f4 [200, 216]
0.0069325953 -0.04920762 -0.04615479 0.032561176 0.015575078 -0.004028869 0.0077309175 0.04852174
-0.062656574 -0.042218372 -0.04664731 -0.045607485 0.0046063955 -0.024344195 -0.04579075 -0.015824778
-0.017592944 -0.04998739 -0.052675165 0.05146287 0.03910193 0.05825777 -0.014097807 0.009219253
-0.014288867 -0.0442154 0.035583016 -0.02490277 0.005025981 0.0019873339 0.013183808 -0.01692867
0.039950944 0.03766945 0.0022436539 0.04095805 -0.0099865645 0.05889835 -0.056380887 -0.05049578
0.055771075 0.039009072 0.06324659 -0.065231904 0.040791295 -0.04879256 0.0036881396 0.06159805
-0.05889639 -0.013341894 -0.011430399 -0.03544112 0.051025573 -0.036770966 -0.02223629 -0.00030004402
-0.01021126 -0.009753618 -0.015471697 0.039022665 0.04851552 0.03543876 -0.040787984 -0.0028504506
0.023538915 -0.051830664 0.066574864 0.04687183 0.014702194 0.043275904 -0.049882784 -0.047725875
-0.04301866 0.014079391 -0.06480156 -0.051122885 -0.069436155 0.049654346 -0.03803079 0.021066584
0.03041377 -0.03009698 0.058221385 -0.06325954 0.018345175 0.06700827 -0.024859274 -0.042148404
-0.046652377 -0.02881475 -0.030321835 -0.047162447 -0.04269958 -0.0041193967 0.003570446 0.011980081
0.04139439 0.059886176 -0.035404854 -0.0011615698 -0.056481402 0.026251929 0.048545815 -0.048350245
-0.041825753 -0.030062646 -0.02555936 0.03430069 0.026180767 0.06378016 0.038372744 -0.0024897486
-0.04172035 0.026813535 0.003589102 0.06910808 -0.025011608 0.004566215 0.042301167 0.06760868
0.015018654 -0.056992516 0.039470144 -0.057826206 -0.034075838 0.050216045 0.029576402 0.013738039
-0.007735457 0.046043895 0.007929348 0.06593451 -0.05343769 -0.0068634576 0.04434617 0.024380768
0.014259261 0.0038071051 -0.049643155 -0.016007975 0.04051935 0.037957083 -0.044622246 0.022246342
0.012283583 -0.04922734 -0.008903335 -0.018316248 0.039482 0.022710104 -0.059115417 -0.03576777
0.023055684 0.053816836 0.037595186 -0.046067633 0.030249283 -0.024409246 -0.06478526 -0.049634285
0.05542915 -0.029601386 -0.05510997 0.039432086 -0.030990325 0.00083541713 0.06395444 0.050926935
-0.05538042 -0.026817845 0.06045065 -0.062961996 -0.016189303 -0.03539065 -0.04624206 0.019748012
-0.04896421 0.0037493408 0.011945194 0.006103715 0.058839157 0.058870636 0.00060687016 0.04997285
0.046686977 -0.04908448 -0.049624775 0.019670436 0.00645281 -0.03940015 -0.007172921 -0.037708145
0.05879525 -0.035284612 -0.042751648 -0.02326604 0.009796484 -0.048180487 0.035533924 0.00320528
-0.023857938 0.015746463 0.022195857 0.024425216 -0.010267656 0.038026385 0.053560928 -0.037529893
0.05773642 -0.010785748 0.06183659 0.06588384 -0.029224362 0.029688282 0.01643915 0.00720064
-0.0032494068 -0.03823691 -0.020083804 0.013908908 -0.06334013 0.046075515 0.01862055 0.044499345
0.052481517 -0.014111366 -0.017950308 -0.018934753 -0.06531948 -0.009941384 0.03239291 0.05181452
-0.014682353 0.04630842 -0.059717495 0.058960035 0.0117562115 0.061926663 -0.026669316 0.053282678
0.023926206 -0.058336698 -0.015490551 0.059033662 -0.05001761 0.025240846 -0.014991786 0.03720648
-0.062114887 -0.0013559982 0.024273463 -0.011721421 -0.042843904 0.03342507 -0.04751943 0.052563794
00000000: d32a e33b ee8d 49bd ce0c 3dbd de5e 053d
00000010: 9d2e 7f3c 9a04 84bb a353 fd3b bbbe 463d
00000020: 1752 80bd 2ced 2cbd 4011 3fbd eace 3abd
00000030: 3ff1 963b 7a6d c7bc 158f 3bbd f7a2 81bc
00000040: 141f 90bc 94bf 4cbd eac1 57bd bbca 523d
00000050: 5829 203d b39f 6e3d 7dfa 66bc 5a0c 173c
00000060: da1b 6abc 351b 35bd 7fbf 113d e500 ccbc
00000070: fcb0 a43b ee3d 023b e600 583c ffad 8abc
00000080: 9aa3 233d 484b 1a3d 440a 133b a1c3 273d
00000090: b09e 23bc 653f 713d a5ef 66bd aad4 4ebd
000000a0: 3670 643d fac7 1f3d 6e87 813d 4e98 85bd
000000b0: c614 273d b5da 47bd b7b4 713b 3d4e 7c3d
000000c0: 573d 71bd f697 5abc 9146 3bbc b52a 11bd
000000d0: 3100 513d 279d 16bd e128 b6bc 3a4f 9db9
000000e0: 214d 27bc a4cd 1fbc 007d 7dbc 3bd6 1f3d
000000f0: 36b8 463d 3c28 113d 4d11 27bd a0ce 3abb
00000100: afd4 c03c 644c 54bd 6758 883d adfc 3f3d
00000110: 79e1 703c 1342 313d e451 4cbd 357c 43bd
00000120: 5634 30bd 3fad 663c aeb6 84bd 3b66 51bd
00000130: 8b34 8ebd 5b62 4b3d 2cc6 1bbd d493 ac3c
00000140: 4c26 f93c f18d f6bc 8c79 6e3d 388e 81bd
00000150: 9f48 963c a23b 893d ada5 cbbc cea3 2cbd
00000160: 9016 3fbd e90c ecbc 7f65 f8bc 692d 41bd
00000170: c1e5 2ebd 01fc 86bb 25fe 693b 1a48 443c
00000180: 2a8d 293d 354b 753d ae04 11bd d13f 98ba
00000190: 0b59 67bd 490e d73c fad7 463d e80a 46bd
000001a0: 7b51 2bbd f045 f6bc dd61 d1bc e17e 0c3d
000001b0: 0c79 d63c 2c9f 823d bd2c 1d3d 0d2b 23bb
000001c0: f5e2 2abd 0fa8 db3c 2437 6b3b 8988 8d3d
000001d0: 25e5 ccbc 30a0 953b fd43 2d3d 6b76 8a3d
000001e0: cd10 763c fc70 69bd 72ab 213d 2cdb 6cbd
000001f0: 1b93 0bbd 57af 4d3d 364a f23c 8315 613c
00000200: b779 fdbb 8698 3c3d 19ea 013c ac08 873d
00000210: 7be1 5abd dbe6 e0bb 54a4 353d 2dba c73c
00000220: ad9f 693c a080 793b 9f56 4bbd 2823 83bc
00000230: 9ef7 253d e378 1b3d d1c5 36bd f63d b63c
00000240: 1541 493c 9ba2 49bd 4bdf 11bc f50b 96bc
00000250: e1b7 213d 8a0a ba3c 0223 72bd 3a81 12bd
00000260: 46df bc3c 0b6f 5c3d 69fd 193d 6ab1 3cbd
00000270: 58cd f73c e6f5 c7bc 22ae 84bd 524d 4bbd
00000280: ad09 633d 9b7e f2bc feba 61bd 8a83 213d
00000290: 6cdf fdbc e5ff 5a3a 8cfa 823d c398 503d
000002a0: 94d6 62bd 19b1 dbbc 1a9b 773d 38f2 80bd
000002b0: 6e9f 84bc c9f5 10bd 5068 3dbd 95c6 a13c
000002c0: b28e 48bd 80b7 753b c6b5 433c ac01 c83b
000002d0: 5401 713d 5622 713d 5e16 1f3a 55b0 4c3d
000002e0: d83a 3f3d cf0c 49bd 5943 4bbd e523 a13c
000002f0: 1872 d33b 0d62 21bd d30a ebbb db73 1abd
00000300: 4ad3 703d 9986 10bd 5a1c 2fbd 6c98 bebc
00000310: 6f81 203c e758 45bd 058c 113d ad0f 523b
00000320: b971 c3bc bafe 803c 16d4 b53c 6417 c83c
00000330: ac39 28bc 8ec1 1b3d b462 5b3d f2b8 19bd
00000340: 067d 6c3d b5b6 30bc 5d48 7d3d 1bee 863d
00000350: ee67 efbc d734 f33c 65ab 863c 59f3 eb3b
00000360: 00f4 54bb 4e9e 1cbd ca86 a4bc 30e2 633c
00000370: 78b8 81bd aeb9 3c3d 208a 983c f244 363d
00000380: dcf6 563d 5c33 67bc 860c 93bc 0e1d 9bbc
00000390: 38c6 85bd 30e1 22bc 6eae 043d 763b 543d
000003a0: 408e 70bc e6ad 3d3d 559a 74bd 1480 713d
000003b0: 209d 403c d0a6 7d3d 9c79 dabc f03e 5a3d
000003c0: e400 c43c 76f2 6ebd 14cc 7dbc 48cd 713d
000003d0: 44df 4cbd e4c5 ce3c 1ca0 75bc d265 183d
000003e0: 2e6c 7ebd c0bb b1ba 24d9 c63c 340b 40bc
000003f0: 177d 2fbd bae8 083d bca3 42bd 224d 573d

layer1_2.weight f4 [200, 76]
-0.027248183 0.15067028 -0.022291897 0.02889401 -0.020440994 -0.1531894 -0.13057972 -0.07677686
-0.18929136 -0.09937293 -0.014108688 -0.12705827 -0.10515596 -0.122772925 -0.084545694 0.034378674
-0.08742786 0.053628363 0.10474785 -0.045511864 -0.067612804 -0.008078156 -0.09890015 -0.0074842703
0.04414273 -0.098701246 -0.078300335 0.059848502 -0.039436065 0.04799257 -0.061940778 0.10134983
-0.085866556 0.114904635 0.0036373474 0.026486658 -0.012474587 -0.0968353 -0.005871363 -0.021240063
0.060228862 -0.0491304 -0.004164858 0.053477395 0.031765886 0.06464692 -0.028674798 -0.034964103
0.00056051137 -0.08551948 0.06721299 -0.037483044 0.03327924 -0.10062725 -0.033116926 0.013792203
-0.07587908 -0.087613545 -0.005592718 0.08635653 -0.08559123 0.06523806 0.045828488 -0.034049343
-0.099854104 -0.03317506 -0.012426622 -0.05546778 0.056361504 0.06590201 0.014263801 -0.0541726
-0.070879035 0.12161877 0.051544327 0.048821807 -0.16117308 -0.0302412 -0.08468796 0.05934121
0.16546844 -0.18476596 0.036448993 -0.13365647 0.1971724 0.07327623 -0.02099913 -0.1266073
-0.09938325 0.087347366 0.06457333 -0.10609599 0.046832386 -0.09279681 -0.02765542 0.0019665572
0.08435917 -0.09997782 0.0152669335 0.052973438 0.11422385 0.02373064 -0.09253052 0.011268202
0.096191965 0.018023195 -0.009409685 0.041433007 0.107187785 0.0021852732 -0.10577481 0.062112123
-0.012995519 -0.034277033 -0.0856377 0.115493074 -0.053921513 0.0058715497 -0.090557165 -0.07263835
-0.00087933784 0.04801243 -0.0012988584 0.08098572 0.045618497 -0.12941773 0.033026256 0.077024065
0.07829048 0.035362836 -0.11402969 -0.07970736 0.04673775 0.045327157 0.018636895 -0.03918123
0.010458922 -0.13530724 0.003965683 0.13916042 -0.038800437 -0.008165341 -0.06246405 -0.02877978
-0.05129305 -0.073012136 -0.055782214 0.0587056 -0.088165164 0.18713187 -0.07433375 0.23787312
-0.084370166 -0.01372571 -0.15869163 -0.16501836 0.18940265 -0.06441092 -0.025380412 -0.12156207
-0.0031192277 -0.04374065 0.010146058 0.059243463 -0.026729856 0.18807812 0.08115008 -0.013530179
0.098942704 0.059785202 -0.02530352 -0.06987374 0.07036891 0.05249694 0.05078277 -0.048445955
0.042630244 0.08106387 0.06217419 -0.043563515 0.06490378 -0.088924564 -0.09939276 -0.07088276
0.06509924 0.07772933 0.075285286 0.057632163 0.0866282 0.06575569 0.01332634 0.09207792
-0.049291816 0.10624896 -0.02824103 0.055465117 -0.097100005 -0.07001236 -0.012148686 0.07915746
-0.07001698 0.05776849 0.030040067 0.025239605 0.031571344 -0.04990602 -0.0850339 -0.004847116
0.049359526 0.03330855 -0.05286663 -0.094346255 0.040656146 -0.11768079 -0.026687097 0.055427905
-0.15438324 0.13364601 0.0470284 0.030002404 -0.14259054 0.09764325 -0.10855301 0.16183709
-0.08589556 0.044548593 -0.0014979026 0.09663693 0.034720093 -0.018600523 -0.06987133 0.09167418
-0.024268152 -0.028185211 0.08507674 0.08174008 0.01085455 0.10816053 -0.0088756485 0.075001374
-0.06598154 -0.086107805 0.11102409 0.007469712 0.10944166 0.06880719 -0.035868756 0.02982227
-0.031377554 0.10371001 0.089829646 -0.031338595 -0.08533287 0.0054949205 -0.055941746 -0.08637053
00000000: 9537 dfbc 4f49 1a3e 7f9d b6bc 22b3 ec3c
00000010: df73 a7bc afdd 1cbe b1b6 05be 303d 9dbd
00000020: 98d5 41be 0984 cbbd 2028 67bc 901b 02be
00000030: 025c d7bd 5f70 fbbd 4b26 adbd a7d0 0c3d
00000040: 610d b3bd 6aa9 5b3d 0a86 d63d a66a 3abd
00000050: 9578 8abd 3e5a 04bc 298c cabd 9c3e f5bb
00000060: 02cf 343d e123 cabd ed5b a0bd b423 753d
00000070: b687 21bd db93 443d 9db5 7dbd 8090 cf3d
00000080: ceda afbd 1f53 eb3d 9060 6e3b 8cfa d83c
00000090: 3662 4cbc 9651 c6bd 9064 c0bb a4ff adbc
000000a0: 8ab2 763d f53c 49bd 5c79 88bb 1d0b 5b3d
000000b0: f21c 023d 9b65 843d 69e7 eabc 8536 0fbd
000000c0: 48ef 123a d624 afbd f7a6 893d d287 19bd
000000d0: d04f 083d a915 cebd 9da5 07bd b1f8 613c
000000e0: 7e66 9bbd bb6e b3bd 1e43 b7bb b1db b03d
000000f0: 744a afbd 889b 853d a7b6 3b3d 5377 0bbd
00000100: 4f80 ccbd 92e2 07bd 0899 4bbc 2f32 63bd
00000110: 52db 663d a2f7 863d b8b2 693c 17e4 5dbd
00000120: 0729 91bd 4313 f93d 2520 533d 60f9 473d
00000130: 8e0a 25be 65bc f7bc e270 adbd c50f 733d
00000140: 8f70 293e 4a33 3dbe 8a4b 153d 3edd 08be
00000150: 90e7 493e d911 963d 5e06 acbc 58a5 01be
00000160: 7289 cbbd 2de3 b23d 063f 843d db48 d9bd
00000170: 51d3 3f3d 410c bebd 9f8d e2bc 5be1 003b
00000180: 80c4 ac3d 2cc1 ccbd 2922 7a3c adfa 583d
00000190: 32ee e93d c266 c23c a480 bdbd 449e 383c
000001a0: 4b00 c53d 61a5 933c 142b 1abc a8b5 293d
000001b0: 4585 db3d cd36 0f3b 77a0 d8bd 4869 7e3d
000001c0: 28eb 54bc 1366 0cbd d262 afbd a287 ec3d
000001d0: cedc 5cbd 2166 c03b 0976 b9bd 6ac3 94bd
000001e0: 5d83 66ba afa8 443d 753e aaba d7db a53d
000001f0: 76da 3a3d 1586 04be 8a46 073d cbbe 9d3d
00000200: c256 a03d 9fd8 103d 6688 e9bd 9d3d a3bd
00000210: 1570 3f3d f8a8 393d 67ac 983c 7f7c 20bd
00000220: e65b 2b3c fb8d 0abe 8ff2 813b 1280 0e3e
00000230: 35ed 1ebd ecc7 05bc 4eda 7fbd 93c3 ebbc
00000240: a918 52bd 6387 95bd e47b 64bd 4975 703d
00000250: f08f b4bd 7f9f 3f3e 4b3c 98bd 0395 733e
00000260: 44ca acbd cde1 60bc 0f80 22be 93fa 28be
00000270: c5f2 413e dfe9 83bd 95ea cfbc 89f5 f8bd
00000280: f56b 4cbb 6529 33bd a73b 263c 46a9 723d
00000290: 92f8 dabc 8d97 403e 0332 a63d afad 5dbc
000002a0: 79a2 ca3d 54e1 743d 5449 cfbc f719 8fbd
000002b0: 931d 903d 0807 573d 9801 503d 446f 46bd
000002c0: 0d9d 2e3d d004 a63d 5daa 7e3d a86f 32bd
000002d0: 46ec 843d 151e b6bd 6e8e cbbd fb2a 91bd
000002e0: c052 853d 8e30 9f3d 2c2f 9a3d b40f 6c3d
000002f0: 206a b13d ebaa 863d b956 5a3c 5993 bc3d
00000300: 37e6 49bd 0e99 d93d bc59 e7bc 642f 633d
00000310: 5edc c6bd a462 8fbd 480b 47bc 4e1d a23d
00000320: 1065 8fbd a79e 6c3d 9616 f63c 4ac3 ce3c
00000330: f450 013d 416a 4cbd 4126 aebd 8ed4 9ebb
00000340: 372d 4a3d 8c6e 083d ae8a 58bd 9c38 c1bd
00000350: 0f87 263d a002 f1bd e69e dabc 5f08 633d
00000360: a416 1ebe 80da 083e daa0 403d 9ac7 f53c
00000370: 4103 12be 2ff9 c73d 0a51 debd 9fb8 253e
00000380: 03ea afbd 9678 363d 4555 c4ba 95e9 c53d
00000390: a836 0e3d 2060 98bc b318 8fbd acbf bb3d
000003a0: 01ce c6bc ace4 e6bc b73c ae3d 5867 a73d
000003b0: 48d7 313c 4583 dd3d 2b6b 11bc 529a 993d
000003c0: 5421 87bd 4a59 b0bd 9960 e33d 7cc4 f43b
000003d0: f322 e03d c9ea 8c3d 1eeb 12bd d54d f43c
000003e0: c085 00bd ea65 d43d 9bf8 b73d e65c 00bd
000003f0: 00c3 aebd bc0e b43b 2c23 65bd 08e3 b0bd

layer1_3.weight f4 [200, 64]
-0.11842229 0.3081059 0.08107388 0.019551976 0.09650562 -0.005606008 -0.15135409 0.07110586
0.10893284 -0.14330119 -0.143007 -0.0032839144 -0.07315505 -0.07980665 0.14823157 0.013989806
-0.09831372 -0.008983095 0.015916044 0.12427447 -0.12781999 0.00020140506 -0.0022321357 0.059574112
0.13859771 0.06368167 0.058943357 -0.07643689 0.038118597 -0.02400175 -0.054480284 0.092311256
0.05610995 -0.032230493 0.07627456 -0.036837116 0.12291742 -0.062584564 0.17293905 0.105311595
0.07973685 0.117439866 -0.0041545583 -0.113080986 -0.1523832 -0.007360223 0.115703166 0.044271015
0.0035945214 0.044565875 -0.057012647 0.0022684517 -0.093514115 0.03356569 -0.028203856 0.04094599
-0.03442078 -0.016737975 -0.026749946 0.020980919 -0.033529688 -0.10465114 -0.10971448 0.065916315
-0.028620675 0.0659203 -0.01567255 0.10583459 0.09667103 0.0045663593 -0.19584583 0.09720204
0.05325886 -0.13391002 -0.18113586 0.08503948 -0.028292164 0.097077735 0.109933175 -0.042270776
0.044472616 -0.12122224 0.06672975 0.12548713 0.101856716 0.13135293 -0.02807316 0.18843946
-0.051031735 0.02219937 -0.1065708 0.047521457 0.15741555 -0.03974477 0.050404128 -0.09021719
-0.035789657 -0.01865687 0.06266545 0.08075355 0.12366686 0.03244417 -0.015973838 0.061641295
-0.0451021 0.0641147 -0.041118447 -0.040292516 0.17191365 0.062097374 0.016147977 -0.07409386
0.01629567 0.037831552 -0.027850475 0.020439837 0.013391668 0.044997055 -0.06934773 0.054001454
-0.0789094 0.18456799 0.09665409 -0.11690324 0.12099845 0.07224829 0.080668904 -0.10023384
-0.19574766 -0.17471506 0.1715268 -0.22173508 0.037017033 0.098784044 -0.17325325 -0.05020524
0.031548426 -0.1422199 0.046406604 -0.06640875 0.16453913 -0.17918402 0.1674394 0.10031675
0.16300732 0.020755535 -0.035838954 0.16314782 -0.03860835 0.07917959 0.1692155 0.09623222
0.017888924 -0.11341992 -0.049501374 0.07091535 -0.087731525 0.07275627 0.07898402 0.09016551
-0.122928 0.020290038 -0.00063231005 -0.0727867 0.16204672 0.004910252 -0.008502009 -0.007814693
-0.036183126 0.017060913 0.10553657 0.0831561 0.11385509 0.04490883 0.032889217 -0.06950446
0.0831781 0.11320627 0.01834676 0.07855266 -0.14025518 -0.011421384 -0.07424105 0.16760926
-0.05131788 -0.06324809 0.041515514 0.026114265 -0.06448564 -0.023993047 -0.10007967 -0.09647568
0.11935314 0.079485446 -0.18838415 -0.052564837 0.13126351 -0.17761774 0.2260579 0.058182858
-0.12788051 0.009214554 0.0565205 0.079968676 -0.078379236 -0.029180167 -0.09457646 0.06154595
0.06662652 0.034770098 0.03375179 -0.10462341 0.13479538 0.12123303 -0.00096843403 -0.12869972
0.021631448 -0.1028793 0.083678134 -0.15874408 -0.04924649 0.086015664 -0.070965774 -0.10216128
0.028347727 -0.014165865 -0.004434631 -0.034264825 0.20070998 0.12444132 0.08407161 -0.09304055
0.013116325 0.09073875 -0.039656095 -0.04158749 -0.062052336 -0.082034536 -0.039281674 -0.05504158
0.14301006 -0.026603106 0.101914816 -0.041526344 -0.020982144 0.14755435 0.09522213 -0.020731049
-0.060070373 0.06253398 0.032336406 -0.04754566 -0.068165444 -0.04932638 0.010988159 0.094925106
00000000: 6387 f2bd 0ec0 9d3e 100a a63d 772b a03c
00000010: bda4 c53d 9bb2 b7bb 91fc 1abe f39f 913d
00000020: 2e18 df3d 8cbd 12be 6d70 12be f136 57bb
00000030: 51d2 95bd ab71 a3bd 04ca 173e 8035 653c
00000040: b458 c9bd d52d 13bc 5d62 823c 9d83 fe3d
00000050: 3ee3 02be 4230 5339 0649 12bb fc03 743d
00000060: 8fec 0d3e 896b 823d 976e 713d f28a 9cbd
00000070: 3f22 1c3d 519f c4bc b826 5fbd af0d bd3d
00000080: 8cd3 653d 1f04 04bd d635 9c3d 84e2 16bd
00000090: 21bc fb3d 562c 80bd ef16 313e 9bad d73d
000000a0: 134d a33d 5084 f03d f622 88bb 0197 e7bd
000000b0: 570a 1cbe 072e f1bb c8f5 ec3d 8655 353d
000000c0: 1092 6b3b b58a 363d 1886 69bd 4eaa 143b
000000d0: 5484 bfbd 2d7c 093d c60b e7bc fbb6 273d
000000e0: cefc 0cbd 141e 89bc b422 dbbc 2de0 ab3c
000000f0: 6d56 09bd 5653 d6bd fcb1 e0bd 22ff 863d
00000100: e875 eabc 3901 873d b863 80bc cebf d83d
00000110: 76fb c53d 66a1 953b cf8b 48be dd11 c73d
00000120: f625 5a3d b51f 09be ae7b 39be 2e29 ae3d
00000130: f8c4 e7bc b1d0 c63d a524 e13d 1f24 2dbd
00000140: eb28 363d 5e43 f8bd 9ba9 883d b37f 003e
00000150: 419a d03d 6281 063e aff9 e5bc 46f6 403e
00000160: a706 51bd 74db b53c cb41 dabd dca5 423d
00000170: 8b31 213e 69cb 22bd 8f74 4e3d cac3 b8bd
00000180: 2d98 12bd 4bd6 98bc be56 803d 1e62 a53d
00000190: 0d45 fd3d 2ee4 043d 91db 82bc 957b 7c3d
000001a0: fbbc 38bd 914e 833d d16b 28bd c409 25bd
000001b0: 220a 303e d159 7e3d c348 843c 86be 97bd
000001c0: 7f7e 853c 42f5 1a3d ae26 e4bc 7271 a73c
000001d0: ba68 5b3c d54e 383d 2f06 8ebd a130 5d3d
000001e0: 409b a1bd 64ff 3c3e 94f2 c53d f76a efbd
000001f0: 09ce f73d e9f6 933d bd35 a53d 6647 cdbd
00000200: 1372 48be 81e8 32be b9a4 2f3e 850e 63be
00000210: 2c9f 173d 4a4f ca3d 4d69 31be 02a4 4dbd
00000220: ec38 013d 18a2 11be da14 3e3d 5001 88bd
00000230: f27c 283e 047c 37be 3c75 2b3e de72 cd3d
00000240: 64eb 263e 8307 aa3c decb 12bd 3910 273e
00000250: ca23 1ebd e928 a23d d446 2d3e 6615 c53d
00000260: cb8b 923c b448 e8bd f4c1 4abd 113c 913d
00000270: 96ac b3bd 3d01 953d 60c2 a13d b2a8 b83d
00000280: adc1 fbbd 4b37 a63c 9cc1 25ba 3211 95bd
00000290: 93ef 253e 2ee6 a03b 034c 0bbc 3309 00bc
000002a0: c234 14bd 54c3 8b3c 8f23 d83d bf4d aa3d
000002b0: dc2c e93d 52f2 373d d8b6 063d 5b58 8ebd
000002c0: 4859 aa3d b0d8 e73d f24b 963c 38e0 a03d
000002d0: 0e9f 0fbe c220 3bbc b10b 98bd c3a1 2b3e
000002e0: b332 52bd 3788 81bd 2c0c 2a3d 95ed d53c
000002f0: 0c11 84bd 118d c4bc 92f6 ccbd 0b95 c5bd
00000300: 6b6f f43d 44c9 a23d c6e7 40be 3a4e 57bd
00000310: f169 063e 6de1 35be b97b 673e 2651 6e3d
00000320: 1cf3 02be a4f8 163c 0a82 673d 9ec6 a33d
00000330: 4b85 a0bd 3f0b efbc 4eb1 c1bd 9b17 7c3d
00000340: 7c73 883d 176b 0e3d 513f 0a3d cc44 d6bd
00000350: cd07 0a3e 0649 f83d 82de 7dba dcc9 03be
00000360: 6f34 b13c 62b2 d2bd 715f ab3d cf8d 22be
00000370: b0b6 49bd fb28 b03d 8156 91bd ef39 d1bd
00000380: 7e39 e83c f217 68bc 6250 91bb 4659 0cbd
00000390: eb86 4d3e 17db fe3d bc2d ac3d 0b8c bebd
000003a0: dbe5 563c 3dd5 b93d 6e6e 22bd a557 2abd
000003b0: 972a 7ebd b901 a8bd d2e5 20bd 4873 61bd
000003c0: 3b71 123e c2ee d9bc b7b8 d03d 8717 2abd
000003d0: bfe2 abbc 7d18 173e d203 c33d 29d4 a9bc
000003e0: 5a0c 76bd d111 803d 2e73 043d 3dbf 42bd
000003f0: 539a 8bbd 750a 4abd ae07 343c 1868 c23d

layer2.weight f4 [150, 200]
0.009282355 0.050269518 -0.104543805 0.064094216 -0.005759433 0.11984402 -0.06149751 0.0017500335
0.12005164 0.1437803 0.013472397 -0.0034290953 -0.016644515 0.037503626 -0.2949292 0.11537909
-0.07078452 0.09682324 0.07883737 0.016216015 0.15336083 -0.014015556 -0.04460869 0.030592512
-0.026588522 0.007472572 -0.04076858 -0.08804382 0.015518831 -0.014128413 0.13985264 0.017753428
0.1179613 -0.09524453 0.08519638 -0.07413674 -0.07404106 0.012607903 0.035355322 -0.06895711
0.05724477 -0.04403482 0.08724745 -0.119748436 -0.078093305 -0.032992225 -0.16292308 -0.04650124
0.12351443 -0.16879416 0.040706832 -0.034110464 0.06496766 -0.14271782 0.052799463 -0.0019342585
-0.0051842607 -0.12117331 0.0048171664 -0.012372169 0.04513042 0.0133143775 0.049611885 0.03510133
0.029836677 -0.010026087 0.03013002 0.03696462 -0.023586819 -0.005210125 0.013291902 -0.056175612
0.02462122 0.009822576 -0.10381934 -0.059459392 -0.012025983 0.04554607 0.17514001 -0.015890025
0.0018445309 0.01340256 0.013459929 0.0029358591 0.086068556 0.04758502 -0.02114074 -0.033962775
0.035809226 -0.012629973 -0.093277186 -0.07041828 0.063422985 0.029432494 0.06436036 0.07751393
-0.030672608 -0.0005050937 -0.025830613 -0.024474576 0.060830846 0.033157382 -0.012038128 -0.057921153
0.09472547 -0.039626226 0.072147064 -0.10006361 -0.066303425 -0.03230699 -0.052928798 -0.09331674
0.11534795 -0.045390356 0.2066305 0.010044802 0.003699737 0.0053976034 0.12995727 0.10782728
0.008116663 -0.009191839 -0.00079364923 -0.04144732 -0.132186 -0.015173336 0.026744314 0.06141447
-0.0005923192 0.11090849 -0.00757227 -0.084475055 0.13340488 0.046557 0.058974065 -0.022980236
-0.10132141 -0.107549146 0.015410227 0.08797077 0.06370635 0.06759589 -0.07773232 -0.015049464
-0.0025855312 -0.040257484 0.038590018 0.030508112 -0.06960734 0.025812842 0.089415595 0.01142862
0.01464154 -0.013373748 -0.06763079 -0.11656857 -0.10327029 0.054852903 0.030711588 -0.031607855
0.035623953 -0.022427147 -0.109734975 -0.002914688 0.017073337 0.04125029 -0.08309586 0.02040287
-0.08901862 0.029226342 0.10097416 -0.057679024 -0.011763066 0.08923235 0.01151183 0.022331366
0.031897396 0.030781064 0.04101815 -0.05752519 0.029889157 -0.012542868 0.10699347 -0.0490601
0.07056471 0.00015562781 0.058581002 -0.0273238 -0.026055742 -0.037735566 0.032357533 0.039524734
-0.07493928 -0.056055695 -0.17372036 0.076299086 -0.027079713 0.026848655 -0.007067225 0.042497877
-0.07214434 -0.017767215 -0.040159933 0.09392621 -0.08560104 -0.12886955 0.094654135 0.03302986
0.06799339 -0.08382025 -0.09487238 -0.037557 0.11211826 0.040947776 0.031996384 -0.012823913
0.023009008 0.031670738 -0.021434812 -0.10317741 -0.10817632 0.0025805235 0.024476308 -0.030846909
0.017362274 0.03963162 -0.05813307 0.08951801 0.024334745 -0.03212519 0.14931935 0.03384654
0.07895495 -0.067131445 0.028777547 -0.02626967 0.099112466 -0.018869827 0.021899236 -0.033087842
0.110859744 0.016257558 0.05494423 0.018322896 0.06465929 -0.028381536 0.03225099 -0.05500317
0.082836576 -0.060814615 -0.048021868 0.13181046 0.01558635 0.04486886 0.029183391 0.091982976
00000000: 0515 183c 69e7 4d3d 101b d6bd d443 833d
00000010: a0b9 bcbb c870 f53d d0e4 7bbd 6161 e53a
00000020: a2dd f53d 253b 133e 54bb 5c3c acba 60bb
00000030: 145a 88bc 679d 193d f600 97be df4b ec3d
00000040: 79f7 90bd 434b c63d 7d75 a13d 73d7 843c
00000050: 9f0a 1d3e 81a1 65bc 9ab7 36bd 269d fa3c
00000060: 2cd0 d9bc 7adc f43b f4fc 26bd 5150 b4bd
00000070: b242 7e3c dc7a 67bc 8835 0f3e a36f 913c
00000080: b295 f13d 900f c3bd 717b ae3d 01d5 97bd
00000090: d7a2 97bd 6191 4e3c bed0 103d 6339 8dbd
000000a0: 7e79 6a3d db5d 34bd cbae b23d ab3e f5bd
000000b0: 62ef 9fbd db22 07bd 4fd5 26be 1678 3ebd
000000c0: 22f5 fc3d 60d8 2cbe 35bc 263d 6ab7 0bbd
000000d0: c40d 853d 9f24 12be 4044 583d f286 fdba
000000e0: bbe0 a9bb b629 f8bd 52d9 9d3b a3b4 4abc
000000f0: adda 383d 8c24 5a3c d535 4b3d 6ac6 0f3d
00000100: 0c6c f43c 7544 24bc 3bd3 f63c 3768 173d
00000110: 2539 c1bc b2b9 aabb 47c6 593c 6618 66bd
00000120: 71b2 c93c dfee 203c 3c9f d4bd b18b 73bd
00000130: a108 45bc 848e 3a3d e757 333e cc2b 82bc
00000140: 30c4 f13a 6996 5b3c 0987 5c3c 8b67 403b
00000150: b644 b03d 83e8 423d 582f adbc 8d1c 0bbd
00000160: b2ac 123d f2ed 4ebc 1c08 bfbd 7637 90bd
00000170: e9e3 813d 6a1c f13c 5dcf 833d a0bf 9e3d
00000180: 1f45 fbbc 4468 04ba b99a d3bc e87e c8bc
00000190: c429 793d 09d0 073d 923b 45bc bb3e 6dbd
000001a0: 6dff c13d 1c4f 22bd d7c1 933d 26ee ccbd
000001b0: 17ca 87bd 5654 04bd decb 58bd d91c bfbd
000001c0: 8c3b ec3d 3deb 39bd f296 533e f492 243c
000001d0: 4977 723b 61de b03b 8513 053e 8dd4 dc3d
000001e0: c1fb 043c 5e99 16bc e60c 50ba aac4 29bd
000001f0: c45b 07be 9599 78bc e416 db3c bd8d 7b3d
00000200: de45 1bba fe23 e33d ce20 f8bb 4201 adbd
00000210: 4a9b 083e 8eb2 3e3d ca8e 713d 0c41 bcbc
00000220: 9981 cfbd ba42 dcbd 2d7b 7c3c 052a b43d
00000230: 7a78 823d b76f 8a3d 1f32 9fbd 0792 76bc
00000240: 0472 29bb 08e5 24bd 9110 1e3d 26ec f93c
00000250: 4b8e 8ebd 7475 d33c 861f b73d 1b3f 3b3c
00000260: 12e3 6f3c 911d 5bbc 0382 8abd 81bb eebd
00000270: 607f d3bd 70ad 603d de96 fb3c 3d77 01bd
00000280: 6cea 113d 23b9 b7bc bbbc e0bd 5a04 3fbb
00000290: 62dd 8b3c 10f6 283d 2a2e aabd eb23 a73c
000002a0: 654f b6bd 156c ef3c 8acb ce3d d740 6cbd
000002b0: e0b9 40bc 73bf b63d 1d9c 3c3c 45f0 b63c
000002c0: d8a6 023d 9228 fc3c a602 283d 899f 6bbd
000002d0: 1bda f43c 9a80 4dbc 641f db3d 3ef3 48bd
000002e0: 3b84 903d 0630 2339 a2f2 6f3d 29d6 dfbc
000002f0: da72 d5bc 9c90 1abd 5589 043d b0e4 213d
00000300: c479 99bd a89a 65bd c0e3 31be b242 9c3d
00000310: 46d6 ddbc b6f1 db3c 2e94 e7bb 4112 2e3d
00000320: 69c0 93bd 8d8c 91bc be7e 24bd 635c c03d
00000330: 994f afbd 61f6 03be 07da c13d 524a 073d
00000340: 1e40 8b3d f4a9 abbd 734c c2bd 5ed5 19bd
00000350: 429e e53d dbb8 273d a40e 033d 641b 52bc
00000360: 637d bc3c 2db9 013d 0f98 afbc ae4e d3bd
00000370: 8c8b ddbd 001e 293b 8a82 c83c a8b2 fcbc
00000380: 543b 8e3c c454 223d f11c 6ebd 3855 b73d
00000390: a959 c73c b495 03bd 2ce7 183e aba2 0a3d
000003a0: 22b3 a13d 367c 89bd e4be eb3c 7e33 d7bc
000003b0: 7afb ca3d e594 9abc 0766 b33c 1e87 07bd
000003c0: 6f0a e33d 922e 853c 330d 613d e619 963c
000003d0: 176c 843d 6580 e8bc 9d19 043d 014b 61bd
000003e0: 39a6 a93d bf18 79bd 94b2 44bd 52f9 063e
000003f0: e45d 7f3c 69c8 373d 0212 ef3c 9261 bc3d

layer2.bias f4 [150]
0.017468816 -0.02118131 0.019250778 0.07301516 -0.00469111 0.011607732 -0.061653875 -0.005884649
-0.009312932 0.057084188 0.034923546 -0.022451758 0.053023845 0.07474133 0.03247208 -0.007082369
0.018411845 0.044490684 -0.0079392865 0.011656454 -0.03406928 0.082075864 -0.05238633 0.075275734
-0.039902277 -0.03390929 -0.05336102 -0.03717858 0.043889828 -0.009812138 -0.024250258 0.048317034
0.08065105 -0.03960711 -0.021359466 0.077488735 -0.029585226 -0.008452864 0.016372595 -0.022225136
-0.066211276 -0.020751543 -0.053649247 -0.055506147 0.015506707 -0.02341305 0.060882177 -0.04239596
0.051246 -0.00050389656 0.07283361 0.036107063 0.07792278 -0.047945183 0.11206834 -0.018843843
-0.0030488078 0.05873097 -0.049379498 -0.022244276 0.013325338 0.009057727 0.12772772 0.0062461584
0.06899221 0.02739596 0.068875045 -0.029427193 -0.04452618 0.020529784 -0.04708345 0.08169161
0.08842454 0.00072735624 -0.049062077 -0.018502446 0.012236622 0.08921147 0.036260333 -0.06581952
-0.0026979428 0.06325807 0.0739103 -0.010212976 0.023468927 0.08650024 -0.043304194 0.008922854
0.0051392335 -0.028853785 0.007696241 -0.013918654 0.059746884 0.0024812948 -0.028442735 0.0025263596
0.029781884 -0.0058584544 0.051799186 -0.031330187 0.027365167 0.052826278 0.007620755 -0.04449619
-0.076073505 -0.014167692 -0.031974804 0.087540284 0.03088704 0.013870099 -0.030014088 0.07496576
0.010269425 -0.041938793 0.0037291774 -0.03185831 -0.008774036 0.046976104 0.045149527 0.046326455
0.002055345 -0.022966005 -0.03403996 -0.033732146 -0.04163154 0.042900372 0.0020401569 -0.07244782
-0.07511994 0.087324254 -0.05434914 -0.0077393698 0.0282744 -0.048073854 0.048116326 0.044516373
0.040760785 -0.011415663 0.015835354 0.051737 0.039498683 0.043860145 -0.019226853 0.038270738
0.012967986 0.06923933 0.019792987 -0.03903748 -0.051200923 -0.0017382923
00000000: c31a 8f3c 6d84 adbc cfb3 9d3c f988 953d
00000010: e2b7 99bb 5b2e 3e3c c688 7cbd 04d4 c0bb
00000020: 4595 18bc 1cd1 693d fe0b 0f3d c0ec b7bc
00000030: 882f 593d fc11 993d 7201 053d 3813 e8bb
00000040: 70d4 963c dd3b 363d c813 02bc b6fa 3e3c
00000050: 3b8c 0bbd 6417 a83d 0c93 56bd 2a2a 9a3d
00000060: 9270 23bd 78e4 0abd 1691 5abd 9148 18bd
00000070: d2c5 333d 17c3 20bc 7aa8 c6bc 15e8 453d
00000080: 612c a53d 113b 22bd 0cfa aebc 6ab2 9e3d
00000090: b75c f2bc e27d 0abc d21f 863c 7d11 b6bc
000000a0: c799 87bd 24ff a9bc 50bf 5bbd 6a5a 63bd
000000b0: d80f 7e3c bacc bfbc 975f 793d 63a7 2dbd
000000c0: 53e7 513d ed17 04ba ca29 953d 00e5 133d
000000d0: fa95 9f3d 2b62 44bd 1684 e53d 675e 9abc
000000e0: 82ce 47bb e38f 703d 2842 4abd a139 b6bc
000000f0: 8552 5a3c dc66 143c 0ecb 023e 93ac cc3b
00000100: ca4b 8d3d 7e6d e03c 5c0e 8d3d 4c11 f1bc
00000110: 1561 36bd 142e a83c 93da 40bd ee4d a73d
00000120: ed17 b53d 0dac 3e3a 51f5 48bd 7192 97bc
00000130: 1d7c 483c 81b4 b63d b785 143d 62cc 86bd
00000140: f8cf 30bb 728d 813d 495e 973d 5354 27bc
00000150: e841 c03c 0a27 b13d bd5f 31bd 2a31 123c
00000160: 0467 a83b c65e ecbc c030 fc3b 110b 64bc
00000170: 26b9 743d 389d 223b bd00 e9bc 4891 253b
00000180: 23f9 f33c 47f8 bfbb 622b 543d 1554 00bd
00000190: ea2c e03c 5e60 583d 87b7 f93b a341 36bd
000001a0: 6dcc 9bbd 9b1f 68bc 03f8 02bd 5248 b33d
000001b0: d106 fd3c 693f 633c 1be0 f5bc a687 993d
000001c0: 1741 283c 03c8 2bbd 3765 743b dc7d 02bd
000001d0: f9c0 0fbc 046a 403d b6ee 383d cfc0 3d3d
000001e0: f8b2 063b 3423 bcbc 7c6d 0bbd b82a 0abd
000001f0: d585 2abd 4db8 2f3d 27b4 053b 865f 94bd
00000200: 7cd8 99bd 0fd7 b23d 349d 5ebd 8a9a fdbb
00000210: b79f e73c 17e9 44bd a015 453d cd56 363d
00000220: c8f4 263d c308 3bbc 25b9 813c 2dea 533d
00000230: 5fc9 213d b2a6 333d a281 9dbc c7c1 1c3d
00000240: ad77 543c 5acd 8d3d e724 a23c c4e5 1fbd
00000250: 0fb8 51bd 69d7 e3ba

layer3.weight f4 [100, 150]
-0.050933696 0.030594822 0.02706491 0.023569176 0.15310691 0.040015794 -0.0061195903 0.10861476
0.04271997 0.37886652 -0.056997832 -0.09951594 -0.026037496 -0.051501974 -0.04006467 -0.052039016
0.017826509 -0.14762428 -0.024482226 0.12807368 -0.12595946 0.12286926 -0.09855096 0.08842205
-0.0106218625 0.022241063 -0.09279243 0.15928085 0.061561026 0.06288627 -0.13026533 -0.017762437
0.08664258 0.036858063 -0.06348231 0.008440864 -0.06841624 0.0011336005 0.0679888 0.1500517
0.04277284 0.048754133 0.027233297 -0.0715576 -0.04772433 0.17472309 -0.014618552 0.08761208
0.07255465 -0.08680934 -0.031412195 0.050825793 0.004606146 0.072818026 -0.03926862 0.0921501
0.0016593863 -0.18515643 -0.015410482 0.1089631 0.027853655 -0.005393666 0.1306798 -0.21761248
0.018702663 -0.05953546 0.14413285 -0.007669512 -0.1652272 0.008015924 0.049082987 0.06276477
0.13728906 -0.09018412 0.017530553 0.09255686 -0.097386725 0.044387925 0.053578112 -0.069223545
0.10421083 0.043114677 0.0066526695 0.014142589 0.14446123 0.069610216 0.08904012 0.014316114
-0.03824473 -0.048104834 0.012613414 0.00069462735 0.035070065 0.10809216 -0.012853329 -0.04204974
-0.07885321 -0.17206852 -0.05798239 -0.049346402 -0.014962978 0.07503179 -0.036888774 -0.0002291996
0.003824172 -0.030582624 -0.101699196 0.039910205 0.009595227 0.12937465 0.10530738 -0.08088756
0.05036469 -0.034530714 0.060696747 -0.11753454 -0.023130292 0.15858467 0.0150975 0.034413565
0.03035685 -0.04595843 -0.01009017 0.051232718 0.09046708 0.04006206 0.034297526 -0.017034203
0.07298705 -0.04944652 -0.09808323 -0.122452535 0.067456216 -0.05847509 -0.030678473 0.10079716
0.14232375 0.02121204 -0.020168114 0.052774 0.11401439 -0.060960524 -0.05171704 0.06108372
0.08221434 -0.042373 0.0045675193 -0.08254403 0.105707936 -0.077296406 0.07706151 0.006632994
-0.022576839 0.065005675 0.06224187 -0.08213841 -0.03930516 -0.046166897 0.110536665 0.34100768
0.017659666 -0.014533441 -0.009068335 0.046566073 0.0769682 0.010953547 0.068060905 0.014236698
-0.06947992 -0.025795627 0.007828097 -0.030348454 -0.0156183075 0.043975767 -0.074634485 -0.12200422
-0.017462732 -0.045564663 0.026554365 0.118918076 0.029648364 0.1355413 -0.022436844 0.1263762
-0.029348623 -0.053284056 -0.06259753 -0.09101857 0.03489046 0.101729445 0.010298384 0.07193874
-0.01586904 -0.029640008 -0.02459219 -0.03485418 -0.031015644 0.07227551 0.0017000434 -0.022262799
-0.067194134 -0.13125116 0.10149603 0.12363924 0.036054213 -0.030934907 -0.054798335 -0.011507178
-0.0981375 -0.021053744 0.103499904 0.023905773 0.095374696 -0.17665213 -0.0319399 -0.08460183
0.045535833 0.06393749 -0.07912304 0.07584313 0.04363221 0.11144 0.005083571 0.123741746
0.03815021 0.09697646 -0.07401347 0.041052576 -0.067013495 0.14257158 0.07717195 0.062359206
-0.07873216 -0.03214844 0.06862758 -0.07257398 -0.0027821022 -0.13868026 -0.10559728 0.007238623
-0.0023395466 0.042499594 0.029502435 0.004651591 0.083220094 0.037623625 -0.16066824 -0.028402027
-0.08440415 -0.012050187 -0.055230055 0.007947148 -0.07594697 0.0726113 0.037266426 0.10540967
00000000: da9f 50bd fea1 fa3c 3bb7 dd3c 2514 c13c
00000010: 0fc8 1c3e 9ae7 233d d886 c8bb 6a71 de3d
00000020: 23fb 2e3d cbfa c13e 8f76 69bd 03cf cbbd
00000030: 964c d5bc bcf3 52bd da1a 24bd dd26 55bd
00000040: e608 923c d22a 17be f38e c8bc bf25 033e
00000050: 84fb 00be e1a2 fb3d 16d5 c9bd 9f16 b53d
00000060: 5207 2ebc e432 b63c f509 bebd 851a 233e
00000070: 6a27 7c3d 84ca 803d 4664 05be 8882 91bc
00000080: aa71 b13d 7bf8 163d 0303 82bd 8d4b 0a3c
00000090: d01d 8cbd 5295 943a b63d 8b3d 27a7 193e
000000a0: 9332 2f3d 6ab2 473d 5d18 df3c ca8c 92bd
000000b0: 967a 43bd 9cea 323e a782 6fbc f66d b33d
000000c0: 8897 943d 18c9 b1bd 13aa 00bd b52e 503d
000000d0: 27ef 963b 9e21 953d 22d8 20bd 31b9 bc3d
000000e0: c47f d93a a699 3dbe 3f7c 7cbc 0c28 df3d
000000f0: 592d e43c 5abd b0bb edd0 053e ced5 5ebe
00000100: 5436 993c 74db 73bd 9097 133e 8850 fbbb
00000110: 5231 29be 3955 033c 3e0b 493d d18a 803d
00000120: 8195 0c3e 74b2 b8bd 3c9c 8f3c 738e bd3d
00000130: b172 c7bd 1dd0 353d b974 5b3d 13c5 8dbd
00000140: 7d6c d53d 0499 303d a3fe d93b 51b6 673c
00000150: a5ed 133e cd8f 8e3d ab5a b63d 228e 6a3c
00000160: 82a6 1cbd 9309 45bd 7ea8 4e3c a717 363a
00000170: a1a5 0f3d 6c5f dd3d c596 52bc 593c 2cbd
00000180: cb7d a1bd bb32 30be f17e 6dbd 741f 4abd
00000190: 4727 75bc 44aa 993d af18 17bd 4d55 70b9
000001a0: f69e 7a3b 6988 fabc ab47 d0bd e278 233d
000001b0: 4d35 1d3c ca7a 043e 65ab d73d 61a8 a5bd
000001c0: 354b 4e3d 1470 0dbd 279d 783d f3b5 f0bd
000001d0: bd7b bdbc 0564 223e 815b 773c 3df5 0c3d
000001e0: eeae f83c e83e 3cbd 3e51 25bc 66d9 513d
000001f0: ce46 b93d 1d18 243d 907b 0c3d 508b 8bbc
00000200: 3c7a 953d 6f88 4abd dcdf c8bd 65c8 fabd
00000210: 7c26 8a3d 9383 6fbd 6c51 fbbc be6e ce3d
00000220: 51bd 113e dfc4 ad3c 9a37 a5bc 8d29 583d
00000230: 6080 e93d beb1 79bd 3fd5 53bd ec32 7a3d
00000240: fe5f a83d 508f 2dbd 21ab 953b d80c a9bd
00000250: 677d d83d 944d 9ebd 6dd2 9d3d 9659 d93b
00000260: 10f3 b8bc b221 853d 55f1 7e3d 2f38 a8bd
00000270: 73fe 20bd 8019 3dbd 0c61 e23d 8f98 ae3e
00000280: 01ab 903c ab1d 6ebc 5b93 14bc 11bc 3e3d
00000290: 81a1 9d3d 8276 333c 8463 8b3d 0a41 693c
000002a0: 7d4b 8ebd 5a51 d3bc 6b41 003c 529d f8bc
000002b0: eee3 7fbc ef1f 343d f7d9 98bd 59dd f9bd
000002c0: 010e 8fbc 03a2 3abd 8a88 d93c 528b f33d
000002d0: 20e1 f23c 57cb 0a3e 79cd b7bc c368 013e
000002e0: 866c f0bc 6240 5abd 2233 80bd f267 babd
000002f0: 4de9 0e3d 8757 d03d 8eba 283c 9e54 933d
00000300: caff 81bc 9acf f2bc 8f75 c9bc 42c3 0ebd
00000310: 8514 febc 2f05 943d fed3 de3a 7960 b6bc
00000320: 149d 89bd b466 06be 27dd cf3d 9236 fd3d
00000330: 95ad 133d 346b fdbc 3874 60bd 9a88 3cbc
00000340: 50fc c8bd e778 acbc c2f7 d33d 0ad6 c33c
00000350: cf53 c33d 4ce4 34be 6ad3 02bd b943 adbd
00000360: c883 3a3d a9f1 823d 430b a2bd a553 9b3d
00000370: b0b7 323d a83a e43d 1694 a63b 506c fd3d
00000380: 6543 1c3d 989b c63d 6094 97bd bf26 283d
00000390: 5f3e 89bd 49fe 113e 540c 9e3d 5e6c 7f3d
000003a0: 543e a1bd 15ae 03bd 9e8c 8c3d aba1 94bd
000003b0: ee53 36bb 3302 0ebe 6343 d8bd f931 ed3b
000003c0: 1453 19bb 0e14 2e3d 17af f13c 606c 983b
000003d0: 4c6f aa3d 3b1b 1a3d 3786 24be 5eab e8bc
000003e0: 15dc acbd 266e 45bc e938 62bd c134 023c
000003f0: 168a 9bbd 3cb5 943d aea4 183d 06e1 d73d

layer3.bias f4 [100]
0.07811335 -0.052066687 0.069608495 0.069929436 0.090830885 0.10950526 0.030108614 0.07956821
-0.07531061 0.09001828 -0.04932541 0.07434081 0.00063661864 -0.033094045 0.07503911 -0.089144364
-0.038811196 0.11727623 0.095532976 0.011089817 0.098381124 -0.0023683596 0.10827038 0.08103709
0.09752724 -0.07672864 0.02342266 -0.039677154 -0.018410122 0.0063707237 0.07079595 0.07374228
-0.023419527 0.08078676 -0.056582317 0.018933527 0.07423729 -0.0661162 0.0037553634 -0.01750005
0.0070020696 -0.0248573 0.02482818 0.012065807 -0.042227924 0.038762953 0.027118556 0.062216915
-0.009139907 0.005693807 0.009166435 -0.005033598 0.051026005 -0.047374655 0.056409914 0.03620881
0.07513673 0.108741164 0.107324645 0.10039188 -0.03682158 0.04806248 -0.011970258 0.07841331
0.087673396 0.06428973 0.05509232 0.07558571 -0.058858253 0.047437735 0.014634742 -0.035219986
-0.007993376 -0.04371821 -0.03890468 0.124036394 -0.032794293 0.03716976 0.10592079 0.11154309
-0.076437734 -0.09356741 -0.052552715 0.006324537 -0.051969737 0.010685985 0.00035595548 0.10711674
0.06452898 0.028247677 0.072326645 0.03572329 0.0006337057 -0.034428507 -0.018263208 0.077065505
-0.069968924 0.042084813 6.440724e-05 0.14163089
00000000: e4f9 9f3d e143 55bd e68e 8e3d 2a37 8f3d
00000010: 8b05 ba3d 4b44 e03d 57a6 f63c a8f4 a23d
00000020: 733c 9abd 815b b83d 7109 4abd ff3f 983d
00000030: c1e2 263a 9f8d 07bd 1bae 993d 5291 b6bd
00000040: 7df8 1ebd 852e f03d cba6 c33d 10b2 353c
00000050: 0b7c c93d 7b36 1bbb dcbc dd3d c6f6 a53d
00000060: 5dbc c73d e823 9dbd e1e0 bf3c 8384 22bd
00000070: d3d0 96bc 81c1 d03b 78fd 903d 3106 973d
00000080: 4fda bfbc 8773 a53d dcc2 67bd 7c1a 9b3c
00000090: b809 983d ee67 87bd 8b1c 763b 445c 8fbc
000000a0: 9e71 e53b 89a1 cbbc 7864 cb3c aaaf 453c
000000b0: 30f7 2cbd e7c5 1e3d bc27 de3c 2ad7 7e3d
000000c0: 8cbf 15bc 1d93 ba3b d12e 163c e1f0 a4bb
000000d0: a500 513d ed0b 42bd 150e 673d b04f 143d
000000e0: 49e1 993d b0b3 de3d 06cd db3d 429a cd3d
000000f0: 3ad2 16bd 2add 443d e71e 44bc 2897 a03d
00000100: 1c8e b33d 55aa 833d 7ca8 613d aecc 9a3d
00000110: 5a15 71bd 124e 423d 8fc6 6f3c d542 10bd
00000120: a6f6 02bc de11 33bd 845a 1fbd cb06 fe3d
00000130: 4f53 06bd 513f 183d 00ed d83d b470 e43d
00000140: 638b 9cbd 45a0 bfbd 8441 57bd 103e cf3b
00000150: 38de 54bd 4514 2f3c 899f ba39 0560 db3d
00000160: c527 843d ac67 e73c fe1f 943d 9652 123d
00000170: 451f 263a e804 0dbd b99c 95bc 85d4 9d3d
00000180: de4b 8fbd 2061 2c3d 6012 8738 b007 113e

layer4.weight f4 [150, 100]
0.013002016 0.0049580755 -0.12504311 -0.11154162 0.05535484 0.062397506 0.03133287 0.07951846
-0.03547379 -0.1034924 -0.10926549 -0.009648945 0.05609747 -0.060752563 0.0203157 0.030464614
-0.027904531 0.10734358 0.002175684 -0.07292043 0.01996365 -0.048036918 -0.08130486 0.063783444
0.08161335 0.06273286 -0.0008677312 -0.13920031 -0.052474458 0.027906278 0.042837102 0.017912788
-0.049506746 -0.037070658 -0.10025343 -0.117989406 -0.13763614 -0.07866875 0.10667609 0.103437476
-0.12017766 0.011532356 0.09456359 0.055428054 -0.062137507 0.032469753 0.046028085 0.04016294
-0.03115779 -0.06301302 0.08608884 0.030187208 -0.049665414 -0.033522066 0.014408957 0.06670107
-0.07885514 0.059976585 -0.08098152 0.038983684 0.03777656 0.04931103 0.10326491 -0.018558502
-0.014137649 -0.011512883 -0.218154 0.032268178 -0.088010065 0.015917325 -0.07511004 0.007166745
-0.08228183 -0.065562196 -0.002525885 -0.035284948 -0.072871275 0.10686162 0.08095729 0.0893712
-0.08090824 0.03173504 -0.07855628 0.003776291 -0.0008812198 0.0037024203 0.02759115 -0.04077257
0.06762879 0.01464413 -0.10055634 0.0703907 0.08266504 -0.059225786 0.10978679 0.15073304
0.05527677 0.08707657 -0.017295009 0.083527915 0.046995163 0.058493126 -0.016914193 0.020122902
-0.019280324 0.07020659 0.07897486 -0.06468111 0.036873884 -0.10107218 0.01378563 0.09558187
-0.0139586665 -0.09744578 -0.09836311 -0.023939848 -0.045943514 -0.10107794 -0.07829118 0.09238475
-0.037172996 -0.03459117 0.051579434 0.09093416 0.07580548 0.0025855773 0.09439556 -0.09416947
-0.01887811 -0.07956408 -0.0695203 0.06001969 -0.09500053 -0.0068638553 0.07230862 -0.06316914
-0.011595298 -0.009844637 -0.074123226 0.08678117 0.023816496 -0.01699874 0.015852842 0.0066540875
0.031971812 -0.0411189 -0.036486674 0.08455499 0.024713196 0.049757823 0.050706424 -0.01905096
-0.054963667 0.051247694 0.0038018937 0.062046077 -0.09524343 0.053773187 -0.07223771 0.030577647
0.074401826 -0.0701573 -0.089470305 0.050042454 -0.05362549 -0.097670265 0.07237255 -0.013013854
0.0011571797 0.0075874506 -0.06184631 -0.08285272 -0.09628681 0.026602486 -0.010607999 -0.09985456
-0.021133265 -0.08425978 -0.05111296 -0.06927741 -0.027741455 -0.09624475 0.03314329 0.0040141162
-0.06723009 0.027722517 0.04681669 -0.08087526 -0.021929787 -0.09846375 0.054031827 -0.05442719
-0.027218314 -0.08000259 -0.010551389 -0.040962067 0.074542396 -0.054231983 0.012243848 -0.024249211
0.08183441 0.048482273 -0.13446704 -0.038750526 -0.06147143 -0.013582057 -0.14106515 0.021610761
-0.19733998 -0.0019431966 -0.043354232 0.006467589 -0.16767119 0.07251043 -0.084027156 0.0818926
-0.032531403 0.08209033 0.08463554 0.07965566 -0.08568293 0.09945396 0.002971622 0.05549947
-0.081435464 0.16775924 0.005419737 -0.053978503 0.0038447445 0.11275282 0.007000818 0.09147032
-0.066971995 0.02262697 0.04158552 0.0072135427 0.10399415 0.105607845 -0.025294684 0.032987654
-0.118268356 0.121137336 0.08424719 -0.04497147 0.02366528 0.13246514 0.11688489 -0.044835255
-0.036408886 -0.1225811 0.07131217 0.0835041 0.095687866 -0.09449915 0.034819476 -0.101793565
00000000: 6806 553c 5a77 a23b 4d0b 00be ef6f e4bd
00000010: c2bb 623d 8794 7f3d e556 003d 93da a23d
00000020: f74c 11bd d3f3 d3bd 96c6 dfbd 9c16 1ebc
00000030: 76c6 653d aed7 78bd 1c6d a63c ed90 f93c
00000040: 0b98 e4bc f3d6 db3d ec95 0e3b 4e57 95bd
00000050: cf8a a33c 5cc2 44bd 2a83 a6bd e5a0 823d
00000060: e624 a73d 167a 803d 7578 63ba 878a 0ebe
00000070: 75ef 56bd b59b e43c f575 2f3d d7bd 923c
00000080: 96c7 4abd 67d7 17bd ac51 cdbd 6ea4 f1bd
00000090: 7df0 0cbe 151d a1bd fe78 da3d 07d7 d33d
000000a0: b41f f6bd 35f2 3c3c 8eaa c13d 8708 633d
000000b0: e683 7ebd 01ff 043d f287 3c3d e581 243d
000000c0: 9f3e ffbc f80c 81bd 594f b03d 2a4b f73c
000000d0: f66d 4bbd 6f4e 09bd 8c13 6c3c 929a 883d
000000e0: ce7e a1bd 02aa 753d a4d9 a5bd 5bad 1f3d
000000f0: 98bb 1a3d 5dfa 493d 8e7c d33d 0008 98bc
00000100: 99a1 67bc 88a0 3cbc c363 5fbe a32b 043d
00000110: 9f3e b4bd 0d65 823c 4bd3 99bd 04d7 ea3b
00000120: 6083 a8bd 7945 86bd 5189 25bb f386 10bd
00000130: 893d 95bd 44da da3d f0cc a53d 3f08 b73d
00000140: 38b3 a5bd 9afc 013d 1de2 a0bd a67b 773b
00000150: a901 67ba 4ea4 723b d606 e23c 2301 27bd
00000160: f780 8a3d efed 6f3c 7bf0 cdbd 0029 903d
00000170: 4a4c a93d bd96 72bd e6d7 e03d c359 1a3e
00000180: e569 623d 3355 b23d 43ae 8dbc af10 ab3d
00000190: 007e 403d 7d96 6f3d a28f 8abc c9d8 a43c
000001a0: c5f1 9dbc 79c8 8f3d 92bd a13d 8877 84bd
000001b0: 1209 173d eefe cebd 20dd 613c 6dc0 c33d
000001c0: e4b2 64bc a791 c7bd 9972 c9bd 801d c4bc
000001d0: 442f 3cbd f301 cfbd 2057 a0bd 3734 bd3d
000001e0: b642 18bd 78af 0dbd f544 533d b03b ba3d
000001f0: e73f 9b3d ca72 293b 7652 c13d ecdb c0bd
00000200: 44a6 9abc 7ef2 a2bd a960 8ebd 35d7 753d
00000210: a38f c2bd 31ea e0bb 8b16 943d d25e 81bd
00000220: 34fa 3dbc 664b 21bc ebcd 97bd 53ba b13d
00000230: d01a c33c f140 8bbc d2dd 813c 880a da3b
00000240: e0f4 023d 4b6c 28bd 0d73 15bd 2b2b ad3d
00000250: 5473 ca3c dcce 4b3d 8ab1 4f3d c210 9cbc
00000260: 9521 61bd 1ae9 513d 3129 793b 0724 7e3d
00000270: fd0e c3bd 4641 5c3d 5df1 93bd f97d fa3c
00000280: fc5f 983d a1ae 8fbd 353c b7bd 51f9 4c3d
00000290: 67a6 5bbd 5907 c8bd 0f38 943d 0f38 55bc
000002a0: 82ac 973a 26a0 f83b 8e52 7dbd b0ae a9bd
000002b0: 0532 c5bd 75ed d93c 2ccd 2dbc 8c80 ccbd
000002c0: ab1f adbc 6490 acbd d35b 51bd 51e1 8dbd
000002d0: 0c42 e3bc f81b c5bd 42c1 073d d988 833b
000002e0: eeaf 89bd 551a e33c dcc2 3f3d eea1 a5bd
000002f0: 19a6 b3bc 5da7 c9bd 7a50 5d3d 0cef 5ebd
00000300: f1f8 debc 66d8 a3bd bcdf 2cbc d7c7 27bd
00000310: afa9 983d 5b22 5ebd 6c9a 483c 48a6 c6bc
00000320: cd98 a73d 5995 463d bab1 09be dfb8 1ebd
00000330: 77c9 7bbd 4787 5ebc 6273 10be 0d09 b13c
00000340: 7e13 4abe dcb2 feba 3594 31bd 12ee d33b
00000350: ffb1 2bbe 5980 943d 6e16 acbd 4fb7 a73d
00000360: a63f 05bd fa1e a83d 6655 ad3d 8222 a33d
00000370: 887a afbd 85ae cb3d 8bbf 423b 6a53 633d
00000380: a3c7 a6bd 14c9 2b3e 0d98 b13b 9018 5dbd
00000390: 1cf8 7b3b f3ea e63d 1e67 e53b cb54 bb3d
000003a0: 9d28 89bd 325c b93c 9455 2a3d 955f ec3b
000003b0: e3fa d43d ed48 d83d cc36 cfbc 101e 073d
000003c0: ae36 f2bd da16 f83d ca89 ac3d 0134 38bd
000003d0: b0dd c13c f1a4 073e 5861 ef3d 2ca5 37bd
000003e0: 7c21 15bd cd0b fbbd 1d0c 923d 3304 ab3d
000003f0: 00f8 c33d c588 c1bd de9e 0e3d 2579 d0bd

layer4.bias f4 [150]
0.016796641 0.04618809 0.020023355 -0.05650306 -0.05564746 0.08895972 0.082351595 0.013888253
0.0041578123 0.043300837 0.09054974 0.047547188 -0.09778042 0.03243581 -0.02322308 -0.012294874
0.10574405 -0.083909735 -0.029941062 -0.083893165 0.061246347 -0.04685971 -0.10059698 0.042923093
0.07861398 0.07398321 -0.010307758 0.004289482 0.10694544 -0.045080975 0.061532915 -0.10247561
-0.060668506 -0.090636715 0.045151714 -0.04378323 -0.06225741 -0.06105958 0.11907382 -0.09265738
-0.031605285 -0.10068033 0.1513451 -0.037113093 0.0701001 0.0816616 -0.07354789 0.01295267
0.111892246 -0.04654397 -0.028919786 0.09388724 0.09271556 -0.006690407 -0.010657238 0.009854624
-0.015227751 0.001986863 -0.018801587 0.12662424 0.08110249 -0.056086183 -0.03150459 0.025352528
0.061678644 -0.060612578 0.038717985 -0.02282577 -0.024803037 -0.077571586 0.03273 0.0017545869
-0.04299128 0.017709237 -0.066429436 0.0007733088 0.013020826 0.09867395 0.026174555 0.024729053
0.008784304 0.038320124 0.06392072 -0.07218675 0.112299986 0.05152317 0.111245364 0.06302849
0.11084386 0.09652472 -0.100741886 0.05197034 0.026614375 0.028890973 0.0020859914 -0.039797444
-0.048286982 -0.0030710192 0.04128311 0.035599805 0.016122255 0.026790526 0.08360078 0.12267512
0.020115493 0.046380285 -0.07197194 -0.122938156 -0.010216815 0.115149744 0.009276053 0.006126758
-0.10261067 0.009244486 0.0010703638 0.06995646 0.0769396 -0.057462316 0.10059533 0.018235493
0.02454785 0.005055386 0.0601041 -0.01961048 0.10558648 0.032840386 0.024187813 -0.055252858
-0.024603426 -0.09787312 -0.11524082 0.10855542 0.059294704 -0.08189918 0.0013779721 -0.12882757
-0.030768428 0.06957302 0.041905116 -0.09279426 0.02016257 0.054318897 0.100963145 0.013639214
0.09347664 0.11053421 -0.07455102 0.072343394 0.10428532 0.105525516
00000000: 1c99 893c b92f 3d3d 0508 a43c c16f 67bd
00000010: 97ee 63bd 8430 b63d f4a7 a83d 8e8b 633c
00000020: 423e 883b 385c 313d 2472 b93d d7c0 423d
00000030: 1a41 c8bd 69db 043d 543e bebc 7070 49bc
00000040: 5690 d83d ded8 abbd f546 f5bc 2ed0 abbd
00000050: 73dd 7a3d f8ef 3fbd ca05 cebd 20d0 2f3d
00000060: 5e00 a13d 8284 973d dfe1 28bc c88e 8c3b
00000070: 3606 db3d d4a6 38bd f009 7c3d bcde d1bd
00000080: 8a7f 78bd be9f b9bd 01f1 383d 0b56 33bd
00000090: a001 7fbd 9c19 7abd fadc f33d 27c3 bdbd
000000a0: 8b74 01bd 7d31 cebd 36fa 1a3e e603 18bd
000000b0: a490 8f3d 323e a73d 47a0 96bd 7037 543c
000000c0: c327 e53d e4a4 3ebd 30e9 ecbc f447 c03d
000000d0: a8e1 bd3d 343b dbbb b29b 2ebc 4a75 213c
000000e0: d17d 79bc 0836 023b c905 9abc c9a9 013e
000000f0: 1019 a63d a0ba 65bd f50a 01bd 1bb0 cf3c
00000100: bfa2 7c3d e544 78bd c096 1e3d 1cfd babc
00000110: bd2f cbbc dadd 9ebd e40f 063d 2bfa e53a
00000120: a017 30bd f612 913c 280c 88bd e0b7 4a3a
00000130: 4d55 553c 9115 ca3d 056c d63c 9594 ca3c
00000140: 0bec 0f3c 90f5 1c3d dee8 823d a6d6 93bd
00000150: 89fd e53d f609 533d 9cd4 e33d 1515 813d
00000160: 1b02 e33d c1ae c53d c351 cebd dade 543d
00000170: 6406 da3c c3ac ec3c 21b5 083b a502 23bd
00000180: 92c8 45bd 2743 49bb 7a18 293d 1ad1 113d
00000190: d212 843c ce77 db3c e336 ab3d 183d fb3d
000001a0: 3fc9 a43c 41f9 3d3d 0666 93bd 00c7 fbbd
000001b0: 6e64 27bc a1d3 eb3d 96fa 173c f9c2 c83b
000001c0: 8b25 d2bd 2f76 173c 734b 8c3a 5545 8f3d
000001d0: 8292 9d3d 9b5d 6bbd ed04 ce3d 9a62 953c
000001e0: 9318 c93c a7a7 a53b b72f 763d 28a6 a0bc
000001f0: b93d d83d a483 063d 8525 c63c d250 62bd
00000200: 208d c9bc b471 c8bd 6103 ecbd 4e52 de3d
00000210: 01df 723d c2ba a7bd 129d b43a 60eb 03be
00000220: 120e fcbc 4d7c 8e3d b3a4 2b3d eb0a bebd
00000230: f92b a53c 7e7d 5e3d c4c5 ce3d 0377 5f3c
00000240: ae70 bf3d c35f e23d 35ae 98bd c628 943d
00000250: 8b93 d53d c31d d83d
