GP_MVC_hw_3view/results/checkpoints/experiment_name/14_net_CLU.pth (torch_old, 4413 bytes, 1 tensors)

weights f4 [10, 100]
00000000: 71ff 6e3f c08d 0c3f d6da 823f 6239 9a3d
00000010: 0b3d 3e3f 3a1c c53f e90f 123f 2557 9d3e
00000020: 5ecf ac3e 5ef3 353f b034 da3d f6f0 5f3e
00000030: f58c 983e 4656 a73d 03cc 043f 3c56 9306
00000040: b2ce 113b 456c 2d3f 03cd 1b3e 5418 c73c
00000050: 30c0 9c3f 1034 ba3f ec69 ee3f 11ac 813d
00000060: b208 933e a31d 173e b6e6 093e 139d a63f
00000070: f9df ab3d 3e4d 4b3f 3087 c33e b986 833f
00000080: c425 013e d8d5 0d3f 0100 0000 b25b e63c
00000090: b111 b53e f384 a63b 755e b13f aff5 e53a
000000a0: 1b00 673f 2378 ed3d 5764 823f 4003 e43a
000000b0: 31f3 f83e 8798 563f 6f95 c93c 9556 873f
000000c0: 2570 863e 1e16 2d3e 17e6 bcba f19d a43f
000000d0: 5e71 813f 052e 403e 55d7 443f ee93 803f
000000e0: f694 a73e d6a7 763f a6b3 3b3f e016 ae3d
000000f0: 0000 0000 f8c5 ad3e 9a88 783f 97cc 3a3f
00000100: 2de3 a0bb 759e 033f 90fc ce3c a3c9 d83f
00000110: 8f03 48bc 3c61 4d3f b830 b03f 3f4a 273f
00000120: bff9 de3b bc60 f63e 25ce 5a3e d986 2e3f
00000130: 1b4d 9a3f 45fa 313f 1010 873e bbe6 ed3e
00000140: 0100 0000 0200 0000 0200 0080 0200 0000
00000150: 0100 0080 ef41 a93f e783 823f 22d9 123d
00000160: 7a84 d23f da02 5e3f 3ee8 4e3d 87a0 013f
00000170: f506 c43e 7812 613f ddd2 933e 32bb 903e
00000180: d056 cf3e 938b 8f3f 53d7 8b3e a112 973f
00000190: 1beb 213f 2f32 2c3f 6cbe 293e 31d6 693f
000001a0: d9c7 873f b923 3d3f b77d 0d3f 6712 2b3f
000001b0: d165 053f 72c5 2b3f 63be 853f 7b9d 113d
000001c0: f634 3f3f c021 da3d 3b32 043f 0200 0080
000001d0: 7969 8739 89e9 823f 5c6b 353f 2b9f 3c3f
000001e0: 8aab 673f 4dfe 873f fc36 013f af35 353f
000001f0: a2bd 773f 5901 7e3c 194e 1d3f 6812 2d3e
00000200: 464a 113e c58e 253f f0df 963f d883 a63f
00000210: 042c c23e 054f 043f 0100 0000 3843 803d
00000220: a35d 9e3f c650 583c 90cd d43e a300 5f3f
00000230: 7e54 8c3e 393d ac3d fb92 943e 39c7 0538
00000240: af91 a93f e9a0 173f 2dff d03d 3d8d 363e
00000250: ee93 793e 33cb 3a3e 5549 d439 596c be3f
00000260: 5599 5f3f edb4 693d f7ea 943f faa7 f53e
00000270: 6f32 b23f f272 173f 491d 2e3f 717a 013e
00000280: 0000 0000 59a5 dc3f 9c98 a13f d3ce d33e
00000290: 4e62 d43b 8570 a93e 5176 493e aa98 e93f
000002a0: 65a2 3a3f bd4f 983f ebe0 173f 3b52 9b3e
000002b0: b799 0d3c c09c 8a3f 00ad b63f 1450 f73e
000002c0: ce65 b93e fcad bd3f 1f08 653f 829e 863f
000002d0: 0100 0000 0300 0000 0300 0000 0300 0000
000002e0: 0300 0000 95f7 833e fa23 cb3e 8dea c53f
000002f0: 86f5 f23e b688 1a3f 269f 763d 725f d83e
00000300: 0d7a 2c3f 6405 663f 51d7 5f3f 9472 4a3f
00000310: 865c 813f 2af9 423f f1c5 823f c452 0b3f
00000320: 0db7 0b40 e110 3b3f ff20 363c 9fb9 483f
00000330: 3891 ab3d 5ddb df3f 47c0 8c3f cb15 6a3e
00000340: 56b4 993e 2eaf f43e 3bf9 92bb 2ec7 2d3f
00000350: eae9 ff3e 767b b03d 3d5e 0f3f 0300 0080
00000360: 7483 25b9 8972 e13f dfcc 493e 90d9 04bc
00000370: 0521 0a3f bed3 c83e 8e18 0c40 d2f1 ad3d
00000380: 82f1 d03a 3f7d 413e d642 b53d 7453 a53f
00000390: 4cc7 113e 25d8 b43f 58b0 cf3e 3df0 b23f
000003a0: ae64 6c3f b59a 613f 9fdd d0b0 4cbb 773f
000003b0: e308 b83e cca0 1b3c dc01 823f 8ccc 08bb
000003c0: 9ad2 b03f 7e53 df3d 8486 783f e77d 80b5
000003d0: 0e26 bf3e 4283 163f 35d7 4dba 1f06 4b3f
000003e0: fb84 aa3f de5d b33d 07c5 0a3c 7cab b83f
000003f0: 349d 743e eb9b a13f af82 3b3f 9c3e fb3f
0.9335852 0.54903793 1.0223033 0.07530476 0.74311894 1.5399239 0.57055527 0.30730549
0.3375196 0.71074474 0.106545806 0.21869263 0.29795042 0.08170752 0.518738 5.5421964e-35
0.0022248444 0.6774333 0.15214925 0.024303593 1.2246151 1.4547138 1.8626075 0.06331647
0.28717571 0.147574 0.13466915 1.3016685 0.08392329 0.7941474 0.38189077 1.0275489
0.12612063 0.55404425 1e-45 0.028119896 0.3536506 0.0050817668 1.3856951 0.0017544533
0.90234536 0.1159518 1.0186871 0.0017395988 0.4862304 0.8382649 0.024607388 1.0573298
0.26257434 0.16902968 -0.0014411834 1.28607 1.0112722 0.18767555 0.7689107 1.0045145
0.32730836 0.9634985 0.73320997 0.08500457 0.0 0.339401 0.9708344 0.7296843
-0.004909894 0.5141366 0.025266916 1.6936535 -0.01220788 0.8022649 1.3764868 0.65347666
0.0068046744 0.48120677 0.213677 0.6817451 1.2054781 0.69522506 0.26379442 0.46465096
1e-45 3e-45 -3e-45 3e-45 -1e-45 1.3223246 1.0196503 0.035851605
1.6446679 0.867231 0.050514452 0.5063557 0.38286558 0.87918806 0.28871813 0.2826782
0.4049592 1.121447 0.27312717 1.180256 0.6324937 0.67264074 0.16576546 0.91342455
1.0607864 0.73882633 0.5526995 0.66824955 0.52108485 0.6709815 1.0448726 0.035550576
0.74690187 0.106509686 0.51639146 -3e-45 0.0002582779 1.0227519 0.7086694 0.7368037
0.9049612 1.0624481 0.50474524 0.7078504 0.9677373 0.015503251 0.6144729 0.16901553
0.1418849 0.64670974 1.178709 1.3008986 0.37924206 0.51683074 1e-45 0.06262821
1.2372326 0.013202852 0.41563082 0.87110347 0.27408212 0.08410115 0.29018387 3.189521e-05
1.3247584 0.59229904 0.10204921 0.17827316 0.24372837 0.18241577 0.00040490428 1.4876815
0.8734334 0.05705731 1.1634206 0.47979718 1.3921641 0.5915977 0.68013436 0.12644364
0.0 1.723796 1.2624698 0.41368732 0.0064814454 0.33093658 0.1967404 1.8249714
0.72904044 1.1899334 0.5932757 0.30336174 0.0086426055 1.0829086 1.4271545 0.48303282
0.36210483 1.4818721 0.89465517 1.0517123 1e-45 4e-45 4e-45 4e-45
4e-45 0.25774828 0.39675885 1.5462204 0.47452945 0.60364854 0.06021037 0.4226032
0.67373735 0.89851975 0.8743792 0.7908108 1.0106361 0.76161444 1.0216657 0.54423165
2.1830475 0.7307263 0.011116265 0.78408235 0.08377308 1.7488819 1.0996178 0.22859876
0.30020398 0.47789901 -0.004485277 0.6788205 0.4998315 0.08617298 0.5600317 -4e-45
-0.00015784596 1.7613078 0.19707058 -0.008108512 0.53956634 0.39224046 2.1889987 0.08493389
0.0015941116 0.18895434 0.088506386 1.2916093 0.14236182 1.4128462 0.40564227 1.3979565
0.92341125 0.8812669 -1.519698e-09 0.9677017 0.3594428 0.009498786 1.0156817 -0.0020873873
1.381427 0.10904597 0.97080255 -9.573386e-07 0.3733372 0.58794034 -0.0007852198 0.79306215
1.3321832 0.08758138 0.008469827 1.4427333 0.23888093 1.2625707 0.7324628 1.9628482
