GP_MVC_hw_3view/results/checkpoints/experiment_name/14_net_AE.pth (torch_old, 935829 bytes, 17 tensors)

layer1_1.weight f4 [200, 216]
00000000: d32a e33b ee8d 49bd ce0c 3dbd de5e 053d
00000010: 9d2e 7f3c 9a04 84bb a353 fd3b bbbe 463d
00000020: 1752 80bd 2ced 2cbd 4011 3fbd eace 3abd
00000030: 3ff1 963b 7a6d c7bc 158f 3bbd f7a2 81bc
00000040: 141f 90bc 94bf 4cbd eac1 57bd bbca 523d
00000050: 5829 203d b39f 6e3d 7dfa 66bc 5a0c 173c
00000060: da1b 6abc 351b 35bd 7fbf 113d e500 ccbc
00000070: fcb0 a43b ee3d 023b e600 583c ffad 8abc
00000080: 9aa3 233d 484b 1a3d 440a 133b a1c3 273d
00000090: b09e 23bc 653f 713d a5ef 66bd aad4 4ebd
000000a0: 3670 643d fac7 1f3d 6e87 813d 4e98 85bd
000000b0: c614 273d b5da 47bd b7b4 713b 3d4e 7c3d
000000c0: 573d 71bd f697 5abc 9146 3bbc b52a 11bd
000000d0: 3100 513d 279d 16bd e128 b6bc 3a4f 9db9
000000e0: 214d 27bc a4cd 1fbc 007d 7dbc 3bd6 1f3d
000000f0: 36b8 463d 3c28 113d 4d11 27bd a0ce 3abb
00000100: afd4 c03c 644c 54bd 6758 883d adfc 3f3d
00000110: 79e1 703c 1342 313d e451 4cbd 357c 43bd
00000120: 5634 30bd 3fad 663c aeb6 84bd 3b66 51bd
00000130: 8b34 8ebd 5b62 4b3d 2cc6 1bbd d493 ac3c
00000140: 4c26 f93c f18d f6bc 8c79 6e3d 388e 81bd
00000150: 9f48 963c a23b 893d ada5 cbbc cea3 2cbd
00000160: 9016 3fbd e90c ecbc 7f65 f8bc 692d 41bd
00000170: c1e5 2ebd 01fc 86bb 25fe 693b 1a48 443c
00000180: 2a8d 293d 354b 753d ae04 11bd d13f 98ba
00000190: 0b59 67bd 490e d73c fad7 463d e80a 46bd
000001a0: 7b51 2bbd f045 f6bc dd61 d1bc e17e 0c3d
000001b0: 0c79 d63c 2c9f 823d bd2c 1d3d 0d2b 23bb
000001c0: f5e2 2abd 0fa8 db3c 2437 6b3b 8988 8d3d
000001d0: 25e5 ccbc 30a0 953b fd43 2d3d 6b76 8a3d
000001e0: cd10 763c fc70 69bd 72ab 213d 2cdb 6cbd
000001f0: 1b93 0bbd 57af 4d3d 364a f23c 8315 613c
00000200: b779 fdbb 8698 3c3d 19ea 013c ac08 873d
00000210: 7be1 5abd dbe6 e0bb 54a4 353d 2dba c73c
00000220: ad9f 693c a080 793b 9f56 4bbd 2823 83bc
00000230: 9ef7 253d e378 1b3d d1c5 36bd f63d b63c
00000240: 1541 493c 9ba2 49bd 4bdf 11bc f50b 96bc
00000250: e1b7 213d 8a0a ba3c 0223 72bd 3a81 12bd
00000260: 46df bc3c 0b6f 5c3d 69fd 193d 6ab1 3cbd
00000270: 58cd f73c e6f5 c7bc 22ae 84bd 524d 4bbd
00000280: ad09 633d 9b7e f2bc feba 61bd 8a83 213d
00000290: 6cdf fdbc e5ff 5a3a 8cfa 823d c398 503d
000002a0: 94d6 62bd 19b1 dbbc 1a9b 773d 38f2 80bd
000002b0: 6e9f 84bc c9f5 10bd 5068 3dbd 95c6 a13c
000002c0: b28e 48bd 80b7 753b c6b5 433c ac01 c83b
000002d0: 5401 713d 5622 713d 5e16 1f3a 55b0 4c3d
000002e0: d83a 3f3d cf0c 49bd 5943 4bbd e523 a13c
000002f0: 1872 d33b 0d62 21bd d30a ebbb db73 1abd
00000300: 4ad3 703d 9986 10bd 5a1c 2fbd 6c98 bebc
00000310: 6f81 203c e758 45bd 058c 113d ad0f 523b
00000320: b971 c3bc bafe 803c 16d4 b53c 6417 c83c
00000330: ac39 28bc 8ec1 1b3d b462 5b3d f2b8 19bd
00000340: 067d 6c3d b5b6 30bc 5d48 7d3d 1bee 863d
00000350: ee67 efbc d734 f33c 65ab 863c 59f3 eb3b
00000360: 00f4 54bb 4e9e 1cbd ca86 a4bc 30e2 633c
00000370: 78b8 81bd aeb9 3c3d 208a 983c f244 363d
00000380: dcf6 563d 5c33 67bc 860c 93bc 0e1d 9bbc
00000390: 38c6 85bd 30e1 22bc 6eae 043d 763b 543d
000003a0: 408e 70bc e6ad 3d3d 559a 74bd 1480 713d
000003b0: 209d 403c d0a6 7d3d 9c79 dabc f03e 5a3d
000003c0: e400 c43c 76f2 6ebd 14cc 7dbc 48cd 713d
000003d0: 44df 4cbd e4c5 ce3c 1ca0 75bc d265 183d
000003e0: 2e6c 7ebd c0bb b1ba 24d9 c63c 340b 40bc
000003f0: 177d 2fbd bae8 083d bca3 42bd 224d 573d
0.0069325953 -0.04920762 -0.04615479 0.032561176 0.015575078 -0.004028869 0.0077309175 0.04852174
-0.062656574 -0.042218372 -0.04664731 -0.045607485 0.0046063955 -0.024344195 -0.04579075 -0.015824778
-0.017592944 -0.04998739 -0.052675165 0.05146287 0.03910193 0.05825777 -0.014097807 0.009219253
-0.014288867 -0.0442154 0.035583016 -0.02490277 0.005025981 0.0019873339 0.013183808 -0.01692867
0.039950944 0.03766945 0.0022436539 0.04095805 -0.0099865645 0.05889835 -0.056380887 -0.05049578
0.055771075 0.039009072 0.06324659 -0.065231904 0.040791295 -0.04879256 0.0036881396 0.06159805
-0.05889639 -0.013341894 -0.011430399 -0.03544112 0.051025573 -0.036770966 -0.02223629 -0.00030004402
-0.01021126 -0.009753618 -0.015471697 0.039022665 0.04851552 0.03543876 -0.040787984 -0.0028504506
0.023538915 -0.051830664 0.066574864 0.04687183 0.014702194 0.043275904 -0.049882784 -0.047725875
-0.04301866 0.014079391 -0.06480156 -0.051122885 -0.069436155 0.049654346 -0.03803079 0.021066584
0.03041377 -0.03009698 0.058221385 -0.06325954 0.018345175 0.06700827 -0.024859274 -0.042148404
-0.046652377 -0.02881475 -0.030321835 -0.047162447 -0.04269958 -0.0041193967 0.003570446 0.011980081
0.04139439 0.059886176 -0.035404854 -0.0011615698 -0.056481402 0.026251929 0.048545815 -0.048350245
-0.041825753 -0.030062646 -0.02555936 0.03430069 0.026180767 0.06378016 0.038372744 -0.0024897486
-0.04172035 0.026813535 0.003589102 0.06910808 -0.025011608 0.004566215 0.042301167 0.06760868
0.015018654 -0.056992516 0.039470144 -0.057826206 -0.034075838 0.050216045 0.029576402 0.013738039
-0.007735457 0.046043895 0.007929348 0.06593451 -0.05343769 -0.0068634576 0.04434617 0.024380768
0.014259261 0.0038071051 -0.049643155 -0.016007975 0.04051935 0.037957083 -0.044622246 0.022246342
0.012283583 -0.04922734 -0.008903335 -0.018316248 0.039482 0.022710104 -0.059115417 -0.03576777
0.023055684 0.053816836 0.037595186 -0.046067633 0.030249283 -0.024409246 -0.06478526 -0.049634285
0.05542915 -0.029601386 -0.05510997 0.039432086 -0.030990325 0.00083541713 0.06395444 0.050926935
-0.05538042 -0.026817845 0.06045065 -0.062961996 -0.016189303 -0.03539065 -0.04624206 0.019748012
-0.04896421 0.0037493408 0.011945194 0.006103715 0.058839157 0.058870636 0.00060687016 0.04997285
0.046686977 -0.04908448 -0.049624775 0.019670436 0.00645281 -0.03940015 -0.007172921 -0.037708145
0.05879525 -0.035284612 -0.042751648 -0.02326604 0.009796484 -0.048180487 0.035533924 0.00320528
-0.023857938 0.015746463 0.022195857 0.024425216 -0.010267656 0.038026385 0.053560928 -0.037529893
0.05773642 -0.010785748 0.06183659 0.06588384 -0.029224362 0.029688282 0.01643915 0.00720064
-0.0032494068 -0.03823691 -0.020083804 0.013908908 -0.06334013 0.046075515 0.01862055 0.044499345
0.052481517 -0.014111366 -0.017950308 -0.018934753 -0.06531948 -0.009941384 0.03239291 0.05181452
-0.014682353 0.04630842 -0.059717495 0.058960035 0.0117562115 0.061926663 -0.026669316 0.053282678
0.023926206 -0.058336698 -0.015490551 0.059033662 -0.05001761 0.025240846 -0.014991786 0.03720648
-0.062114887 -0.0013559982 0.024273463 -0.011721421 -0.042843904 0.03342507 -0.04751943 0.052563794

layer1_2.weight f4 [200, 76]
00000000: 1591 d4bc f87f 193e 7332 c3bc b9fe de3c
00000010: 39fb a8bc f792 1cbe c793 05be 00f8 9dbd
00000020: 4b0e 47be 7cb0 cabd 63ff 5abc 215f 00be
00000030: d21a d7bd 0b14 fcbd a12f acbd 68e4 0b3d
00000040: 4c4b b2bd 44b0 5a3d ec41 db3d d3de 3cbd
00000050: 2fcc 89bd 54cc 0dbc dac3 cabd 2570 afbb
00000060: 9627 363d 4e76 cbbd d122 a4bd 1768 773d
00000070: f24a 1dbd 9b5d 453d 6f96 7dbd aab0 cf3d
00000080: 2631 b1bd bc3e eb3d 0c92 8a3b 8456 d43c
00000090: 9edd 67bc 6673 c6bd 8688 a9bb be20 afbc
000000a0: 1dac 743d 1588 49bd ce36 95bb 6843 5a3d
000000b0: 388b 023d 090f 853d e84e edbc bfa8 0fbd
000000c0: a945 ccb8 6d56 b1bd cd2b 883d 6a91 19bd
000000d0: ec0f 0a3d 2445 cdbd 7849 06bd 6999 573c
000000e0: d871 9cbd f5ca b5bd 2d3b d2bb fede b03d
000000f0: 6014 b0bd 85ab 863d b4b3 3f3d ad25 0cbd
00000100: 4608 cabd 80b6 09bd 889f 43bc f5a6 5dbd
00000110: e1e6 6f3d e860 893d 6bef 383c e3b4 6bbd
00000120: f35c 8ebd 3f37 f53d 2bb2 503d b04d 413d
00000130: 7c96 25be 4901 e7bc 4420 a6bd 732d 6f3d
00000140: 78c8 283e b571 3bbe 15e7 0d3d e8f0 08be
00000150: e429 483e 6ed8 9b3d 2b9a b0bc 4e5c 02be
00000160: f2ed c7bd 6f01 b53d c273 843d 2ca4 d6bd
00000170: da8c 3e3d 1cfa c0bd 0ff0 efbc c173 073b
00000180: 7af1 af3d fe1f cfbd cb27 723c 0ab1 563d
00000190: bb96 eb3d caae c63c e94f bdbd fd80 3e3c
000001a0: 0983 c13d f99c 933c 8251 0cbc 33a3 243d
000001b0: 250f dd3d a5f0 d23a 00b4 d7bd e3e8 7c3d
000001c0: a5bd 55bc 81d8 0bbd c323 b0bd 470d eb3d
000001d0: c883 59bd d2fa b93b e099 b9bd f0ec 94bd
000001e0: 9283 09ba d48b 463d 9dfa 0dbb c3dd a43d
000001f0: 338b 3a3d 3087 04be df06 063d 484c 9c3d
00000200: a5e0 a03d b5ff 0e3d faee e8bd 9b36 a4bd
00000210: 79eb 3f3d c8cd 383d 5c70 913c 8b8e 1cbd
00000220: a2b7 303c c88d 0abe 1a3f b53b 9a3e 0e3e
00000230: 6c67 19bd 8aec 01bc 97a2 7fbd 1a80 e9bc
00000240: 96bf 53bd 2665 94bd 4e72 64bd e032 5d3d
00000250: 47f0 aebd 4ff2 403e eb9b 94bd 67cd 743e
00000260: 9cab acbd fa40 02bc 0d9b 1ebe 2a99 2abe
00000270: fbe7 453e cc3a 80bd 8e32 bfbc b753 f8bd
00000280: be81 48b8 6aa3 27bd 5cd8 2d3c 371f 7b3d
00000290: ceec cabc e117 3e3e bf96 a63d bd7c 5bbc
000002a0: e37a cf3d 4638 7a3d c987 dfbc c833 90bd
000002b0: 31f1 923d 6d02 533d f027 543d 5c2d 40bd
000002c0: 24a6 2a3d cafb a63d 7a43 7b3d fd3d 2bbd
000002d0: e8a7 813d 16e3 b7bd 6ae6 cabd 5c58 94bd
000002e0: e5f9 863d f0d7 9d3d 2588 983d 4332 6b3d
000002f0: 14ec b03d c28c 873d e60c 403c 92c2 bb3d
00000300: ffd0 48bd 0e76 d93d 967b ebbc 6dee 643d
00000310: ac0d c8bd 5cee 8fbd 8307 41bc 28f6 a23d
00000320: 5f0d 8ebd 00b6 6e3d b0b2 f83c e0a9 ce3c
00000330: 4829 043d c2fe 4ebd 4cb8 abbd 4d6a 85bb
00000340: ab33 503d ac1c 093d 35d0 58bd 756a c1bd
00000350: 4140 273d ad38 f1bd cd80 d2bc 0142 5f3d
00000360: 4f6e 1dbe fd8e 0a3e 03ba 403d 3213 f33c
00000370: 4756 13be 1700 ce3d 42a8 dabd e223 243e
00000380: 8726 afbd 6fe5 3b3d a7ee 82ba 9474 c63d
00000390: a836 0e3d 2060 98bc b318 8fbd acbf bb3d
000003a0: 01ce c6bc ace4 e6bc b73c ae3d 5867 a73d
000003b0: 48d7 313c 4583 dd3d 2b6b 11bc 529a 993d
000003c0: 5421 87bd 4a59 b0bd 9960 e33d 7cc4 f43b
000003d0: f322 e03d c9ea 8c3d 1eeb 12bd d54d f43c
000003e0: c085 00bd ea65 d43d 9bf8 b73d e65c 00bd
000003f0: 00c3 aebd bc0e b43b 2c23 65bd 08e3 b0bd
-0.025948087 0.14990222 -0.023827767 0.02722107 -0.020627605 -0.15290438 -0.13044654 -0.07713318
-0.19439046 -0.09896943 -0.013366553 -0.12536289 -0.105031624 -0.123085104 -0.08407522 0.034153372
-0.08705768 0.053390756 0.10705933 -0.04611094 -0.06728398 -0.008654673 -0.09900637 -0.005353945
0.044471346 -0.09934674 -0.08014453 0.060402002 -0.03840155 0.048184972 -0.061911043 0.10141118
-0.086519524 0.11486575 0.004228836 0.02592016 -0.014151959 -0.09689979 -0.0051737456 -0.021377917
0.059734453 -0.049202044 -0.0045536524 0.05328694 0.03187105 0.06497008 -0.02896829 -0.03507304
-9.740453e-05 -0.086590625 0.06648979 -0.037492193 0.03370659 -0.10022953 -0.03278491 0.013159134
-0.076389015 -0.088766016 -0.0064157457 0.086362824 -0.08597636 0.065756835 0.046802238 -0.034215618
-0.09864859 -0.03362131 -0.011939891 -0.0541143 0.058569793 0.067079365 0.01128755 -0.057545554
-0.069513224 0.11973428 0.050951164 0.04719323 -0.16170686 -0.028198855 -0.08111623 0.058392953
0.16482723 -0.18305095 0.034644205 -0.13373148 0.1954723 0.0760964 -0.021557888 -0.12730524
-0.09762181 0.08838164 0.064673916 -0.10480532 0.046521045 -0.094227046 -0.029289274 0.002066836
0.0859098 -0.10113524 0.014779995 0.05241493 0.11503359 0.024253268 -0.09243757 0.011627433
0.09448821 0.018019186 -0.008564355 0.0401947 0.10793904 0.0016093446 -0.10532379 0.061745536
-0.013045703 -0.03414202 -0.08600571 0.11477142 -0.053104192 0.005675652 -0.090625525 -0.07271755
-0.0005245741 0.048473194 -0.002166427 0.0805011 0.045542907 -0.12942195 0.032721397 0.07631737
0.078553475 0.03491183 -0.11373706 -0.08018228 0.046855424 0.045118123 0.017753772 -0.038221877
0.010785969 -0.13530648 0.005531204 0.13891068 -0.037452146 -0.00792993 -0.062410917 -0.028503466
-0.051696382 -0.07245855 -0.055773072 0.054003596 -0.08541923 0.18842433 -0.072563015 0.2390648
-0.084311694 -0.007950062 -0.15488835 -0.1665999 0.19326775 -0.062612146 -0.023339536 -0.12125342
-4.7804548e-05 -0.04092733 0.010610666 0.061309066 -0.02477112 0.18563797 0.08134221 -0.013396439
0.10130861 0.061088823 -0.027286427 -0.070411265 0.0717491 0.051515985 0.0517959 -0.046918258
0.04166235 0.08153494 0.061343648 -0.041807164 0.06330854 -0.0897886 -0.09907229 -0.07243416
0.06590632 0.077072024 0.074478425 0.05742098 0.08638778 0.06618644 0.011721825 0.09167971
-0.04902744 0.1061822 -0.028745454 0.055891443 -0.09768233 -0.07027885 -0.011781576 0.07957107
-0.06936144 0.058279037 0.030358642 0.025227487 0.03226593 -0.050535925 -0.08384761 -0.00407151
0.050830524 0.03347461 -0.052932937 -0.09444133 0.04083276 -0.11778388 -0.025696183 0.054506306
-0.1537411 0.13531108 0.047052395 0.029672239 -0.14388381 0.10058611 -0.10676624 0.16029313
-0.085522704 0.0458731 -0.0009989337 0.09690204 0.034720093 -0.018600523 -0.06987133 0.09167418
-0.024268152 -0.028185211 0.08507674 0.08174008 0.01085455 0.10816053 -0.0088756485 0.075001374
-0.06598154 -0.086107805 0.11102409 0.007469712 0.10944166 0.06880719 -0.035868756 0.02982227
-0.031377554 0.10371001 0.089829646 -0.031338595 -0.08533287 0.0054949205 -0.055941746 -0.08637053

layer1_3.weight f4 [200, 64]
00000000: ede7 f2bd 6213 9e3e 0dc3 af3d c9b1 9b3c
00000010: a34a c83d fe7a 0fbc 9c6b 1bbe f010 933d
00000020: 8d70 db3d 85bb 10be 0b22 13be 2fe1 8cbb
00000030: e9d3 9fbd 8d13 a0bd f659 193e a8d8 433c
00000040: 73fc ccbd 5993 2fbc 9f97 933c c499 fa3d
00000050: 0e03 02be 8081 96bb 000e cc3a aa24 823d
00000060: eba3 0e3e b48e 8c3d 4735 773d fc8f a8bd
00000070: 5565 1e3d 4f8c ccbc 5c1b 60bd 5c82 c13d
00000080: e40b 6f3d dc3c 04bd 0f32 a03d 0d4d 1dbd
00000090: a9a4 fa3d bac9 7dbd f78b 323e 1387 dc3d
000000a0: d6d2 a73d d569 f33d 2d98 75bb 1bcc e5bd
000000b0: e020 19be e333 f2bb 4b80 ee3d a30b 363d
000000c0: 3c45 b63b 5e14 333d bfca 5abd 89fb 3d3b
000000d0: 713b c1bd 1bc3 0d3d a749 e1bc a622 2b3d
000000e0: b239 ffbc dff9 8bbc cae1 d3bc f2d0 aa3c
000000f0: e196 ffbc 6241 d6bd 6104 dcbd 13f3 893d
00000100: 8d1b e8bc 1e80 8a3d e410 7fbc 832b d73d
00000110: 051a c83d 97ba 2b3b 5765 49be 1ab0 c63d
00000120: 435a 5a3d 774f 08be f93e 39be ab0c b03d
00000130: 177c e8bc 3833 ce3d 6b3a df3d 0853 39bd
00000140: 97fa 3e3d 219f ffbd b7c8 893d 11fa 003e
00000150: 651e d03d a309 063e 3ff2 f3bc cca6 3f3e
00000160: 280a 43bd 5971 c93c a427 debd 1614 403d
00000170: b6d3 1f3e e778 28bd 2d47 483d a8ac babd
00000180: 6c90 f8bc 8a6f a7bc a83e 843d 6d0a a63d
00000190: f421 fb3d 7ee1 053d f90f 86bc 2a88 7e3d
000001a0: 57b2 28bd dc42 7c3d 2076 2bbd 209e 1ebd
000001b0: b93b 303e c9d9 773d 947b 913c b1c6 92bd
000001c0: 8953 953c a8de 163d 6a75 cfbc 2d71 903c
000001d0: 454b 4d3c e2be 2f3d 06af 8dbd e699 583d
000001e0: 2c72 a0bd 719e 3d3e cbaa ca3d c4dc f0bd
000001f0: 6464 f43d 4b83 933d 7e7d a73d f2ad d2bd
00000200: 883f 49be dd2a 35be e05c 2f3e c2e5 66be
00000210: 9dc5 1c3d 708a c33d 8cce 31be f8d7 4dbd
00000220: c5fd e33c e80f 12be d16b 3d3d 07ab 89bd
00000230: 2ea7 2a3e 2583 3bbe d076 2d3e f70a d03d
00000240: 167b 2b3e e85e ac3c df0c 14bd 0539 253e
00000250: a617 1abd af93 a03d e4b8 2f3e cfdf c63d
00000260: 4392 723c f98b edbd 8d91 59bd 97ee 973d
00000270: e0d8 b3bd e771 9b3d d59c a23d 6527 be3d
00000280: 6dc0 fbbd 5233 b13c 6a2f 52bb 7430 93bd
00000290: edd8 243e 8875 e23b fb3b 26bc d7a8 18bc
000002a0: 874b 0cbd fe97 823c 31a1 da3d 44c7 ad3d
000002b0: a8a1 e93d 1157 2f3d e388 053d 54ae 8bbd
000002c0: af6f a83d 8564 eb3d 1e5f 9d3c cb62 9e3d
000002d0: 3e1b 10be 93e2 37bc 159e 98bd 91e9 283e
000002e0: 3b07 4dbd 542e 82bd 4e55 323d 1a7c c43c
000002f0: 575b 87bd 033d c0bc 7960 d0bd d4e2 c3bd
00000300: ee25 f13d 086f a33d e3fe 44be 5932 71bd
00000310: 59c0 083e 0417 37be 0d6b 693e 47ed 553d
00000320: 5e3c 09be 9634 3f3c f07c 6d3d 9c72 a83d
00000330: 2e62 a9bd 0c3f cbbc 89d5 bebd e1e5 773d
00000340: abd1 8b3d d0f9 003d bfb4 0a3d 8951 d3bd
00000350: 412f 093e ac7e f53d da93 e4ba 695f 04be
00000360: 2aa8 9f3c 5785 cebd 3c15 ac3d 7bed 24be
00000370: ce22 56bd 6f3f b53d 9071 91bd 031b d3bd
00000380: ac89 dd3c 9630 65bc 7a10 9cbb 5913 0ebd
00000390: b593 4d3e e932 fa3d 9708 af3d 9755 bdbd
000003a0: 8e79 433c a974 b43d 7c52 20bd aca8 2cbd
000003b0: c5a9 76bd bf55 a9bd f8b8 1fbd 1a19 74bd
000003c0: cb69 0f3e 0992 e7bc c499 cf3d 153c 26bd
000003d0: 200d 8cbc 9ab9 143e e132 c03d c8f0 b6bc
000003e0: fa44 76bd 2fc0 7f3d 0f75 0b3d e382 40bd
000003f0: 4a57 85bd 6b32 4bbd d956 3e3c fd8c c43d
-0.118606426 0.30874163 0.08582125 0.019005673 0.09779861 -0.008757351 -0.15177768 0.07180965
0.10714827 -0.14134033 -0.14368455 -0.004299305 -0.078040905 -0.07816229 0.14975724 0.01195351
-0.10009088 -0.010716283 0.018016635 0.1223636 -0.12696478 -0.0045930743 0.0015568137 0.06354649
0.13929717 0.06863156 0.060353544 -0.08230588 0.038670857 -0.024969248 -0.054713592 0.09448692
0.05836095 -0.032284603 0.07822048 -0.03840356 0.12238438 -0.06195996 0.17436205 0.10767951
0.08194511 0.1188542 -0.0037474737 -0.11220571 -0.14953947 -0.0073914393 0.11645564 0.04444469
0.0055624526 0.043720596 -0.05341601 0.0028989038 -0.09435166 0.034609895 -0.02750094 0.04178109
-0.031155441 -0.017086921 -0.0258645 0.020851586 -0.031199874 -0.104616895 -0.10743023 0.06735816
-0.02833345 0.06762718 -0.015567992 0.10506346 0.09770588 0.0026203746 -0.19667564 0.097015575
0.053308737 -0.13311563 -0.18090428 0.08596166 -0.028379483 0.10068363 0.10899814 -0.0452452
0.0466257 -0.12481523 0.067277364 0.12595393 0.10162047 0.13089614 -0.029778598 0.18715972
-0.047617108 0.024590181 -0.108474046 0.046894155 0.15608105 -0.041130926 0.048896004 -0.09114963
-0.030342303 -0.020438928 0.06457263 0.08107457 0.122623354 0.03268575 -0.016365038 0.062141575
-0.041185703 0.0615872 -0.0418607 -0.03872502 0.17210282 0.06051043 0.017759122 -0.07166804
0.01822831 0.036833435 -0.025324542 0.017632091 0.012530153 0.04290665 -0.06918149 0.052881144
-0.078342766 0.18517472 0.098958574 -0.11760858 0.119332105 0.072027765 0.081782326 -0.10287084
-0.19653141 -0.17692132 0.17125273 -0.22548583 0.038274396 0.09547889 -0.17363948 -0.050254792
0.027830968 -0.1426388 0.0462454 -0.06722074 0.16665336 -0.18311746 0.16939855 0.101583414
0.16746172 0.021041349 -0.036145087 0.16135032 -0.03762021 0.078406684 0.17160374 0.09710657
0.014805379 -0.11598963 -0.053117324 0.07418554 -0.087816 0.075900845 0.079400696 0.09284858
-0.12292562 0.021630917 -0.0032071718 -0.07186976 0.16098376 0.0069109835 -0.010146136 -0.009317598
-0.034251716 0.015941616 0.10675276 0.084852725 0.114077866 0.042807642 0.03260125 -0.0682036
0.08224427 0.11493782 0.019210394 0.07733687 -0.14072892 -0.011223453 -0.07452027 0.16495349
-0.050055724 -0.06356493 0.043538384 0.023984957 -0.066092186 -0.023466593 -0.10174651 -0.095647484
0.11774813 0.07980162 -0.19237857 -0.058885906 0.13354625 -0.17879874 0.22794743 0.05222824
-0.13401935 0.011670252 0.057980478 0.08224985 -0.082706794 -0.024810337 -0.09318072 0.060521964
0.068271 0.03148824 0.03386378 -0.10318286 0.13396932 0.11987051 -0.0017439083 -0.12927021
0.019489367 -0.10084026 0.08402488 -0.16106217 -0.052279286 0.088499896 -0.071017385 -0.103078865
0.027043186 -0.013988635 -0.0047627063 -0.03468642 0.20075877 0.122167416 0.0854656 -0.092448406
0.011930836 0.08811314 -0.039141163 -0.042153046 -0.0602205 -0.08268308 -0.03899476 -0.05959425
0.140052 -0.028267877 0.1013675 -0.040584642 -0.017096102 0.14523926 0.093847044 -0.02233161
-0.060124375 0.06243914 0.034047183 -0.046999823 -0.0651079 -0.04960863 0.011617386 0.09597204

layer2.weight f4 [150, 200]
00000000: d096 293c b92f 563d 9f2e d8bd d3e4 823d
00000010: 4a7b 02bc a724 f83d c272 77bd 5408 c13a
00000020: cfb0 fa3d 8581 123e 5991 6a3c 375a 66bb
00000030: 6dbb a8bc d689 1b3d 0ebf 99be 033a ec3d
00000040: cea9 93bd c5e1 d53d b5c4 a23d d9f5 593c
00000050: d28e 233e 7fa0 52bc 7cb6 3abd 4e67 f83c
00000060: 20f0 e5bc 60b4 5a3c 0c4a 31bd c559 b5bd
00000070: 95d3 813c aef4 5dbc 9fb5 0c3e 5a3b 453c
00000080: 312d f53d a2dc b4bd 5935 b33d cc5e a2bd
00000090: 9411 9bbd 74b7 213c 2aaa 123d 6be0 91bd
000000a0: 7037 713d 4228 2cbd 0672 b73d 2914 f5bd
000000b0: 42e7 9cbd 6864 0fbd 95f0 2cbe 652d 2dbd
000000c0: 349e fb3d db11 31be 9c52 283d de31 07bd
000000d0: c19c 893d 8494 18be 5f55 5d3d d3f6 86bb
000000e0: 7273 b5bb f1da 00be e18b b93b ad98 4cbc
000000f0: b6cb 333d 6c7c 713c 3b6c 533d 67a0 0c3d
00000100: 9e44 063d 69dd 3dbc 0e73 043d 8432 113d
00000110: 1429 d0bc 9c92 e8bb b557 603c bd7a 5dbd
00000120: 2cb9 b33c 0f57 143c ccff d7bd 613f 6dbd
00000130: 0a0f 4cbc 29ea 423d 0e76 343e 7390 8bbc
00000140: 0f76 2a3a da39 483c bee8 613c ceb8 483b
00000150: 9617 b43d 5f6d 4a3d 81bf a5bc ac81 1fbd
00000160: 06fb 133d 3f81 1ebc 9e5a c2bd e135 94bd
00000170: e57d 8b3d c488 ef3c 2775 833d bedc a13d
00000180: 85ed 03bd a11c 90bb bc42 fdbc 677f d0bc
00000190: bc3b 773d c521 123d 3c71 2fbc eabe 67bd
000001a0: 5d7f c63d 515b 37bd 53b3 993d d99e d2bd
000001b0: 5704 84bd 7634 00bd 614a 57bd 49e4 b9bd
000001c0: 7a10 fb3d 5bb4 39bd cc98 553e 8ffc 1c3c
000001d0: 8922 d13b 8316 303c e53e 053e 68f3 e13d
000001e0: 679f 033c af93 48bc ec48 91bb 999c 32bd
000001f0: cd9f 01be 42b9 82bc c381 d23c a384 6c3d
00000200: efed b53a 0b0f dd3d 7785 03bc 8635 adbd
00000210: 1df1 043e ad4d 413d 3400 783d 4c98 bdbc
00000220: 323b d3bd fdf7 e5bd 558a 503c 1c67 ae3d
00000230: 546c 753d 24f7 8e3d 22ea a0bd 0dbe 88bc
00000240: 6edf 85b7 e0b6 25bd d5f6 263d d469 f93c
00000250: 2876 8abd 4415 de3c 2684 b93d efee c73b
00000260: 74d6 6a3c ea31 48bc cc8b 8ebd 526e ecbd
00000270: c2f7 d7bd 13f7 5e3d dc3d de3c 3a9d 00bd
00000280: a35f 0e3d 759e abbc 5fd0 e4bd 5c26 f3ba
00000290: 8cea 813c 6428 363d 0916 aebd 1a24 9e3c
000002a0: b29b b1bd 0bad ef3c 8e54 ce3d 1ca0 71bd
000002b0: 900c 3bbc 24dd b43d ec80 1f3c 2ad0 b73c
000002c0: 42d9 043d 0e6e 063d f22e 253d 8abd 70bd
000002d0: 915d 053d 5b97 73bc 60e5 e83d c953 44bd
000002e0: c214 933d e74c 113a aa3b 713d 72cc dbbc
000002f0: 3aca 0dbd 7205 15bd c5a8 143d 0fd9 273d
00000300: 1d7a 9cbd ab2a 57bd a18a 32be 26ac a53d
00000310: 9f5f 00bd 43d1 d33c 8772 1ebc 857c 383d
00000320: 7c3e 95bd dedb 94bc 4d1b 1dbd c04f bd3d
00000330: 055e afbd 43c1 03be a2d0 c43d 3158 073d
00000340: 5764 933d c97b acbd 169f c3bd e98c 19bd
00000350: e729 ee3d a9b2 233d ebad 0c3d 5e1d 58bc
00000360: a742 ad3c 2ceb 0a3d d082 a1bc d008 d4bd
00000370: b7f3 e4bd 7215 233b 817f ce3c 27ab efbc
00000380: 1b89 ab3c 665e 263d b8dd 77bd aa67 b33d
00000390: ecf0 c43c 0ce0 07bd b76a 1f3e bc82 163d
000003a0: 37a4 a13d 9a9a 83bd e8d5 d23c 2a2c 0cbd
000003b0: 6fd2 cb3d bc70 88bc b4a0 be3c d12a 08bd
000003c0: 4215 f63d 0e5a 8e3c 796f 663d 1231 913c
000003d0: e626 903d 2c82 01bd 293d 0a3d 05cb 69bd
000003e0: 39c3 b33d 1369 81bd 1e2f 49bd 546b ff3d
000003f0: 1878 883c ac96 3b3d dcc2 003d 946a c03d
0.010350898 0.052291606 -0.10555767 0.06391301 -0.007963965 0.12116366 -0.060412176 0.0014727213
0.12240755 0.1430722 0.01431688 -0.0035148987 -0.020597184 0.037973247 -0.30028576 0.11534502
-0.07210122 0.10443453 0.07947675 0.013303244 0.1597245 -0.012855648 -0.045584187 0.030322697
-0.028068602 0.013348669 -0.043283507 -0.08855013 0.01584796 -0.013547106 0.13741158 0.012038076
0.1197151 -0.08831145 0.0875041 -0.07928237 -0.07571712 0.009870399 0.035806812 -0.071228825
0.05889076 -0.04203058 0.08957295 -0.11966736 -0.076612964 -0.035007864 -0.1688865 -0.04227962
0.12286034 -0.17291968 0.041094407 -0.03300654 0.067193516 -0.14900404 0.054036494 -0.004118779
-0.005537444 -0.1258352 0.005662427 -0.012487573 0.043895446 0.014739137 0.05161689 0.03433266
0.032780282 -0.011588433 0.032336287 0.035448566 -0.025410213 -0.0070975553 0.013692786 -0.05407213
0.021938883 0.0090539595 -0.10546836 -0.05792177 -0.0124547575 0.047586594 0.1762316 -0.017036652
0.00065025775 0.012220824 0.0137884 0.003062773 0.08793561 0.04942071 -0.020232918 -0.038942024
0.036128066 -0.009674369 -0.0948994 -0.07236839 0.06811122 0.02924002 0.064188294 0.07903431
-0.03220894 -0.004397944 -0.03091561 -0.025451375 0.0603597 0.035676736 -0.0107081495 -0.056578554
0.09692261 -0.04476482 0.075049065 -0.10284204 -0.0644614 -0.03130003 -0.052561168 -0.09076745
0.12259002 -0.045338016 0.20859069 0.009581699 0.0063822907 0.010747555 0.13012274 0.11032754
0.00803361 -0.012242242 -0.004433742 -0.043606374 -0.12658615 -0.015957478 0.02569664 0.05774368
0.0013880114 0.10793885 -0.008027426 -0.084574744 0.12982602 0.047193218 0.06054707 -0.02314391
-0.10314025 -0.11228941 0.012728293 0.0851576 0.059917763 0.06980732 -0.07857157 -0.016692186
-1.5958878e-05 -0.040457606 0.04076274 0.03044597 -0.06760818 0.02710975 0.090584084 0.006101481
0.014333356 -0.012218932 -0.06960258 -0.115444794 -0.10545303 0.054434847 0.027129106 -0.031399943
0.034759175 -0.020949582 -0.11172556 -0.0018550861 0.015858911 0.044472113 -0.085002966 0.019304324
-0.08672275 0.029257318 0.10074721 -0.058990583 -0.011416569 0.08831242 0.009735327 0.022438128
0.032433756 0.0328198 0.040327974 -0.05877451 0.032559935 -0.014867629 0.11371875 -0.047931466
0.071816936 0.00055427704 0.05889479 -0.026830886 -0.034616686 -0.036382146 0.036293764 0.040978488
-0.07640479 -0.052530926 -0.17435695 0.08089475 -0.03134119 0.02585662 -0.00967086 0.045040626
-0.072873086 -0.018171247 -0.038356114 0.09243727 -0.08562855 -0.12866692 0.09610106 0.03304309
0.07196873 -0.08422048 -0.095518276 -0.037487898 0.11629086 0.039965305 0.03434555 -0.013190595
0.021149946 0.033915684 -0.019715697 -0.10353243 -0.111792974 0.0024884609 0.025207283 -0.029256416
0.0209394 0.04061737 -0.06051418 0.08760007 0.024040662 -0.033172652 0.15568052 0.03674577
0.078926496 -0.06425972 0.025736764 -0.034221806 0.099522464 -0.016655318 0.023269989 -0.033243958
0.12015773 0.017376926 0.056258652 0.017723594 0.07038669 -0.031618282 0.033749733 -0.05707838
0.0877747 -0.063188694 -0.0491172 0.12471643 0.016658828 0.04579799 0.031435832 0.09395328

layer2.bias f4 [150]
00000000: 8c90 893c 4bfa a4bc 1472 a63c 1f48 993d
00000010: 3247 8fbb bd99 493c 1cc3 80bd 2696 a8bb
00000020: 650d 01bc 0cb1 803d efd0 113d 84df afbc
00000030: 21df 5d3d b5a4 993d 7201 053d 75e7 ccbb
00000040: cfe9 9c3c bbb7 373d bbb8 c5bb b2ec 4b3c
00000050: 10de 0cbd f4c0 a83d 7697 55bd dc77 9c3d
00000060: 9057 21bd 95ab 0bbd 4bb2 5abd 4771 14bd
00000070: e085 363d 7578 b4bb b3b7 c3bc 67ae 493d
00000080: 3ba7 a73d 4002 23bd 94bb 98bc 7532 9f3d
00000090: 2e9e f1bc 0257 16bc c09d 8b3c 1227 b8bc
000000a0: e682 89bd fc23 8abc f526 5ebd 15dd 65bd
000000b0: be0e 883c 4b2a b0bc 4b3b 773d d748 2dbd
000000c0: c172 533d 5ee4 2bba b65c 973d 0973 193d
000000d0: 2f4c 9f3d 245e 3cbd 066f e73d 825b 94bc
000000e0: 7e9f 37bb e0d8 6f3d 1f08 4cbd 728b b8bc
000000f0: fa1a 543c a07c 183c 7328 053e 2961 da3b
00000100: e110 8d3d f907 e23c cff7 8e3d 640f ebbc
00000110: e774 35bd fad5 ab3c 1728 41bd 8f68 a93d
00000120: 7781 b83d 558e 7fb9 5560 49bd 2817 90bc
00000130: bdd9 543c 4ced b63d 7442 163d f0a8 86bd
00000140: c469 11bb 612a 833d 08d2 963d 5354 27bc
00000150: ba80 cc3c a932 b33d 34b5 2fbd 5280 1f3c
00000160: 45d2 9c3b 50b5 f1bc 0fd0 123c 5798 40bc
00000170: db3e 7a3d b0b7 893b bc0b cebc 0ce1 1c3b
00000180: e5ff ef3c 926a 95bb de30 5a3d 3f73 fdbc
00000190: 7f21 ea3c c539 633d 3d55 013c 169c 37bd
000001a0: 2181 9dbd c403 51bc c29d 00bd 7dc3 b53d
000001b0: 3dec fd3c 759f 973c 75cc f8bc 23b5 9a3d
000001c0: e973 2a3c d2d5 2bbd 859c 873b 4f09 02bd
000001d0: df09 1ebc 0aad 423d a194 3b3d 7fe8 3e3d
000001e0: d4f2 2d3b ce3d acbc 7c6d 0bbd a3db 04bd
000001f0: 2f47 27bd d7a5 323d e8fa ee3a 651a 96bd
00000200: ba9a 98bd f2f6 b43d dfed 5cbd 4c32 0abc
00000210: d614 ef3c d2cd 3fbd 53ea 463d 332d 3b3d
00000220: f713 2a3d c308 3bbc ae72 873c d62c 573d
00000230: 1a25 223d fe0f 363d 0f4f 97bc 78cc 213d
00000240: f69d 533c cfe1 8f3d 82ce ab3c cdea 1dbd
00000250: 3fdb 51bd b2f3 65ba
0.016792558 -0.02013888 0.020318069 0.07484459 -0.004372501 0.0123047205 -0.06287214 -0.005144852
-0.007876729 0.06283769 0.035599645 -0.021468885 0.05416787 0.075021185 0.03247208 -0.0062531778
0.019154457 0.044852953 -0.0060339845 0.012446569 -0.034391463 0.08239928 -0.052146398 0.07640049
-0.039390147 -0.03409918 -0.05339269 -0.036240842 0.044561267 -0.0055075237 -0.023891306 0.04923859
0.081861936 -0.039797068 -0.018644132 0.07773296 -0.029494371 -0.009176018 0.017042994 -0.022479568
-0.0671442 -0.016862862 -0.05423637 -0.056119043 0.016608592 -0.021504542 0.06035928 -0.042305794
0.05162311 -0.00065571617 0.0739073 0.03746322 0.07778203 -0.045988217 0.11300473 -0.01811004
-0.0028018649 0.058556437 -0.049812432 -0.02252743 0.012945885 0.009307057 0.13003711 0.0066644144
0.06887985 0.027591692 0.069808595 -0.028693862 -0.04430094 0.020976055 -0.047157373 0.08271896
0.090090685 -0.00024371718 -0.049164135 -0.017589167 0.012991366 0.089319795 0.03668447 -0.06575191
-0.0022188285 0.064045675 0.07364279 -0.010212976 0.024963725 0.08749897 -0.04289742 0.009735184
0.0047858083 -0.029505402 0.008960738 -0.011755071 0.0610951 0.0042028055 -0.02515208 0.002393785
0.029296825 -0.0045598233 0.05326926 -0.030938743 0.028580425 0.055475015 0.007893858 -0.04482659
-0.07690645 -0.012757245 -0.03140045 0.08875177 0.030996436 0.018508652 -0.03037093 0.0755408
0.010403612 -0.04195196 0.0041385316 -0.03174716 -0.009645908 0.047528304 0.04579604 0.046608444
0.0026542442 -0.021025565 -0.03403996 -0.032436024 -0.04083937 0.04361519 0.0018232735 -0.07329253
-0.07451387 0.088361636 -0.05393779 -0.008434843 0.02918474 -0.046827145 0.048563313 0.045697402
0.041522946 -0.011415663 0.016534176 0.052532993 0.039586164 0.044448845 -0.018470315 0.039501637
0.012916079 0.070254914 0.020972494 -0.038554 -0.05123448 -0.000877197

layer3.weight f4 [100, 150]
00000000: 2ec4 54bd 1107 fd3c 2160 d43c 3e08 ba3c
00000010: 614d 1d3e 2363 2a3d f206 e8bb eb11 e03d
00000020: eb41 303d 2ea8 cb3e f949 6dbd dc8c ccbd
00000030: 5a43 dabc 52d4 53bd da1a 24bd 75d2 58bd
00000040: 6de6 8a3c 5953 19be 48d6 c5bc 30ac 033e
00000050: 8aae 02be 9351 fc3d ccff c9bd 8fea b23d
00000060: 8eb1 39bc 0e2d b13c 16e7 bdbd eea6 223e
00000070: c047 793d aeef 893d aa14 06be 0b01 91bc
00000080: f8fa b13d 8783 123d 2848 84bd 7a11 223c
00000090: c64e 92bd 3372 983a 84eb 893d bf2e 183e
000000a0: e3a7 2a3d 5cac 5f3d 57d1 d63c 2769 91bd
000000b0: c699 3dbd 0842 333e f423 83bc 8d00 b23d
000000c0: 9575 943d b563 afbd f9bb 02bd 8d07 553d
000000d0: 2d5f 963b 8673 943d f478 21bd fb69 bf3d
000000e0: d5da cb3a 6052 44be 846e 62bc 50a3 da3d
000000f0: 94c6 d43c c9be bfbb 9d09 053e df54 62be
00000100: f75c 923c cbfd 79bd 4837 133e 8a9b f3bb
00000110: 34f4 29be 53ab ed3b 723b 463d 6c44 7d3d
00000120: 62da 0d3e 9b5b bbbd 6402 933c ca80 bc3d
00000130: 1302 cabd 0fdb 353d 0efb 5e3d 0dc8 8abd
00000140: 929e d53d 49f0 2f3d f805 eb3b 51b6 673c
00000150: 4110 153e 90f0 8e3d 2913 b73d 946e 763c
00000160: c54f 20bd 4ed5 42bd f43f 523c 12ed 2fba
00000170: d7d5 123d 8220 db3d c0d2 9fbc d0df 2abd
00000180: 38fe a3bd 246f 33be 0450 79bd 6ea1 48bd
00000190: f301 59bc 06fb 983d 431b 1fbd 0c95 3e3a
000001a0: ceac da3a 107a f4bc 49c0 d1bd 2c52 213d
000001b0: 84a1 2d3c 2f84 053e 89db d33d 3334 a5bd
000001c0: 3223 4f3d 0243 0ebd 1bfe 7a3d 1902 f0bd
000001d0: 8c03 d5bc c728 243e e9b3 5e3c 28de 093d
000001e0: a607 ee3c 6daa 3fbd 3e51 25bc 9859 4c3d
000001f0: 6ef1 b93d 80ff 223d 5dcb 0b3d 0877 b1bc
00000200: c6cd 953d f5a4 49bd ea6d cabd b0a2 fbbd
00000210: 099b 8a3d 89ba 74bd 17b0 03bd 8f40 cf3d
00000220: a0a3 113e dfc4 ad3c 2ceb 9dbc c6cb 593d
00000230: db07 e63d 56d1 82bd 8c77 5abd 66b1 7e3d
00000240: 2433 a73d 6ae9 37bd 08be b03b 547b a8bd
00000250: b96f d73d b366 9fbd 672a 9d3d 39bd 163c
00000260: 641f c6bc 5f37 883d ff50 7e3d 3fd9 adbd
00000270: d249 32bd cafd 39bd 9e5b e63d 2017 b53e
00000280: 6e88 9a3c a772 5abc 6067 11bc bf82 453d
00000290: 81a1 9d3d 895e 4c3c 1d99 8e3d b2dd 5a3c
000002a0: 8a74 8cbd 41fd d5bc e612 173c 533c f5bc
000002b0: 5f99 83bc aac0 333d 67aa 9ebd 3f38 fbbd
000002c0: 11ce 9fbc ffb0 40bd f237 dd3c 29f6 f23d
000002d0: 58e9 ec3c 3a78 0a3e 35c1 bebc a634 003e
000002e0: eb48 d3bc acea 5ebd 7335 7ebd 22d0 bfbd
000002f0: 89df 0c3d 7c69 d23d 64dc d73b 9f28 9a3d
00000300: 5aaf 73bc 34a0 f1bc 68c3 c8bc dc82 17bd
00000310: d856 fbbc c90d 933d f25e 2c3b 05e5 a2bc
00000320: 6795 82bd 9d5f 09be 537c ce3d 2fca ff3d
00000330: 29a6 193d 43de 04bd 9096 6bbd 1094 46bc
00000340: bd95 c5bd 43fa bcbc 3eb7 d03d 6572 c93c
00000350: c3e2 bf3d f94d 37be 79b4 04bd d200 b3bd
00000360: 222a 3a3d 83cc 833d 1ee8 a1bd 9726 9a3d
00000370: d50a 313d 50ae e83d 1347 ad3b a66e fb3d
00000380: a306 1c3d 2a03 c73d 1b29 90bd e884 283d
00000390: 783f 8abd 1a9f 123e 2622 9d3d 1d9b 7d3d
000003a0: 4175 9fbd 15ae 03bd 6459 8d3d 3888 95bd
000003b0: 1a84 3dbb cfb8 0fbe 13bb dabd 6afe cc3b
000003c0: e65e aeba f001 263d f7fb f83c 370c b13b
000003d0: 1475 ac3d dc21 1b3d 4c67 24be 5ddc eabc
000003e0: 2f19 adbd 0530 51bc 3562 62bd 9143 213c
000003f0: aa1a 99bd 0dab 973d 199e 1b3d eb76 d93d
-0.051944904 0.030887159 0.025924744 0.022709008 0.15361549 0.04159845 -0.007080906 0.109409176
0.043031614 0.39776748 -0.057931874 -0.09987804 -0.026643444 -0.051716156 -0.04006467 -0.052935082
0.016955579 -0.14973201 -0.024150029 0.12858653 -0.12761894 0.123202465 -0.098632425 0.08736145
-0.011333836 0.021627929 -0.09272592 0.15883991 0.06085944 0.067351684 -0.1309382 -0.017700693
0.086904466 0.035769965 -0.06459075 0.009891862 -0.07143931 0.0011630714 0.06734374 0.14861582
0.041664016 0.054607734 0.026222868 -0.07100134 -0.046289228 0.17505658 -0.016008355 0.08691511
0.072489895 -0.085639395 -0.031917546 0.052009154 0.0045889826 0.07248597 -0.03942199 0.09346386
0.0015552888 -0.19172049 -0.013820294 0.10675681 0.025973596 -0.005851601 0.12991948 -0.22102688
0.017866595 -0.06103305 0.14376557 -0.007434313 -0.16597062 0.0072530895 0.048396535 0.06183283
0.13852838 -0.09148332 0.017945476 0.09204252 -0.09863677 0.044398364 0.054438643 -0.06776438
0.104306355 0.042953763 0.0071723424 0.014142589 0.14556982 0.069794774 0.089392014 0.015041012
-0.039138574 -0.047566704 0.01283263 -0.00067110464 0.035848465 0.1069956 -0.019509673 -0.04171735
-0.08007473 -0.17522866 -0.060867324 -0.048982076 -0.013245094 0.07469754 -0.03884436 0.00072701345
0.001668358 -0.02984336 -0.102417536 0.039385006 0.01059759 0.13038705 0.103446074 -0.08066597
0.050570674 -0.034731872 0.06127749 -0.1171915 -0.026002668 0.1603118 0.013592699 0.03365913
0.029056381 -0.04679339 -0.01009017 0.04989013 0.09079252 0.039794445 0.03412949 -0.021663204
0.07314639 -0.04922958 -0.09884246 -0.122868896 0.06767852 -0.059748206 -0.032150354 0.101197354
0.14222574 0.02121204 -0.019277178 0.05317285 0.11231967 -0.06387584 -0.053336665 0.0621809
0.08164051 -0.044900335 0.0053937472 -0.08226648 0.10519356 -0.0778326 0.07674103 0.009200388
-0.02418489 0.06651186 0.062088963 -0.08488702 -0.04352743 -0.045408048 0.11247943 0.35369205
0.018863883 -0.013332999 -0.008874744 0.048220392 0.0769682 0.012473711 0.06962798 0.01335852
-0.068581656 -0.026121737 0.009220814 -0.029935991 -0.016064344 0.04388491 -0.077473454 -0.122665875
-0.01950744 -0.047043797 0.027004216 0.118633576 0.02891986 0.13522425 -0.023285488 0.12520084
-0.025791606 -0.05442302 -0.062062692 -0.0936587 0.034392867 0.10274026 0.006587552 0.07527279
-0.01487335 -0.029495336 -0.02450724 -0.03699003 -0.030681059 0.07180364 0.002630171 -0.019884596
-0.063761525 -0.1341538 0.10082307 0.12489735 0.03751198 -0.032438528 -0.057516634 -0.012120262
-0.09647701 -0.023068553 0.10191201 0.02459068 0.09369423 -0.17900838 -0.032398675 -0.08740391
0.045450337 0.06435492 -0.07905601 0.07526892 0.04322322 0.113613725 0.0052880137 0.12276964
0.038092267 0.097174 -0.0703909 0.041142374 -0.06750387 0.14318505 0.07672529 0.061915506
-0.07786036 -0.03214844 0.069018155 -0.07301372 -0.002891785 -0.14035343 -0.10680213 0.0062559145
-0.0013303428 0.04052919 0.030393584 0.0054030675 0.084207684 0.037874088 -0.1605503 -0.02866953
-0.08452069 -0.012767796 -0.05526944 0.009842769 -0.07475789 0.07405672 0.03799257 0.10618385

layer3.bias f4 [100]
00000000: 4d3a a13d 3ecc 50bd e22a 933d 1b50 913d
00000010: 4e90 bb3d 9fcb e13d 9bbf fe3c 5200 a43d
00000020: f8cc 99bd 1755 b83d b0a8 44bd 7c25 9a3d
00000030: 745a 833a e161 08bd 79bd 9a3d 5291 b6bd
00000040: 9f75 18bd 7e98 f33d fb2e c33d ea44 483c
00000050: 099a c93d 776e b7ba d9d0 dd3d e865 a83d
00000060: a5e8 c73d 68fd 9cbd a855 ca3c 413c 1bbd
00000070: 3141 92bc 3f70 fc3b dcb9 8f3d 091c 973d
00000080: ad82 b5bc 72e0 a43d dcc2 67bd c3fb a63c
00000090: f171 9a3d 4c9c 86bd 6705 973b b0ab 86bc
000000a0: 8d78 003c f1a9 cdbc 8e37 cb3c 2d30 663c
000000b0: c9a1 25bd 8131 203d 803c dd3c 552d 813d
000000c0: b919 19bc 61f0 e03b c826 2a3c 772d 92bb
000000d0: 269e 523d 800a 3dbd be0a 643d 2574 193d
000000e0: 6d11 9c3d d762 de3d c9d2 dd3d ccd0 cf3d
000000f0: 3ad2 16bd 90c0 483d 3ff3 3bbc 44de a13d
00000100: 2703 b73d a029 843d 31ed 653d 3770 9e3d
00000110: 8d8e 6ebd 561a 4c3d a908 863c ac61 0ebd
00000120: 248a efbb 1e5a 30bd b17d 1ebd 2913 fe3d
00000130: a64b 01bd ee3b 1d3d 7cda da3d 7da2 e43d
00000140: 638b 9cbd 45a0 bfbd 8441 57bd 103e cf3b
00000150: 38de 54bd a718 483c 4fa5 f33a d844 de3d
00000160: dcf1 853d 45af ed3c a9cc 953d 5d97 163d
00000170: 2bbf 3b3a 9c04 0dbd 10a5 8abc 2bf5 9e3d
00000180: 62c8 8dbd 96ce 303d c632 d13a 67dd 123e
0.07872448 -0.05097603 0.071859136 0.07095357 0.09158383 0.11025166 0.031097224 0.080078736
-0.07509798 0.090006046 -0.048012435 0.07526681 0.0010021464 -0.03329647 0.0755567 -0.089144364
-0.037221547 0.1189432 0.09530445 0.012223462 0.09843833 -0.0013994713 0.1083085 0.08222562
0.0976117 -0.07665521 0.024699047 -0.03789926 -0.017853351 0.0077038105 0.07017872 0.07378394
-0.022157038 0.08050622 -0.056582317 0.020383721 0.07541264 -0.0657278 0.0046087983 -0.016439289
0.007841242 -0.025105448 0.024806764 0.014049572 -0.040437493 0.03910971 0.027006388 0.063074745
-0.009344512 0.006864593 0.010385223 -0.0044609862 0.051420353 -0.04615259 0.055674307 0.03746428
0.07620511 0.10858696 0.1083122 0.10147247 -0.03682158 0.049011767 -0.011471569 0.07903722
0.08936148 0.06453252 0.056134406 0.07736247 -0.058241416 0.049829803 0.016361551 -0.034761116
-0.007310169 -0.043054692 -0.038694087 0.12405998 -0.031566285 0.03838723 0.10686204 0.11163805
-0.076437734 -0.09356741 -0.052552715 0.006324537 -0.051969737 0.012212909 0.0018588695 0.10852975
0.06540272 0.02901424 0.073144265 0.036765445 0.000716197 -0.034428224 -0.016924411 0.07761606
-0.069229856 0.043165766 0.0015960566 0.14342271

layer4.weight f4 [150, 100]
00000000: b2f8 613c ddc1 993b a22d 00be f87a e5bd
00000010: cba9 613d 1dff 803d 946e 033d 8c81 a33d
00000020: 0794 13bd 32c5 d1bd 79e0 debd d4cf 28bc
00000030: 8f4a 673d 7866 5fbd bdc0 b83c ed90 f93c
00000040: 4f96 e4bc 77e7 dc3d 18af e83a 0a9a 93bd
00000050: b388 a43c 807c 46bd 0c49 a6bd dd1b 843d
00000060: bf9f a63d 7fee 7b3d b970 803a e9c5 0dbe
00000070: 0587 56bd 5d5e e03c 0475 2d3d 1d4a a73c
00000080: 4a58 48bd b7cc 1dbd ac51 cdbd 2cdc f3bd
00000090: 303a 0ebe ad4e a2bd 056b df3d 3294 d63d
000000a0: e739 f5bd 11c0 863c 7d52 c43d c663 4f3d
000000b0: a8e6 7ebd cb3f 083d 1718 3a3d 6ff8 223d
000000c0: 0bec 00bd be95 82bd 4c07 af3d 76df 003d
000000d0: d032 51bd 0889 03bd f997 7a3c 415b 883d
000000e0: c452 a5bd ef79 7b3d 2f85 a2bd 5667 2a3d
000000f0: 98bb 1a3d 679b 4d3d d859 d43d 572f 8dbc
00000100: a0ae 14bc e21c 2fbc 1472 5fbe f224 033d
00000110: eb24 b4bd 3c05 813c 36a5 99bd f62f 0c3c
00000120: 54fe 9fbd 8c97 87bd c58e 03bb eff2 0bbd
00000130: b974 96bd 6310 da3d a256 a73d 2fc7 b83d
00000140: 38b3 a5bd 9afc 013d 1de2 a0bd a67b 773b
00000150: a901 67ba 3c7b 913b 2100 e33c 0c77 27bd
00000160: 6b49 8c3d 01e5 753c ba27 cabd dc06 903d
00000170: 85ef a73d 6752 6ebd c784 e13d 9f72 1b3e
00000180: cdfa 633d c446 b23d 5ee3 9fbc 4cd0 ac3d
00000190: 007e 403d 7d96 6f3d a28f 8abc c9d8 a43c
000001a0: c5f1 9dbc 79c8 8f3d 92bd a13d 8877 84bd
000001b0: 1209 173d eefe cebd 20dd 613c 6dc0 c33d
000001c0: e4b2 64bc a791 c7bd 9972 c9bd 801d c4bc
000001d0: 442f 3cbd f301 cfbd 2057 a0bd 3734 bd3d
000001e0: b642 18bd 78af 0dbd f544 533d b03b ba3d
000001f0: e73f 9b3d ca72 293b 7652 c13d ecdb c0bd
00000200: 44a6 9abc 7ef2 a2bd a960 8ebd 35d7 753d
00000210: a38f c2bd 31ea e0bb 8b16 943d d25e 81bd
00000220: 34fa 3dbc 664b 21bc ebcd 97bd 53ba b13d
00000230: d01a c33c f140 8bbc d2dd 813c 880a da3b
00000240: e0f4 023d 4b6c 28bd 0d73 15bd 2b2b ad3d
00000250: 5473 ca3c dcce 4b3d 8ab1 4f3d c210 9cbc
00000260: 9521 61bd 1ae9 513d 3129 793b 0724 7e3d
00000270: fd0e c3bd 4641 5c3d 5df1 93bd f97d fa3c
00000280: fc5f 983d a1ae 8fbd 353c b7bd 51f9 4c3d
00000290: 67a6 5bbd 5907 c8bd 0f38 943d 0f38 55bc
000002a0: 82ac 973a 26a0 f83b 8e52 7dbd b0ae a9bd
000002b0: 0532 c5bd 75ed d93c 2ccd 2dbc 8c80 ccbd
000002c0: ab1f adbc 6490 acbd d35b 51bd 51e1 8dbd
000002d0: 0c42 e3bc f81b c5bd 42c1 073d d988 833b
000002e0: eeaf 89bd 551a e33c dcc2 3f3d eea1 a5bd
000002f0: 19a6 b3bc 5da7 c9bd 7a50 5d3d 0cef 5ebd
00000300: f1f8 debc 66d8 a3bd bcdf 2cbc d7c7 27bd
00000310: afa9 983d 5b22 5ebd 6c9a 483c 48a6 c6bc
00000320: e79a a73d c803 473d c4cb 08be 57db 22bd
00000330: 5365 7cbd fd29 5ebc fd0b 10be d890 ad3c
00000340: b25f 4bbe 0230 01bb ca39 33bd f1ae ae3b
00000350: c4e8 2dbe 16a9 9d3d f5ad acbd 4fb7 a73d
00000360: 9fc1 0abd c1b1 a73d ec42 ac3d 1b4b a33d
00000370: 8760 b2bd 5ac0 cc3d 700b 543b 8c16 613d
00000380: 0b50 a8bd 73b1 2d3e d869 853b f102 59bd
00000390: f48d 633b 8fbd e73d 3805 d93b 4556 bd3d
000003a0: 730b 8abd 6de2 b23c 9455 2a3d 0fc1 fa3b
000003b0: b790 d43d 96b8 d53d e0bc cebc ebca 053d
000003c0: da20 f2bd bb1b 013e d737 ad3d 339e 42bd
000003d0: d85e c33c 9fb5 083e 0ee1 f13d 52cd 3abd
000003e0: f6ba 13bd f384 febd c468 8f3d 37ec ab3d
000003f0: 5c0c c33d 6564 c0bd 2b60 113d 3b6e d0bd
0.013792204 0.0046922998 -0.12517408 -0.11205095 0.055093568 0.06298659 0.032087877 0.079836935
-0.03602984 -0.1024269 -0.108826585 -0.010303456 0.05646759 -0.05454108 0.022552842 0.030464614
-0.027903704 0.10786336 0.0017752377 -0.07207115 0.020084715 -0.048458576 -0.08119401 0.06450627
0.08135938 0.061506744 0.0009799219 -0.13845028 -0.05237486 0.027388746 0.042347923 0.020421082
-0.048912324 -0.03852531 -0.10025343 -0.11907229 -0.13889384 -0.079251625 0.10909084 0.10477485
-0.119739346 0.016449006 0.09586046 0.05063226 -0.06223169 0.033263963 0.04543313 0.039787706
-0.031475108 -0.06376217 0.08546314 0.03146311 -0.05107385 -0.032113105 0.015295022 0.0665803
-0.08072427 0.06139558 -0.07935559 0.041602455 0.03777656 0.05019703 0.10368699 -0.017234487
-0.009074837 -0.010688039 -0.21820861 0.032017656 -0.08796104 0.015749566 -0.075022146 0.008556357
-0.07812181 -0.06620702 -0.002007411 -0.034167226 -0.07346482 0.10647657 0.08170821 0.09022366
-0.08090824 0.03173504 -0.07855628 0.003776291 -0.0008812198 0.0044397395 0.027710022 -0.040885016
0.06849941 0.015008212 -0.098708585 0.07032558 0.081999816 -0.058184054 0.110116534 0.15180443
0.055659104 0.08704904 -0.019517597 0.08438167 0.046995163 0.058493126 -0.016914193 0.020122902
-0.019280324 0.07020659 0.07897486 -0.06468111 0.036873884 -0.10107218 0.01378563 0.09558187
-0.0139586665 -0.09744578 -0.09836311 -0.023939848 -0.045943514 -0.10107794 -0.07829118 0.09238475
-0.037172996 -0.03459117 0.051579434 0.09093416 0.07580548 0.0025855773 0.09439556 -0.09416947
-0.01887811 -0.07956408 -0.0695203 0.06001969 -0.09500053 -0.0068638553 0.07230862 -0.06316914
-0.011595298 -0.009844637 -0.074123226 0.08678117 0.023816496 -0.01699874 0.015852842 0.0066540875
0.031971812 -0.0411189 -0.036486674 0.08455499 0.024713196 0.049757823 0.050706424 -0.01905096
-0.054963667 0.051247694 0.0038018937 0.062046077 -0.09524343 0.053773187 -0.07223771 0.030577647
0.074401826 -0.0701573 -0.089470305 0.050042454 -0.05362549 -0.097670265 0.07237255 -0.013013854
0.0011571797 0.0075874506 -0.06184631 -0.08285272 -0.09628681 0.026602486 -0.010607999 -0.09985456
-0.021133265 -0.08425978 -0.05111296 -0.06927741 -0.027741455 -0.09624475 0.03314329 0.0040141162
-0.06723009 0.027722517 0.04681669 -0.08087526 -0.021929787 -0.09846375 0.054031827 -0.05442719
-0.027218314 -0.08000259 -0.010551389 -0.040962067 0.074542396 -0.054231983 0.012243848 -0.024249211
0.08183842 0.04858759 -0.1335898 -0.03975996 -0.061620068 -0.0135598155 -0.14067073 0.021187231
-0.19860724 -0.0019712453 -0.043756284 0.0053309132 -0.16983324 0.07698266 -0.08431617 0.0818926
-0.033876058 0.08188201 0.08411202 0.079733096 -0.087098174 0.09997626 0.003235545 0.054953143
-0.08218392 0.16962223 0.0040714554 -0.05298132 0.0034722062 0.11315452 0.0066229366 0.0924497
-0.06740465 0.021836484 0.04158552 0.007652409 0.10379165 0.104355976 -0.025236547 0.03266422
-0.11822672 0.12608235 0.08457916 -0.04751415 0.023848936 0.13350533 0.11810504 -0.045605965
-0.03606697 -0.12427702 0.07002404 0.08394664 0.09523842 -0.09394149 0.035492104 -0.10177275

layer4.bias f4 [150]
00000000: 53a9 8f3c b92f 3d3d 32fe 9c3c 7575 69bd
00000010: 97ee 63bd 150b b93d d647 ab3d 4424 643c
00000020: 4a8b 813b b1d3 2e3d 4740 b83d e609 403d
00000030: 689c c5bd fe05 073d f34f c1bc 7ab3 38bc
00000040: 34b5 d73d 6e4a aebd f546 f5bc 4319 aabd
00000050: 4cc4 7b3d 7c6a 3abd ea00 cfbd 057b 2f3d
00000060: f6bb a13d 57a1 953d b6ae 39bc b45b 7e3b
00000070: f2f1 dc3d 2f2e 38bd c9c5 7b3d c7d2 d0bd
00000080: 8a7f 78bd be9f b9bd ca99 373d 2c79 37bd
00000090: ba14 81bd 1e40 78bd 79ab f33d 26c4 bdbd
000000a0: 798c 00bd 4724 d1bd b6ed 1a3e be18 13bd
000000b0: b2d7 8e3d 101c a93d 64a6 98bd 9df5 5e3c
000000c0: ade4 e53d ce96 42bd 30e9 ecbc 64b6 c23d
000000d0: 028a bd3d 79bf d6bb 4011 44bc 9ec1 1f3c
000000e0: 1fcc 6abc 8027 083b 75ad a1bc 3633 023e
000000f0: bccb a63d a0ba 65bd f50a 01bd d8a4 d93c
00000100: 8f81 7a3d d190 79bd 831c 1a3d 27c3 b5bc
00000110: f521 cfbc 6a9a 9dbd 375b 0b3d 8aab fe3a
00000120: a4b4 2dbd ffde 8f3c 0de1 88bd a590 3fba
00000130: ec36 523c 66da c93d 7bea ca3c b7b5 c13c
00000140: f3fa fc3b 6bbc 1e3d 7edf 823d 5840 93bd
00000150: 8ebd e53d 3a1e 513d 48a9 e33d 1515 813d
00000160: 0f37 e53d f636 c73d c351 cebd 5b20 573d
00000170: 4255 d73c 4a08 ed3c 155b ff3a 5167 26bd
00000180: e75f 48bd ac6d 19bb f8d3 223d b34d 0e3d
00000190: d212 843c 7805 dd3c 13c6 aa3d e9a7 fa3d
000001a0: 6f95 9e3c fb63 3c3d 94b3 93bd 72de ffbd
000001b0: 3fc7 23bc f832 e93d 076a 023c 618b c13b
000001c0: fdfe d0bd d9f9 253c 9a6d 423a 0db0 903d
000001d0: 66b1 9c3d 78cd 6abd 19f6 cf3d b2d3 923c
000001e0: 5cbc cf3c 196f b83b 8e4e 7a3d 7f6b 9fbc
000001f0: 94b1 d73d 3c63 053d 9f3d c33c 86bc 62bd
00000200: 208d c9bc 7f60 c7bd ddb3 eabd 91e2 df3d
00000210: f428 753d 29fe a9bd 6d1a e139 9459 04be
00000220: 120e fcbc cb64 8f3d 99bc 253d 6dac bebd
00000230: fd58 9f3c 3267 5c3d ae9e ce3d 28be 553c
00000240: c190 bc3d e26e e33d 9712 97bd 6f2e 953d
00000250: 5b3c d73d 83ff d63d
0.017536795 0.04618809 0.019164179 -0.05699678 -0.05564746 0.09035317 0.08363311 0.013924662
0.003953372 0.042682353 0.08996635 0.04688444 -0.09648973 0.0329647 -0.023597693 -0.011273259
0.10532609 -0.0851029 -0.029941062 -0.083055995 0.0614665 -0.045511708 -0.10107596 0.04284193
0.07897179 0.07306164 -0.011333158 0.0038811984 0.10788335 -0.04496592 0.06146792 -0.101964526
-0.060668506 -0.090636715 0.0448244 -0.044793293 -0.063027814 -0.060608022 0.1189794 -0.09265928
-0.031383965 -0.102119975 0.15129742 -0.035912268 0.06974734 0.082573056 -0.074536115 0.013608363
0.11225257 -0.0475071 -0.028919786 0.095074445 0.092548385 -0.006553587 -0.011967003 0.009750752
-0.014330893 0.0020775497 -0.019736031 0.12714848 0.08144328 -0.056086183 -0.03150459 0.026567861
0.061158713 -0.060929123 0.037624847 -0.022187782 -0.025284747 -0.07695468 0.034022536 0.0019429785
-0.0424086 0.017562388 -0.0668355 -0.00073076255 0.012830477 0.09856109 0.024770012 0.023646219
0.007720345 0.038753908 0.06390284 -0.07190007 0.11217795 0.051054217 0.11116272 0.06302849
0.11192142 0.0972728 -0.100741886 0.05252109 0.026285771 0.028934617 0.0019482101 -0.040625874
-0.048919585 -0.0023411317 0.03975293 0.03474207 0.016122255 0.026980147 0.08338561 0.122390576
0.019358365 0.045993786 -0.07211986 -0.124936 -0.009996234 0.11386675 0.007959849 0.005906508
-0.10204885 0.010130369 0.00074168446 0.07064829 0.076510236 -0.057324857 0.10154361 0.01792321
0.025358371 0.0056284782 0.06111007 -0.019460438 0.10531917 0.03256534 0.023833094 -0.05535557
-0.024603426 -0.09735202 -0.114600874 0.10931886 0.05985351 -0.0830043 0.00042935033 -0.12924796
-0.030768428 0.070016466 0.040463064 -0.09310231 0.019451613 0.053809352 0.100888595 0.013045825
0.09207297 0.111051336 -0.073765926 0.07284247 0.10509559 0.10497954
