GP_MVC_hw_3view/results/checkpoints/experiment_name/19_net_G_B.pth (torch_old, 76728 bytes, 4 tensors)

model.0.weight f4 [64, 76]
00000000: 80d2 623b eea0 37bd a017 46bb 6936 d43d
00000010: 70a1 e0bc 30a2 ddbd 9a8e 323d af48 aa3d
00000020: d8e9 3bbd 5ee4 553d 0062 453b 822f 193d
00000030: 3a35 063d 9364 b8bd a66e 343d a373 863d
00000040: a016 a0bd b006 c13b 6d12 973d 181a 263c
00000050: 3045 06bd 8e1e 0dbd cf02 aa3d 10c2 c5bb
00000060: da09 103d c27e 9abd 17af d7bd 4442 dabc
00000070: 1052 2ebd c4e5 bebc 8d28 d73d bc60 b33c
00000080: 51f2 ab3d 7a20 673d 3c27 da3c d1e4 953d
00000090: c490 963c 103b 6bbd 36b1 c4bd 586f 7dbd
000000a0: 60fa 19bc b8e9 26bc 7093 2bbd da55 87bd
000000b0: f42a bc3c 8d42 e7bd ad5f 9d3d 1c13 923c
000000c0: fd41 993d 7ce5 d4bd de8d 33bd 047a 52bd
000000d0: 58e2 13bd 31e0 973d 126a e2bd e49e 16bd
000000e0: eabc 1f3d 428f 98bd c5c8 c33d d193 d63d
000000f0: bf38 e13d c646 95bd b3f0 d83d 2509 e8bd
00000100: a3e1 b53d bc08 f53c 7eae 543d fc0a b1bd
00000110: 01c0 833d 8d3c ca3d d837 303c 57d4 b53d
00000120: 08d8 93bc 33dc cebd d4b8 ab3c 78e3 aebd
00000130: c4c9 9ebc 3e7f c2bd c0c2 cfba ec05 bdbc
00000140: fd21 acbd 84d1 8c3c 2a8a 7f3d fdd2 e63d
00000150: 0a13 5dbd 1edb cabd 3d1e 6ebd 563a 85bd
00000160: 5157 88bd 98a3 513c f4bd aabc 0fda d3bd
00000170: 5f37 c93d fabb 123d 47d4 c03d 0038 7239
00000180: 6c4c c43c 142d ef3c 1670 2ebd ce0a 12bd
00000190: 6020 47bd 3090 07bc 41c2 bf3d b649 84bd
000001a0: c49b 9ebd 890b cb3d fbfe 70bd feac 2b3d
000001b0: 34eb 3ebd e49a ad3c 56cf 8fbd 834e c63d
000001c0: 45fd c33d 77bf e93d 3298 42bd 0e8f 103d
000001d0: 3240 7b3d 6195 b1bd bf3c aa3d 8a98 0b3d
000001e0: 30ae 853b 7801 f0bc c035 cf3b d723 78bd
000001f0: d85f 763c 5c8e c2bc 72aa 413d 10dd e7bb
00000200: 2339 833d 9025 d5bd aa11 89bd e253 7a3d
00000210: 5964 df3d 44f5 9c3c 1159 9d3d aa71 313d
00000220: 1cd0 e83c 5250 3bbd 5d9e e3bd 48d4 8ebc
00000230: 4ec1 1e3d 370b c03d 3d6a d43d 5464 d43c
00000240: d630 b2bd 542e 48bd 6430 e43c 7cfb d3bc
00000250: 01a4 ea3d 762d 5f3d 8083 92bd 0308 b33d
00000260: c7b3 b1bd 32de 5d3d e771 d73d 5206 2d3d
00000270: bfcb 60bd 101c 96bb a93d 6abd a869 a2bd
00000280: 19ba debd f428 823c 038c cc3d e009 8fbd
00000290: a6e5 703d 2caf e6bc 3336 71bd 2b99 8f3d
000002a0: 2a63 303d c4c8 fa3c 8ce1 acbd 905d 80bc
000002b0: f2b2 1a3d 548d a6bd ba5f 42bd fe25 433d
000002c0: 50ca 34bd cacb 183d 8afe 293d 808e db3b
000002d0: aef3 33bd 9201 cdbd 9824 383c 3e5e 283d
000002e0: 9091 d1bd c1ff c83d e5a5 c7bd 2403 afbc
000002f0: e0d6 443b 6d6c 71bd 4944 b03d c7c8 e1bd
00000300: 8088 6d3b bbac af3d 53e5 db3d 6fa7 9d3d
00000310: 0009 03ba 1180 9d3d 1f1c 86bd 564f 393d
00000320: d07d 983b c0b1 53bb 7359 cb3d f0ae e63b
00000330: 5378 903d 00c3 90bb cacb 773d 33a5 8e3d
00000340: 3cd1 b8bc 82d3 cdbd 0d1a 5cbd 53fc 8c3d
00000350: 355e 953d cfed 69bd 74a1 af3c c72d be3d
00000360: 8d32 e2bd 06c6 253d 1a87 bdbd e814 52bc
00000370: ca75 a2bd 2641 01bd 2bd2 893d e0f3 64bb
00000380: 80a4 12bc 9aad 1a3d b252 133d d8fe 42bc
00000390: 919d b63d a7ec debd 1af0 293d 9613 283d
000003a0: 76f7 4b3d 76ea 7e3d 4ad8 04bd cabc 5e3d
000003b0: 4bf1 df3d 6b21 db3d 9c7c b4bd 380e 6c3c
000003c0: 10c7 70bc 2a8b c4bd 5458 bd3c 8ef6 41bd
000003d0: 3fbb 6dbd f6a4 3a3d 3d32 9a3d 2c65 943c
000003e0: e009 e2bd 42b4 303d a417 aebc 7557 cf3d
000003f0: 7c9e b33c c90d c23d 9bf0 a63d 042b b03c
0.003461033 -0.04483121 -0.0030226484 0.103619404 -0.02742073 -0.108219504 0.043593027 0.083146445
-0.045877308 0.05221974 0.0030118227 0.037398823 0.032765605 -0.09003558 0.044050835 0.06565025
-0.078168154 0.00589069 0.07376561 0.010138057 -0.032780826 -0.034452967 0.08301317 -0.006035097
0.035165645 -0.075437084 -0.105314426 -0.026642926 -0.04255873 -0.02330292 0.10505781 0.021896712
0.083958276 0.056427456 0.026630037 0.07319034 0.018379577 -0.057429373 -0.09604113 -0.061873764
-0.009398073 -0.010187559 -0.041888654 -0.06608172 0.0229697 -0.112919904 0.07684264 0.017831378
0.074832894 -0.10395333 -0.043836467 -0.051385894 -0.03610453 0.07415808 -0.110553876 -0.036772624
0.038998522 -0.07449199 0.09559778 0.104774125 0.109971516 -0.072888896 0.10592785 -0.11329869
0.088809274 0.029911391 0.05192422 -0.08644673 0.06433106 0.098748304 0.010755502 0.08878391
-0.018047348 -0.101005934 0.020962156 -0.0853948 -0.019383319 -0.09496926 -0.0015850887 -0.023074113
-0.0840492 0.017189749 0.062387623 0.112707116 -0.053973235 -0.099050745 -0.058134306 -0.06505267
-0.06657279 0.012795351 -0.02084253 -0.10344326 0.09825014 0.0358238 0.09415489 0.0002309978
0.023962222 0.0291963 -0.042587362 -0.035654835 -0.04861486 -0.008274123 0.09363223 -0.06459372
-0.07744554 0.099143095 -0.05883692 0.041913025 -0.046611026 0.021192022 -0.07021968 0.09682944
0.09569792 0.11413472 -0.047508426 0.035292678 0.06134052 -0.0867107 0.08312368 0.03408102
0.0040796027 -0.029297575 0.006323546 -0.060581055 0.015037499 -0.023749523 0.04728169 -0.0070759133
0.06407382 -0.10407555 -0.06692822 0.061115153 0.10907812 0.01915992 0.07683004 0.04332129
0.028419547 -0.045730896 -0.1111419 -0.017435208 0.03875857 0.09377139 0.10371826 0.025926746
-0.08700721 -0.048872307 0.027855106 -0.025876753 0.114570625 0.054486714 -0.07153988 0.087417625
-0.08676868 0.05416698 0.10519772 0.042242356 -0.054881807 -0.004580982 -0.05718771 -0.079303086
-0.10875339 0.015888669 0.099876426 -0.069843054 0.05881276 -0.0281597 -0.05888958 0.07011636
0.04306332 0.03061331 -0.08441457 -0.015669614 0.03776831 -0.08132425 -0.047454573 0.047643654
-0.044138253 0.037303723 0.041502513 0.006700337 -0.043933563 -0.10010065 0.011239193 0.0411055
-0.10232842 0.09814406 -0.09748439 -0.021363802 0.0030035302 -0.058941294 0.08606774 -0.11024623
0.003624469 0.085778676 0.107370995 0.07697951 -0.00049985945 0.07690442 -0.065483324 0.045241676
0.00465367 -0.0032301992 0.099291705 0.007039897 0.070542 -0.004417777 0.060497083 0.06965103
-0.022560708 -0.100501075 -0.05373578 0.068840645 0.07293359 -0.057111558 0.021439292 0.09286075
-0.11044798 0.040472053 -0.09254284 -0.012822367 -0.07932623 -0.03155627 0.067295395 -0.00349354
-0.008950353 0.037763216 0.035967536 -0.01190158 0.08916772 -0.108849816 0.041488744 0.041034304
0.049796544 0.062235318 -0.03243283 0.054379262 0.10934695 0.10699733 -0.0881283 0.014407687
-0.014695898 -0.09596856 0.023113407 -0.047354273 -0.0580399 0.045567475 0.075291134 0.018114649
-0.1103704 0.043140657 -0.021251507 0.10124103 0.021926157 0.094752856 0.081513606 0.021504886

model.0.bias f4 [64]
00000000: 31c6 ab3d 07db e5bd 405d e6bb 8eb6 b0bd
00000010: 02be d9bd c80a 9bbc 9745 d93d ccd4 b7bc
00000020: 36d8 113d e924 9f3d 242b 98bc 24a1 ad3c
00000030: 1e3a b5bd c343 d63d 9c3e e03c 6674 6fbd
00000040: 2abf 763d e88c 483c 5e90 3bbd 92a1 6a3d
00000050: a096 a1bb fc95 d3bd d02a f33b 7f33 82bd
00000060: b538 abbd 7fb8 ba3d 33c9 a13d c07e e8bc
00000070: 9d0f dbbd 5c78 8d3c a707 ab3d 7818 3d3c
00000080: 5097 45bd 2612 2f3d 94a7 98bd 86a4 7dbd
00000090: a963 bb3d f1f1 b03d 4efe d3bd 7098 cdbc
000000a0: 0f46 b13d 2568 d23d 0c3d fa3c 12ad 333d
000000b0: 51fa 9b3d 6778 57bd 6894 1bbd 8cb0 85bc
000000c0: 4d17 c43d 3816 583c 8a59 9fbd 5029 a4bd
000000d0: 1c41 9fbd fa5f 773d f00b 8abc 727f 623d
000000e0: 18ef 44bc 94f3 c9bd 3dbf e93d 661c 8dbd
000000f0: a97b cd3d 0a84 433d 2805 243c 0e6f 03bd
0.083874114 -0.11223417 -0.0070301592 -0.086285695 -0.10631944 -0.01892604 0.10608976 -0.022440337
0.035606585 0.07770712 -0.018575259 0.021195002 -0.088489756 0.10462143 0.027373604 -0.058460616
0.060240902 0.012240626 -0.045791976 0.05728299 -0.004931286 -0.103313416 0.007420875 -0.06357478
-0.083604254 0.09117221 0.07899704 -0.028380752 -0.10696337 0.017269306 0.08351069 0.011541478
-0.048240006 0.042741917 -0.07453838 -0.06192448 0.09149868 0.08639897 -0.10351239 -0.025097102
0.08655941 0.1027377 0.030546688 0.043866225 0.076161034 -0.05260506 -0.037983328 -0.016319536
0.09574757 0.013188891 -0.0778075 -0.08015692 -0.077760905 0.060394265 -0.016851395 0.055297323
-0.012019895 -0.09860912 0.11413429 -0.06890182 0.10033352 0.047733344 0.010010995 -0.032088332

model.2.weight f4 [216, 64]
00000000: e083 8d3b 66b0 9d3d e478 6fbd 0caf b5bd
00000010: 1a38 e53d ba85 b83d 4079 3bbd 94d8 17bd
00000020: 6267 cebd cc63 edbd f059 383d 40fa 963c
00000030: 246d c3bd c017 08bb 74ae bcbd a0de c83b
00000040: 6e2d e43d 10ae 4bbc 803c cf3a e024 223c
00000050: 5690 d5bd 6097 95bb a01a 7ebc c099 7fbb
00000060: a0a1 f4bd 70b7 e4bd 9ce5 b23d b88f ffbd
00000070: 609a 993b 842f 81bd 2cc5 51bd 62ae d33d
00000080: 50e4 2bbc a446 37bd a0d6 b83c 38fc 84bd
00000090: a8b4 e13c 3cc8 aabd d028 0e3d 5684 91bd
000000a0: a06a d73c e8ec c1bc f629 f6bd 48be 80bc
000000b0: 00a9 043b 0690 943d 0096 4cbd d8ee fc3d
000000c0: 109d 8e3c 8875 f13d 8406 7ebd 5c8e 0f3d
000000d0: 2003 d63c 4074 71bb 3ca3 39bd 505e 523c
000000e0: 8ace c3bd 70bc b83c 8cb9 343d 2093 ecbc
000000f0: 108c c93d 40e0 f8bd fec2 99bd b21a b5bd
00000100: d0d7 313d a092 e63c 88ba c63c c814 603d
00000110: 7835 603d 10dd e93d 7868 35bd 68cd bbbd
00000120: b44e 5b3d 6c56 51bd d4dc fabd b813 843d
00000130: a81f 43bd 4c3d cdbd 6044 c03d d8c8 fc3c
00000140: 106b 41bd 42f2 d7bd e43a 783d 90cb 0f3c
00000150: a0eb f03c 8449 32bd 5a91 a83d c4a6 533d
00000160: 4040 d4bc e8fd 82bc a0ad 81bb ba6a 92bd
00000170: d0fe 4abd 68f9 c43c ec0a bb3d f8c3 d0bc
00000180: e8ef 9abc d207 f6bd e498 14bd 6cec 573d
00000190: 4078 f43b d8fa 913d 4886 7bbd 42a2 963d
000001a0: 08be 18bd d026 533d 844a 553d 8214 f83d
000001b0: c89e 473d 4623 b9bd 4c43 75bd b0c1 d5bd
000001c0: c0a6 2cbd e4b8 9f3d da4d 91bd ba01 dfbd
000001d0: d69a cd3d 0ce9 66bd 9683 b9bd aa41 81bd
000001e0: 4499 42bd e4d5 76bd d283 f0bd 1261 c93d
000001f0: 588d 93bd fc9c 3b3d 7e44 e83d 009f 193d
00000200: 54ba 6abd 781f 99bd 122d f43d ae8b eebd
00000210: fe37 c53d 2085 1bbc 7666 9abd 720b 9ebd
00000220: c8ba 97bc 2a5f 923d 307d e1bc 8610 babd
00000230: 32ad a8bd 6002 89bd 1a64 e0bd c42c 18bd
00000240: 1eaf fb3d ea4f 9cbd 66b6 debd bca6 743d
00000250: ec5c 453d 6229 a43d de34 b0bd 48e2 a43d
00000260: 8010 4fbb b624 cf3d 7c92 c53d c02a fd3c
00000270: 16ae f6bd 8c82 8ebd 40a0 ab3c 2c0a 673d
00000280: ce8e 963d 78b9 5e3d 1865 d1bd e494 e9bd
00000290: b81e 053d bec0 e3bd d024 e9bc 9af6 88bd
000002a0: 00b3 b4bc ac98 783d 80b4 4e3c 6070 783c
000002b0: 6265 893d 549f 3c3d 043f 3b3d 340c a53d
000002c0: 42fc e3bd 3c8d fbbd aa8e f9bd 9070 d8bc
000002d0: eea4 f43d 9a44 ef3d 9068 163d d0f1 9c3c
000002e0: 94e2 4bbd 00dc fbb9 2cce 8fbd ec4f 143d
000002f0: b0c1 76bc 5213 823d f436 91bd 108c 8e3d
00000300: a608 afbd f8fc 91bd 8673 ef3d fce4 6dbd
00000310: 4c9e 2dbd ec38 5ebd a854 febd fcad 6b3d
00000320: 96dc 93bd 3a15 e13d e0d3 78bd c26a ddbd
00000330: a09a 813b a02a b5bd 98d6 29bd 4058 153b
00000340: 4e4b c4bd 5867 523d 5073 563d b030 d33c
00000350: 884e cb3d 3e05 8abd c092 7fbc a8cc 803c
00000360: 108b f4bd 58af a5bc e4da a5bd 6e24 823d
00000370: 8480 e83d 2611 a3bd c0a5 623d 78d1 95bd
00000380: d2a8 9d3d 3062 0cbc 5cf6 613d 2034 773c
00000390: c44c 9e3d 78a8 7f3d 0062 3cba a87f 34bd
000003a0: b83a 44bd e0ce 333d 488c b73d 3440 5c3d
000003b0: 4887 1ebd eae0 82bd 00c6 8639 92ea 983d
000003c0: 0a54 de3d 8c7c 78bd ae2d e53d 22a6 87bd
000003d0: 16fd bcbd 3af3 973d a6fd d43d 0810 823d
000003e0: a046 86bd ce20 e4bd 8421 69bd 1ec6 e73d
000003f0: 2046 4abc 2acc b13d 3e4f be3d 80d9 bebc
0.0043186992 0.07699661 -0.0584649 -0.08871278 0.11192341 0.09009881 -0.04576993 -0.03707178
-0.100783125 -0.115913 0.045007646 0.018429875 -0.09542301 -0.002076611 -0.09212962 0.0061300546
0.111414775 -0.012431636 0.0015810877 0.009896487 -0.104279205 -0.0045651644 -0.015509278 -0.0039001554
-0.1194489 -0.111678004 0.08735201 -0.12478584 0.0046875924 -0.06307891 -0.05121343 0.10335995
-0.010491446 -0.044745103 0.022563279 -0.064934194 0.027551964 -0.08338973 0.03470689 -0.07105319
0.02629596 -0.023672536 -0.12019722 -0.015715733 0.0020242333 0.07254033 -0.04994774 0.12350243
0.017408878 0.117899954 -0.062017933 0.035047874 0.026124537 -0.0036842972 -0.045321688 0.012839869
-0.095608786 0.022550792 0.044122264 -0.028878748 0.09841168 -0.12152147 -0.07507895 -0.08842982
0.043418705 0.028146088 0.024258867 0.05470732 0.05473849 0.114191175 -0.044289082 -0.091700375
0.053541854 -0.05110781 -0.12249151 0.064490736 -0.04763761 -0.10021457 0.093880415 0.030857489
-0.047221243 -0.10544254 0.060603037 0.00877656 0.02940923 -0.04352714 0.082308486 0.051672712
-0.025909543 -0.015990213 -0.0039574653 -0.07149263 -0.049559414 0.024044707 0.091329426 -0.02548407
-0.018913224 -0.1201321 -0.03627862 0.052715704 0.007460624 0.07127923 -0.061407357 0.07355167
-0.037290603 0.051550686 0.052073017 0.121132866 0.04873541 -0.09039931 -0.059878632 -0.104373336
-0.042151213 0.07798937 -0.07094927 -0.10889001 0.10039298 -0.056374595 -0.09058301 -0.063113526
-0.047509447 -0.060262576 -0.11743893 0.09832968 -0.072046936 0.04580401 0.11341189 0.03750515
-0.057306603 -0.07476705 0.11922659 -0.116477355 0.0962982 -0.009492189 -0.07539074 -0.07717027
-0.018521681 0.07147057 -0.027525514 -0.09085183 -0.082361594 -0.06689906 -0.10956593 -0.037152067
0.1228926 -0.0763243 -0.108746335 0.059729323 0.04818432 0.08015706 -0.086038336 0.08050972
-0.0031595528 0.10114424 0.0964708 0.030904174 -0.12044923 -0.069584936 0.020950437 0.056406185
0.073514566 0.054376096 -0.1022436 -0.11405352 0.0325 -0.11120747 -0.028459936 -0.066876605
-0.02205801 0.060692474 0.012616277 0.015163511 0.0670879 0.046050385 0.045714393 0.08058968
-0.11132099 -0.12282798 -0.12185414 -0.026420861 0.1194552 0.116830066 0.036720812 0.019158274
-0.04977663 -0.00048038363 -0.07021746 0.036209032 -0.015060827 0.06351341 -0.070905596 0.069603086
-0.085465714 -0.07128328 0.11691956 -0.058079705 -0.04238729 -0.054253504 -0.12418491 0.05753897
-0.07219808 0.10990377 -0.060748935 -0.10811378 0.0039552003 -0.08846021 -0.04146442 0.0022788197
-0.09584676 0.051368088 0.052356064 0.025780052 0.09927088 -0.06739281 -0.015598953 0.015722588
-0.119405866 -0.020225212 -0.08098391 0.06354605 0.113526374 -0.07962255 0.055333853 -0.073153436
0.076982155 -0.008568332 0.055166587 0.015088111 0.07729486 0.062416524 -0.0007186234 -0.044067055
-0.04790756 0.043898463 0.089623034 0.053772166 -0.038703233 -0.06390555 0.00025705993 0.07466616
0.10855873 -0.060665652 0.11190353 -0.06623484 -0.0922796 0.07419439 0.10399942 0.06350714
-0.065564394 -0.111390695 -0.05691673 0.11317085 -0.012345821 0.08681519 0.09292458 -0.023297071

model.2.bias f4 [216]
00000000: 5858 03bd 0450 60bd 7abf edbd e811 a03c
00000010: c03f 583b c0d8 5bbd 9e56 b53d 8c07 9a3d
00000020: d05f 883d 80a5 fcbd f8a8 ae3c 80d7 783c
00000030: 7861 b5bd 1031 b93c 1051 b83c d075 b43d
00000040: b0e3 b93c f4f3 25bd c0f9 7abc 30ae 57bc
00000050: 38d0 d5bc 600f 30bc f893 343d c0d5 0d3c
00000060: 8804 7a3d 4006 26bc 4447 3d3d f4e7 6f3d
00000070: 9489 353d baf8 a4bd a07d 38bd 7ece 963d
00000080: f4ac 05bd f2fb bcbd 405b fc3b 4258 bfbd
00000090: 3650 f93d b493 f2bd 2ef9 febd 2008 89bc
000000a0: cebc f23d 8aac d7bd 004e 883b 289a c13c
000000b0: c87f fabd 1844 bf3d fe46 ee3d 2878 bc3c
000000c0: 7cff 28bd 303c 7f3c 746e de3d 2610 9d3d
000000d0: 9225 e53d 1c6f d83d 9c35 6b3d 685e a53d
000000e0: 4831 7b3d 8c05 653d 1ce0 2abd 60c2 2c3d
000000f0: 60de 303d 309e ca3d 1061 cebd b4a8 cfbd
00000100: 40ff c53b aacd 8a3d b004 7f3c f83d 2bbd
00000110: 8014 7cbd a2b7 a3bd 08f2 8d3c c045 3d3d
00000120: 84f2 55bd e645 a5bd 1edc ea3d e0c3 cabd
00000130: e0ad 31bc 7c3d 2c3d 561c ce3d 9835 993c
00000140: acad bf3d 5491 a43d ae0f bebd e430 81bd
00000150: e4cd 03bd c05c adbd 68c6 b5bd ccbc 85bd
00000160: ec39 febd 4095 7c3d 2c04 b8bd 0038 7b3d
00000170: c80f 26bd 9c1a e0bd 00e3 073b 00d2 46bb
00000180: d41e 4b3d 948d 923d e6a7 9bbd c0fd 943b
00000190: c078 80bc e093 173c 6cc6 3fbd 00b4 bc3d
000001a0: 24fa 213d 1458 64bd c01a 4ebb a04f bf3d
000001b0: ce6d d8bd 489c 7ebd 8a50 babd 3a88 f3bd
000001c0: 0cf5 a2bd 50a2 973d be18 ecbd e847 88bc
000001d0: 92b9 843d a073 d0bb 4050 713b 227e ecbd
000001e0: e655 89bd 08fd 25bd 00cc 6cbd 7a9e df3d
000001f0: 404f 9b3d f246 e7bd 043f 79bd 802f dfba
00000200: 1814 223d bc0e 47bd b20e d53d 50f7 07bd
00000210: a051 f43c 309e 32bd 0007 dc3b 1490 643d
00000220: 606c d33c 50ef 723c c037 5d3b 748f 75bd
00000230: 402b 393b 9a1a 973d ae6a e33d 3c47 c63d
00000240: d85f a13c 7ca5 0fbd b2bf 913d b82a 713d
00000250: 16a7 83bd 0cc2 30bd 383d 7d3d 8896 e43d
00000260: 589f 96bd 3e90 f4bd 8ace d1bd 00bd c93a
00000270: f6b5 a2bd 9a0d e6bd 763c a8bd c0a7 b7bb
00000280: 34d6 f4bd 9856 743d 4027 11bb a08d 833b
00000290: 126a dabd f229 cc3d b49f c3bd b81f d9bd
000002a0: 10c1 b83c b083 18bc b02d 703c 4811 aebd
000002b0: e043 e0bb 30e0 453c ae33 f6bd 107d 683d
000002c0: 4413 30bd f8e2 4e3d 3821 643d 0ec0 e6bd
000002d0: 5c6d 483d aa1c 8f3d 6efd e93d 8076 903d
000002e0: ec73 d2bd 605f 59bd 1495 8a3d 602d a53c
000002f0: d02a 883c 2a1e c2bd 90da 5cbc 5ebe d3bd
00000300: 18c5 483d 70a5 0fbc 0e2f a3bd d0c1 cebc
00000310: b222 f93d 7694 bebd 5c5f 523d c078 e43c
00000320: d658 b8bd b80a ffbd 0048 3ebb a0e5 2a3c
00000330: f0bd cdbc 4071 e63d ba03 993d fc93 993d
00000340: 78d3 ea3c c089 15bb 4017 be3c c0f7 96bd
00000350: f89a aa3c 9055 44bc e8c6 5fbd 864d bf3d
-0.032066673 -0.05476381 -0.11608787 0.019539788 0.0032996982 -0.053673506 0.088544115 0.07520971
0.066589 -0.12336254 0.021320805 0.015188098 -0.08856481 0.022606403 0.022499591 0.088115335
0.022691578 -0.040515855 -0.015318334 -0.013164088 -0.026100263 -0.010745853 0.044086426 0.008656919
0.061039478 -0.010133326 0.046210542 0.058570817 0.044320658 -0.08055253 -0.04504168 0.07363604
-0.032635644 -0.09227742 0.0077013075 -0.09343006 0.12173502 -0.118445784 -0.12449871 -0.016727507
0.11852418 -0.10530956 0.004159689 0.023633078 -0.122314036 0.0933916 0.116346344 0.023006514
-0.041259274 0.015578315 0.10860911 0.07669096 0.111888066 0.105680674 0.057424173 0.08074647
0.061326295 0.055913493 -0.041717634 0.042177558 0.043180823 0.09893453 -0.10077107 -0.101395994
0.006042391 0.067775086 0.015565082 -0.041807145 -0.061542988 -0.079940096 0.017327324 0.046209097
-0.052233234 -0.08069973 0.11467765 -0.099006414 -0.010844678 0.042050824 0.100639984 0.018702313
0.09359297 0.08035532 -0.092803344 -0.06308153 -0.032178774 -0.08464956 -0.088757336 -0.06530151
-0.124133915 0.061665773 -0.08985171 0.061332703 -0.040542394 -0.10942575 0.0020734668 -0.0030337572
0.049589947 0.0715591 -0.076003835 0.004546851 -0.015682578 0.009251565 -0.04682009 0.0921402
0.039545193 -0.05574806 -0.003144905 0.09341359 -0.105678186 -0.06216076 -0.09097393 -0.118912175
-0.07956895 0.074040055 -0.11528157 -0.01663585 0.06480707 -0.00636144 0.0036821514 -0.115474954
-0.06705837 -0.040524513 -0.057811737 0.10918899 0.07583475 -0.112928286 -0.060851112 -0.0017027706
0.039569944 -0.048598036 0.104031935 -0.03319484 0.029824078 -0.04360789 0.0067147017 0.055801466
0.025808513 0.014827564 0.0033755153 -0.05995126 0.0028254539 0.07378121 0.11104332 0.09681556
0.019699022 -0.035069928 0.07116641 0.05887863 -0.064283535 -0.043153808 0.06182596 0.11161524
-0.07354611 -0.119415745 -0.10244472 0.0015391409 -0.079448625 -0.11233063 -0.08214657 -0.005604714
-0.119549185 0.059652895 -0.002214864 0.0040146858 -0.106647626 0.09968938 -0.09551945 -0.10601753
0.022552997 -0.0093087405 0.01465933 -0.0849939 -0.006844029 0.012077376 -0.12021576 0.056759894
-0.042987123 0.050509423 0.055695742 -0.112671 0.04893242 0.06987889 0.11425291 0.07053852
-0.102760166 -0.053069472 0.06766716 0.020163238 0.016621977 -0.094784096 -0.013479844 -0.10339044
0.04901609 -0.008767471 -0.07967959 -0.025238901 0.12164821 -0.093056604 0.051360473 0.02788961
-0.09001319 -0.12453216 -0.0029034615 0.010430723 -0.025114983 0.112520695 0.07471414 0.07498929
0.02866529 -0.00228177 0.023204446 -0.07371473 0.020825848 -0.01198329 -0.05463305 0.09340958
