GP_MVC_hw_3view/results/checkpoints/experiment_name/1_net_CLU.pth (torch_old, 4413 bytes, 1 tensors)

weights f4 [10, 100]
00000000: 57cd 823f 4b4d 2c3f 93f6 423f 18d6 b23e
00000010: 06a6 443f ab55 a43f ec7f 263f 63bc 053f
00000020: 98f6 d13e 7bcb 323f 014c 553e e006 d93e
00000030: 31a7 923e a784 cf3c ed0f 0d3f d2c8 3232
00000040: faf3 833c 3975 3f3f 4951 be3e 4b33 193e
00000050: 592b 8c3f 6914 aa3f 04af d93f b26f bc3e
00000060: af1b 003f e632 803c 2e42 853e 85bc 833f
00000070: 18e5 833e 2343 5e3f d65d fa3e 76b1 883f
00000080: f7ab 843e 0df9 113f ce6c 58b9 ec7e 483d
00000090: 7aba e83e 334a 823c 9722 933f eb30 473d
000000a0: 9897 453f 6d34 b23c ee0c 6a3f 9487 d42c
000000b0: 0a02 083f 0f03 583f b651 b13d 93a4 833f
000000c0: 731c 963e de06 6b3e ad93 aa3c dd45 ae3f
000000d0: 85f4 793f 04ac cb3e 9b4a 5c3f f464 7b3f
000000e0: 798a ee3e c9f8 573f b1bb 4a3f acb4 cb3c
000000f0: 0000 0000 879a 003f deca 683f e174 223f
00000100: d838 043c f7bf 583f cc37 d83d a8a0 c33f
00000110: de98 763c ea3f 3b3f c190 a33f 3967 fb3e
00000120: 3248 ea3b 2374 f53e b5e3 be3e 99e4 423f
00000130: ee3e 9b3f b7f9 393f de99 da3e 1db1 ec3e
00000140: 8ed2 9503 a267 f2b9 d45f 0080 668a 270d
00000150: 94ad db90 e5d5 913f a397 7b3f 68ff 893e
00000160: 10cb b03f 07d6 463f e677 343c 5187 443f
00000170: b77a 0d3f 487d 7f3f f496 ad3e 4aa0 b13e
00000180: d68e ea3e 112d 7d3f 5a1f db3e 5f16 703f
00000190: 92a9 4f3f 0881 3d3f 242d 7d3e 288b 523f
000001a0: 6543 7d3f 87ee 5b3f 41d5 0f3f 9e6e 2a3f
000001b0: da76 d63e ee60 353f 2ad1 4f3f eeab ca3d
000001c0: e9d7 053f 6625 b43c b48c 133f a2eb e2a6
000001d0: 7290 253b a539 863f da38 233f 105c fe3e
000001e0: 17db 693f 9d33 8b3f e29f 4d3f d785 253f
000001f0: 48a7 613f 63a3 c5b9 3638 ed3e d6b4 ac3e
00000200: 7843 6f3e cf28 3b3f 28a3 7d3f ddb0 a03f
00000210: b9d1 f63e 73f5 e03e e049 e7b6 9dec b03d
00000220: b421 863f 07e2 863c 9736 0f3f e034 283f
00000230: e7b5 d53e 1c83 9e3c 07d6 f53e d2a3 9ab6
00000240: 1fc7 903f 74de 223f d081 183e 964d b43e
00000250: dfcb d43e eefe 773e 5a58 553b 709c ba3f
00000260: 2ffe 6a3f 5326 ac3e 0609 8f3f 459a 243f
00000270: a537 933f d30b 203f ed05 4d3f 9204 f73d
00000280: 0000 0000 701c be3f 9940 963f d689 023f
00000290: 300e 8fbb 18bc f63e af82 0b3e 7fc8 de3f
000002a0: d418 163f 60dc 883f 808c 4c3f 0bc3 a63e
000002b0: c98d d23c f152 6a3f c20c 963f 0947 123f
000002c0: eae6 223f dcf7 a83f d171 483f 0a97 743f
000002d0: 0d00 0000 a6e6 9488 e364 14b2 65a3 af15
000002e0: 6cfe 273a ee7d ee3e 6f62 213f 89db ae3f
000002f0: e66f 223f 6962 203f 30e7 b43c b1fa 233f
00000300: 42a3 3b3f e6fc 803f 54d9 403f 562b 3f3f
00000310: 04f4 683f 984b 563f 084e 6f3f 0175 193f
00000320: f956 f03f b25e 3f3f 89f2 bd3d a674 373f
00000330: 13a7 9b3e fe0a bf3f 4490 783f a9a8 cf3e
00000340: ae2d 763e 5150 093f 653a 06bb c02d 1c3f
00000350: 0381 0d3f dd66 bf3c 7051 203f ff5b 17b7
00000360: 1617 0e3c dc8b c43f f292 c93e 735f de3d
00000370: 3645 233f 72f3 0b3f 4a1a f53f e9a5 bb3e
00000380: b802 3c3e b2e6 d43c 110d 883e c6e0 853f
00000390: 621e 873e 3250 983f 5679 083f 598b a63f
000003a0: d141 323f 9f26 4e3f 93ae 6fb8 be7b 273f
000003b0: 859f f53e b8e2 823c 4a48 6a3f d86a 153d
000003c0: 670a 973f 71e7 b83c 5b82 5e3f 0484 2bb0
000003d0: c4cb 0e3f 201e 213f f56a 3ebc 8fc8 663f
000003e0: 9350 8e3f 6a50 233e 5da2 c73c 27d8 a93f
000003f0: a05e 003f 1ea7 6e3f ab0a 603f ab19 d13f
1.0218915 0.6730544 0.7615749 0.34928966 0.7681583 1.2838644 0.65038943 0.5224058
0.4100845 0.69841737 0.20829774 0.42388058 0.28643182 0.025331808 0.55102426 1.0406625e-08
0.016107548 0.7478824 0.3717139 0.14960973 1.0950729 1.3287479 1.7006536 0.36803967
0.5004224 0.01564927 0.26027054 1.0291907 0.25760722 0.8682119 0.48899716 1.0679157
0.2591245 0.57020646 -0.00020639898 0.048949167 0.4545477 0.015904522 1.1494931 0.048630636
0.7718444 0.021753514 0.9142598 6.0404546e-12 0.5312811 0.8437967 0.08658163 1.0284599
0.2931858 0.22951838 0.02082237 1.361507 0.9763873 0.39779675 0.8605134 0.9820092
0.4659002 0.8436399 0.79192644 0.024866425 0.0 0.5023579 0.9093455 0.63459593
0.008070193 0.84667915 0.105575174 1.5283403 0.015051095 0.731444 1.277855 0.4910219
0.0071497196 0.47940168 0.37283102 0.7613006 1.212858 0.7264666 0.42695516 0.46228877
8.805774e-37 -0.0004623505 -3.4377e-41 5.162744e-31 -8.664771e-29 1.13934 0.98278254 0.26952672
1.381197 0.7767033 0.011014914 0.76768976 0.55265373 0.9980054 0.3390423 0.34692603
0.458121 0.9889689 0.42797357 0.93784136 0.8111812 0.7402501 0.24724251 0.82243586
0.9893096 0.8591084 0.56184775 0.6657504 0.41887552 0.7085103 0.81178534 0.09896074
0.5228258 0.02199049 0.5763657 -1.5745769e-15 0.0025263098 1.0486342 0.63758624 0.49679613
0.9134993 1.0875126 0.80322087 0.6465735 0.88145876 -0.000376965 0.46331948 0.33731717
0.23365581 0.73109144 0.9907708 1.2553974 0.4820688 0.43937263 -6.8929367e-06 0.086388804
1.0479035 0.0164652 0.5594267 0.6570568 0.41740343 0.019349627 0.48014852 -4.608629e-06
1.1310767 0.63620687 0.1489327 0.35215443 0.4156179 0.24218342 0.0032553882 1.4578991
0.91794103 0.3362299 1.1174629 0.64297897 1.1501356 0.6251804 0.8008717 0.120614186
0.0 1.4852428 1.1738464 0.5099157 -0.004365705 0.4819038 0.1362407 1.7404937
0.58631635 1.0692253 0.79901886 0.3257068 0.025702374 0.9153281 1.1722643 0.5713964
0.63633597 1.3200641 0.7829867 0.9554297 1.8e-44 -8.961651e-34 -8.637673e-09 7.093973e-26
0.0006408456 0.46580452 0.6304082 1.3660747 0.63451993 0.6265016 0.022082895 0.640544
0.73295987 1.0077178 0.75331616 0.746755 0.9099734 0.83709097 0.9347844 0.5994416
1.8776542 0.7475387 0.092747755 0.71662366 0.30400905 1.492523 0.9709513 0.40558365
0.24040863 0.5363818 -0.0020481583 0.6100731 0.5527498 0.023364479 0.62624264 -9.021721e-06
0.008672496 1.5355182 0.39369923 0.10858049 0.6377748 0.54668343 1.9148648 0.36650017
0.18360412 0.02598891 0.2657247 1.045922 0.26390368 1.1899474 0.53310144 1.3011276
0.6963168 0.8052768 -5.7144625e-05 0.6542319 0.47973266 0.015977249 0.91516554 0.036478847
1.180005 0.022571297 0.86917657 -6.2397043e-10 0.5577967 0.6293659 -0.01162218 0.9014978
1.1118339 0.15948644 0.024369413 1.326909 0.50144386 0.9322375 0.8751628 1.6335958
