GP_MVC_hw_3view/results/checkpoints/experiment_name/22_net_AE.pth (torch_old, 935829 bytes, 17 tensors)

layer1_1.weight f4 [200, 216]
0.0069325953 -0.04920762 -0.04615479 0.032561176 0.015575078 -0.004028869 0.0077309175 0.04852174
-0.062656574 -0.042218372 -0.04664731 -0.045607485 0.0046063955 -0.024344195 -0.04579075 -0.015824778
-0.017592944 -0.04998739 -0.052675165 0.05146287 0.03910193 0.05825777 -0.014097807 0.009219253
-0.014288867 -0.0442154 0.035583016 -0.02490277 0.005025981 0.0019873339 0.013183808 -0.01692867
0.039950944 0.03766945 0.0022436539 0.04095805 -0.0099865645 0.05889835 -0.056380887 -0.05049578
0.055771075 0.039009072 0.06324659 -0.065231904 0.040791295 -0.04879256 0.0036881396 0.06159805
-0.05889639 -0.013341894 -0.011430399 -0.03544112 0.051025573 -0.036770966 -0.02223629 -0.00030004402
-0.01021126 -0.009753618 -0.015471697 0.039022665 0.04851552 0.03543876 -0.040787984 -0.0028504506
0.023538915 -0.051830664 0.066574864 0.04687183 0.014702194 0.043275904 -0.049882784 -0.047725875
-0.04301866 0.014079391 -0.06480156 -0.051122885 -0.069436155 0.049654346 -0.03803079 0.021066584
0.03041377 -0.03009698 0.058221385 -0.06325954 0.018345175 0.06700827 -0.024859274 -0.042148404
-0.046652377 -0.02881475 -0.030321835 -0.047162447 -0.04269958 -0.0041193967 0.003570446 0.011980081
0.04139439 0.059886176 -0.035404854 -0.0011615698 -0.056481402 0.026251929 0.048545815 -0.048350245
-0.041825753 -0.030062646 -0.02555936 0.03430069 0.026180767 0.06378016 0.038372744 -0.0024897486
-0.04172035 0.026813535 0.003589102 0.06910808 -0.025011608 0.004566215 0.042301167 0.06760868
0.015018654 -0.056992516 0.039470144 -0.057826206 -0.034075838 0.050216045 0.029576402 0.013738039
-0.007735457 0.046043895 0.007929348 0.06593451 -0.05343769 -0.0068634576 0.04434617 0.024380768
0.014259261 0.0038071051 -0.049643155 -0.016007975 0.04051935 0.037957083 -0.044622246 0.022246342
0.012283583 -0.04922734 -0.008903335 -0.018316248 0.039482 0.022710104 -0.059115417 -0.03576777
0.023055684 0.053816836 0.037595186 -0.046067633 0.030249283 -0.024409246 -0.06478526 -0.049634285
0.05542915 -0.029601386 -0.05510997 0.039432086 -0.030990325 0.00083541713 0.06395444 0.050926935
-0.05538042 -0.026817845 0.06045065 -0.062961996 -0.016189303 -0.03539065 -0.04624206 0.019748012
-0.04896421 0.0037493408 0.011945194 0.006103715 0.058839157 0.058870636 0.00060687016 0.04997285
0.046686977 -0.04908448 -0.049624775 0.019670436 0.00645281 -0.03940015 -0.007172921 -0.037708145
0.05879525 -0.035284612 -0.042751648 -0.02326604 0.009796484 -0.048180487 0.035533924 0.00320528
-0.023857938 0.015746463 0.022195857 0.024425216 -0.010267656 0.038026385 0.053560928 -0.037529893
0.05773642 -0.010785748 0.06183659 0.06588384 -0.029224362 0.029688282 0.01643915 0.00720064
-0.0032494068 -0.03823691 -0.020083804 0.013908908 -0.06334013 0.046075515 0.01862055 0.044499345
0.052481517 -0.014111366 -0.017950308 -0.018934753 -0.06531948 -0.009941384 0.03239291 0.05181452
-0.014682353 0.04630842 -0.059717495 0.058960035 0.0117562115 0.061926663 -0.026669316 0.053282678
0.023926206 -0.058336698 -0.015490551 0.059033662 -0.05001761 0.025240846 -0.014991786 0.03720648
-0.062114887 -0.0013559982 0.024273463 -0.011721421 -0.042843904 0.03342507 -0.04751943 0.052563794
00000000: d32a e33b ee8d 49bd ce0c 3dbd de5e 053d
00000010: 9d2e 7f3c 9a04 84bb a353 fd3b bbbe 463d
00000020: 1752 80bd 2ced 2cbd 4011 3fbd eace 3abd
00000030: 3ff1 963b 7a6d c7bc 158f 3bbd f7a2 81bc
00000040: 141f 90bc 94bf 4cbd eac1 57bd bbca 523d
00000050: 5829 203d b39f 6e3d 7dfa 66bc 5a0c 173c
00000060: da1b 6abc 351b 35bd 7fbf 113d e500 ccbc
00000070: fcb0 a43b ee3d 023b e600 583c ffad 8abc
00000080: 9aa3 233d 484b 1a3d 440a 133b a1c3 273d
00000090: b09e 23bc 653f 713d a5ef 66bd aad4 4ebd
000000a0: 3670 643d fac7 1f3d 6e87 813d 4e98 85bd
000000b0: c614 273d b5da 47bd b7b4 713b 3d4e 7c3d
000000c0: 573d 71bd f697 5abc 9146 3bbc b52a 11bd
000000d0: 3100 513d 279d 16bd e128 b6bc 3a4f 9db9
000000e0: 214d 27bc a4cd 1fbc 007d 7dbc 3bd6 1f3d
000000f0: 36b8 463d 3c28 113d 4d11 27bd a0ce 3abb
00000100: afd4 c03c 644c 54bd 6758 883d adfc 3f3d
00000110: 79e1 703c 1342 313d e451 4cbd 357c 43bd
00000120: 5634 30bd 3fad 663c aeb6 84bd 3b66 51bd
00000130: 8b34 8ebd 5b62 4b3d 2cc6 1bbd d493 ac3c
00000140: 4c26 f93c f18d f6bc 8c79 6e3d 388e 81bd
00000150: 9f48 963c a23b 893d ada5 cbbc cea3 2cbd
00000160: 9016 3fbd e90c ecbc 7f65 f8bc 692d 41bd
00000170: c1e5 2ebd 01fc 86bb 25fe 693b 1a48 443c
00000180: 2a8d 293d 354b 753d ae04 11bd d13f 98ba
00000190: 0b59 67bd 490e d73c fad7 463d e80a 46bd
000001a0: 7b51 2bbd f045 f6bc dd61 d1bc e17e 0c3d
000001b0: 0c79 d63c 2c9f 823d bd2c 1d3d 0d2b 23bb
000001c0: f5e2 2abd 0fa8 db3c 2437 6b3b 8988 8d3d
000001d0: 25e5 ccbc 30a0 953b fd43 2d3d 6b76 8a3d
000001e0: cd10 763c fc70 69bd 72ab 213d 2cdb 6cbd
000001f0: 1b93 0bbd 57af 4d3d 364a f23c 8315 613c
00000200: b779 fdbb 8698 3c3d 19ea 013c ac08 873d
00000210: 7be1 5abd dbe6 e0bb 54a4 353d 2dba c73c
00000220: ad9f 693c a080 793b 9f56 4bbd 2823 83bc
00000230: 9ef7 253d e378 1b3d d1c5 36bd f63d b63c
00000240: 1541 493c 9ba2 49bd 4bdf 11bc f50b 96bc
00000250: e1b7 213d 8a0a ba3c 0223 72bd 3a81 12bd
00000260: 46df bc3c 0b6f 5c3d 69fd 193d 6ab1 3cbd
00000270: 58cd f73c e6f5 c7bc 22ae 84bd 524d 4bbd
00000280: ad09 633d 9b7e f2bc feba 61bd 8a83 213d
00000290: 6cdf fdbc e5ff 5a3a 8cfa 823d c398 503d
000002a0: 94d6 62bd 19b1 dbbc 1a9b 773d 38f2 80bd
000002b0: 6e9f 84bc c9f5 10bd 5068 3dbd 95c6 a13c
000002c0: b28e 48bd 80b7 753b c6b5 433c ac01 c83b
000002d0: 5401 713d 5622 713d 5e16 1f3a 55b0 4c3d
000002e0: d83a 3f3d cf0c 49bd 5943 4bbd e523 a13c
000002f0: 1872 d33b 0d62 21bd d30a ebbb db73 1abd
00000300: 4ad3 703d 9986 10bd 5a1c 2fbd 6c98 bebc
00000310: 6f81 203c e758 45bd 058c 113d ad0f 523b
00000320: b971 c3bc bafe 803c 16d4 b53c 6417 c83c
00000330: ac39 28bc 8ec1 1b3d b462 5b3d f2b8 19bd
00000340: 067d 6c3d b5b6 30bc 5d48 7d3d 1bee 863d
00000350: ee67 efbc d734 f33c 65ab 863c 59f3 eb3b
00000360: 00f4 54bb 4e9e 1cbd ca86 a4bc 30e2 633c
00000370: 78b8 81bd aeb9 3c3d 208a 983c f244 363d
00000380: dcf6 563d 5c33 67bc 860c 93bc 0e1d 9bbc
00000390: 38c6 85bd 30e1 22bc 6eae 043d 763b 543d
000003a0: 408e 70bc e6ad 3d3d 559a 74bd 1480 713d
000003b0: 209d 403c d0a6 7d3d 9c79 dabc f03e 5a3d
000003c0: e400 c43c 76f2 6ebd 14cc 7dbc 48cd 713d
000003d0: 44df 4cbd e4c5 ce3c 1ca0 75bc d265 183d
000003e0: 2e6c 7ebd c0bb b1ba 24d9 c63c 340b 40bc
000003f0: 177d 2fbd bae8 083d bca3 42bd 224d 573d

layer1_2.weight f4 [200, 76]
-0.028271249 0.14513029 -0.025587955 0.0230055 -0.026858114 -0.14583085 -0.13419487 -0.08636868
-0.22430041 -0.09951989 -0.0045731054 -0.11958585 -0.10122732 -0.12996848 -0.08543401 0.028484551
-0.081617415 0.051155142 0.12564167 -0.048228085 -0.06573196 -0.014398735 -0.09692942 0.011319796
0.05017428 -0.10297395 -0.09402137 0.065344326 -0.029056959 0.04703219 -0.060491167 0.10013353
-0.08647411 0.11750246 0.009402564 0.0230304 -0.025459208 -0.09558994 0.0006798923 -0.022811629
0.059200883 -0.048952084 -0.006887418 0.05149352 0.030425316 0.06845842 -0.030554358 -0.034932584
-0.0031099324 -0.092937574 0.060664628 -0.03367373 0.036291208 -0.09758099 -0.02739426 0.010171332
-0.082277544 -0.09473589 -0.008209076 0.08298074 -0.088547215 0.070123814 0.055969503 -0.036346544
-0.08470416 -0.036050204 -0.011059467 -0.045706104 0.07615471 0.06594271 -0.008187651 -0.084539205
-0.07063613 0.10234222 0.053240094 0.029601978 -0.16378918 -0.0077163787 -0.056546785 0.05194072
0.16394064 -0.16847701 0.02797943 -0.13512033 0.19801243 0.08434004 -0.016138727 -0.14127342
-0.078317404 0.090014376 0.06856606 -0.09868051 0.046314158 -0.10791264 -0.03448347 0.004892142
0.09140886 -0.10989814 0.010916703 0.047356334 0.12024907 0.025765914 -0.092885815 0.01202509
0.086417206 0.01619471 -0.0020568897 0.029103179 0.10860678 -0.0005150104 -0.10118634 0.058206614
-0.015406424 -0.035068836 -0.09102512 0.11006457 -0.049015813 0.0027920483 -0.092092976 -0.07412325
0.0020934301 0.049731575 -0.008613773 0.07866977 0.0462846 -0.1282875 0.032393444 0.07555712
0.07850238 0.033294328 -0.10942358 -0.08316325 0.048113592 0.04665622 0.011791816 -0.031089442
0.012308126 -0.13659063 0.019325553 0.13952856 -0.024487456 -0.0040642433 -0.0588131 -0.023561062
-0.045464724 -0.062617175 -0.054710265 0.017713418 -0.06534928 0.19580644 -0.062256895 0.24214421
-0.069736466 0.026689986 -0.1243299 -0.18418321 0.2027712 -0.04413468 -0.004397865 -0.10555574
0.011654983 -0.015953097 0.024164611 0.06448208 -0.0038547143 0.1520045 0.07224014 -0.007578021
0.12591691 0.07599671 -0.034804985 -0.07026465 0.08504082 0.048713252 0.060634267 -0.04135704
0.03773935 0.08394976 0.059803132 -0.026438724 0.057868846 -0.09206575 -0.093459606 -0.07736094
0.07178276 0.07355607 0.07567601 0.05862337 0.09145178 0.06977959 0.0013302191 0.0943741
-0.04306579 0.10983006 -0.031153193 0.06203073 -0.098744236 -0.068906344 -0.007822947 0.08409592
-0.060421262 0.06410794 0.03129458 0.030177495 0.034270685 -0.05086618 -0.073350616 0.0055944375
0.06286172 0.037779782 -0.051572025 -0.09174793 0.040904183 -0.11974656 -0.017923826 0.050470397
-0.14306127 0.15376975 0.05425748 0.032592483 -0.1491484 0.10925081 -0.08767941 0.13960057
-0.07472841 0.06282276 0.015347318 0.101071075 0.034720093 -0.018600523 -0.06987133 0.09167418
-0.024268152 -0.028185211 0.08507674 0.08174008 0.01085455 0.10816053 -0.0088756485 0.075001374
-0.06598154 -0.086107805 0.11102409 0.007469712 0.10944166 0.06880719 -0.035868756 0.02982227
-0.031377554 0.10371001 0.089829646 -0.031338595 -0.08533287 0.0054949205 -0.055941746 -0.08637053
00000000: 1b99 e7bc 099d 143e d59d d1bc 0876 bc3c
00000010: 8c05 dcbc af54 15be 616a 09be 10e2 b0bd
00000020: 02af 65be 16d1 cbbd fdd9 95bb 6de9 f4bd
00000030: 4550 cfbd 7516 05be 07f8 aebd 6f58 e93c
00000040: 0827 a7bd 0e88 513d 36a8 003e d08a 45bd
00000050: 7a9e 86bd ace8 6bbc ef82 c6bd aa76 393c
00000060: 8c83 4d3d 02e4 d2bd 478e c0bd 3fd3 853d
00000070: dc08 eebc d3a4 403d 96c5 77bd cf12 cd3d
00000080: 5719 b1bd 21a5 f03d 360d 1a3c 40aa bc3c
00000090: d48f d0bc a9c4 c3bd cd3a 323a 74df babc
000000a0: a07c 723d fb81 48bd daaf e1bb dfea 523d
000000b0: 833e f93c ee33 8c3d 224d fabc 7815 0fbd
000000c0: 02d0 4bbb 0e56 bebd 797b 783d 77ed 09bd
000000d0: 17a6 143d 8bd8 c7bd ed69 e0bc a9a5 263c
000000e0: 2181 a8bd e404 c2bd 5c7f 06bc cef1 a93d
000000f0: 3e58 b5bd 139d 8f3d 4740 653d 1de0 14bd
00000100: 6079 adbd 61a9 13bd c432 35bc 5336 3bbd
00000110: 00f7 9b3d f90c 873d 7f25 06bc e422 adbd
00000120: ada9 90bd cc98 d13d 4912 5a3d d97f f23c
00000130: 5ab8 27be add9 fcbb 9a9d 67bd cbbf 543d
00000140: 0ee0 273e 3d85 2cbe 1e35 e53c fc5c 0abe
00000150: c5c3 4a3e 79ba ac3d 5d35 84bc fba9 10be
00000160: e064 a0bd 7559 b83d 5d6c 8c3d 0219 cabd
00000170: eab3 3d3d 4d01 ddbd 8a3e 0dbd 434e a03b
00000180: 9234 bb3d 4712 e1bd f9db 323c b7f8 413d
00000190: 2545 f63d 0a13 d33c eb3a bebd e204 453c
000001a0: 81fb b03d c5aa 843c e2cc 06bb ca69 ee3c
000001b0: 3b6d de3d c301 07ba c93a cfbd 0f6a 6e3d
000001c0: 3a6b 7cbc 57a4 0fbd 616b babd 8969 e13d
000001d0: cec4 48bd ccfa 363b 3e9b bcbd eecd 97bd
000001e0: ee31 093b 56b3 4b3d c820 0dbc 9e1d a13d
000001f0: ec94 3d3d cc5d 03be fdae 043d b1bd 9a3d
00000200: dbc5 a03d a25f 083d 7819 e0bd 7e51 aabd
00000210: c212 453d 981a 3f3d 7632 413c 49af febc
00000220: 06a8 493c 6ade 0bbe 9f50 9e3c 93e0 0e3e
00000230: eb99 c8bc 582d 85bb 01e6 70bd 2103 c1bc
00000240: 3839 3abd 6f3d 80bd df17 60bd bb1b 913c
00000250: d8d5 85bd 7c81 483e 1601 7fbd a7f4 773e
00000260: fed1 8ebd f5a4 da3c ada0 febd 869a 3cbe
00000270: 41a3 4f3e 91c6 34bd f71b 90bb 9c2d d8bd
00000280: 8bf4 3e3c 12b0 82bc ddf4 c53c 2e0f 843d
00000290: 609f 7cbb 11a7 1b3e a3f2 933d 0c51 f8bb
000002a0: 5df0 003e 2aa4 9b3d ac8f 0ebd eae6 8fbd
000002b0: e229 ae3d 8c87 473d a35b 783d 0066 29bd
000002c0: 9494 1a3d daed ab3d 21f4 743d 0696 d8bc
000002d0: e207 6d3d f88c bcbd c067 bfbd 6a6f 9ebd
000002e0: d702 933d 91a4 963d 06fc 9a3d 0f1f 703d
000002f0: 124b bb3d 9ae8 8e3d bf5a ae3a 3547 c13d
00000300: c165 30bd 95ee e03d fb34 ffbc ef13 7e3d
00000310: 6b3a cabd c51e 8dbd d12b 00bc 7b3a ac3d
00000320: 497c 77bd 064b 833d bf2e 003d cb36 f73c
00000330: 6b5f 0c3d 0e59 50bd d938 96bd 8b51 b73b
00000340: a5bd 803d f9be 1a3d 303d 53bd 57e6 bbbd
00000350: 258b 273d af3d f5bd fdd4 92bc 0cba 4e3d
00000360: a77e 12be d175 1d3e 173d 5e3d b27f 053d
00000370: 5cba 18be e4be df3d 4391 b3bd 74f3 0e3e
00000380: 350b 99bd 38a9 803d 5173 7b3c 5afe ce3d
00000390: a836 0e3d 2060 98bc b318 8fbd acbf bb3d
000003a0: 01ce c6bc ace4 e6bc b73c ae3d 5867 a73d
000003b0: 48d7 313c 4583 dd3d 2b6b 11bc 529a 993d
000003c0: 5421 87bd 4a59 b0bd 9960 e33d 7cc4 f43b
000003d0: f322 e03d c9ea 8c3d 1eeb 12bd d54d f43c
000003e0: c085 00bd ea65 d43d 9bf8 b73d e65c 00bd
000003f0: 00c3 aebd bc0e b43b 2c23 65bd 08e3 b0bd

layer1_3.weight f4 [200, 64]
-0.12031145 0.31600192 0.12423574 -0.0066622146 0.10587203 -0.0360805 -0.14754185 0.07375724
0.07195096 -0.1284491 -0.13263239 -0.012076139 -0.12870443 -0.07430122 0.1596499 -0.013223495
-0.0985448 -0.02449087 0.027665513 0.10723014 -0.12688093 -0.04636744 0.027305411 0.088291034
0.14314316 0.10305058 0.07697509 -0.13265945 0.046101246 -0.039741255 -0.053143065 0.10019624
0.06652376 -0.026456475 0.080035664 -0.062110905 0.123247705 -0.06766685 0.1822208 0.115888864
0.09613995 0.1379373 0.005465717 -0.10307208 -0.124638386 -0.023139121 0.11581772 0.044673268
0.02533178 0.034838516 -0.02921152 0.0012861528 -0.10588606 0.040396 -0.03106952 0.04170983
-0.015811978 -0.030771801 -0.024549028 0.00728576 -0.01824775 -0.10751916 -0.09573577 0.07450004
-0.02887677 0.07421786 -0.017719125 0.09860017 0.1080577 0.0008681796 -0.20770292 0.09574123
0.049730446 -0.119974665 -0.170464 0.09849448 -0.030593451 0.121233314 0.09153839 -0.06477884
0.053655647 -0.1483962 0.06191508 0.13838427 0.09780698 0.12816982 -0.04510254 0.17632312
-0.033275086 0.044321768 -0.112703495 0.04709183 0.15664129 -0.061544 0.03228597 -0.0928005
0.00078823866 -0.039589968 0.09059057 0.06802741 0.11305481 0.024714153 -0.019739904 0.06083506
-0.014244241 0.044522166 -0.0535043 -0.025447737 0.17307319 0.04497898 0.03087678 -0.07021603
0.035435785 0.015797269 -0.0073516793 -0.0005519775 0.0071772495 0.019614896 -0.08965549 0.039825592
-0.069963865 0.172905 0.10090458 -0.1288937 0.10450921 0.059653092 0.08993294 -0.12676431
-0.20491427 -0.1908755 0.15787484 -0.24909088 0.053989314 0.07557318 -0.17825192 -0.059643995
0.0106992 -0.14690706 0.043057594 -0.064028576 0.18104482 -0.20841973 0.17693467 0.11200704
0.19261181 0.020137079 -0.015441647 0.15278259 -0.018744688 0.072744 0.18862508 0.108507305
-0.0035384665 -0.12808399 -0.08034379 0.08561521 -0.08732874 0.09043943 0.08676778 0.11026177
-0.115964815 0.015141213 -0.009813712 -0.068687975 0.15707268 0.019020768 -0.024213951 -0.0077766743
-0.025309201 0.012763895 0.10853689 0.097796395 0.119403996 0.033048257 0.03724712 -0.06802749
0.088352084 0.11809349 0.035195053 0.06619774 -0.14145818 -0.01439863 -0.07953632 0.1468971
-0.031022787 -0.07243985 0.056086503 0.008784795 -0.07282365 -0.02307607 -0.107348524 -0.0932284
0.12345994 0.07576319 -0.21325915 -0.10275435 0.144093 -0.20208754 0.2406362 0.03127811
-0.17125767 0.016383588 0.04892699 0.09156123 -0.10357388 -0.014119437 -0.082250744 0.06772542
0.08126328 0.0145184565 0.04830656 -0.09357205 0.1385984 0.10708167 -0.006177852 -0.13458599
0.002371598 -0.093963705 0.07904655 -0.17980939 -0.07093881 0.104954675 -0.0675999 -0.11568764
0.043258496 -0.012837723 -0.034346886 -0.036748122 0.21890232 0.114096165 0.09258012 -0.09044823
0.010599992 0.09325998 -0.011834735 -0.05125476 -0.053189803 -0.07187293 -0.038599644 -0.08613892
0.11990551 -0.032399423 0.10180391 -0.026176086 -0.0009964408 0.13121882 0.090611994 -0.016685816
-0.061325066 0.074822776 0.04780627 -0.04364307 -0.04735765 -0.05317319 0.014349901 0.099499814
00000000: d965 f6bd 01cb a13e 4f6f fe3d b54e dabb
00000010: 6fd3 d83d 25c9 13bd 3615 17be 090e 973d
00000020: 065b 933d 2988 03be c9d0 07be 00db 45bc
00000030: 18cb 03be 3d2b 98bd 437b 233e 5ca7 58bc
00000040: dbd1 c9bd 14a1 c8bc c9a2 e23c 7a9b db3d
00000050: 13ed 01be c9eb 3dbd 99af df3c eed1 b43d
00000060: 1f94 123e 2f0c d33d 1ea5 9d3d e1d7 07be
00000070: a9d4 3c3d bac7 22bd 8bac 59bd b033 cd3d
00000080: 9c3d 883d 40bb d8bc bde9 a33d 0168 7ebd
00000090: 4b69 fc3d eb94 8abd 1798 3a3e 2457 ed3d
000000a0: 06e5 c43d 703f 0d3e c219 b33b 7417 d3bd
000000b0: 6942 ffbd 418e bdbc d731 ed3d 51fb 363d
000000c0: 9884 cf3c d5b2 0e3d ff4c efbc 2094 a83a
000000d0: cada d8bd 4776 253d 8285 febc edd7 2a3d
000000e0: 1f88 81bc 2515 fcbc 0b1b c9bc 62bd ee3b
000000f0: 4e7c 95bc 0133 dcbd 1e11 c4bd 7a93 983d
00000100: fa8e ecbc 89ff 973d b327 91bc e3ee c93d
00000110: 5b4d dd3d 8c96 633a 13b0 54be fa13 c43d
00000120: 27b2 4b3d 47b5 f5bd 1d8e 2ebe 79b7 c93d
00000130: 1e9f fabc 2c49 f83d 7b78 bb3d c5aa 84bd
00000140: 06c6 5b3d 2cf5 17be ab9a 7d3d 9bb4 0d3e
00000150: 074f c83d f33e 033e 71bd 38bd 0c8e 343e
00000160: 754b 08bd be8a 353d 17d1 e6bd 5de3 403d
00000170: 9366 203e 9015 7cbd 4b3e 043d 300e bebd
00000180: cda1 4e3a 1729 22bd 8c87 b93d f451 8b3d
00000190: 4889 e73d 5675 ca3c 94b5 a1bc 2f2e 793d
000001a0: ad60 69bc e05c 363d 5327 5bbd c677 d0bc
000001b0: 193a 313e e13b 383d 4df1 fc3c 6ccd 8fbd
000001c0: 1d25 113d 4669 813c 5be6 f0bb 95b2 10ba
000001d0: 222f eb3b 6baf a03c 4c9d b7bd 2920 233d
000001e0: 3749 8fbd 020e 313e 0fa7 ce3d b6fc 03be
000001f0: ed08 d63d cd56 743d c32e b83d 81ce 01be
00000200: 0cd5 51be de74 43be f1a9 213e ae11 7fbe
00000210: e623 5d3d 1dc6 9a3d ac87 36be 434d 74bd
00000220: b34b 2f3c ce6e 16be 295d 303d 6a21 83bd
00000230: d063 393e fb6b 55be 5d2e 353e f263 e53d
00000240: 083c 453e 84f6 a43c f6fe 7cbc 0a73 1c3e
00000250: 768e 99bc cefa 943d ef26 413e 1439 de3d
00000260: 9ee5 67bb 7328 03be 498b a4bd 0757 af3d
00000270: 69d9 b2bd 4f38 b93d 4eb3 b13d ecd0 e13d
00000280: f67e edbd da12 783c b1c9 20bc 48ac 8cbd
00000290: a9d7 203e 71d1 9b3c 565c c6bc 79d3 febb
000002a0: 3e55 cfbc a81f 513c 9748 de3d 7a49 c83d
000002b0: 158a f43d 9c5d 073d 7090 183d ff51 8bbd
000002c0: f0f1 b43d 00db f13d b028 103d ae92 873d
000002d0: 6ada 10be 3be8 6bbc f0e3 a2bd 326c 163e
000002e0: 8023 febc 585b 94bd f6ba 653d 1aee 0f3c
000002f0: 9124 95bd 070a bdbc 8bd9 dbbd 88ee bebd
00000300: 91d8 fc3d bb29 9b3d 9b60 5abe df70 d2bd
00000310: 1e8d 133e 09f0 4ebe 5669 763e 7a1d 003d
00000320: 2c5e 2fbe e036 863c ab67 483d 7484 bb3d
00000330: 8b1e d4bd 3655 67bc 1473 a8bd a0b3 8a3d
00000340: 5d6d a63d d2de 6d3c 19dd 453d b4a2 bfbd
00000350: bdec 0d3e a24d db3d 946f cabb e9d0 09be
00000360: d06c 1b3b 0b70 c0bd 28e3 a13d f41f 38be
00000370: 5e48 91bd 7af2 d63d d171 8abd a4ed ecbd
00000380: d22f 313d 5055 52bc 52af 0cbd 3385 16bd
00000390: ee27 603e 40ab e93d a59a bd3d ec3c b9bd
000003a0: 97ab 2d3c 17ff be3d 7ae6 41bc 83f0 51bd
000003b0: 8ddd 59bd 1d32 93bd a91a 1ebd 9a69 b0bd
000003c0: 0591 f53d 42b5 04bd 927e d03d 3b6f d6bc
000003d0: 019b 82ba 3a5e 063e c892 b93d b1b0 88bc
000003e0: fe2f 7bbd af3c 993d 82d0 433d 13c3 32bd
000003f0: 18fa 41bd 22cc 59bd d91b 6b3c 8fc6 cb3d

layer2.weight f4 [150, 200]
0.013769068 0.068407275 -0.11458226 0.06086961 -0.030329883 0.13131808 -0.056727603 -0.023519725
0.14349754 0.13403855 0.028047288 -0.004815514 -0.056603264 0.03737613 -0.34572285 0.11853371
-0.08296 0.15325043 0.08435332 0.006760573 0.1870263 -0.0080729695 -0.055373326 0.02209707
-0.036749788 0.046244767 -0.056899033 -0.07807991 0.018276567 -0.008069947 0.13430819 -0.036868926
0.1322315 -0.05115951 0.10373755 -0.09397691 -0.08619426 -0.010914417 0.04346951 -0.07619308
0.05178985 -0.022992196 0.099025786 -0.13001613 -0.076941945 -0.04761684 -0.19863506 -0.008885951
0.11681599 -0.19630612 0.041184526 -0.0403198 0.0815431 -0.17970414 0.06603099 -0.021146817
-0.0025442 -0.16005513 0.0036419036 -0.008068464 0.032960925 0.021810878 0.06877931 0.03025563
0.05993883 -0.030636452 0.05286035 0.038822588 -0.039764605 -0.019369587 0.022563267 -0.040615164
0.0040319017 0.010390937 -0.11491656 -0.05205897 -0.0057833963 0.05334952 0.20821494 -0.025262782
0.0031646923 -0.00015340296 0.019764123 0.0138325365 0.09410853 0.065372474 -0.014874964 -0.07420519
0.046078444 0.01462546 -0.09843689 -0.084020495 0.09562297 0.02919238 0.06279045 0.0843645
-0.04463735 -0.025554778 -0.062592246 -0.044265352 0.050712597 0.045886695 -0.011002323 -0.041577775
0.10984903 -0.085987054 0.08971906 -0.117232606 -0.052584462 -0.025416117 -0.04161749 -0.050013468
0.16214667 -0.057074133 0.22153546 0.0063513815 0.028996866 0.028596401 0.1300333 0.12894166
0.0042470326 -0.028318183 -0.023904115 -0.05348472 -0.098891504 -0.02414228 0.024985839 0.042424306
0.018091915 0.08506943 0.0018602175 -0.08072386 0.107690424 0.046265986 0.07664686 -0.019581279
-0.10391352 -0.13334984 0.0054844674 0.07269233 0.025959127 0.07833389 -0.07821715 -0.022567103
0.020089924 -0.036255628 0.06538936 0.041958068 -0.04873529 0.03744701 0.092529915 -0.047071666
0.013628034 -0.006877624 -0.076297 -0.11075591 -0.11464694 0.050836023 0.0031216438 -0.03142006
0.030787997 -0.009594931 -0.11356481 -0.0035227092 0.0038648772 0.058877066 -0.08521882 0.013847783
-0.0815077 0.022988152 0.10505276 -0.06743156 -0.012363007 0.08269596 -0.00319664 0.023696182
0.03685165 0.045820836 0.04306608 -0.029851759 0.054602932 -0.022091553 0.1597428 -0.03925425
0.07518166 0.022710282 0.062148627 -0.026325207 -0.11053627 -0.02458152 0.06471753 0.048821054
-0.08661043 -0.030981675 -0.19331211 0.10980102 -0.06463596 0.02162023 -0.030001147 0.06289104
-0.08953254 -0.032985486 -0.026641704 0.07683002 -0.078639284 -0.12879273 0.11946263 0.037572347
0.10029702 -0.08304119 -0.08415265 -0.041994926 0.14621675 0.03167752 0.044292342 -0.01036244
0.010942126 0.034701813 -0.009420754 -0.096505575 -0.1384166 0.005002633 0.028502125 -0.027876386
0.033709925 0.045105886 -0.06998025 0.078400746 0.023128944 -0.037807 0.18986441 0.060116414
0.07924157 -0.041098725 0.004461945 -0.09640246 0.10499673 -0.0037645341 0.022152191 -0.024093771
0.17328468 0.033476364 0.06286319 0.014397343 0.107066326 -0.04460327 0.039693065 -0.063326515
0.12907813 -0.07603777 -0.049046963 0.07233364 0.022442065 0.053757027 0.046165828 0.104610145
00000000: a897 613c 1d19 8c3d 1baa eabd 6a52 793d
00000010: 6076 f8bc 3f78 063e 345b 68bd 70ac c0bc
00000020: 05f1 123e 6741 093e 6dc3 e53c 76cb 9dbb
00000030: d3d8 67bd b717 193d 9602 b1be cdc1 f23d
00000040: efe6 a9bd aeed 1c3e 6fc1 ac3d cc87 dd3b
00000050: d383 3f3e 7d44 04bc 24cf 62bd ea04 b53c
00000060: f286 16bd 276b 3d3d f60e 69bd 5ce8 9fbd
00000070: bdb8 953c d037 04bc 1688 093e df03 17bd
00000080: b267 073e a28c 51bd 5a74 d43d f776 c0bd
00000090: 9e86 b0bd 62d2 32bc 160d 323d 1e0b 9cbd
000000a0: 9821 543d 215a bcbc 08ce ca3d f322 05be
000000b0: bd93 9dbd e009 43bd fd66 4bbe 6196 11bc
000000c0: 393d ef3d 7904 49be 1bb1 283d 6026 25bd
000000d0: 1200 a73d 5d04 38be 413b 873d 173c adbc
000000e0: 98bc 26bb 7ee5 23be 01ad 6e3b 9731 04bc
000000f0: 0902 073d baac b23c 2bdc 8c3d a8da f73c
00000100: 6b82 753d 4cf9 fabc 1884 583d 6f04 1f3d
00000110: 36e0 22bd f8ac 9ebc 9ad6 b83c 165c 26bd
00000120: 0b1e 843b c03e 2a3c 6059 ebbd c93b 55bd
00000130: a582 bdbb 0785 5a3d 4c36 553e e5f3 cebc
00000140: ba66 4f3b cbda 20b9 5fe8 a13c dda1 623c
00000150: f9bb c03d 01e2 853d 1fb6 73bc e4f8 97bd
00000160: c0bc 3c3d a09f 6f3c 4899 c9bd f012 acbd
00000170: fad5 c33d dc24 ef3c 4898 803d 4cc7 ac3d
00000180: a7d5 36bd 4158 d1bc 5d30 80bd 964f 35bd
00000190: 03b8 4f3d b0f3 3b3d 1643 34bc 754d 2abd
000001a0: 87f8 e03d fb19 b0bd a0be b73d a617 f0bd
000001b0: ce62 57bd 7635 d0bc 1a77 2abd ecda 4cbd
000001c0: c709 263e 91c6 69bd 31da 623e 401f d03b
000001d0: d68a ed3c 0043 ea3c 7327 053e 4809 043e
000001e0: b12a 8b3b 89fb e7bc 90d2 c3bc cb12 5bbd
000001f0: a187 cabd 08c6 c5bc 1aaf cc3c 1cc5 2d3d
00000200: 7f35 943c e238 ae3d 8bd2 f33a 8d52 a5bd
00000210: cc8c dc3d 6781 3d3d 07f9 9c3d eb68 a0bc
00000220: 9dd0 d4bd dc8c 08be 0cb7 b33b b7df 943d
00000230: 3ca8 d43c 856d a03d 5030 a0bd a5de b8bc
00000240: a093 a43c c880 14bd dbea 853d 39dc 2b3d
00000250: a89e 47bd 0962 193d 5380 bd3d 38ce 40bd
00000260: 1e48 5f3c b15d e1bb 9a41 9cbd ffd3 e2bd
00000270: 04cc eabd 6f39 503d 7e94 4c3b 52b2 00bd
00000280: 1c37 fc3c 0f34 1dbc ab94 e8bd 41dd 66bb
00000290: e149 7d3b 1429 713d 3487 aebd d0e1 623c
000002a0: 82ed a6bd a651 bc3c e725 d73d 8f19 8abd
000002b0: 368e 4abc 805c a93d b87e 51bb 7f1e c23c
000002c0: c1f1 163d a1ae 3b3d 0f66 303d ad8b f4bc
000002d0: 53a7 5f3d 58f9 b4bc 9e93 233e 10c9 20bd
000002e0: d8f8 993d ea0a ba3c 8f8f 7e3d f6a7 d7bc
000002f0: d760 e2bd 2f5f c9bc a08a 843d 96f8 473d
00000300: cf60 b1bd 48cd fdbc 9cf3 45be 5bdf e03d
00000310: dc5f 84bd e91c b13c f7c4 f5bc 05cd 803d
00000320: d65c b7bd ca1b 07bd b43f dabc 0f59 9d3d
00000330: a20d a1bd 3ee2 03be d3a8 f43d 76e5 193d
00000340: 8668 cd3d 8011 aabd 3958 acbd df02 2cbd
00000350: d8b9 153e 4ac0 013d e36b 353d 39c7 29bc
00000360: 9a46 333c 7d23 0e3d 8259 1abc b7a4 c5bd
00000370: 15bd 0dbe 21ed a33b 4a7d e93c 055d e4bc
00000380: 6b13 0a3d f3c0 383d ce51 8fbd 9290 a03d
00000390: e978 bd3c 83db 1abd d16b 423e a13c 763d
000003a0: 6749 a23d 2357 28bd 8235 923b a76e c5bd
000003b0: 8708 d73d 67b6 76bb 8378 b53c 4d60 c5bc
000003c0: 8a71 313e 831e 093d 6bbe 803d d5e2 6b3c
000003d0: 9745 db3d ebb1 36bd 3295 223d 55b1 81bd
000003e0: 0f2d 043e b1b9 9bbd 78e5 48bd a923 943d
000003f0: 6cd8 b73c 5430 5c3d 6118 3d3d d83d d63d

layer2.bias f4 [150]
0.011608963 -0.009149129 0.02622469 0.087633215 -0.003422633 0.015726825 -0.07634464 0.0018729749
0.0017630962 0.10798493 0.039525654 -0.015215566 0.06125974 0.07704148 0.03247208 -0.0020288583
0.023183579 0.048228595 0.0094157625 0.01882178 -0.035870854 0.08687921 -0.051320255 0.08386793
-0.035956077 -0.035424784 -0.054643143 -0.029178627 0.04852192 0.030533187 -0.022494731 0.058917
0.09170722 -0.04121398 0.010452215 0.07666432 -0.02918071 -0.012287348 0.022253944 -0.02502346
-0.07483261 0.010832275 -0.05960962 -0.05624759 0.030098079 -0.0067831366 0.055277303 -0.04221842
0.05415364 0.00095083355 0.08321182 0.04921165 0.07660113 -0.035146218 0.122084774 -0.012074164
-0.0020134985 0.057885084 -0.05325537 -0.02700472 0.008432468 0.015803043 0.14590976 0.013127692
0.06857456 0.031195236 0.0766446 -0.024135897 -0.04101133 0.02376454 -0.04895801 0.09269886
0.10621462 -0.0030197974 -0.051821534 -0.011832542 0.016931511 0.091983385 0.04043363 -0.06550579
0.0010035831 0.07162727 0.07058613 -0.010212976 0.041635603 0.09651833 -0.039160784 0.013594873
-0.0022335076 -0.029558351 0.01704727 0.0038049654 0.0696463 0.014597972 -0.0015940949 0.0027208205
0.025156913 0.0065075466 0.06543813 -0.025090454 0.039945163 0.07055991 0.008344326 -0.046385467
-0.08047063 0.0017455489 -0.024315814 0.09852373 0.03257878 0.056996156 -0.034651507 0.08166757
0.012919685 -0.04070476 0.0109181935 -0.032029524 -0.017102169 0.04904521 0.050702404 0.04955113
0.008756818 -0.0058594206 -0.03403996 -0.023817407 -0.034734413 0.051553737 0.00021595972 -0.07782567
-0.07018898 0.0992562 -0.04879709 -0.013137606 0.038164802 -0.036729686 0.050123323 0.05349983
0.045815248 -0.011415663 0.023223063 0.060632546 0.039022323 0.0456618 -0.012689406 0.048589133
0.012633985 0.09137143 0.02719838 -0.033576936 -0.053430323 0.006821319
00000000: 8533 3e3c 3ae6 15bc 29d5 d63c 0b79 b33d
00000010: 414e 60bb 8bd5 803c 945a 9cbd 9c7e f53a
00000020: b117 e73a 3427 dd3d a7e5 213d b64a 79bc
00000030: 7eeb 7a3d ecc7 9d3d 7201 053d 98f6 04bb
00000040: 7deb bd3c 598b 453d 9244 1a3c 2230 9a3c
00000050: 51ed 12bd baed b13d 3035 52bd f3c2 ab3d
00000060: ae46 13bd 9419 11bd 7dd1 5fbd 0408 efbc
00000070: ecbe 463d bc20 fa3c df46 b8bc f452 713d
00000080: ffd0 bb3d fecf 28bd c43f 2b3c 2f02 9d3d
00000090: 620c efbc df50 49bc e74d b63c 00fe ccbc
000000a0: d741 99bd db79 313c 3829 74bd df63 66bd
000000b0: 3f90 f63c 1345 debb 746a 623d 39ed 2cbd
000000c0: 35d0 5d3d 5c41 793a f56a aa3d 2892 493d
000000d0: 0ee1 9c3d 7bf5 0fbd 9507 fa3d b7d2 45bc
000000e0: e6f4 03bb e918 6d3d 4e22 5abd 0139 ddbc
000000f0: 5628 0a3c 6275 813c 5e69 153e 8815 573c
00000100: d270 8c3d 278d ff3c d8f7 9c3d a5b8 c5bc
00000110: 7ffb 27bd daad c23c 3288 48bd e6d8 bd3d
00000120: 0d87 d93d cbe7 45bb d142 54bd 47dd 41bc
00000130: f4b3 8a3c c961 bc3d bc9d 253d e627 86bd
00000140: a98a 833a 51b1 923d 768f 903d 5354 27bc
00000150: 188a 2a3d 67ab c53d 0f67 20bd 08bd 5e3c
00000160: 0a60 12bb 5b24 f2bc b7a6 8b3c ba5c 793b
00000170: b8a2 8e3d 552c 6f3c f3f0 d0ba cb4f 323b
00000180: df15 ce3c 423d d53b 6d04 863d 7f8a cdbc
00000190: 8a9d 233d b781 903d a4b6 083c b0fe 3dbd
000001a0: c9cd a4bd e7ca e43a f531 c7bc cfc6 c93d
000001b0: 5471 053d cd74 693d bdee 0dbd 5441 a73d
000001c0: 16ad 533c 09ba 26bd 39e2 323c 6431 03bd
000001d0: d919 8cbc a1e3 483d 53ad 4f3d 20f6 4a3d
000001e0: c278 0f3c 6200 c0bb 7c6d 0bbd b91c c3bc
000001f0: ac45 0ebd 032a 533d 3f73 6239 1163 9fbd
00000200: 3dbf 8fbd d646 cb3d 75df 47bd 1d3f 57bc
00000210: b252 1c3d de71 16bd 1d4e 4d3d a322 5b3d
00000220: c5a8 3b3d c308 3bbc 4b3e be3c d559 783d
00000230: dfd5 1f3d de07 3b3d 3ae7 4fbc 6605 473d
00000240: c6fe 4e3c f220 bb3d 23cf de3c f887 09bd
00000250: c1d9 5abd 5f85 df3b

layer3.weight f4 [100, 150]
-0.0584789 0.037942965 0.018063288 0.015578102 0.16296613 0.054202635 -0.01553811 0.115037516
0.045217816 0.5279866 -0.060121752 -0.098849736 -0.03187978 -0.052700736 -0.04006467 -0.057131533
0.018412074 -0.16394122 -0.019249644 0.1395621 -0.1321354 0.11932285 -0.09382003 0.07590076
-0.012564559 0.010735626 -0.08807544 0.15950684 0.05883895 0.09436788 -0.13429649 -0.017968968
0.08694029 0.03181741 -0.06491099 0.020554494 -0.09133463 -3.6861285e-05 0.06542758 0.13568063
0.029447563 0.097337514 0.02392242 -0.071869396 -0.03373313 0.18736781 -0.030919246 0.08903087
0.07320794 -0.07521402 -0.035447046 0.057953984 -0.00032025782 0.073371455 -0.042574696 0.10520271
0.0045485464 -0.2269798 -0.0020549847 0.095622875 0.011399764 -0.010514426 0.1268613 -0.24668185
0.012627366 -0.06940689 0.1432375 -0.012274881 -0.17061032 0.00017409363 0.047636557 0.059251953
0.14241213 -0.09364089 0.023957243 0.09403839 -0.11598284 0.043322258 0.05864283 -0.041527897
0.106134504 0.036751095 0.008105451 0.014142589 0.1506184 0.070225395 0.0899672 0.01870691
-0.048282627 -0.04734762 0.0062369276 -0.0038158707 0.040662896 0.099144325 -0.06578098 -0.03315268
-0.09353645 -0.20297925 -0.072564565 -0.044093776 -0.0018345073 0.076720044 -0.057454877 0.003981692
-0.008057777 -0.024560431 -0.102813564 0.030568816 0.024877617 0.12556008 0.09545208 -0.08100371
0.06014625 -0.03318522 0.07039624 -0.122758426 -0.033962257 0.1717985 0.01440599 0.030997016
0.023476075 -0.050811045 -0.01009017 0.04185927 0.090896614 0.037184794 0.03434816 -0.040758815
0.07354995 -0.05211411 -0.10033229 -0.113229014 0.0763891 -0.06635246 -0.03803142 0.097911485
0.13839605 0.02121204 -0.0069081467 0.05521605 0.09949113 -0.08643455 -0.0655398 0.06928849
0.07986416 -0.10035174 0.006863483 -0.07491985 0.103551485 -0.081402816 0.077248275 0.023646554
-0.032280795 0.07504341 0.057018902 -0.10101172 -0.061710097 -0.035920747 0.12637317 0.4246848
0.025438374 -0.010863881 -0.007125075 0.055723723 0.0769682 0.026409527 0.07895708 0.0033130469
-0.060210884 -0.022594746 0.007478456 -0.031154068 -0.014510647 0.045960303 -0.102755256 -0.13057417
-0.038601436 -0.05545075 0.03142831 0.12647526 0.020873934 0.13229385 -0.029503949 0.11764797
0.0032444615 -0.05873624 -0.061591703 -0.118873015 0.032959692 0.109712854 -0.013208426 0.085677765
-0.009070399 -0.03455174 -0.024136964 -0.05633493 -0.031460475 0.068165235 0.008644169 -0.007791543
-0.042534042 -0.14907677 0.095610574 0.13472535 0.046282995 -0.044523507 -0.07972911 -0.015382704
-0.09180021 -0.029547347 0.088262156 0.03819599 0.08458725 -0.19969799 -0.04051785 -0.10870953
0.04801473 0.061047938 -0.07457576 0.07005289 0.036580212 0.12726644 0.014535682 0.1135249
0.040728066 0.10365934 -0.053691085 0.03808714 -0.067750745 0.1487474 0.07229744 0.06342284
-0.076258495 -0.03214844 0.06944192 -0.0692254 -0.0047001215 -0.14720121 -0.106219016 0.0011733844
0.0049910923 0.0220701 0.032740362 0.012935345 0.09887659 0.046994187 -0.1573404 -0.022761436
-0.085825816 -0.021994472 -0.061123304 0.017443968 -0.06760138 0.07783245 0.04731779 0.120359346
00000000: 9287 6fbd 156a 1b3d 76f9 933c 4c3b 7f3c
00000010: 98e0 263e 9503 5e3d 8f93 7ebc ca98 eb3d
00000020: 5136 393d 212a 073f 3a42 76bd bb71 cabd
00000030: 5f94 02bd badc 57bd da1a 24bd c102 6abd
00000040: ebd4 963c 35e0 27be 6eb1 9dbc 5ee9 0e3e
00000050: 814e 07be 8a5f f43d b724 c0bd dc71 9b3d
00000060: 94db 4dbc 7be4 2f3c e560 b4bd c355 233e
00000070: 1c01 713d f243 c13d 0585 09be a833 93bc
00000080: c00d b23d f952 023d 0ef0 84bd e661 a83c
00000090: a70d bbbd 819b 1ab8 e5fe 853d ddef 0a3e
000000a0: 043c f13c e458 c73d f3f8 c33c 4330 93bd
000000b0: c02b 0abd 59dd 3f3e 5c4a fdbc d155 b63d
000000c0: 0bee 953d cf09 9abd ec30 11bd 2861 6d3d
000000d0: 47e8 a7b9 c643 963d ce62 2ebd 8574 d73d
000000e0: f90b 953b 656d 68be ecac 06bb edd5 c33d
000000f0: 13c6 3a3c b344 2cbc eee7 013e 2b9a 7cbe
00000100: 03e3 4e3c 3325 8ebd daac 123e 951c 49bc
00000110: 79b4 2ebe e78c 3639 8d1e 433d 2db2 723d
00000120: 7cd4 113e ccc6 bfbd fb41 c43c 3397 c03d
00000130: 6988 edbd ae72 313d 7733 703d 2819 2abd
00000140: 0c5d d93d 5188 163d bacc 043c 51b6 673c
00000150: b63b 1a3e 55d2 8f3d b940 b83d 3c3f 993c
00000160: 01c4 45bd 94ef 41bd 245f cc3b b013 7abb
00000170: 238e 263d 2e0c cb3d 2eb8 86bd 1bcb 07bd
00000180: 0a90 bfbd cbd9 4fbe bb9c 94bd ad9b 34bd
00000190: da73 f0ba 661f 9d3d ce55 6bbd da78 823b
000001a0: c404 04bc f532 c9bc eb8f d2bd 746b fa3c
000001b0: 25cc cb3c d292 003e 617c c33d 46e5 a5bd
000001c0: ea5b 763d 3aed 07bd e72b 903d c568 fbbd
000001d0: 021c 0bbd f2eb 2f3e 1a07 6c3c 74ed fd3c
000001e0: e650 c03c 3e1f 50bd 3e51 25bc a074 2b3d
000001f0: 0128 ba3d 154f 183d a8b0 0c3d b7f2 26bd
00000200: 5ba1 963d 9b75 55bd 047b cdbd 9de4 e7bd
00000210: e371 9c3d cce3 87bd d6c6 1bbd d185 c83d
00000220: b2b7 0d3e dfc4 ad3c bc5d e2bb 3a2a 623d
00000230: 01c2 cb3d 9904 b1bd bb39 86bd 20e7 8d3d
00000240: d28f a33d 3785 cdbd 12e7 e03b 946f 99bd
00000250: cd12 d43d 85b6 a6bd 5834 9e3d 6bb6 c13c
00000260: de38 04bd 5cb0 993d a78c 693d 3cdf cebd
00000270: bac3 7cbd a221 13bd f867 013e 4970 d93e
00000280: 2364 d03c 6bfe 31bc 7679 e9bb 8f3e 643d
00000290: 81a1 9d3d cb58 d83c 40b4 a13d b41f 593b
000002a0: b09f 76bd 9e18 b9bc d60d f53b d136 ffbc
000002b0: 11be 6dbc df40 3c3d 5971 d2bd 3cb5 05be
000002c0: 8a1c 1ebd 5320 63bd f9ba 003d bb82 013e
000002d0: d0ff aa3c 0a78 073e 44b2 f1bc 6bf1 f03d
000002e0: 08a1 543b 6995 70bd 9547 7cbd b273 f3bd
000002f0: be00 073d 22b1 e03d 2768 58bc d377 af3d
00000300: 039c 14bc 2086 0dbd e2ba c5bc 75bf 66bd
00000310: b3dc 00bd 379a 8b3d 46a0 0d3c 3350 ffbb
00000320: 2d38 2ebd 95a7 18be 7acf c33d 71f5 093e
00000330: 3d93 3d3d 485e 36bd 0449 a3bd bd07 7cbc
00000340: c001 bcbd 470d f2bc cac2 b43d 6673 1c3d
00000350: 153c ad3d a17d 4cbe 0cf6 25bd 1aa3 debd
00000360: 18ab 443d 670d 7a3d 2dbb 98bd e477 8f3d
00000370: 22d5 153d 2252 023e 1227 6e3c be7f e83d
00000380: 79d2 263d 594b d43d 2feb 5bbd 4301 1c3d
00000390: e7c0 8abd 3d51 183e ae10 943d d5e3 813d
000003a0: 6a2d 9cbd 15ae 03bd 9137 8e3d 0cc6 8dbd
000003b0: 7a03 9abb eabb 16be 5b89 d9bd 3fcc 993a
000003c0: 518c a33b 5bcc b43c c21a 063d c5ee 533c
000003d0: cf7f ca3d fa7c 403d d81d 21be 3176 babc
000003e0: 72c5 afbd c02d b4bc 6e5c 7abd a7e6 8e3c
000003f0: 9872 8abd 9f66 9f3d 4dd0 413d f67e f63d

layer3.bias f4 [100]
0.08252666 -0.042347323 0.08511234 0.0786086 0.10074291 0.116787136 0.04103869 0.08591033
-0.07589195 0.090782315 -0.03756828 0.085533656 0.0033552554 -0.03496101 0.07938972 -0.089144364
-0.026740951 0.12909937 0.09562848 0.019370493 0.10064732 0.0052231615 0.10822822 0.09269231
0.09977942 -0.077817835 0.035756417 -0.023133693 -0.016086519 0.018154353 0.06534933 0.07456324
-0.013171466 0.08252823 -0.056582317 0.031405564 0.082488105 -0.06553818 0.0141417105 -0.010044618
0.013331042 -0.027698128 0.024884092 0.03880341 -0.027244486 0.042009085 0.021630974 0.07144652
-0.013505488 0.014574137 0.021920199 -0.00022571295 0.054168545 -0.036793455 0.052525535 0.047330044
0.08726094 0.10748213 0.11555642 0.10655578 -0.03682158 0.05777256 -0.008082494 0.08083968
0.10212247 0.067408904 0.06362883 0.09220336 -0.053074725 0.06952249 0.029836241 -0.031299002
-0.0023927211 -0.037044294 -0.034439996 0.12292045 -0.02348866 0.047106687 0.11255563 0.11282853
-0.076437734 -0.09356741 -0.052552715 0.006324537 -0.051969737 0.026582994 0.01127872 0.12246005
0.0708831 0.036519907 0.08307729 0.043707453 -0.00031511966 -0.0336718 -0.0027367799 0.082210176
-0.06450409 0.055465672 0.009574995 0.15714115
00000000: bd03 a93d 6374 2dbd 614f ae3d 8cfd a03d
00000010: 4c52 ce3d 182e ef3d 2f18 283d c1f1 af3d
00000020: 3d6d 9bbd 14ec b93d 32e1 19bd 452c af3d
00000030: d8e3 5b3b 4733 0fbd 1497 a23d 5291 b6bd
00000040: d70f dbbc a032 043e ddd8 c33d deae 9e3c
00000050: 2f20 ce3d 0e27 ab3b c2a6 dd3d 77d5 bd3d
00000060: 2759 cc3d f55e 9fbd 5275 123d df82 bdbc
00000070: e0c7 83bc 70b8 943c dfd5 853d 9db4 983d
00000080: 22cd 57bc 9004 a93d dcc2 67bd 1fa3 003d
00000090: 86ef a83d e238 86bd a2b2 673c 2e92 24bc
000000a0: 716a 5a3c 2fe7 e2bc b9d9 cb3c 53f0 1e3d
000000b0: d42f dfbc b811 2c3d 7133 b13c 8e52 923d
000000c0: 1f46 5dbc 5cc8 6e3c fd91 b33c 5cad 6cb9
000000d0: d6df 5d3d bcb4 16bd 0425 573d 26dd 413d
000000e0: ddb5 b23d 971f dc3d d8a8 ec3d eb39 da3d
000000f0: 3ad2 16bd eba2 6c3d 706c 04bc 468f a53d
00000100: 9625 d13d ae0d 8a3d d54f 823d 1dd5 bc3d
00000110: e264 59bd cf61 8e3d 226b f43c 6233 00bd
00000120: 33cf 1cbb c2bb 17bd f410 0dbd b8bd fb3d
00000130: 4a6b c0bc f1f2 403d 9183 e63d a512 e73d
00000140: 638b 9cbd 45a0 bfbd 8441 57bd 103e cf3b
00000150: 38de 54bd 94c4 d93c 61ca 383c 56cc fa3d
00000160: 292b 913d e695 153d 6d24 aa3d 9606 333d
00000170: a536 a5b9 71eb 09bd 8c5b 33bb cf5d a83d
00000180: b81a 84bd f92f 633d 71e0 1c3c 9ce9 203e

layer4.weight f4 [150, 100]
0.018558418 0.0030365547 -0.12878682 -0.113659255 0.05299879 0.066783346 0.030922467 0.0797723
-0.037132613 -0.09780089 -0.10636189 -0.014548984 0.054878812 -0.026188377 0.0374951 0.030464614
-0.030241042 0.11110321 8.897392e-06 -0.069977276 0.021023324 -0.054243334 -0.08371463 0.06586617
0.081336655 0.057007078 0.01760682 -0.13337147 -0.050901927 0.028249783 0.034802128 0.03145432
-0.04614612 -0.051205933 -0.10025343 -0.12843837 -0.14880873 -0.080500975 0.122564435 0.11300051
-0.12048024 0.045392666 0.10683617 0.04557322 -0.061381646 0.028908426 0.035537947 0.03931435
-0.02834151 -0.071377724 0.09570171 0.03723824 -0.06037246 -0.025464064 0.020793665 0.06450156
-0.093067154 0.06789471 -0.07002074 0.056323547 0.03777656 0.053997196 0.10683904 -0.01653747
0.040915072 -0.0059031574 -0.22231603 0.027036732 -0.08656064 0.013307257 -0.07485544 0.019393638
-0.05662037 -0.073064774 -0.00027457238 -0.030249007 -0.07327429 0.100387536 0.087578386 0.08949851
-0.08090824 0.03173504 -0.07855628 0.003776291 -0.0008812198 0.0047033126 0.024928875 -0.04390573
0.0677765 0.014718065 -0.094354354 0.06745217 0.08031443 -0.053720433 0.11100641 0.1553414
0.057085138 0.08564707 -0.030962579 0.08862858 0.046995163 0.058493126 -0.016914193 0.020122902
-0.019280324 0.07020659 0.07897486 -0.06468111 0.036873884 -0.10107218 0.01378563 0.09558187
-0.0139586665 -0.09744578 -0.09836311 -0.023939848 -0.045943514 -0.10107794 -0.07829118 0.09238475
-0.037172996 -0.03459117 0.051579434 0.09093416 0.07580548 0.0025855773 0.09439556 -0.09416947
-0.01887811 -0.07956408 -0.0695203 0.06001969 -0.09500053 -0.0068638553 0.07230862 -0.06316914
-0.011595298 -0.009844637 -0.074123226 0.08678117 0.023816496 -0.01699874 0.015852842 0.0066540875
0.031971812 -0.0411189 -0.036486674 0.08455499 0.024713196 0.049757823 0.050706424 -0.01905096
-0.054963667 0.051247694 0.0038018937 0.062046077 -0.09524343 0.053773187 -0.07223771 0.030577647
0.074401826 -0.0701573 -0.089470305 0.050042454 -0.05362549 -0.097670265 0.07237255 -0.013013854
0.0011571797 0.0075874506 -0.06184631 -0.08285272 -0.09628681 0.026602486 -0.010607999 -0.09985456
-0.021133265 -0.08425978 -0.05111296 -0.06927741 -0.027741455 -0.09624475 0.03314329 0.0040141162
-0.06723009 0.027722517 0.04681669 -0.08087526 -0.021929787 -0.09846375 0.054031827 -0.05442719
-0.027218314 -0.08000259 -0.010551389 -0.040962067 0.074542396 -0.054231983 0.012243848 -0.024249211
0.080134675 0.047622602 -0.12495865 -0.045243938 -0.061233234 -0.010965151 -0.14320605 0.019212738
-0.20403652 -0.003451688 -0.044404577 -0.0041443226 -0.18157081 0.1040465 -0.09096163 0.0818926
-0.045244556 0.08322539 0.085511625 0.0828248 -0.092038974 0.10362746 0.006863666 0.053560086
-0.084576994 0.18242276 0.0022772886 -0.04473337 0.0018744793 0.1172513 0.0057879407 0.098924085
-0.07169614 0.022017952 0.04158552 0.010044175 0.103546396 0.09716851 -0.028034104 0.032806028
-0.12048756 0.14714679 0.08754316 -0.04336006 0.02628117 0.1386938 0.12573761 -0.052359883
-0.03447851 -0.13265774 0.06663101 0.08603944 0.092312224 -0.0903396 0.039555132 -0.1025828
00000000: d307 983c ef00 473b b1e0 03be 2fc6 e8bd
00000010: 4215 593d b5c5 883d 1d51 fd3c a95f a33d
00000020: 5e18 18bd d54b c8bd 43d4 d9bd dd5e 6ebc
00000030: 9bc8 603d 0289 d6bc 7694 193d ed90 f93c
00000040: 10bc f7bc 148a e33d 0246 1537 3f50 8fbd
00000050: 1b39 ac3c 422e 5ebd 9372 abbd d8e4 863d
00000060: d593 a63d 4180 693d 2e3c 903c 8892 08be
00000070: 8a7e 50bd 176c e73c ad8c 0e3d 3fd6 003d
00000080: b703 3dbd 50bd 51bd ac51 cdbd 5985 03be
00000090: 5161 18be b2dd a4bd 1003 fb3d d06c e73d
000000a0: 58be f6bd a9ed 393d eccc da3d fcaa 3a3d
000000b0: 526b 7bbd 5dd1 ec3c 3d90 113d 1508 213d
000000c0: 742c e8bc 7c2e 92bd 42ff c33d 2087 183d
000000d0: 1d49 77bd 039a d0bc 7a57 aa3c 6519 843d
000000e0: fe99 bebd 620c 8b3d 0967 8fbd 85b3 663d
000000f0: 98bb 1a3d 2a2c 5d3d 6dce da3d 9779 87bc
00000100: 9096 273d 466f c1bb d0a6 63be 237c dd3c
00000110: b446 b1bd ae06 5a3c cf4d 99bd 68df 9e3c
00000120: c3ea 67bd fca2 95bd 7bf4 8fb9 c4cc f7bc
00000130: d510 96bd fb97 cd3d 4c5c b33d ff4a b73d
00000140: 38b3 a5bd 9afc 013d 1de2 a0bd a67b 773b
00000150: a901 67ba 3f1e 9a3b a437 cc3c 7fd6 33bd
00000160: 68ce 8a3d 0a24 713c db3c c1bd 5d24 8a3d
00000170: e47b a43d f509 5cbd 5457 e33d d111 1f3e
00000180: 1bd2 693d bb67 af3d 3ca5 fdbc e782 b53d
00000190: 007e 403d 7d96 6f3d a28f 8abc c9d8 a43c
000001a0: c5f1 9dbc 79c8 8f3d 92bd a13d 8877 84bd
000001b0: 1209 173d eefe cebd 20dd 613c 6dc0 c33d
000001c0: e4b2 64bc a791 c7bd 9972 c9bd 801d c4bc
000001d0: 442f 3cbd f301 cfbd 2057 a0bd 3734 bd3d
000001e0: b642 18bd 78af 0dbd f544 533d b03b ba3d
000001f0: e73f 9b3d ca72 293b 7652 c13d ecdb c0bd
00000200: 44a6 9abc 7ef2 a2bd a960 8ebd 35d7 753d
00000210: a38f c2bd 31ea e0bb 8b16 943d d25e 81bd
00000220: 34fa 3dbc 664b 21bc ebcd 97bd 53ba b13d
00000230: d01a c33c f140 8bbc d2dd 813c 880a da3b
00000240: e0f4 023d 4b6c 28bd 0d73 15bd 2b2b ad3d
00000250: 5473 ca3c dcce 4b3d 8ab1 4f3d c210 9cbc
00000260: 9521 61bd 1ae9 513d 3129 793b 0724 7e3d
00000270: fd0e c3bd 4641 5c3d 5df1 93bd f97d fa3c
00000280: fc5f 983d a1ae 8fbd 353c b7bd 51f9 4c3d
00000290: 67a6 5bbd 5907 c8bd 0f38 943d 0f38 55bc
000002a0: 82ac 973a 26a0 f83b 8e52 7dbd b0ae a9bd
000002b0: 0532 c5bd 75ed d93c 2ccd 2dbc 8c80 ccbd
000002c0: ab1f adbc 6490 acbd d35b 51bd 51e1 8dbd
000002d0: 0c42 e3bc f81b c5bd 42c1 073d d988 833b
000002e0: eeaf 89bd 551a e33c dcc2 3f3d eea1 a5bd
000002f0: 19a6 b3bc 5da7 c9bd 7a50 5d3d 0cef 5ebd
00000300: f1f8 debc 66d8 a3bd bcdf 2cbc d7c7 27bd
00000310: afa9 983d 5b22 5ebd 6c9a 483c 48a6 c6bc
00000320: a61d a43d eb0f 433d 52ea ffbd b551 39bd
00000330: b3cf 7abd 2da7 33bc 9ba4 12be 0864 9d3c
00000340: f3ee 50be b735 62bb 93e1 35bd 19cd 87bb
00000350: b3ed 39be 5516 d53d 174a babd 4fb7 a73d
00000360: 5b52 39bd 1372 aa3d b820 af3d 0ca0 a93d
00000370: ee7e bcbd a23a d43d 9be8 e03b d261 5b3d
00000380: b436 adbd 08cd 3a3e 903e 153b 573a 37bd
00000390: 17b1 f53a 7321 f03d c4a8 bd3b b698 ca3d
000003a0: 6dd5 92bd fe5e b43c 9455 2a3d 5390 243c
000003b0: 2210 d43d 4900 c73d c7a7 e5bc 9d5f 063d
000003c0: 2fc2 f6bd a6ad 163e d449 b33d 519a 31bd
000003d0: 9c4b d73c bf05 0e3e 5cc1 003e 5177 56bd
000003e0: 5739 0dbd 6ed7 07be d775 883d 7235 b03d
000003f0: 310e bd3d f803 b9bd 9004 223d ee16 d2bd

layer4.bias f4 [150]
0.019372089 0.04618809 0.012453025 -0.061666068 -0.05564746 0.10226516 0.09108019 0.013360227
0.0018206432 0.039188195 0.08555329 0.04068926 -0.09368066 0.038614772 -0.025371784 -0.003256026
0.100912616 -0.09161567 -0.029941062 -0.076734394 0.06365455 -0.038719885 -0.10382101 0.044339154
0.07990123 0.07027675 -0.017959809 0.0024673552 0.11459044 -0.049525514 0.060893133 -0.097457476
-0.060668506 -0.074375845 0.04635819 -0.050039977 -0.06711104 -0.056630425 0.118730955 -0.09286117
-0.029659757 -0.11047109 0.15077978 -0.027586455 0.06666765 0.08813519 -0.07754129 0.016488396
0.11282016 -0.052265733 -0.028919786 0.101014994 0.09362742 -0.0047549233 -0.016159711 0.013840415
-0.0075907577 0.0063304333 -0.0235804 0.13388836 0.08374317 -0.056086183 -0.03150459 0.031829108
0.05841771 -0.06006749 0.031025011 -0.01580861 -0.02757025 -0.07251909 0.04168545 0.0069619566
-0.0388669 0.015510003 -0.06837185 -0.005926691 0.012107564 0.09657811 0.012343332 0.018066116
-0.0007515292 0.041783188 0.06584204 -0.06936364 0.10793801 0.050927762 0.10938719 0.06302849
0.11246679 0.10034254 -0.100741886 0.057451043 0.026811454 0.032284632 0.0033197715 -0.043413453
-0.049772337 0.00044464832 0.0315942 0.031117477 0.016122255 0.022693552 0.08690748 0.1192951
0.013089553 0.0412343 -0.0725397 -0.13872863 -0.0084050195 0.10658758 -0.00019602686 0.004966682
-0.09668985 0.012051515 -0.001297517 0.072616376 0.07522567 -0.056899082 0.10720489 0.01705168
0.028943487 0.009588783 0.067613445 -0.020861167 0.10373329 0.0304998 0.020845098 -0.06011941
-0.02776712 -0.09409549 -0.10934964 0.113532595 0.063980274 -0.0887655 -0.006142123 -0.1318978
-0.030768428 0.073688835 0.03323143 -0.094043195 0.015716288 0.05110433 0.10111693 0.009379881
0.08278227 0.11726107 -0.06708287 0.07208867 0.108640075 0.102429174
00000000: 37b2 9e3c b92f 3d3d c607 4c3c 8f95 7cbd
00000010: 97ee 63bd 6570 d13d 4088 ba3d dbe4 5a3c
00000020: a6a2 ee3a cd83 203d 9036 af3d c8a9 263d
00000030: a5db bfbd 862a 1e3d 7dd8 cfbc 0d63 55bb
00000040: 46ab ce3d ffa0 bbbd f546 f5bc ec26 9dbd
00000050: 515d 823d be98 1ebd 1ca0 d4bd f99c 353d
00000060: 42a3 a33d 42ed 8f3d 7320 93bc 5ab3 213b
00000070: 65ae ea3d 44db 4abd 146b 793d c997 c7bd
00000080: 8a7f 78bd 5d52 98bd 16e2 3d3d b8f6 4cbd
00000090: 8371 89bd 4ef5 67bd 3729 f33d ff2d bebd
000000a0: 05f9 f2bc ab3e e2bd 0466 1a3e fdfc e1bc
000000b0: 0d89 883d 3980 b43d f8cd 9ebd ac12 873c
000000c0: 420e e73d 9814 56bd 30e9 ecbc f3e0 ce3d
000000d0: bcbf bf3d 30cf 9bbb 5f61 84bc e8c2 623c
000000e0: e4bb f8bb 866f cf3b af2b c1bc 081a 093e
000000f0: 8a81 ab3d a0ba 65bd f50a 01bd 3d5f 023d
00000100: 6947 6f3d 5409 76bd 2a28 fe3c 0f81 81bc
00000110: 01db e1bc e384 94bd 5dbe 2a3d 2021 e43b
00000120: e632 1fbd ab1d 7e3c 8a06 8cbd b034 c2bb
00000130: ce5e 463c beca c53d b03b 4a3c 64ff 933c
00000140: 4502 45ba d924 2b3d 31d8 863d 860e 8ebd
00000150: 9a0e dd3d a199 503d 6406 e03d 1515 813d
00000160: fd54 e63d 6480 cd3d c351 cebd c951 6b3d
00000170: b2a3 db3c e43c 043d 8690 593b 4ed2 31bd
00000180: 14de 4bbd b01f e939 eb68 013d 14ea fe3c
00000190: d212 843c d4e7 b93c 8dfc b13d fd50 f43d
000001a0: 9175 563c 4ce5 283d b28f 94bd e10e 0ebe
000001b0: 35b5 09bc 974a da3d 8f8c 4db9 8cbf a23b
000001c0: 5405 c6bd b873 453c 7211 aaba e5b7 943d
000001d0: eb0f 9a3d 030f 69bd 3d8e db3d f7af 8b3c
000001e0: e41a ed3c 451a 1d3c eb78 8a3d 0ae5 aabc
000001f0: 1f72 d43d b7da f93c 57c3 aa3c c53f 76bd
00000200: df77 e3bc 23b5 c0bd b4f2 dfbd c783 e83d
00000210: 1708 833d b0ca b5bd dd43 c9bb 3810 07be
00000220: 120e fcbc 2cea 963d ae1d 083d b899 c0bd
00000230: 72bf 803c c652 513d 6516 cf3d 13ae 193c
00000240: c089 a93d 9226 f03d be62 89bd 3aa3 933d
00000250: b07e de3d 63c6 d13d
