GP_MVC_hw_3view/results/checkpoints/experiment_name/25_net_CLU.pth (torch_old, 4413 bytes, 1 tensors)

weights f4 [10, 100]
0.9396568 0.43504488 1.1541224 -0.0013077339 0.66640586 1.6690834 0.57927203 0.14677791
0.29629162 0.6836839 0.0067551285 0.14282529 0.22280607 0.015177298 0.45018074 -4e-45
0.0071521453 0.6541926 0.08019666 -0.008034122 1.2992879 1.5243725 1.9863489 -0.014904275
0.11449452 0.16999868 0.05887152 1.4599036 0.027488388 0.7666684 0.28797156 1.0580587
0.036423933 0.49823368 1e-45 0.02793053 0.26756364 0.005514704 1.497948 0.002750653
0.9722 0.0488357 1.0356492 0.004236151 0.41947466 0.79681104 0.003228828 1.0582865
0.16927584 0.09051215 -0.00052061834 1.2841413 1.0086839 0.0810868 0.7012509 1.0329847
0.22640683 1.0667938 0.73382324 0.12088399 0.0 0.21761261 0.96488553 0.8185997
-0.0006708347 0.3274863 0.0053287195 1.7377776 -0.0071858116 0.81285757 1.4114095 0.779058
-0.00034376365 0.38161176 0.11170521 0.65616524 1.2066387 0.6629794 0.12200309 0.40842378
1e-45 3e-45 -3e-45 3e-45 0.000617361 1.4261324 1.0236397 0.013588134
1.7737775 0.92392397 0.052719872 0.34919256 0.31326738 0.8670129 0.16672628 0.22348882
0.34356555 1.2046959 0.1550074 1.3061014 0.4837923 0.6028614 0.13986485 0.9794103
1.1138012 0.6315262 0.5384472 0.65340084 0.4980323 0.62996143 1.1190343 0.005791858
0.8081368 0.03377548 0.44664437 -3e-45 0.011377065 1.0057372 0.75223184 0.8421691
0.89781696 1.0193353 0.36003086 0.73883533 1.0088 0.02997529 0.69411695 0.028931575
0.09183097 0.5236541 1.2706153 1.3261033 0.3620957 0.4507148 1e-45 0.012750706
1.2997465 0.0055914973 0.2532403 0.99396837 0.24498272 0.024724515 0.16383417 2.547164e-06
1.4196391 0.6258146 0.021914935 0.06345468 0.11086244 0.16162807 -0.0011438904 1.5156289
0.7986054 -0.007512504 1.2123429 0.37091133 1.5013331 0.5854043 0.57583344 0.13378248
0.0 1.8658773 1.3085091 0.35223594 0.0062648016 0.28796804 0.2669339 1.8367089
0.8038387 1.2302277 0.49136835 0.22427306 0.0057974835 1.1504062 1.5377189 0.45320076
0.22302772 1.5276382 0.93655854 1.1237725 1e-45 4e-45 4e-45 4e-45
0.00013817275 0.12590306 0.25285557 1.6627831 0.39637345 0.5572999 0.054954927 0.2684764
0.6888574 0.78941566 0.95727897 0.8031042 1.0613632 0.69940674 1.0922825 0.46452716
2.3166418 0.737086 -0.004994164 0.83107305 0.0075998288 1.876289 1.218237 0.14270039
0.27145365 0.456997 -0.0073233573 0.6663036 0.46842608 0.02019851 0.4682944 -4e-45
0.0048578028 1.8876102 0.1201189 -0.0057549584 0.46666098 0.3030416 2.3525536 -0.0044441815
-0.011228622 0.23477672 0.008487527 1.4030715 0.057026047 1.50998 0.28095612 1.4377744
1.0442863 0.9331156 -3e-45 1.1428574 0.27932876 0.0067516547 1.0610014 0.0014977775
1.5061347 0.04587672 1.0226662 -7.0770744e-05 0.22313978 0.60377306 0.0023295176 0.68949383
1.4081565 0.011386337 0.0007381927 1.5201179 0.14721727 1.4310794 0.6425948 2.1369665
00000000: 598d 703f 34be de3e 48ba 933f 4568 abba
00000010: 9399 2a3f 86a4 d53f 2c4b 143f f34c 163e
00000020: 89b3 973e e805 2f3f 205a dd3b cb40 123e
00000030: 4627 643e 34aa 783c 177e e63e 0300 0080
00000040: 8b5c ea3b 2b79 273f 253e a43d 8da1 03bc
00000050: 114f a63f a31e c33f ae40 fe3f 0f31 74bc
00000060: 1a7c ea3d 2214 2e3e 4323 713d 1fde ba3f
00000070: 542f e13c 6144 443f 0271 933e 786e 873f
00000080: 4331 153d 7c18 ff3e 0100 0000 91ce e43c
00000090: 1afe 883e b1b4 b43b c3bc bf3f 4d44 343b
000000a0: 19e2 783f f107 483d 2790 843f 69cf 8a3b
000000b0: 62c5 d63e cffb 4b3f bf9a 533b ef75 873f
000000c0: a556 2d3e 6f5e b93d 1b7a 08ba be5e a43f
000000d0: 8e1c 813f d610 a63d 2e85 333f d838 843f
000000e0: 31d7 673e b38c 883f d7db 3b3f 0692 f73d
000000f0: 0000 0000 d7d5 5e3e bd02 773f c08f 513f
00000100: f4da 2fba 49ac a73e 8a9c ae3b 7f6f de3f
00000110: f576 ebbb 6f17 503f 11a9 b43f 5870 473f
00000120: 2d3b b4b9 9e62 c33e b3c5 e43d 72fa 273f
00000130: 2373 9a3f 05b9 293f c2dc f93d ec1c d13e
00000140: 0100 0000 0200 0000 0200 0080 0200 0000
00000150: 65d6 213a 828b b63f a006 833f c4a0 5e3c
00000160: 240b e33f 4886 6c3f cbf0 573d 5ec9 b23e
00000170: 9564 a03e 8ff4 5d3f 4bba 2a3e 41da 643e
00000180: d3e7 af3e 7a33 9a3f 43ba 1e3e 552e a73f
00000190: a0b3 f73e 2055 1a3f bb38 0f3e a2ba 7a3f
000001a0: 0a91 8e3f b3ab 213f add7 093f 4745 273f
000001b0: 17fe fe3e 2745 213f 843c 8f3f a0c9 bd3b
000001c0: 0ee2 4e3f 2858 0a3d 92ae e43e 0200 0080
000001d0: df66 3a3c ffbb 803f 4492 403f 6598 573f
000001e0: 55d7 653f 9479 823f f755 b83e 5024 3d3f
000001f0: 5c20 813f bd8e f53c a6b1 313f e901 ed3c
00000200: e011 bc3d 320e 063f 86a3 a23f c1bd a93f
00000210: 9c64 b93e 17c4 e63e 0100 0000 56e8 503c
00000220: 185e a63f e138 b73b b6a8 813e b674 7e3f
00000230: c0dc 7a3e 118b ca3c 25c4 273e f2ef 2a36
00000240: bcb6 b53f 6335 203f f386 b33c 87f4 813d
00000250: d90b e33d d481 253e 98ee 95ba 2100 c23f
00000260: 6771 4c3f 732b f6bb 0d2e 9b3f 17e8 bd3e
00000270: af2b c03f 0edd 153f d269 133f 46fe 083e
00000280: 0000 0000 11d5 ee3f 3a7d a73f 4558 b43e
00000290: f748 cd3b 8c70 933e 8fab 883e 4719 eb3f
000002a0: 5fc8 4d3f 1a78 9d3f a294 fb3e d6a7 653e
000002b0: d1f8 bd3b 8340 933f f9d3 c43f ee09 e83e
000002c0: 6161 643e a689 c33f 4dc2 6f3f c7d7 8f3f
000002d0: 0100 0000 0300 0000 0300 0000 0300 0000
000002e0: 77e2 1039 bbec 003e 4976 813e 14d6 d43f
000002f0: 76f1 ca3e 35ab 0e3f 6b18 613d bd75 893e
00000300: f558 303f 2517 4a3f 3c10 753f 3d98 4d3f
00000310: c0da 873f 520c 333f eacf 8b3f 81d6 ed3e
00000320: dc43 1440 abb1 3c3f 16a6 a3bb 34c1 543f
00000330: fc07 f93b 3d2a f03f 31ef 9b3f 0d20 123e
00000340: f9fb 8a3e 83fb e93e c6f8 efbb df92 2a3f
00000350: 8bd5 ef3e 5877 a53c 49c4 ef3e 0300 0080
00000360: 342e 9f3b 369d f13f e600 f63d 1794 bcbb
00000370: 30ee ee3e 4528 9b3e 3d90 1640 7fa0 91bb
00000380: 41f8 37bc 4f69 703e 450f 0b3c d997 b33f
00000390: 2594 693d 0647 c13f 7bd9 8f3e fe08 b83f
000003a0: 2cab 853f aae0 6e3f 0200 0080 2749 923f
000003b0: 2e04 8f3e fc3c dd3b e5ce 873f 1351 c43a
000003c0: 06c9 c03f 3ae9 3b3d bae6 823f c16a 94b8
000003d0: c17e 643e df90 1a3f d2aa 183b ab82 303f
000003e0: 793e b43f c28d 3a3c 4683 413a 3993 c23f
000003f0: 20c0 163e 9c2d b73f 1881 243f 0fc4 0840
