GP_MVC_hw_3view/results/checkpoints/experiment_name/26_net_G_A.pth (torch_old, 76168 bytes, 4 tensors)

model.0.weight f4 [64, 216]
000000 e4 05 d4 3c 7b 88 3d bd d0 ac ee 3b b1 cf 41 bd
       0.025881715 -0.046272736 0.0072837844 -0.04731721
000010 a8 9e 67 bd 7a 71 2e bd ae b7 23 bd c4 ff 89 3d
       -0.05654779 -0.04258869 -0.039970092 0.067382365
000020 b2 fa 45 3d 00 3d 22 3b 86 d5 49 3d d3 9e 12 bd
       0.048334785 0.0024755597 0.049275897 -0.035795998
000030 a0 1c d9 bc 62 d5 0c 3d 20 4a 50 3c 4c 37 12 3d
       -0.026502907 0.034383185 0.012712985 0.035697266
000040 c4 8b 11 bc 24 1c d8 bc 3e a6 48 3d 8c 00 23 3d
       -0.00888342 -0.026380606 0.048986666 0.039795443
000050 08 5e 37 3c 58 42 ea 3c c8 e1 bc 3c 50 b5 f5 3c
       0.011191852 0.028596088 0.02305688 0.029993683
000060 de a1 49 3d b8 2e 00 bd fb 4d 8b bd 40 c0 78 3b
       0.049226634 -0.031294554 -0.06801983 0.0037956387
000070 38 d1 5c 3d e0 cf 8a 3b 50 d9 fe 3c 04 64 89 3d
       0.053910464 0.0042362064 0.031109482 0.067085296
000080 f0 6e 6f 3d a0 31 cb 3c 1e 8f ff bc 03 ff 27 bd
       0.058455408 0.024803936 -0.031196173 -0.041014683
000090 00 cc 55 39 36 84 1c bd 70 7f ca bb 6a 2c 43 bd
       0.00020389259 -0.038212024 -0.0061797425 -0.04764978
0000a0 8a 45 cb bc ec b7 e9 bc f1 4a 82 bd 88 98 7c 3d
       -0.024813432 -0.028530084 -0.0636195 0.061668903
0000b0 4a da 14 3d 78 d4 48 3c 60 63 2a 3b a8 11 fb 3c
       0.03634099 0.012257688 0.0025999174 0.030648068
0000c0 ac d9 6b 3d 28 00 04 bd 74 b9 4b bc 96 7d 80 bc
       0.057580635 -0.03222671 -0.012434352 -0.015684884
0000d0 90 49 a2 bb 78 13 69 bc 80 35 3f 3b 78 14 c8 bb
       -0.004952617 -0.014225833 0.0029176176 -0.0061059557
0000e0 02 2b 84 3d b0 a4 b4 3b 00 ad 90 39 56 51 1e bd
       0.064535156 0.0055127963 0.00027594715 -0.038651787
0000f0 e4 08 60 3d 77 51 14 bd cc fd 4e 3d d2 7a 14 3d
       0.05469598 -0.036210503 0.05053501 0.036249943
000100 28 f6 0b 3d 6e 0a 4f 3d 94 94 22 3d ac d5 90 bc
       0.0341703 0.050547056 0.039692476 -0.017680012
000110 00 0e 0a 3a a0 f5 85 3d 3e 60 43 bd ae b6 21 3d
       0.00052663684 0.0654099 -0.047699206 0.039480858
000120 e0 5d a7 bb dc 5b d3 3c c6 e3 56 bd fa 33 25 3d
       -0.0051076263 0.025800638 -0.052463315 0.04033277
000130 30 ec 7a bd 16 a1 43 3d 5e 52 b7 bc 58 a8 7d 3c
       -0.061260402 0.047761045 -0.022378143 0.015482031
000140 14 27 76 3d ee 60 60 bd b3 66 4c bd 68 40 ec 3c
       0.06009586 -0.05477994 -0.04990263 0.028839305
000150 04 63 5e bc 2e 24 85 3d 56 f2 e1 bc b8 7b 2e 3c
       -0.013573412 0.06501041 -0.027581375 0.010649614
000160 c0 84 85 3b 08 e6 79 3d e4 4e c7 3c 74 13 3c 3d
       0.004074663 0.06101039 0.02432961 0.04591699
000170 d2 5d 1f 3d 00 00 48 bb e0 d4 90 bc 6c a1 49 bc
       0.038907833 -0.0030517578 -0.017679632 -0.012306552
000180 e0 32 92 3c 3a ab c2 bc 32 44 df bc 20 99 17 3b
       0.017846525 -0.023763288 -0.027254198 0.002313204
000190 cc 7e 76 bd 28 d6 8c 3c 89 1f 1c bd ac 4a 62 bd
       -0.060179517 0.017191961 -0.03811601 -0.055246994
0001a0 c8 7f 84 3d 42 2d 9d bc 2b c3 18 bd e0 63 95 bb
       0.06469685 -0.01918662 -0.0372955 -0.004559025
0001b0 a8 1e 0b bd 18 80 1a bd 2e 14 4b 3d 28 d6 94 3c
       -0.033964783 -0.037719816 0.04957979 0.018168524
0001c0 4b 18 14 bd d0 09 ef 3b a0 24 53 3b 89 7e 04 bd
       -0.03615598 0.007294871 0.0032217875 -0.032347236
0001d0 22 17 7a bd 36 ac 2d 3d 40 c4 6a bd 40 ef f4 ba
       -0.061057217 0.04240056 -0.057316065 -0.0018687025
0001e0 d4 42 78 3d c0 f5 e0 bb 6a e9 3d 3d a0 0c d0 bb
       0.060610607 -0.006865233 0.04636518 -0.0063491613
0001f0 00 10 05 3d 1f ff 86 bd ac c7 34 bc 76 38 48 bd
       0.032485962 -0.06591629 -0.011033934 -0.04888197
000200 8e 68 ea bc 50 4f 13 3c bc ab 75 3d 74 74 3f bc
       -0.028614309 0.008991078 0.05997823 -0.011685479
000210 a0 10 bc 3b ee 18 1b bd 0c 6b 98 bc a3 f8 44 bd
       0.0057392865 -0.03786557 -0.018605731 -0.04808868
000220 1c 6d 77 3d 28 11 cf bc e0 34 23 bc a2 1b 4b bd
       0.06040679 -0.025276735 -0.009961337 -0.0495869
000230 74 de b5 bc 8e e5 84 3d 70 88 e7 3b 9f d7 59 bd
       -0.0222008 0.064890966 0.007065825 -0.053184148
000240 76 5e 57 3d c0 e5 6e bd de 6a 85 bd e0 29 b5 bc
       0.05258032 -0.058324575 -0.06514524 -0.022114694
000250 04 0a 09 3d 6a c1 8d bc b8 44 88 3d 50 fa 77 3d
       0.033456817 -0.017304141 0.06653732 0.06054145
000260 32 02 85 3d e0 38 7d bb 68 4b 52 bd 72 3e 21 bd
       0.06494559 -0.0038638636 -0.051341444 -0.039366193
000270 3c c4 2d bc 40 f3 5f 3b 70 aa 61 bc f8 18 75 3d
       -0.010605868 0.0034172088 -0.013773546 0.059838265
000280 74 9e 72 3d 9e 8a 3d bd cc 44 15 bc 22 05 87 3d
       0.059233144 -0.046274774 -0.009110641 0.06592776
000290 59 21 3d bd de 71 09 3d f3 1f 05 bd a0 f9 20 3c
       -0.04617438 0.033555858 -0.032501172 0.00982514
0002a0 3a 81 d6 bc 4a 5e 0e bd 60 51 46 bb 82 b8 bb bc
       -0.026184667 -0.03475789 -0.0030260906 -0.022915129
0002b0 e8 26 1b 3c 81 56 3a bd da 1e 06 3d 26 77 84 3d
       0.009469725 -0.045492653 0.032744266 0.06468038
0002c0 30 41 f0 3b 8f 0a 84 bd ec 60 1f bd 80 0e 7e 3b
       0.0073319897 -0.064473264 -0.03891079 0.0038765967
0002d0 fc fd c2 bc 32 22 47 3d 9e d3 64 bd 7a 9a 6e bd
       -0.02380275 0.048616596 -0.055865876 -0.05825279
0002e0 02 82 11 3d 91 0e 1f bd 62 ac 59 3d e0 08 20 3c
       0.035524376 -0.03883225 0.053142913 0.009767741
0002f0 29 ae 7d bd f6 3b df bc bc f5 3b bd f2 f2 47 bd
       -0.06193367 -0.027250271 -0.045888647 -0.048815675
000300 00 e7 d1 3c 10 be bf 3c 18 58 e4 3c 44 68 80 bd
       0.025622845 0.023406059 0.027874038 -0.06269887
000310 2e 22 15 3d e4 64 f4 3c f6 af 81 3d 66 70 50 3d
       0.03640955 0.029833265 0.0633239 0.05088844
000320 14 80 bd 3c 16 37 ea bc 80 9a cb 3a 60 69 24 3d
       0.023132361 -0.02859072 0.0015533715 0.040139556
000330 be e4 75 bd 4e 22 25 3d 33 8e 2a bd 40 75 32 3d
       -0.0600326 0.04031592 -0.041639518 0.04356885
000340 4f fa 06 bd 35 37 2a bd ac 04 1d bd cc 35 a4 3c
       -0.032953557 -0.041556556 -0.038334534 0.020045184
000350 48 53 95 bc 60 8c 1c 3d f8 64 63 bd 29 7c 7c bd
       -0.018228188 0.03821981 -0.055516213 -0.061641846
000360 68 d2 c3 bc 20 e1 b4 3b 80 68 6c bc ec c8 be 3c
       -0.02390404 0.005520001 -0.014429212 0.023289166
000370 4c 5d 80 bd c3 d9 60 bd 80 47 0f 3c ac 29 1f 3d
       -0.06267795 -0.054895174 0.008745074 0.0388581
000380 47 de 23 bd 38 13 de bb 06 5c 34 bd 88 59 56 3c
       -0.040006902 -0.0067771934 -0.044033073 0.013082869
000390 b0 f9 b3 bb 54 59 35 bd be cc 3a 3d 12 5e 63 bd
       -0.0054924116 -0.044274643 0.045605414 -0.055509634
0003a0 0e 35 c1 bc c8 bd a7 3c 00 4a cc b9 90 60 e8 3c
       -0.023584869 0.020476237 -0.00038965046 0.028366357
0003b0 d4 01 3d bc 20 4c 86 3d 96 99 88 3d fc 61 17 3d
       -0.01153608 0.065574884 0.06669919 0.03695868
0003c0 e5 31 0e bd 6c 7f 79 3d b0 fa 2c 3c 60 fe 01 3d
       -0.034715552 0.060912535 0.010557815 0.03173673
0003d0 94 d8 81 bd 80 5a 96 3a 80 56 7f 3c cc e3 0d bc
       -0.06340137 0.0011471063 0.015584588 -0.008660268
0003e0 e9 f0 02 bd a4 08 16 bc ba 3b 2c bd 40 09 3a 3d
       -0.03196803 -0.0091573335 -0.042049147 0.045418978
0003f0 96 6b 16 bd f4 f5 80 3c a8 02 90 bc 5e 3c 35 3d
       -0.036723696 0.01574228 -0.017579392 0.044247024

model.0.bias f4 [64]
000000 a8 86 14 3c 36 4a 0e 3d 57 40 22 bd 7a e0 01 3d
       0.009065308 0.03473874 -0.03961214 0.03170822
000010 b0 61 56 bd f0 3b c7 3b 48 2d 79 bd 18 cd d0 bc
       -0.052339256 0.006080143 -0.0608342 -0.025488421
000020 b8 60 45 3c 30 54 8b 3c 5a 78 54 bd 9a 9a 1a 3d
       0.012046985 0.017007917 -0.05187259 0.037745096
000030 d0 f6 88 3b 4d 2a 80 bd 90 66 07 3c 5c 65 8b bc
       0.004179813 -0.06258068 0.008264199 -0.017016105
000040 fc 00 7f 3d b4 b4 dc 3c 20 ea 30 bb 58 2e bd bc
       0.0622568 0.026941635 -0.0026995018 -0.023093387
000050 40 06 73 3d 9c da 69 3d 00 8c f9 3a 86 fc a5 bc
       0.059332132 0.057093248 0.0019038916 -0.020262014
000060 95 d6 6e bd 0c 06 d3 3c 53 b5 60 bd 7a ea 38 bd
       -0.05831011 0.02575972 -0.054860424 -0.04514549
000070 f4 00 a1 bc 70 15 dc 3c 14 eb 5c 3d 86 16 39 3d
       -0.019653775 0.026865691 0.053935125 0.045187496
000080 de 34 5e bd 58 0f 1a 3d 18 5e dd bb f6 19 85 3d
       -0.054249637 0.03761229 -0.0067556016 0.06499092
000090 50 0e 7b 3c 28 3b 67 3d 9c 27 11 3d a0 a0 7a 3c
       0.015323237 0.0564529 0.035438165 0.015297085
0000a0 a0 49 1d 3c 16 8e 70 bd c8 dc b3 bc da 58 12 bd
       0.009600073 -0.058729254 -0.021955863 -0.035729267
0000b0 76 3a 08 3d 58 93 58 3d 44 96 6f 3d 52 18 d6 bc
       0.033258878 0.052874893 0.058492914 -0.026134644
0000c0 a2 17 de bc 5a 07 cb bc 2e 88 1a bd f8 28 37 bd
       -0.027110878 -0.024783779 -0.037727527 -0.044716805
0000d0 9a 89 77 bd 8c 71 e6 bc 00 be f0 bc ac b3 83 3d
       -0.06043396 -0.028130315 -0.029387474 0.06430754
0000e0 a2 fb c1 bc f4 ac 17 bd 1a da 39 bd 30 ff 46 3c
       -0.023679558 -0.037030175 -0.045374013 0.012145802
0000f0 c7 e5 2a bd 72 a6 06 bd 58 ad 97 bc e8 9a 23 bd
       -0.04172304 -0.03287358 -0.018515274 -0.039942652

model.2.weight f4 [76, 64]
000000 ec 72 2a bd dc f4 2f bd 44 8e c6 3d 3c 7f 1e bd
       -0.041613504 -0.042958125 0.09695104 -0.03869556
000010 8c 5e 42 bd 24 19 4b bd fc c8 d7 3d 32 0f 85 bd
       -0.04745345 -0.049584523 0.105363816 -0.06497039
000020 c6 c3 cd bd 20 b7 29 bc d8 74 6e bd 98 9d 96 3d
       -0.100471064 -0.010358602 -0.0582169 0.07354277
000030 e0 31 a2 3b a6 93 d4 3d c8 2f a4 3d b2 bd e1 3d
       0.004949793 0.10379724 0.08016926 0.1102251
000040 5a f7 c6 3d 00 9f 4c 3d 92 05 9c 3d e6 a9 c1 3d
       0.09715147 0.04995632 0.0761825 0.09456234
000050 00 94 ef b9 5a 6d bf bd 50 5a 14 bc 88 1e 14 3d
       -0.000456959 -0.09347029 -0.009054735 0.03616193
000060 98 b6 f0 3c d0 5f 43 bc c0 23 72 bb 64 1a c2 3d
       0.029383942 -0.011924699 -0.0036947578 0.0947769
000070 c8 2d a1 3c c8 bc ea 3d d8 8b bc 3c b8 9d d2 3c
       0.01967515 0.114617884 0.023015901 0.025709972
000080 0c 5b 3c 3d 20 5a 4a 3c 08 be af 3c ca 45 ed bd
       0.045985267 0.012350589 0.021452919 -0.11585577
000090 f8 5f 92 3c 1a 35 8c 3d 04 b3 a3 3d 00 21 0f 3a
       0.017868027 0.06846066 0.07993129 0.00054599345
0000a0 08 ee 40 bd b0 81 fd bd 0c 48 b5 bd 98 f4 2f bd
       -0.047102004 -0.123782516 -0.088516325 -0.042957872
0000b0 22 10 e9 bd 70 42 49 bd 92 a2 f7 bd f0 28 53 3d
       -0.1138003 -0.049135625 -0.12091555 0.051552713
0000c0 ac ac a3 bd 0e c6 b8 3d 5e ac c4 bd 70 56 89 3d
       -0.07991919 0.09022151 -0.09603189 0.0670594
0000d0 90 2d bc 3d d2 64 e9 3d c8 9b 0c 3d c4 bf a1 bd
       0.09188378 0.11396183 0.034328252 -0.078979045
0000e0 00 a4 bc 39 d2 8e c6 bd e8 5c 46 bd b0 c1 6e 3c
       0.00035980344 -0.096952096 -0.048428446 0.014572546
0000f0 e0 86 81 3d b8 7c f4 3d 98 f6 e1 3c 80 7a fa bb
       0.063245535 0.11937851 0.027583405 -0.0076439977
000100 5c 24 80 3d 4c 7a 4c bd 4e 67 da bd 64 2a 36 bd
       0.06256935 -0.04992132 -0.10664235 -0.04447402
000110 20 b7 b4 bd f4 02 28 3d cc 33 a4 bd 80 e4 9f 3a
       -0.08823991 0.04101844 -0.08017692 0.0012198836
000120 ae 50 fe 3d f8 3f c7 bd a0 6b 0c 3d 96 80 cb 3d
       0.12417732 -0.09728998 0.034282327 0.09936635
000130 84 5a e9 bd 2a b4 c2 bd 66 fa ab bd 40 0a b4 bb
       -0.113942176 -0.0950702 -0.08397369 -0.005494386
000140 34 58 c2 bd 7a 10 c9 3d 08 35 72 3d b2 ae e8 bd
       -0.0948948 0.09817596 0.059132606 -0.113614455
000150 38 e2 f3 bd 52 c9 81 bd 64 f2 84 3d 1a d5 8c 3d
       -0.11908382 -0.06337227 0.06491545 0.068765834
000160 d0 2d 13 bc 60 78 0c 3d 6c 83 66 3d a4 4e 2a bd
       -0.0089830905 0.034294486 0.056277677 -0.041578904
000170 a0 d9 8e 3d 54 a3 da 3d 6c 1f a8 bd e2 5e a3 bd
       0.069751024 0.106756836 -0.08209118 -0.07977082
000180 62 e9 d4 3d 68 16 89 3d 4a da bd bd a8 57 0b bd
       0.10396077 0.06693727 -0.09270151 -0.034019142
000190 f4 0a 90 bd aa 1c dd 3d 00 90 a2 3b a8 af b1 bc
       -0.07033339 0.10796483 0.004961014 -0.021690205
0001a0 c4 ea bf 3d 40 b5 99 bb 70 5d 5c 3c 64 7f 99 3d
       0.0937095 -0.004690796 0.013450012 0.07495001
0001b0 92 51 ad 3d 40 c4 81 bc 84 41 ae bd 3c f2 c3 3d
       0.08462824 -0.01584065 -0.0850859 0.09567687
0001c0 14 fc f3 3d d4 64 af bd 0a 23 af bd d8 f1 93 bd
       0.119133145 -0.08564153 -0.08551605 -0.072238624
0001d0 d4 98 5e 3d 20 84 f9 3d 58 8b c2 bc ac 88 e3 3d
       0.054344967 0.12183404 -0.023748085 0.111100525
0001e0 08 95 0e 3d e8 16 39 bd 4a 75 96 bd 6c 4c fa 3d
       0.034810096 -0.04518786 -0.0734659 0.122216076
0001f0 12 60 8b bd 90 c4 ea 3d 9a c5 f8 bd d8 db 7a 3d
       -0.06805433 0.114632726 -0.121470645 0.061244816
000200 12 0e d2 3d 96 4b d1 bd c0 72 16 3b 94 b7 c2 bd
       0.1025659 -0.10219495 0.002295658 -0.09507671
000210 4c 53 24 3d ac 54 80 3d 32 1c 92 3d 48 4e 93 bc
       0.0401185 0.0626615 0.07134284 -0.017981663
000220 30 bd da bd 08 b6 3b bd 7a 84 98 3d fa cb b6 bd
       -0.10680616 -0.045827895 0.07447143 -0.08925624
000230 04 22 60 bd 20 7d dd bc 4e 8f e3 3d 1e 82 ce 3d
       -0.05471994 -0.027037203 0.111113176 0.10083412
000240 b0 d2 c1 bc 1c c9 85 bd 00 4b 6f 3c 50 20 ad 3d
       -0.023660034 -0.06532499 0.014605284 0.08453429
000250 6a 50 b1 3d e0 d7 5d bc c0 d8 62 3d 6c 9c 0a bd
       0.08657916 -0.013540238 0.05538249 -0.03384058
000260 50 84 69 bc 6c 9e 19 bd 58 2a c6 bc 10 0e a0 bc
       -0.014252737 -0.0375046 -0.024190113 -0.019537956
000270 e8 20 a4 3d 9e 3c e2 3d 18 e5 46 3d aa 45 e5 3d
       0.08014089 0.11046718 0.048558325 0.11194928
000280 ee 26 85 3d fc f5 c0 bd 60 6d c1 3b 10 df 20 bd
       0.06501566 -0.09421918 0.005902931 -0.03927523
000290 8c 84 89 3d c0 9d 24 3c c8 f7 b2 bd 20 80 fb 3d
       0.067147344 0.010047376 -0.08738667 0.12280297
0002a0 10 58 f6 3d 4e c4 ab 3d 44 6c b8 bd b4 94 17 3d
       0.12028515 0.083870515 -0.09005025 0.03700705
0002b0 e8 b1 ff bc 30 9a 1c bc 62 2b cf 3d d0 5a a5 3d
       -0.031212762 -0.009558246 0.101156965 0.08073962
0002c0 60 87 68 bc 9a 3e ea bd 36 79 a5 bd b8 be 88 bc
       -0.014192432 -0.114377216 -0.0807976 -0.016692504
0002d0 8e 7a ff 3d 42 8f b5 bd c2 5d 8f 3d 40 74 6d 3d
       0.12474547 -0.08865215 0.07000305 0.057972193
0002e0 0e ff bd bd 3c 58 d6 bd 10 ac a4 3c fa 5e ff bd
       -0.092771634 -0.10466048 0.020101577 -0.12469287
0002f0 e4 f5 c9 3d 04 70 2b 3d e0 99 4f 3d 30 5e 0a bc
       0.09861353 0.041854873 0.050683856 -0.008445308
000300 78 13 86 bc a0 0f 95 3b 4a e4 9d bd c4 63 d4 bd
       -0.016366705 0.004548982 -0.07709558 -0.10370591
000310 78 01 15 3d ac ae 66 3d 42 be c2 3d b4 8c ea bd
       0.036378354 0.056318924 0.09508945 -0.11452618
000320 60 28 2a bc 94 35 34 bd fe 5a e4 3d 78 8a 70 bd
       -0.010385603 -0.04399641 0.11150168 -0.058725804
000330 60 8e 08 3c cc 7d cd bd 0a 29 93 3d a0 6b b9 3b
       0.008334726 -0.100337595 0.07185562 0.005658582
000340 24 78 d6 3d f0 0c 93 3c 90 fd a1 3c d0 02 17 bd
       0.10472134 0.017950505 0.019774228 -0.036867917
000350 a8 84 ac 3d 80 73 17 bb 28 fb 5e 3d 8c ba 3c 3d
       0.0842374 -0.0023109615 0.05443874 0.046076342
000360 60 09 53 bc 20 6a 19 3d cc 26 87 3d bc 55 09 bd
       -0.012880653 0.037454724 0.06599197 -0.03352903
000370 00 60 d8 bb 94 3f 8c 3d b0 84 38 3d e4 c4 11 3d
       -0.006603241 0.06848064 0.045048416 0.03558816
000380 04 48 e0 bd b0 0a ef 3c d4 94 e0 3d 62 08 ed bd
       -0.10951236 0.0291799 0.10965887 -0.115738645
000390 8e 3c 9b 3d 78 e6 09 3d 88 7b ec 3d 80 cc 4b bd
       0.07579909 0.033667058 0.11546999 -0.049755573
0003a0 14 f2 9b 3d 16 f2 a1 bd 18 a6 7f 3d 9e c1 fc bd
       0.07614532 -0.07907502 0.06241426 -0.12341617
0003b0 70 9f 31 bc be 3a 98 3d 14 89 6b 3d 56 0e aa 3d
       -0.0108412355 0.07433079 0.057503775 0.083035156
0003c0 7e a0 de 3d 00 50 37 bb 10 f2 6a 3c 90 43 d9 bc
       0.10870455 -0.0027971268 0.014339939 -0.026521474
0003d0 70 6a ed 3d f4 5c 0f 3d 28 74 21 3d 40 2f fc bb
       0.11592567 0.035000756 0.039417416 -0.0076960623
0003e0 ba b7 d7 3d 40 d3 d9 3c b0 6e 04 3d 36 05 d1 3d
       0.1053309 0.02658999 0.032332122 0.10206072
0003f0 60 33 22 3c a6 60 db bd 48 ad 7e 3d 22 46 97 bd
       0.009899944 -0.107117936 0.062176973 -0.07386424

model.2.bias f4 [76]
000000 58 bb 62 bd 52 d9 93 3d ce 84 8d 3d 84 a5 b1 bd
       -0.055354446 0.07219185 0.06910096 -0.08674148
000010 60 d3 31 bc 04 dd 62 bd 5e 60 94 bd 12 b1 b6 bd
       -0.010853618 -0.05538656 -0.07244943 -0.08920492
000020 3e d3 c7 3d 52 47 d7 3d 30 dd f1 bc 78 eb 86 3d
       0.09757088 0.1051165 -0.029524416 0.06587881
000030 c6 5a be bd 80 6a 5d bc f0 c1 6f bd 1c f0 aa bd
       -0.092946574 -0.013514161 -0.058534563 -0.083465785
000040 00 a2 e3 ba e4 d3 96 bd c8 88 ee 3d 14 58 c4 bd
       -0.0017367005 -0.07364634 0.11647183 -0.09587112
000050 d0 f1 d5 bc e0 2f ca 3c 70 37 a5 3d ac eb bb bd
       -0.026116282 0.024681032 0.080672145 -0.0917581
000060 22 3e b7 3d d8 b7 bd 3c 72 62 d7 bd ce 69 c4 bd
       0.08947398 0.023158953 -0.10516824 -0.09590493
000070 62 ff ed bd f0 75 9f bd 28 99 ab 3c 72 d0 f3 3d
       -0.11620976 -0.07786167 0.020947054 0.11904992
000080 f8 24 bc bc 60 56 f6 bb 66 8b ee bd 0a 53 b3 bd
       -0.022966847 -0.007517621 -0.11647682 -0.08756073
000090 9c d4 fb 3d 80 d6 59 bd ec a9 a3 3d e0 ea ce 3c
       0.122964114 -0.05318308 0.079913944 0.025258482
0000a0 7e bd ef 3d 98 00 02 bd 8e 37 f1 bd 34 10 29 bd
       0.11706065 -0.031738847 -0.11778174 -0.041275218
0000b0 04 cd 2e 3d 28 16 fe 3d 0a a2 a4 3d 80 1d de 3c
       0.042675987 0.1240657 0.08038719 0.027113676
0000c0 b4 ae 14 bd 78 a1 da 3c 5c 26 5d bd 5e 44 e7 bd
       -0.036299422 0.026688322 -0.05399166 -0.11292337
0000d0 cc 03 c6 3d ee d2 99 bd c6 92 87 3d bc e2 94 bd
       0.09668693 -0.07510935 0.06619792 -0.07269809
0000e0 22 ff e1 bd 6c b5 5d 3d 40 29 a2 3b 00 a6 f6 ba
       -0.11034991 0.054128096 0.004948765 -0.0018817782
0000f0 84 dc 2f 3d 08 2a 2f 3d ca 50 c2 bd 78 9c 89 3d
       0.04293491 0.042764693 -0.094880655 0.06719297
000100 ec a9 e6 3d fe 72 be bd c8 1e e7 3c ec 8b 46 bd
       0.11262879 -0.09299277 0.02821292 -0.048473284
000110 f8 2c 4c bd 8a 91 95 bd fa 20 a2 3d a8 6a f5 bd
       -0.049847573 -0.0730315 0.07916446 -0.11983234
000120 1e f7 9a bd 80 cd 2d bb 74 13 a4 bd 30 62 8d 3c
       -0.07566665 -0.0026520193 -0.08011523 0.017258734
