GP_MVC_hw_3view/results/checkpoints/experiment_name/28_net_D_B.pth (torch_old, 20827 bytes, 3 tensors)

model.0.weight f4 [64, 76]
000000 3e a7 b4 bc 31 dd 98 bd 7a 5c 37 3c 0d 73 00 3d
       -0.022052404 -0.07464064 0.011191482 0.03135972
000010 e2 48 0b 3c b5 4c bd bd e8 d6 08 bd 6d 1c 18 3e
       0.008501263 -0.09243146 -0.033408076 0.14854594
000020 17 d8 b2 ba 61 be 0b bd 5d f8 57 3d 4e 2d 99 bd
       -0.0013644722 -0.034117106 0.052727092 -0.07479344
000030 c4 f1 17 be 42 d0 46 3d 25 ae de bd 87 ac d0 bd
       -0.1483832 0.048538454 -0.10873059 -0.10189157
000040 6b c3 fa bd 9a da f5 3c 38 b0 e1 bd 42 96 ca 3d
       -0.12244304 0.030011464 -0.11019939 0.09891941
000050 5f 3e e0 b9 a4 01 c0 bd d9 4e 76 bd d9 48 a1 3d
       -0.0004277108 -0.09375313 -0.06013379 0.07875223
000060 34 61 49 3d 79 55 65 bd 2c 6c 22 bd af 66 9d bd
       0.049164966 -0.055989716 -0.039653942 -0.07685601
000070 fe 18 b4 3d df b9 a4 3c bc b0 3b 3d 6e 25 4a bd
       0.087938294 0.020108161 0.045822844 -0.049352102
000080 f9 d2 83 bd 6b f4 91 bd c1 54 34 3d c6 84 69 bd
       -0.06436724 -0.07126697 0.04402614 -0.05701139
000090 a1 a3 dd bc 00 9c c6 bd 08 4f fb 3c c2 8f 14 3e
       -0.027055563 -0.096977234 0.030677333 0.14507964
0000a0 79 3b b3 bd 8c a9 f2 3d 4d 27 3f 3d 78 af 79 3d
       -0.08751578 0.11848745 0.04666834 0.060958356
0000b0 23 44 22 3d f8 48 04 3d aa 2d 3e bd ad f6 91 bb
       0.03961576 0.03229615 -0.046430267 -0.004454455
0000c0 68 3e c6 bc 2d af 11 3e ee 84 17 3e 76 94 37 3e
       -0.02419968 0.1422698 0.14796802 0.17927727
0000d0 a8 65 2e bd 85 fd 3c 3d 66 cb 4c 3d 40 bf ae 3c
       -0.042577416 0.046140213 0.049998663 0.02133143
0000e0 96 bf ad 3b 8e ff ba bc ae a0 c6 3d ef ca 3e 3d
       0.00530238 -0.022826936 0.09698616 0.04658025
0000f0 4f f3 df 3d f0 4a d1 bc 9d 1e a0 bd 50 7c 0c 3d
       0.10935079 -0.025548428 -0.07818339 0.03429824
000100 12 c1 4e 3d aa 1c 82 bd e1 8b c9 3d 5e 63 be 3c
       0.050477095 -0.063531235 0.09841133 0.023240741
000110 2d 51 62 bd da ad e7 3d d0 7e e9 3d 65 a7 d3 3d
       -0.055253197 0.113124564 0.11401141 0.10334662
000120 2d 43 7b b9 16 c5 9d bd 6a 50 23 bd 56 b5 47 bc
       -0.0002396225 -0.07703607 -0.03987161 -0.01218923
000130 4d 3f 6a 3d a6 16 18 3c be 28 89 bd bc 0f 02 3e
       0.057189275 0.009282744 -0.06697224 0.12701315
000140 e5 72 de bd 1b 18 cd bd 66 23 10 3d a0 c8 f5 3d
       -0.10861758 -0.100143634 0.03519001 0.12001157
000150 90 3d 82 bd 8e 64 91 bc 21 0b 38 ba 5d 94 d4 3d
       -0.06359398 -0.017748144 -0.00070207013 0.103798606
000160 36 13 c3 3c 03 4f a1 3d 34 4c b2 bd 7b 7e 7e bb
       0.023812871 0.078763984 -0.08705941 -0.0038832712
000170 13 0d cf 3c 3e c5 9b 3d 01 7f 96 bd 32 9d f4 3a
       0.025274789 0.0760598 -0.07348443 0.001866257
000180 cc 82 af 3d 99 43 93 3d 2d 5d 97 bd ea 5d f0 bc
       0.085698694 0.071906276 -0.07390819 -0.029341657
000190 a5 23 f2 bc 94 bd b6 bd 16 9e 45 3c f5 7d e5 3b
       -0.029558012 -0.08922878 0.012061616 0.0070035406
0001a0 64 34 5f bd d1 c9 8a bc 08 62 23 3c aa ed 35 bd
       -0.054493323 -0.016941937 0.009972103 -0.044416107
0001b0 11 da 81 bd aa 29 dd bd 58 77 d4 bd 63 1b 33 bd
       -0.06340421 -0.107989624 -0.103743255 -0.04372729
0001c0 48 c0 bd bc cd f5 b0 3c 6d a3 d2 bd d1 cb 14 3e
       -0.023162976 0.021601582 -0.10285077 0.14530875
0001d0 f3 e4 de bd 21 58 30 3d 27 a4 8b bd 05 c0 25 3d
       -0.10883512 0.043052796 -0.06818419 0.040466327
0001e0 a2 e7 d2 bd 45 e2 cf bd b2 49 61 bd 21 68 49 3c
       -0.10298087 -0.10150579 -0.055001922 0.012292893
0001f0 e0 f7 a9 3d d6 55 2d 3c d6 0b be bd e2 2b 3b 3c
       0.082992315 0.010579547 -0.09279601 0.011424037
000200 5a 90 cb 3b 91 b0 1c bd 0e af 3d 3d b8 24 b6 bd
       0.0062122764 -0.038254324 0.046309523 -0.08893722
000210 12 5d ad 3d af cf 09 3d c6 da e6 bb e7 90 c2 bd
       0.084650174 0.033645328 -0.007045123 -0.09500294
000220 62 a6 4c bc 89 b5 37 bc 7c 57 ae bd 10 32 a4 bd
       -0.012490841 -0.011212715 -0.0851278 -0.08017361
000230 e1 b1 80 bd 31 36 5b bd 03 a2 0d 3c 2c bd cb 3d
       -0.06283928 -0.053518478 0.008644584 0.09948191
000240 1b 40 4b 3c ee 1b c2 3d 06 61 86 3c 36 d3 65 3d
       0.012405421 0.094779834 0.016403686 0.05610963
000250 a1 55 80 bc a6 c0 a3 bd ca fd cc bc 7e 68 c0 bd
       -0.015665831 -0.07995729 -0.02502336 -0.0939493
000260 47 49 25 be e3 aa a1 3c a7 0d 08 3d b3 30 a0 bd
       -0.16141234 0.019734805 0.033216145 -0.07821789
000270 71 a9 bb 3d 70 2d 8b bc 2d d7 d5 3d a2 5d 81 3d
       0.09163178 -0.01698944 0.10441432 0.06316687
000280 87 e8 e9 3c e1 db 6f bd 5d 6f ab bd 85 5c a7 3d
       0.02855326 -0.058559302 -0.0837085 0.081719436
000290 bf 9b ca bd bb a8 17 3d db 7e 1e bd 23 35 69 3d
       -0.098929875 0.03702615 -0.038695198 0.05693544
0002a0 e6 b9 89 bd e9 86 c0 3d d2 77 90 bd 20 e3 cf 3d
       -0.067249104 0.09400732 -0.07054104 0.101507425
0002b0 97 cf 6e bd 32 c6 d1 3c 01 ba e9 bc d5 ea 31 bd
       -0.05830344 0.025607202 -0.028531076 -0.043436844
0002c0 06 de 86 3d d4 1d bf bc 55 2b f5 3c c8 68 b5 bc
       0.06585316 -0.023329653 0.029927889 -0.02214469
0002d0 89 f1 4e bd ad 2c c4 bd 35 62 b9 bd ad 73 f0 3b
       -0.050523315 -0.09578834 -0.09051935 0.0073380084
0002e0 5b e0 c0 3d 1a df 32 bd da 4e ea 39 77 17 a6 3c
       0.094177924 -0.043669797 0.00044690707 0.02027486
0002f0 ed e0 4a bd 8d 6c 93 bd 5b 01 d3 bc e7 cf 73 bd
       -0.049530912 -0.07198439 -0.025757482 -0.059524443
000300 cc 09 90 3d df 35 29 bd 27 33 3e bc 8d f2 92 bb
       0.070331186 -0.04131114 -0.011608875 -0.0044844807
000310 a9 0e a4 bc 18 f7 82 bd 26 b8 e1 3c 1b 29 23 3c
       -0.020026522 -0.06394786 0.02755363 0.009958531
000320 7c 3c 46 3d c7 c9 35 3d d9 ef 22 3d 87 f3 a2 bd
       0.048397526 0.044381883 0.039779518 -0.079566054
000330 34 9a e7 bd 58 ff 0d bd c7 5e bd bd 71 ec 4d 3d
       -0.11308709 -0.034667343 -0.09246593 0.050274316
000340 80 c8 27 bd ec d6 92 3d a5 e4 c1 3d ae d3 1b bd
       -0.040962696 0.07169899 0.094674386 -0.03804367
000350 97 44 86 3d 28 74 7c 3d ae 9f de 3d 17 48 d8 3d
       0.06556051 0.061634213 0.108703 0.10560625
000360 c1 49 d5 3c 88 f4 89 3d 17 6d c3 3c 87 4a 78 bd
       0.026036145 0.06736094 0.023855729 -0.06061795
000370 96 19 cd bd 32 84 c8 bd be 36 93 bd b7 20 f7 bd
       -0.10014646 -0.09790839 -0.071881756 -0.12066787
000380 ae 1b 3e bd 35 74 ca bc 7f 09 a4 bc ba 43 5f bc
       -0.046413116 -0.024713615 -0.02002406 -0.013626987
000390 b1 67 ad bc 2c 92 49 39 34 a1 94 3d e7 d1 9d bd
       -0.021167608 0.00019223307 0.072573096 -0.07706051
0003a0 40 1c 1e 3d 7a e5 65 3d d6 78 8f 3d af ab 21 bd
       0.03860116 0.05612705 0.070054695 -0.03947037
0003b0 ae 54 0d 3d e7 21 fe 3d e3 03 1d 3d 47 d1 22 3c
       0.034504585 0.1240881 0.038333785 0.009937591
0003c0 84 fc 66 bd 83 88 9c 3d 26 33 6e 3d 8b b8 aa bd
       -0.05639316 0.07643225 0.058154248 -0.0833598
0003d0 16 32 bd bd b2 7a d6 3d c5 fd fe 3b 4b 51 0f 3d
       -0.09238069 0.10472621 0.0077817165 0.034989636
0003e0 ed 7e 92 3d 01 ac f2 3d e8 7a 65 bd 7d e9 a6 3d
       0.071531154 0.118492134 -0.056025416 0.08150003
0003f0 d4 9c 80 bd 19 71 c6 bd 17 88 85 bd 3c b1 81 3c
       -0.062799126 -0.096895404 -0.06520098 0.015831582

model.0.bias f4 [64]
000000 23 7d 44 3e 36 d8 7d 3d 8a 92 8e 3e 97 3c 3b 3e
       0.19188361 0.061973773 0.27846175 0.18284832
000010 88 f3 4d 3e b1 c3 09 3d 67 9c 92 3d 10 16 ad 3a
       0.20112431 0.03363389 0.07158738 0.0013205428
000020 94 9b f3 bd d8 1e a6 3e 3e 66 6c 3e 23 1b 2b be
       -0.118949085 0.32445407 0.23085877 -0.1670957
000030 6d ee 2e 3e 35 a9 4f 3d 5b a4 82 3c 9e a9 85 3e
       0.1708314 0.050698478 0.015947511 0.2610597
000040 61 09 d5 3d cb 4a 45 3e dc 5c 8f 3e 5c 6d ad 3d
       0.104021795 0.19266813 0.28000534 0.08468124
000050 af 2e ad 3e 0c 96 e0 bd be 7d 6a 3e 58 d5 18 3e
       0.3382468 -0.10966119 0.2289953 0.14925134
000060 19 75 6d 3e d6 73 c0 3e 52 c1 6b 3e d0 a6 b8 3c
       0.231892 0.37588376 0.23022965 0.02254048
000070 14 64 56 3e 90 32 96 bd d8 c8 97 3e 93 86 5d 3e
       0.20936614 -0.07333863 0.2964542 0.21633367
000080 b3 2a a5 3e 76 76 9b 3e df 7f c1 3d 83 7e 78 bd
       0.3225914 0.30363816 0.094482176 -0.060667526
000090 39 b0 03 3e dc 82 d0 3b 7d 1d ba bd 13 44 0c 3e
       0.12860192 0.006363256 -0.09087656 0.13697843
0000a0 e5 ef 87 3e fb 59 1f be 60 59 26 3e 16 c8 16 be
       0.26550213 -0.15561669 0.16245031 -0.14724764
0000b0 28 45 1c 3e 39 97 83 3e 89 2d ef 3c c4 c3 b1 3d
       0.15260756 0.2570131 0.029196518 0.086799175
0000c0 86 4f 37 3d 40 6b 24 3e c3 52 cd bc 5b a0 77 be
       0.044753574 0.16056538 -0.025063878 -0.24182265
0000d0 17 ca 14 be 88 32 9a be 12 ae e3 bd 5a c7 16 bd
       -0.14530216 -0.30116677 -0.11117186 -0.03681121
0000e0 0c da 5c be e4 c6 2e bd e8 92 c1 bd 4e 9b e8 3c
       -0.21567553 -0.042670146 -0.09451848 0.028394368
0000f0 06 91 c6 3c 9c da 8d 3e 5b a7 a8 3e 48 06 14 3d
       0.024239074 0.27705848 0.32940182 0.036138803

model.2.weight f4 [1, 64]
000000 0f 2c 17 be ec 84 9f bd 57 b8 0a be 29 e7 c9 bc
       -0.14762901 -0.07789025 -0.13546883 -0.024646359
000010 50 05 9b bd 75 5b 00 3f 43 ac 07 3f 26 e5 d0 3e
       -0.07569373 0.5013955 0.52997226 0.40799826
000020 c4 4e 11 3f ac 44 c6 bd 4a a9 5e bd d4 7b 08 3f
       0.5676081 -0.09681067 -0.054360665 0.53313947
000030 2f ea a1 bd eb 5a 59 bc 51 d6 18 bc 59 5d f7 bd
       -0.07905995 -0.013266305 -0.009328441 -0.120783515
000040 04 be 82 bd 82 94 c0 bd 4c 73 04 be a8 58 ba 3a
       -0.06383899 -0.094033256 -0.12934607 0.0014217095
000050 c2 22 39 bd e9 6e c8 3e 6c a3 8f bd c7 d4 0f bd
       -0.045199163 0.39147118 -0.07013592 -0.03511503
000060 b3 96 00 be 64 f8 b2 bd a9 f1 f0 bd aa 01 15 3f
       -0.12557487 -0.08738783 -0.11764843 0.58205664
000070 5f 4c 0b bd b3 20 12 3f d2 2e aa bd 81 18 16 be
       -0.03400838 0.57081145 -0.083097115 -0.14657785
000080 c6 8e 9a bd 9b b4 fc bd ca 0e 04 3f 9a d5 c4 3e
       -0.07546763 -0.12339135 0.51585066 0.38444215
000090 ac cc 21 bd fc 0c ff 3e 1f d0 f1 3e 59 b8 37 bc
       -0.03950183 0.49814594 0.47229096 -0.0112133855
0000a0 a0 b4 54 bd 37 1c 55 3d 76 bd aa bd d8 b6 df 3e
       -0.05193007 0.05202886 -0.08336918 0.43694186
0000b0 53 97 e1 bd 08 2d 8f bd b2 f1 2c 3f 95 58 4d bb
       -0.11015191 -0.06991011 0.675563 -0.0031333317
0000c0 c2 45 1c bd 7b be b8 bd 87 c7 0b 3f bf 84 7d 3d
       -0.038152464 -0.09020706 0.5460133 0.061894175
0000d0 bd 21 cc 3e 61 9a 72 3d 66 06 0a 3f 61 cc f8 3e
       0.3986949 0.05922926 0.53916013 0.4859343
0000e0 5e 15 1a 3e c0 de 21 3f 08 60 d8 3e c7 75 dc 3e
       0.15047213 0.63230515 0.42260766 0.43058607
0000f0 af 77 40 3f 9d 6f d4 bd 71 88 ef bd 37 01 0f 3f
       0.7518262 -0.10372851 -0.11695946 0.5586123
