GP_MVC_hw_3view/results/checkpoints/experiment_name/29_net_CLU.pth (torch_old, 4413 bytes, 1 tensors)

weights f4 [10, 100]
0	0x3f755687	0.95835155
1	0x3ecd6f94	0.4012419
2	0x3f980925	1.1877791
3	0x3ae608ea	0.0017550264
4	0x3f24e22d	0.64407617
5	0x3fd9d6f1	1.701872
6	0x3f140773	0.57823867
7	0x3dd624b3	0.104562186
8	0x3e8fd7b4	0.28094256
9	0x3f2b248c	0.6685264
10	0xbb6f73c1	-0.00365375
11	0x3de26cf7	0.1105594
12	0x3e4b2834	0.19839555
13	0x3c0999c3	0.008398476
14	0x3edbcdbf	0.4293041
15	0x80000003	-4e-45
16	0x3be2c5d8	0.0069205575
17	0x3f28ee21	0.65988356
18	0x3d80a72b	0.06281885
19	0xbbf740fd	-0.007545589
20	0x3fa8e3d3	1.3194526
21	0x3fc594b1	1.5436002
22	0x40014e73	2.0204132
23	0xbc85bff5	-0.016326884
24	0x3da9c65f	0.082897894
25	0x3e29bce3	0.16575961
26	0x3d5877db	0.052848678
27	0x3fc17257	1.5113019
28	0x3ab2876f	0.0013620685
29	0x3f448d22	0.7677785
30	0x3e84f9e5	0.25971904
31	0x3f887a8b	1.0662397
32	0x3ce31613	0.027720487
33	0x3ef3fe56	0.4765498
34	0x00000001	1e-45
35	0x3cfcdaa1	0.03086597
36	0x3e6ecbed	0.23319979
37	0x3b719a32	0.003686559
38	0x3fc408af	1.531515
39	0x3ab52c0e	0.0013822333
40	0x3f7c8d05	0.9865268
41	0x3c083076	0.008312335
42	0x3f85ed06	1.0462959
43	0x3bb60d35	0.0055557736
44	0x3eca4e7f	0.39513013
45	0x3f45a10b	0.7719886
46	0x3b5a2c3e	0.003329053
47	0x3f87912f	1.0591182
48	0x3e0b66d5	0.13613446
49	0x3d7a5112	0.06111247
50	0xba2c539f	-0.000657374
51	0x3fa45101	1.283722
52	0x3f811f70	1.0087719
53	0x3d61eda0	0.055158257
54	0x3f2e4743	0.68077487
55	0x3f86d17d	1.0532681
56	0x3e428e48	0.18999588
57	0x3f8c3fc4	1.095696
58	0x3f3b55f1	0.7317801
59	0x3dfd566c	0.12369999
60	0x00000000	0.0
61	0x3e31f563	0.17378764
62	0x3f75adcf	0.95968336
63	0x3f58c590	0.84676456
64	0x390cae60	0.000134164
65	0x3e8eb248	0.27870393
66	0x3b4ee251	0.0031568
67	0x3fdf74e2	1.7457545
68	0xbbdf5276	-0.00681525
69	0x3f4f7647	0.8103985
70	0x3fb636c8	1.4235468
71	0x3f521441	0.82062155
72	0xba3290e9	-0.00068117544
73	0x3eb27c94	0.3486067
74	0x3da4964d	0.0803648
75	0x3f25bd52	0.64742005
76	0x3f9ae617	1.2101468
77	0x3f260869	0.6485658
78	0x3da6bd66	0.08141594
79	0x3ec83864	0.39105523
80	0x00000001	1e-45
81	0x00000002	3e-45
82	0x80000002	-3e-45
83	0x00000002	3e-45
84	0x397b497f	0.00023964605
85	0x3fb9deeb	1.4521154
86	0x3f841077	1.0317525
87	0x3c0c6c06	0.008570677
88	0x3fe78b1a	1.8089325
89	0x3f72b140	0.9480171
90	0x3d1b4a3c	0.037912592
91	0x3e955b78	0.29171348
92	0x3e9dc883	0.3081704
93	0x3f5d9194	0.8655026
94	0x3df05c54	0.1173636
95	0x3e6154ff	0.2200508
96	0x3ea942fc	0.33058918
97	0x3f9db85e	1.2321889
98	0x3df783dd	0.12085698
99	0x3fac25c9	1.3449031
100	0x3eda6585	0.42655578
101	0x3f1307ba	0.57433665
102	0x3e0b89d1	0.13626792
103	0x3f7f0da7	0.99630207
104	0x3f90d619	1.1315337
105	0x3f17ea4b	0.5934188
106	0x3f04c557	0.51863617
107	0x3f252cf5	0.64521724
108	0x3efb6880	0.49103165
109	0x3f1dae9b	0.6159455
110	0x3f927442	1.1441729
111	0xb95cadab	-0.00021045531
112	0x3f527a4f	0.8221788
113	0x3c98184c	0.018566273
114	0x3eda2afa	0.42610914
115	0x80000002	-3e-45
116	0x3c5ec91e	0.013597755
117	0x3f7dc821	0.991335
118	0x3f455389	0.7708059
119	0x3f6041e3	0.87600535
120	0x3f656cf3	0.8961937
121	0x3f810c6c	1.0081916
122	0x3ea0abbd	0.31381026
123	0x3f40398d	0.75087816
124	0x3f835d56	1.0262859
125	0x3d063111	0.032761637
126	0x3f3900d8	0.7226691
127	0x3c38615a	0.011253679
128	0x3d5fd61e	0.054647557
129	0x3ef6d3a9	0.4820836
130	0x3fa59c61	1.2938348
131	0x3faa05a8	1.3282976
132	0x3eb7a869	0.35870674
133	0x3ed8cf4b	0.42345652
134	0x00000001	1e-45
135	0x3c14cde5	0.009082292
136	0x3fa85bc6	1.3153007
137	0x3b369910	0.0027862228
138	0x3e4f8086	0.20263872
139	0x3f83be46	1.0292442
140	0x3e6e8d71	0.23296143
141	0x3bef6ceb	0.007306685
142	0x3df2c422	0.118538156
143	0x398847ad	0.00025993344
144	0x3fb8e345	1.4444357
145	0x3f21bb75	0.6317666
146	0x3ba947c1	0.0051660244
147	0x3d1a591d	0.03768264
148	0x3d8a97b6	0.06767218
149	0x3e1be789	0.15225042
150	0xbaa9295b	-0.0012906002
151	0x3fc1912b	1.5122427
152	0x3f45c6eb	0.7725665
153	0xbc093291	-0.008373872
154	0x3f9cdc10	1.2254658
155	0x3eadf41e	0.3397531
156	0x3fc4b50b	1.536775
157	0x3f14ca8a	0.5812155
158	0x3f0ca13c	0.54933524
159	0x3e0be9dd	0.1366343
160	0x00000000	0.0
161	0x3ff36409	1.9014903
162	0x3fa988ce	1.3244874
163	0x3eaeafe3	0.34118566
164	0x3bf08548	0.007340107
165	0x3e8b69c1	0.2722912
166	0x3e974787	0.2954676
167	0x3febca2c	1.8421073
168	0x3f54c83e	0.83118045
169	0x3f9e945b	1.2389024
170	0x3ee869e3	0.45393285
171	0x3e4741e3	0.19458728
172	0x3bc7c7d0	0.0060968176
173	0x3f95a999	1.1692382
174	0x3fc82fca	1.5639584
175	0x3ee4beee	0.44676918
176	0x3e2fde9d	0.17174764
177	0x3fc45918	1.5339689
178	0x3f71be32	0.9443084
179	0x3f92ba55	1.1463114
180	0x00000001	1e-45
181	0x00000003	4e-45
182	0x00000003	4e-45
183	0x00000003	4e-45
184	0x3a01d7de	0.0004953126
185	0x3da2c1dc	0.07947132
186	0x3e56dd87	0.20982943
187	0x3fd9188b	1.6960615
188	0x3ebf9538	0.37418532
189	0x3f07da5d	0.5306757
190	0x3d191837	0.03737661
191	0x3e6c95ce	0.23104021
192	0x3f338ba5	0.70134956
193	0x3f3f7e2f	0.74801916
194	0x3f7a67ba	0.97814524
195	0x3f4d0026	0.8007835
196	0x3f8a72e6	1.0816314
197	0x3f2d8576	0.6778177
198	0x3f8f0cf6	1.117583
199	0x3ee308a8	0.44342542
200	0x4016e47b	2.3576953
201	0x3f3ebf72	0.7451087
202	0xbc257f39	-0.010101133
203	0x3f59b52d	0.8504208
204	0xbb2838cb	-0.0025668617
205	0x3ff57ddb	1.9179033
206	0x3fa091df	1.2544516
207	0x3ddbce5b	0.107327186
208	0x3e84ad58	0.259135
209	0x3ee3f215	0.4452063
210	0xbc07e71f	-0.00829485
211	0x3f295ab2	0.66154015
212	0x3eef0a6e	0.46687645
213	0x3c506536	0.012719443
214	0x3ee21aea	0.4416116
215	0x80000003	-4e-45
216	0x3b60f279	0.0034324212
217	0x3ff6468e	1.9240282
218	0x3dcd1aff	0.10014915
219	0xbbaa656d	-0.005200079
220	0x3ee65dd7	0.4499347
221	0x3e89683b	0.26837334
222	0x4019e2a8	2.404459
223	0xbbe3ebf2	-0.006955617
224	0xbc3cbe6f	-0.011520012
225	0x3e6daa96	0.23209605
226	0x3b05762e	0.002036463
227	0x3fb7ace0	1.4349632
228	0x3c7c67ad	0.015405578
229	0x3fc565e4	1.542172
230	0x3e8057d7	0.25067016
231	0x3fb9888b	1.4494795
232	0x3f8a7191	1.0815908
233	0x3f759cbe	0.95942295
234	0x80000002	-3e-45
235	0x3f99b802	1.200928
236	0x3e7c6983	0.24649625
237	0x3b8a5f62	0.0042227963
238	0x3f898a50	1.0745335
239	0x3a59a900	0.0008303076
240	0x3fc5067c	1.5392604
241	0x3c01047b	0.007874603
242	0x3f85c2a7	1.0450028
243	0xb9007a74	-0.00012252649
244	0x3e404817	0.187775
245	0x3f1c89c8	0.6114774
246	0x3b1cbcd4	0.0023916261
247	0x3f26b507	0.65119976
248	0x3fb7ed39	1.436927
249	0x3b999e9e	0.004688098
250	0xba07246a	-0.00051552674
251	0x3fc594c4	1.5436025
252	0x3e08b08a	0.13348594
253	0x3fbc7182	1.472214
254	0x3f1d96b6	0.6155809
255	0x400bc96b	2.1841686
