GP_MVC_hw_3view/results/checkpoints/experiment_name/29_net_D_A.pth (torch_old, 56667 bytes, 3 tensors)

model.0.weight f4 [64, 216]
000000 5a d1 89 bd a8 ed 89 bc d3 97 d9 3c 13 7e 14 3a
       -0.06729384 -0.016836956 0.026561653 0.00056645385
000010 b3 d1 66 bc fd 63 a1 bb 96 68 da bc 6a 2a 43 bc
       -0.014088082 -0.0049252496 -0.026661199 -0.011911968
000020 2b e6 26 3d 26 c2 d3 ba 83 cd 34 3d d5 ac 99 bc
       0.04074685 -0.0016155883 0.044141304 -0.01875917
000030 07 24 85 bb c3 f1 3f 3d 13 03 cd bc 06 0c 30 3c
       -0.0040631327 0.04686142 -0.02502588 0.010745054
000040 5e e7 d9 bc d5 08 18 bd 25 72 cb 3c 2d 47 d3 3c
       -0.026599582 -0.037117798 0.024834702 0.025790775
000050 de dc c6 bc e6 f9 7f 3b cb 11 60 bd 15 27 92 3d
       -0.02427524 0.0039058863 -0.05470447 0.071363606
000060 54 62 63 3d eb b0 57 3b 97 48 9f bd 7b 83 9b bd
       0.055513695 0.0032911848 -0.07777517 -0.07593437
000070 fc e9 33 bd 95 39 27 bd 87 80 13 3d dd ff 9f bc
       -0.043924317 -0.0408264 0.036011245 -0.019531185
000080 5c 30 a3 ba de 0b 36 bd 82 88 2c 39 e8 b8 88 bb
       -0.0012450325 -0.04444491 0.00016454051 -0.004172433
000090 1f 84 e9 3c 5f f9 23 bc 13 ee 2d bd 38 7b f4 3c
       0.028505383 -0.010008185 -0.042463373 0.029843912
0000a0 29 53 22 3d e9 88 a3 bc 5f e9 db bc 03 72 2f 3c
       0.03963009 -0.019962745 -0.026844678 0.010708335
0000b0 1f 5a ca bb 53 54 18 bb e8 19 5b 3d 38 8e a1 3c
       -0.006175294 -0.002324362 0.053491503 0.019721135
0000c0 b4 50 1a 3b 6b 8a 06 3c a9 b8 42 bd e2 14 83 bd
       0.0023546638 0.008211712 -0.047539387 -0.064004675
0000d0 b1 0a 63 3d 79 e0 29 bd 3e 12 b8 bb ce df 46 3d
       0.055430118 -0.04147384 -0.005617409 0.04855328
0000e0 41 fe 83 3d c5 b1 21 3d 93 ae 20 bd d6 c8 12 bd
       0.064449795 0.039476175 -0.039228987 -0.035836063
0000f0 7b 2b 20 bd 46 b3 76 3d 4d 77 91 bd b3 cf 58 39
       -0.039103966 0.060229562 -0.07102833 0.00020676739
000100 6e 0e 3d bd ad 13 9e bd 72 6c 6f bd f4 5b df bb
       -0.04615634 -0.077185966 -0.05845303 -0.0068163816
000110 c6 cb b7 3c bc 8f 8d 3b 03 98 11 bd 11 2e 14 3d
       0.022436034 0.004320113 -0.03554536 0.036176745
000120 47 30 82 3d 14 5b 33 3d fb f0 31 bd 10 c2 10 bd
       0.063568644 0.04378803 -0.043442708 -0.035341322
000130 56 e0 97 bd e8 58 a9 3d c6 22 81 3c cb b7 07 3d
       -0.074158356 0.08268911 0.015763652 0.033134263
000140 72 88 ef 3c f4 b3 30 3d 9f 0c e8 3c e0 d7 bf bc
       0.029239867 0.043140367 0.02832633 -0.023418367
000150 9d 40 50 bd e5 17 e7 bc 90 e0 32 bd 0a 83 5d bd
       -0.05084287 -0.028209636 -0.04367119 -0.054080047
000160 d4 d2 ea 3a 68 64 43 3d 1e f4 1f bd 20 12 9f 3a
       0.0017915615 0.047703177 -0.039051168 0.0012136139
000170 62 fc 0b bc 34 ad ac bd a0 de f1 3c fa bb ba 3c
       -0.0085440595 -0.084314734 0.029525101 0.022794712
000180 69 33 28 bb 1d a4 bd bc 87 65 09 bc fa 91 d8 3c
       -0.0025665408 -0.023149544 -0.008386022 0.026436795
000190 28 f7 89 bd 90 12 15 bd b2 53 18 3d e8 b8 99 3d
       -0.067365944 -0.036394656 0.037189193 0.07505971
0001a0 30 cb 70 3d cf df 47 3c 6d cd ed 3c fd 8e 4a bc
       0.058787525 0.012199356 0.029028619 -0.012363193
0001b0 6b 28 c8 bb 67 03 8d 3c 1c 33 94 bc 4e d6 9b bd
       -0.006108334 0.017213536 -0.018090777 -0.07609235
0001c0 d3 f2 1c bc 9f 11 32 bd 82 fb a1 bd 56 ab 79 bd
       -0.009579378 -0.043473836 -0.079092994 -0.060954414
0001d0 4b b3 68 bd d2 91 d2 bc 14 c4 9a 3c 3a 36 33 bc
       -0.056811612 -0.025704298 0.018892325 -0.010938222
0001e0 bf d8 41 3d 0c 12 cb 3c 46 a9 a2 3c 0e 96 15 3d
       0.047325846 0.024788879 0.019856106 0.036520056
0001f0 85 8f 8e 3d ab a5 6e bd 0c 21 2c bd d5 18 2e bb
       0.06960968 -0.058263462 -0.042023703 -0.0026565094
000200 2b 60 16 3d 95 94 35 bd 9c a1 6b 3d 6d 2b 61 3d
       0.036712807 -0.044331152 0.05752717 0.054973055
000210 32 6d 02 ba a9 47 1a 3d 97 38 b1 bc cc ea 0f bd
       -0.0004975378 0.037665997 -0.02163343 -0.03513603
000220 02 c3 4e bc 7b 8a b8 3c bd fe 56 bb 53 b9 3f 3d
       -0.012619736 0.02252697 -0.0032805644 0.0468076
000230 4d d5 5a bd e2 8a b1 bc ad bc bc 3d 4a 44 15 bd
       -0.053426076 -0.02167267 0.092156745 -0.03644208
000240 b8 4e 82 bd d3 0f 53 3d 35 50 b5 bc 81 73 58 bc
       -0.06362671 0.051528763 -0.022132972 -0.013211132
000250 0e 16 fc bc bd 72 4a bd 6e 76 2e 3c 71 a2 89 3d
       -0.030772235 -0.04942583 0.010648353 0.06720436
000260 a6 10 2a 3d a1 62 08 bd ad 2a be bd 3c c3 2c 3d
       0.041519783 -0.033297185 -0.092854835 0.042178378
000270 b1 00 cd 3b cc 05 da 3d 1a 6a a3 3d 57 f1 6e bd
       0.006256186 0.10645637 0.07979222 -0.05833563
000280 48 e6 08 3d 12 28 2b bd 5c 22 45 3b b1 2b 53 bc
       0.03342274 -0.04178626 0.0030080294 -0.012888835
000290 9d a5 85 bc 31 55 e1 3c b6 e9 98 3d 6c 34 22 3a
       -0.016314322 0.027506443 0.07466452 0.0006187621
0002a0 9a 3d 9d 3a ec 55 3b ba e9 80 83 bc de 9c 08 3d
       0.0011996508 -0.0007146287 -0.01605268 0.033352725
0002b0 fd d1 09 bd 45 e2 3a 3d 09 b0 4c bd 46 ce ef 3c
       -0.033647526 0.045625944 -0.049972568 0.029273164
0002c0 68 fa 5e bd 90 bd 42 3c 55 ea 0d 3d 0b 0a 24 3d
       -0.054438025 0.011886016 0.034647305 0.04004864
0002d0 17 c9 c2 3d fd 24 42 3d f2 d1 2f 3d 07 e5 24 bd
       0.09511011 0.047398556 0.04292483 -0.04025748
0002e0 99 be ba bc d1 09 0c 3d ef f1 35 bc ed 02 29 bd
       -0.022795962 0.03418905 -0.011105045 -0.041262556
0002f0 f3 86 28 3d 12 95 54 3d 1d 9c b1 3c ba b1 19 bd
       0.041144323 0.051899977 0.021680886 -0.03752301
000300 cc 60 9b bc f5 ae 20 3d 3c 35 69 3b 98 fd 39 bd
       -0.018967055 0.039229352 0.0035584709 -0.04540786
000310 82 8e 39 bd 54 d2 cf 3c 10 7d 52 3d c9 04 88 3d
       -0.04530192 0.025368847 0.0513888 0.06641538
000320 8e 2e 73 bb 1c bf d4 3a 7a 53 ae 3d 68 7b 85 3d
       -0.0037106606 0.0016231271 0.08512016 0.065176785
000330 ea ba 34 bc 6a ae 00 3d da d3 87 bc 9d 58 4f bd
       -0.011030892 0.031416334 -0.01658051 -0.050621618
000340 45 51 c2 bc 9a 19 1a 3d 84 8c b6 3c 88 a0 4d 3d
       -0.023720393 0.03762207 0.0222838 0.050201923
000350 a0 80 f1 3c f9 d4 1d bd 88 59 f5 bc fd 39 18 bd
       0.029480278 -0.038533185 -0.029949918 -0.037164677
000360 f5 23 d4 bc ac c4 9c bd 30 7e 81 bc 5c 46 41 bd
       -0.025896052 -0.076547 -0.015807241 -0.04718624
000370 d2 fc 00 bd 69 2d 0b bd e1 af 81 bd ae 3a 52 3d
       -0.03149111 -0.033978853 -0.06332374 0.051325493
000380 9c 3d 86 bd a3 16 53 bc 5b 5a e8 3c 76 af cf bc
       -0.0655472 -0.012883815 0.028363397 -0.025352221
000390 e2 f8 7b bd 27 e1 98 3b 7a d2 ef bc e4 6a 43 bd
       -0.06151665 0.004665512 -0.029275168 -0.04770936
0003a0 90 78 4a bd 7f 41 c2 3b b7 71 32 bd 20 cf 34 bb
       -0.049431384 0.005928218 -0.04356548 -0.0027589276
0003b0 ac fb 93 3d 6c d4 81 bc dd 1f d3 3c db 12 79 3d
       0.07225737 -0.015848361 0.02577203 0.060808998
0003c0 5b 03 fa bb 49 93 13 3d 27 9c 99 bd 57 70 e9 bc
       -0.0076297945 0.036029134 -0.07500487 -0.02849595
0003d0 66 18 4b bd 76 a6 07 bd f6 12 56 bc f2 a7 a4 3c
       -0.049583815 -0.033117734 -0.013066044 0.020099614
0003e0 21 2e 90 3d 0e 9f de 3c 6b 07 aa 3c 73 02 ea bc
       0.070400484 0.027175453 0.02075549 -0.028565621
0003f0 31 fc 66 3d 9a cc 98 3c 47 31 69 3c c0 a9 a0 bb
       0.056392852 0.01865225 0.01423294 -0.0049030483

model.0.bias f4 [64]
000000 ca 61 e1 bc 8e 5c 04 bc ce 0e c2 3c 16 67 31 3d
       -0.02751245 -0.008078707 0.0236887 0.0433112
000010 ed a7 9f 3a 24 09 0e 3d 3d cf ee 3c bd 44 e2 3c
       0.0012180783 0.034676686 0.029151553 0.027620668
000020 b5 58 70 3c 42 1f 4c bc c4 6b 75 bd 57 fd 5d 3a
       0.014669587 -0.012458624 -0.059917226 0.00084682315
000030 cb b1 a2 bc 4e f3 94 3c 61 e0 a6 bd 57 bc 5a 3d
       -0.019860169 0.018182423 -0.08148266 0.05340227
000040 bb ea 76 3c 7d 42 58 bd 4a db 76 3d d6 2a ab bd
       0.015070613 -0.052797783 0.060267724 -0.0835778
000050 da 62 13 3c a3 05 d6 3a bd 78 8d bc 82 30 cf 3c
       0.008995736 0.0016328584 -0.017269487 0.025291685
000060 79 be a6 3a c8 34 c7 bd 88 62 3c 3b 07 42 57 bb
       0.001272156 -0.09726864 0.0028745253 -0.0032845752
000070 bc fc a7 3d 31 72 3a bd cc 9b 93 3c bb 6c 2f 3d
       0.08202502 -0.045519058 0.018018626 0.042828303
000080 97 8d 70 3d 16 f4 4d bd 39 1a 69 bc d2 6d a8 3c
       0.05872878 -0.050281607 -0.014227443 0.020560179
000090 c4 73 31 3d aa 98 5b 3c cd 75 c2 3c 7d d5 1f bc
       0.043323293 0.013403097 0.023737812 -0.009755489
0000a0 af 7b 98 bc dc 5a 6d 3b 5d cc b7 3c ab 91 5d 3c
       -0.018613664 0.0036217486 0.022436315 0.0135234995
0000b0 eb f6 28 bd c2 7e 39 bd 12 92 02 bc 32 71 f0 bc
       -0.041251104 -0.0452869 -0.007969396 -0.02935085
0000c0 6f 8c f4 3c b0 29 a6 3d e2 d9 f1 3a 1a fc 20 bd
       0.02985212 0.0811342 0.0018451775 -0.039302923
0000d0 c8 e6 24 3d 5f f3 2a 3d 49 d1 8d bd bb 7e 32 3d
       0.040259153 0.041736003 -0.069246836 0.04357789
0000e0 14 72 7f 3c 96 f7 9d 3c 11 ba d7 3a b8 65 8b bc
       0.015591163 0.019283097 0.001645865 -0.017016277
0000f0 f7 4c 13 3d 0b 47 9e bc 60 b9 9d bd bd 1c 22 bc
       0.03596207 -0.019320985 -0.07701373 -0.009894547

model.2.weight f4 [1, 64]
000000 da d5 c9 3d 07 4b bc 3d 5a e9 e9 bd f5 68 37 bd
       0.09855242 0.09193998 -0.114214614 -0.04477783
000010 3b c4 d7 bd 70 29 8d bd d0 14 b0 bd 16 49 8c bc
       -0.10535475 -0.06892669 -0.0859772 -0.017124694
000020 90 66 ee 3c 3d 20 4b bc 26 bb 60 3d 2f b3 90 3c
       0.02910164 -0.012397823 0.05486598 0.017663566
000030 2a 0e 90 3c 29 c6 70 3d dc 9d 9a 3d 75 70 7d bd
       0.017584879 0.05878273 0.075496405 -0.061874826
000040 9d 10 19 3c 5b 59 1d bd 69 69 ac bd 7e d9 83 3c
       0.00934234 -0.038415294 -0.08418543 0.01609492
000050 1c da 2b 3d 9b 56 38 3d dd 87 80 3e a8 c1 b0 3e
       0.041956052 0.04500447 0.25103655 0.34522748
000060 99 1f 87 bd c2 34 32 bc 9f 77 ad 3e a9 7f 8c 3d
       -0.06597824 -0.010876836 0.33880326 0.06860287
000070 eb a0 be bd f2 8f b1 3c db c5 2f 3d df 51 51 bd
       -0.093080364 0.021675084 0.0429133 -0.05110347
000080 54 47 df bd ae e0 89 3d 39 68 18 bd 94 1e 69 3d
       -0.10902277 0.067323074 -0.03720877 0.056913927
000090 d8 2f 33 bd e9 a9 2f 3d 3b a6 39 3d 7c 1b 7e 3d
       -0.0437468 0.04288665 0.045324545 0.06203793
0000a0 3d 67 80 3c 02 13 5e 3d 43 b2 6a 3d 89 2e 06 3e
       0.015674228 0.054217346 0.05729891 0.13103689
0000b0 a0 e8 8a bd 9b dd f7 bc f4 de 3d 3e f9 29 35 bd
       -0.06782651 -0.030257037 0.18542081 -0.04422948
0000c0 ea 40 3c bd b6 64 fe bc e4 8e 83 bd ef 1a b6 3e
       -0.045960344 -0.031053882 -0.064237386 0.35567424
0000d0 0f 8a dc bd 5c 95 cf bc dc 09 cf 3b 9a 87 b0 3e
       -0.1076852 -0.025339775 0.006318314 0.34478456
0000e0 09 ca ef bd da 64 0d 3e 1e 3b 79 3d 0c 33 93 bd
       -0.11708457 0.13808003 0.060847394 -0.07187471
0000f0 d8 6f c1 3d e0 b5 08 3d b5 6b 88 3d df 74 29 3e
       0.094451606 0.033376575 0.066611685 0.16548489
