GP_MVC_hw_3view/results/checkpoints/experiment_name/2_net_CLU.pth (torch_old, 4413 bytes, 1 tensors)

weights f4 [10, 100]
1.012321 0.67274106 0.78002316 0.34536403 0.76947355 1.3068742 0.644106 0.5118921
0.4093021 0.6977643 0.2009154 0.4016724 0.3039152 0.040959198 0.555071 2.1652344e-22
0.011820251 0.75118726 0.36085775 0.16265135 1.1039971 1.3373647 1.7005408 0.3576663
0.4894992 0.028633026 0.26827398 1.0368985 0.24575277 0.8549999 0.4936582 1.0510771
0.2502919 0.58019674 3.9639688e-32 0.048646484 0.45922145 0.024664115 1.1639116 0.05357268
0.7789093 0.033439092 0.9247363 -0.0 0.5297491 0.8525234 0.0866264 1.0204307
0.29736164 0.21335381 0.031137375 1.3565938 0.9773613 0.37370336 0.8541776 0.9742666
0.46458584 0.85281634 0.7824075 0.019378055 0.0 0.49651104 0.91682875 0.64338803
0.0059447386 0.8258558 0.107596666 1.5448264 -0.012195903 0.73584133 1.2893375 0.48232982
0.0036907059 0.4924874 0.3611734 0.7574087 1.2117802 0.7309717 0.41875735 0.46839538
2.6261454e-18 5.3499253e-36 -3e-45 4e-45 -1e-45 1.1496933 0.9838651 0.25264594
1.4010717 0.78395575 0.0135555845 0.756182 0.55988574 0.97877896 0.34409618 0.3458292
0.45741376 0.9947226 0.42128378 0.9534421 0.7996154 0.74130225 0.25596967 0.8227973
0.99519515 0.85079145 0.5491786 0.6626041 0.4339918 0.7121097 0.8415807 0.09247908
0.54060966 0.044076696 0.5778134 -3e-45 0.006140708 1.0446069 0.63942575 0.51149225
0.9224665 1.0934414 0.7834642 0.6454311 0.8949482 -0.004106095 0.4757997 0.35029578
0.22585985 0.728661 1.0064131 1.271415 0.47764802 0.46303555 -1.8739716e-28 0.068969384
1.0657632 0.03624141 0.56238425 0.6682892 0.4123216 0.030236991 0.46309805 -8.305029e-22
1.1571475 0.6282675 0.14423992 0.34397498 0.40420222 0.24336481 0.005073746 1.4666713
0.91648716 0.33074853 1.1256067 0.6321008 1.1774764 0.621699 0.8000453 0.12719734
0.0 1.5050697 1.1820523 0.5066033 -0.00111547 0.46557903 0.15996607 1.7571498
0.60321134 1.0845634 0.77736366 0.34031716 0.031052837 0.9225602 1.1977596 0.5515709
0.61208135 1.3413067 0.7890292 0.95863587 1.056667e-39 -1.1192246e-27 -5.088193e-27 4e-45
4e-45 0.45524627 0.6108094 1.3856518 0.62336344 0.62858856 0.04110369 0.6124849
0.72171634 1.0144787 0.76470923 0.74362457 0.9174122 0.844513 0.94254935 0.60313
1.9037924 0.7447271 0.10166156 0.71431625 0.29949272 1.5092582 0.9838129 0.40262142
0.2631463 0.5292379 -0.0064580273 0.6235757 0.55292314 0.032461584 0.6241139 3.2558997e-05
0.002488438 1.5484736 0.3922037 0.118867114 0.6374062 0.5338748 1.9311746 0.35686418
0.17205827 0.048784915 0.2688723 1.0602635 0.25351423 1.2054554 0.5274567 1.2974503
0.7078107 0.8041183 -6.28493e-29 0.6866312 0.4797824 0.02250799 0.91704494 0.02084188
1.190324 0.036489047 0.88057387 -7e-45 0.54439926 0.6080869 -0.009883498 0.889335
1.12769 0.16567445 0.036147144 1.3333668 0.48016965 0.9471463 0.8617025 1.6521089
00000000: bc93 813f c238 2c3f 99af 473f 8ed3 b03e
00000010: 38fc 443f a747 a73f 21e4 243f 5c0b 033f
00000020: 0b90 d13e aea0 323f c4bc 4d3e 01a8 cd3e
00000030: c69a 9b3e d5c4 273d 2219 0e3f 61e1 821b
00000040: baa9 413c cf4d 403f 59c2 b83e 138e 263e
00000050: c74f 8d3f c42e ab3f 52ab d93f 0a20 b73e
00000060: a49f fa3e cf8f ea3c 355b 893e 17b9 843f
00000070: 9da6 7b3e 46e1 5a3f c5c0 fc3e b289 863f
00000080: 4326 803e c687 143f 2fd2 4d0b 8941 473d
00000090: 131f eb3e 660c ca3c 0efb 943f 076f 5b3d
000000a0: 9a66 473f 6ef7 083d 85bb 6c3f 0000 0080
000000b0: a39d 073f f93e 5a3f 2f69 b13d 799d 823f
000000c0: c93f 983e 6c79 5a3e cf13 ff3c dea4 ad3f
000000d0: 5a34 7a3f 0c56 bf3e 62ab 5a3f 8969 793f
000000e0: 32de ed3e 2c52 5a3f dc4b 483f babe 9e3c
000000f0: 0000 0000 b236 fe3e 4ab5 6a3f 14b5 243f
00000100: 15cc c23b 496b 533f a45b dc3d dfbc c53f
00000110: 53d1 47bc 1960 3c3f 0309 a53f eff3 f63e
00000120: c5df 713b 4f27 fc3e b8eb b83e 89e5 413f
00000130: 9d1b 9b3f f620 3b3f 5d67 d63e 85d1 ef3e
00000140: 7cc6 4122 878f e304 0200 0080 0300 0000
00000150: 0100 0080 2629 933f 95de 7b3f cf5a 813e
00000160: 5156 b33f 53b1 483f 3e18 5e3c 2595 413f
00000170: ac54 0f3f 4291 7a3f 602d b03e 8610 b13e
00000180: 2332 ea3e 24a6 7e3f 82b2 d73e c814 743f
00000190: 98b3 4c3f fcc5 3d3f 750e 833e d8a2 523f
000001a0: 1cc5 7e3f 78cd 593f f896 0c3f 6ca0 293f
000001b0: 2c34 de3e d24c 363f d571 573f ac65 bd3d
000001c0: 6565 0a3f c489 343d 94eb 133f 0200 0080
000001d0: fe37 c93b aeb5 853f 68b1 233f 28f1 023f
000001e0: c426 6c3f e3f5 8b3f 1c91 483f f93a 253f
000001f0: 531b 653f 6c8c 86bb 059c f33e f859 b33e
00000200: ce47 673e 8789 3a3f 25d2 803f babd a23f
00000210: 488e f43e ff12 ed3e db8d 6d91 d23f 8d3d
00000220: ee6a 883f df71 143d 6af8 0f3f 0015 2b3f
00000230: d11b d33e 91b3 f73c 301b ed3e 0d01 7b9c
00000240: 691d 943f 24d6 203f a1b3 133e 7d1d b03e
00000250: 98f3 ce3e a034 793e ab41 a63b e3bb bb3f
00000260: e79e 6a3f df57 a93e e113 903f 5cd1 213f
00000270: 8cb7 963f aa27 1f3f c5cf 4c3f 0540 023e
00000280: 0000 0000 20a6 c03f 7d4d 973f c1b0 013f
00000290: f634 92ba 6060 ee3e 25ce 233e 49ea e03f
000002a0: 0f6c 1a3f f9d2 8a3f 4e01 473f 0d3e ae3e
000002b0: 8562 fe3c e82c 6c3f 3050 993f c033 0d3f
000002c0: 5db1 1c3f f0af ab3f d1fd 493f 2969 753f
000002d0: 8f81 0b00 2559 b192 6890 c993 0300 0000
000002e0: 0300 0000 0a16 e93e 015e 1c3f 0a5d b13f
000002f0: bf94 1f3f 2eeb 203f 585c 283d cfcb 1c3f
00000300: 67c2 383f 70da 813f fcc3 433f 2e5e 3e3f
00000310: 87db 6a3f 0132 583f ea4a 713f ba66 1a3f
00000320: 78af f33f 6fa6 3e3f f033 d03d 6edd 363f
00000330: 1c57 993e 5f2f c13f 2adb 7b3f 6524 ce3e
00000340: 1dbb 863e 237c 073f dc9d d3bb a8a2 1f3f
00000350: 5f8c 0d3f 70f6 043d eec5 1f3f f58f 0838
00000360: 1015 233b 6234 c63f ecce c83e 9a70 f33d
00000370: 0d2d 233f 05ac 083f bb30 f73f e7b6 b63e
00000380: 0b30 303e b1d2 473d a1a9 893e b7b6 873f
00000390: 9ecc 813e 5d4c 9a3f 6707 073f da12 a63f
000003a0: 1533 353f b2da 4d3f 8757 9f90 10c7 2f3f
000003b0: 0aa6 f53e ad62 b83c 75c3 6a3f 97bc aa3c
000003c0: 895c 983f 8a75 153d 4a6d 613f 0500 0080
000003d0: c05d 0b3f 95ab 1b3f 65ee 21bc 75ab 633f
000003e0: 2558 903f 90a6 293e 070f 143d c3ab aa3f
000003f0: ccd8 f53e 2e78 723f 8998 5c3f 4e78 d33f
