GP_MVC_hw_3view/results/checkpoints/experiment_name/3_net_AE.pth (torch_old, 935829 bytes, 17 tensors)

layer1_1.weight f4 [200, 216]
0.0069325953 -0.04920762 -0.04615479 0.032561176 0.015575078 -0.004028869 0.0077309175 0.04852174
-0.062656574 -0.042218372 -0.04664731 -0.045607485 0.0046063955 -0.024344195 -0.04579075 -0.015824778
-0.017592944 -0.04998739 -0.052675165 0.05146287 0.03910193 0.05825777 -0.014097807 0.009219253
-0.014288867 -0.0442154 0.035583016 -0.02490277 0.005025981 0.0019873339 0.013183808 -0.01692867
0.039950944 0.03766945 0.0022436539 0.04095805 -0.0099865645 0.05889835 -0.056380887 -0.05049578
0.055771075 0.039009072 0.06324659 -0.065231904 0.040791295 -0.04879256 0.0036881396 0.06159805
-0.05889639 -0.013341894 -0.011430399 -0.03544112 0.051025573 -0.036770966 -0.02223629 -0.00030004402
-0.01021126 -0.009753618 -0.015471697 0.039022665 0.04851552 0.03543876 -0.040787984 -0.0028504506
0.023538915 -0.051830664 0.066574864 0.04687183 0.014702194 0.043275904 -0.049882784 -0.047725875
-0.04301866 0.014079391 -0.06480156 -0.051122885 -0.069436155 0.049654346 -0.03803079 0.021066584
0.03041377 -0.03009698 0.058221385 -0.06325954 0.018345175 0.06700827 -0.024859274 -0.042148404
-0.046652377 -0.02881475 -0.030321835 -0.047162447 -0.04269958 -0.0041193967 0.003570446 0.011980081
0.04139439 0.059886176 -0.035404854 -0.0011615698 -0.056481402 0.026251929 0.048545815 -0.048350245
-0.041825753 -0.030062646 -0.02555936 0.03430069 0.026180767 0.06378016 0.038372744 -0.0024897486
-0.04172035 0.026813535 0.003589102 0.06910808 -0.025011608 0.004566215 0.042301167 0.06760868
0.015018654 -0.056992516 0.039470144 -0.057826206 -0.034075838 0.050216045 0.029576402 0.013738039
-0.007735457 0.046043895 0.007929348 0.06593451 -0.05343769 -0.0068634576 0.04434617 0.024380768
0.014259261 0.0038071051 -0.049643155 -0.016007975 0.04051935 0.037957083 -0.044622246 0.022246342
0.012283583 -0.04922734 -0.008903335 -0.018316248 0.039482 0.022710104 -0.059115417 -0.03576777
0.023055684 0.053816836 0.037595186 -0.046067633 0.030249283 -0.024409246 -0.06478526 -0.049634285
0.05542915 -0.029601386 -0.05510997 0.039432086 -0.030990325 0.00083541713 0.06395444 0.050926935
-0.05538042 -0.026817845 0.06045065 -0.062961996 -0.016189303 -0.03539065 -0.04624206 0.019748012
-0.04896421 0.0037493408 0.011945194 0.006103715 0.058839157 0.058870636 0.00060687016 0.04997285
0.046686977 -0.04908448 -0.049624775 0.019670436 0.00645281 -0.03940015 -0.007172921 -0.037708145
0.05879525 -0.035284612 -0.042751648 -0.02326604 0.009796484 -0.048180487 0.035533924 0.00320528
-0.023857938 0.015746463 0.022195857 0.024425216 -0.010267656 0.038026385 0.053560928 -0.037529893
0.05773642 -0.010785748 0.06183659 0.06588384 -0.029224362 0.029688282 0.01643915 0.00720064
-0.0032494068 -0.03823691 -0.020083804 0.013908908 -0.06334013 0.046075515 0.01862055 0.044499345
0.052481517 -0.014111366 -0.017950308 -0.018934753 -0.06531948 -0.009941384 0.03239291 0.05181452
-0.014682353 0.04630842 -0.059717495 0.058960035 0.0117562115 0.061926663 -0.026669316 0.053282678
0.023926206 -0.058336698 -0.015490551 0.059033662 -0.05001761 0.025240846 -0.014991786 0.03720648
-0.062114887 -0.0013559982 0.024273463 -0.011721421 -0.042843904 0.03342507 -0.04751943 0.052563794
00000000: d32a e33b ee8d 49bd ce0c 3dbd de5e 053d
00000010: 9d2e 7f3c 9a04 84bb a353 fd3b bbbe 463d
00000020: 1752 80bd 2ced 2cbd 4011 3fbd eace 3abd
00000030: 3ff1 963b 7a6d c7bc 158f 3bbd f7a2 81bc
00000040: 141f 90bc 94bf 4cbd eac1 57bd bbca 523d
00000050: 5829 203d b39f 6e3d 7dfa 66bc 5a0c 173c
00000060: da1b 6abc 351b 35bd 7fbf 113d e500 ccbc
00000070: fcb0 a43b ee3d 023b e600 583c ffad 8abc
00000080: 9aa3 233d 484b 1a3d 440a 133b a1c3 273d
00000090: b09e 23bc 653f 713d a5ef 66bd aad4 4ebd
000000a0: 3670 643d fac7 1f3d 6e87 813d 4e98 85bd
000000b0: c614 273d b5da 47bd b7b4 713b 3d4e 7c3d
000000c0: 573d 71bd f697 5abc 9146 3bbc b52a 11bd
000000d0: 3100 513d 279d 16bd e128 b6bc 3a4f 9db9
000000e0: 214d 27bc a4cd 1fbc 007d 7dbc 3bd6 1f3d
000000f0: 36b8 463d 3c28 113d 4d11 27bd a0ce 3abb
00000100: afd4 c03c 644c 54bd 6758 883d adfc 3f3d
00000110: 79e1 703c 1342 313d e451 4cbd 357c 43bd
00000120: 5634 30bd 3fad 663c aeb6 84bd 3b66 51bd
00000130: 8b34 8ebd 5b62 4b3d 2cc6 1bbd d493 ac3c
00000140: 4c26 f93c f18d f6bc 8c79 6e3d 388e 81bd
00000150: 9f48 963c a23b 893d ada5 cbbc cea3 2cbd
00000160: 9016 3fbd e90c ecbc 7f65 f8bc 692d 41bd
00000170: c1e5 2ebd 01fc 86bb 25fe 693b 1a48 443c
00000180: 2a8d 293d 354b 753d ae04 11bd d13f 98ba
00000190: 0b59 67bd 490e d73c fad7 463d e80a 46bd
000001a0: 7b51 2bbd f045 f6bc dd61 d1bc e17e 0c3d
000001b0: 0c79 d63c 2c9f 823d bd2c 1d3d 0d2b 23bb
000001c0: f5e2 2abd 0fa8 db3c 2437 6b3b 8988 8d3d
000001d0: 25e5 ccbc 30a0 953b fd43 2d3d 6b76 8a3d
000001e0: cd10 763c fc70 69bd 72ab 213d 2cdb 6cbd
000001f0: 1b93 0bbd 57af 4d3d 364a f23c 8315 613c
00000200: b779 fdbb 8698 3c3d 19ea 013c ac08 873d
00000210: 7be1 5abd dbe6 e0bb 54a4 353d 2dba c73c
00000220: ad9f 693c a080 793b 9f56 4bbd 2823 83bc
00000230: 9ef7 253d e378 1b3d d1c5 36bd f63d b63c
00000240: 1541 493c 9ba2 49bd 4bdf 11bc f50b 96bc
00000250: e1b7 213d 8a0a ba3c 0223 72bd 3a81 12bd
00000260: 46df bc3c 0b6f 5c3d 69fd 193d 6ab1 3cbd
00000270: 58cd f73c e6f5 c7bc 22ae 84bd 524d 4bbd
00000280: ad09 633d 9b7e f2bc feba 61bd 8a83 213d
00000290: 6cdf fdbc e5ff 5a3a 8cfa 823d c398 503d
000002a0: 94d6 62bd 19b1 dbbc 1a9b 773d 38f2 80bd
000002b0: 6e9f 84bc c9f5 10bd 5068 3dbd 95c6 a13c
000002c0: b28e 48bd 80b7 753b c6b5 433c ac01 c83b
000002d0: 5401 713d 5622 713d 5e16 1f3a 55b0 4c3d
000002e0: d83a 3f3d cf0c 49bd 5943 4bbd e523 a13c
000002f0: 1872 d33b 0d62 21bd d30a ebbb db73 1abd
00000300: 4ad3 703d 9986 10bd 5a1c 2fbd 6c98 bebc
00000310: 6f81 203c e758 45bd 058c 113d ad0f 523b
00000320: b971 c3bc bafe 803c 16d4 b53c 6417 c83c
00000330: ac39 28bc 8ec1 1b3d b462 5b3d f2b8 19bd
00000340: 067d 6c3d b5b6 30bc 5d48 7d3d 1bee 863d
00000350: ee67 efbc d734 f33c 65ab 863c 59f3 eb3b
00000360: 00f4 54bb 4e9e 1cbd ca86 a4bc 30e2 633c
00000370: 78b8 81bd aeb9 3c3d 208a 983c f244 363d
00000380: dcf6 563d 5c33 67bc 860c 93bc 0e1d 9bbc
00000390: 38c6 85bd 30e1 22bc 6eae 043d 763b 543d
000003a0: 408e 70bc e6ad 3d3d 559a 74bd 1480 713d
000003b0: 209d 403c d0a6 7d3d 9c79 dabc f03e 5a3d
000003c0: e400 c43c 76f2 6ebd 14cc 7dbc 48cd 713d
000003d0: 44df 4cbd e4c5 ce3c 1ca0 75bc d265 183d
000003e0: 2e6c 7ebd c0bb b1ba 24d9 c63c 340b 40bc
000003f0: 177d 2fbd bae8 083d bca3 42bd 224d 573d

layer1_2.weight f4 [200, 76]
-0.04307972 0.15284055 -0.008415024 0.033480912 -0.03935796 -0.14667201 -0.13066229 -0.08078363
-0.15436563 -0.09793698 -0.039792616 -0.15504786 -0.11186155 -0.11864016 -0.101262875 0.033571422
-0.08692323 0.047703605 0.086642064 -0.042359646 -0.07409757 -0.013817844 -0.097008504 -0.01974451
0.044889987 -0.09932902 -0.060553208 0.055311374 -0.05623315 0.04104731 -0.064027734 0.09801117
-0.08148084 0.11900926 0.004871748 0.024311736 -0.002008373 -0.090902455 -0.0046212114 -0.022409895
0.063826144 -0.054956138 0.005766504 0.0590519 0.037857503 0.055961344 -0.033830654 -0.0331876
0.007523824 -0.08461448 0.07227577 -0.03481961 0.031332947 -0.10516253 -0.03275714 0.019301154
-0.07756461 -0.07754764 0.0035684668 0.086211674 -0.083875276 0.058539692 0.043985173 -0.032226313
-0.10577639 -0.02893866 -0.017751908 -0.06523229 0.04075616 0.059885636 0.027965568 -0.035984848
-0.09099897 0.11982763 0.06634526 0.03780466 -0.15962759 -0.023292033 -0.09053612 0.079095066
0.14756045 -0.1597535 0.053462323 -0.12955661 0.20414056 0.03711397 -0.020827496 -0.105413824
-0.10531863 0.07344588 0.057040714 -0.12019749 0.052832432 -0.08802258 -0.006506083 0.0010340925
0.06841476 -0.0893086 0.0057082684 0.050938986 0.10092264 0.019066757 -0.095337026 0.003603608
0.10393873 0.0125236735 -0.024421502 0.050135303 0.10001747 0.01493312 -0.1089437 0.06102725
-0.018676667 -0.033991564 -0.07963661 0.11651226 -0.06343183 0.0020216643 -0.094426624 -0.06782772
-0.006043286 0.039760657 0.0030585567 0.08251752 0.044302877 -0.12678817 0.034873217 0.07832855
0.08502528 0.03381588 -0.117548026 -0.071312144 0.048683364 0.049335014 0.02719709 -0.051377747
0.011334062 -0.13521281 -0.012324992 0.1346658 -0.04048024 -0.015808428 -0.0688014 -0.034729492
-0.048278417 -0.08706613 -0.051735524 0.09485989 -0.08903347 0.16720274 -0.07678465 0.2003066
-0.0753317 -0.03435337 -0.17317578 -0.15736714 0.13808157 -0.06348845 -0.03744931 -0.10490842
-0.00047373748 -0.055741344 0.0132331755 0.02639166 -0.05213783 0.18301284 0.07196453 -0.013477989
0.07852929 0.048043516 -0.008711765 -0.08124254 0.05910555 0.06939941 0.038209766 -0.06365669
0.04391178 0.08283262 0.06224463 -0.063619874 0.07618201 -0.08937504 -0.10548054 -0.065004684
0.055348866 0.07703803 0.08479279 0.058860473 0.09110883 0.05576259 0.020601684 0.092611164
-0.059719026 0.10506221 -0.028931815 0.05087019 -0.10143321 -0.07242906 -0.023938244 0.06785351
-0.07908014 0.051197026 0.021791823 0.017316228 0.02796477 -0.055370998 -0.09577872 -0.01711638
0.039793037 0.027453508 -0.05368782 -0.09815218 0.04353415 -0.10845177 -0.036193773 0.043464847
-0.16392338 0.11090263 0.043685682 0.021745807 -0.12895794 0.043327164 -0.118691035 0.1298445
-0.05780859 0.021619558 0.00551642 0.10781165 0.034720093 -0.018600523 -0.06987133 0.09167418
-0.024268152 -0.028185211 0.08507674 0.08174008 0.01085455 0.10816053 -0.0088756485 0.075001374
-0.06598154 -0.086107805 0.11102409 0.007469712 0.10944166 0.06880719 -0.035868756 0.02982227
-0.031377554 0.10371001 0.089829646 -0.031338595 -0.08533287 0.0054949205 -0.055941746 -0.08637053
00000000: 5c74 30bd 3c82 1c3e 2bdf 09bc 4823 093d
00000010: d035 21bd 3031 16be 56cc 05be e371 a5bd
00000020: 0612 1ebe 2f93 c8bd 95fd 22bd dec4 1ebe
00000030: ab17 e5bd 9df9 f2bd e962 cfbd 3082 093d
00000040: ce04 b2bd db64 433d 6571 b13d 4f81 2dbd
00000050: 77c0 97bd 3d64 62bc 65ac c6bd 3dbf a1bc
00000060: 90de 373d 036d cbbd a406 78bd 2e8e 623d
00000070: bb54 66bd 3921 283d f920 83bd 15ba c83d
00000080: 6ddf a6bd 20bb f33d 2fa3 9f3b 6829 c73c
00000090: e89e 03bb 112b babd 886d 97bb f594 b7bc
000000a0: 48b7 823d b019 61bd f1f4 bc3b 68e0 713d
000000b0: 7810 1b3d b937 653d 0392 0abd b9ef 07bd
000000c0: 698a f63b 5b4a adbd 5205 943d 029f 0ebd
000000d0: fa56 003d 745f d7bd 5a2c 06bd 741d 9e3c
000000e0: 32da 9ebd 4cd1 9ebd f0dc 693b bf8f b03d
000000f0: cdc6 abbd 51c7 6f3d cc29 343d bdff 03bd
00000100: 4ba1 d8bd c510 edbc 736c 91bc 8298 85bd
00000110: eeef 263d a44a 753d 0c18 e53c d964 13bd
00000120: ab5d babd 3068 f53d 06e0 873d 0fd9 1a3d
00000130: 6a75 23be efce bebc 006b b9bd 98fc a13d
00000140: 161a 173e 6c96 23be 4ffb 5a3d 7daa 04be
00000150: 390a 513e d104 183d 6d9e aabc 34e3 d7bd
00000160: 4bb1 d7bd cb6a 963d 86a3 693d 1a2a f6bd
00000170: d266 583d 2f45 b4bd fb30 d5bb 638a 873a
00000180: 0a1d 8c3d 6de7 b6bd 6d0c bb3b 66a5 503d
00000190: 87b0 ce3d e331 9c3c 0f40 c3bd 832a 6c3b
000001a0: d4dd d43d 1830 4d3c 9a0f c8bc ad5a 4d3d
000001b0: f6d5 cc3d 0caa 743c e01d dfbd b6f7 793d
000001c0: cfff 98bc bd3a 0bbd 8518 a3bd fb9d ee3d
000001d0: 8ce8 81bd e67d 043b bf62 c1bd 42e9 8abd
000001e0: c206 c6bb 12dc 223d 1172 483b f2fe a83d
000001f0: ef76 353d c2d4 01be 38d7 0e3d b86a a03d
00000200: bc21 ae3d 8582 0a3d 05bd f0bd 1a0c 92bd
00000210: 3568 473d 8313 4a3d 6fcc de3c 7971 52bd
00000220: 80b2 393c 3a75 0abe c3ee 49bc d5e5 093e
00000230: 9cce 25bd ad80 81bc c0e7 8cbd 8340 0ebd
00000240: 97bf 45bd ba4f b2bd a1e8 53bd e745 c23d
00000250: 2e57 b6bd 3237 2b3e 4541 9dbd 2c1d 4d3e
00000260: 8247 9abd 1fb6 0cbd fe54 31be da24 21be
00000270: 4165 0d3e 3c06 82bd 7364 19bd 3ada d6bd
00000280: f85f f8b9 0951 64bd f6cf 583c 5333 d83c
00000290: 7a8e 55bd b867 3b3e 2462 933d c8d2 5cbc
000002a0: f7d3 a03d 47c9 443d cabb 0ebc 7d62 a6bd
000002b0: a918 723d 4721 8e3d d881 1c3d 705e 82bd
000002c0: d7dc 333d 26a4 a93d 3af4 7e3d 234b 82bd
000002d0: 5005 9c3d 430a b7bd 2e06 d8bd 2d21 85bd
000002e0: 7eb5 623d 1dc6 9d3d d8a7 ad3d ae17 713d
000002f0: 4497 ba3d 5067 643d ddc4 a83c ecaa bd3d
00000300: f09b 74bd db2a d73d 6a02 edbc 435d 503d
00000310: 37bc cfbd b055 94bd 231a c4bc c8f6 8a3d
00000320: c5f4 a1bd f9b3 513d c484 b23c c3da 8d3c
00000330: 6016 e53c b3cc 62bd a227 c4bd a737 8cbc
00000340: 06fe 223d 2ee6 e03c c2e7 5bbd 0304 c9bd
00000350: dd50 323d f61b debd ec3f 14bd 3208 323d
00000360: 88db 27be eb20 e33d c2ef 323d 4324 b23c
00000370: 8d0d 04be d377 313d 4914 f3bd f5f5 043e
00000380: b3c8 6cbd 801b b13c 16c3 b43b 5bcc dc3d
00000390: a836 0e3d 2060 98bc b318 8fbd acbf bb3d
000003a0: 01ce c6bc ace4 e6bc b73c ae3d 5867 a73d
000003b0: 48d7 313c 4583 dd3d 2b6b 11bc 529a 993d
000003c0: 5421 87bd 4a59 b0bd 9960 e33d 7cc4 f43b
000003d0: f322 e03d c9ea 8c3d 1eeb 12bd d54d f43c
000003e0: c085 00bd ea65 d43d 9bf8 b73d e65c 00bd
000003f0: 00c3 aebd bc0e b43b 2c23 65bd 08e3 b0bd

layer1_3.weight f4 [200, 64]
-0.11637363 0.2628719 0.051105604 0.050959498 0.11545314 4.3033833e-05 -0.15530957 0.058507252
0.113489844 -0.1729477 -0.13435152 -0.0070591085 -0.044003103 -0.0896549 0.16274567 0.032357384
-0.06658841 0.030562269 0.029466216 0.13599396 -0.12565789 0.038445406 -0.022566272 0.043774836
0.11301785 0.01615739 0.036547184 -0.030732512 0.04494381 -0.016341632 -0.060710505 0.079230845
0.035539772 -0.019737307 0.07411587 -0.03299558 0.14268821 -0.070364125 0.17525847 0.08963833
0.056786016 0.11801203 0.01776386 -0.11690616 -0.16640432 -0.026120173 0.102394804 0.024347056
-0.020433107 0.057590272 -0.07616918 0.016290063 -0.085925736 0.025982857 -0.0105948085 0.032003473
-0.044575844 -0.015898094 -0.03472566 0.019428978 -0.05094151 -0.08788553 -0.1164745 0.05663444
-0.046382092 0.033331327 -0.0007710756 0.11197786 0.11518244 0.03578332 -0.1900091 0.104209125
0.05172239 -0.13532756 -0.18966174 0.077427484 -0.038410045 0.0657047 0.13147135 -0.021108923
0.011166328 -0.096195854 0.05227963 0.11970045 0.09819823 0.14725482 0.0089831 0.1936787
-0.09542578 -0.017705137 -0.07918198 0.044176288 0.14765725 -0.032059997 0.048089676 -0.07497867
-0.09229777 0.00015186224 0.06580832 0.06449197 0.13342996 0.0016557565 -0.001742194 0.06692355
-0.064642884 0.10328426 -0.015390905 -0.06654277 0.16514765 0.08509425 0.008080229 -0.10363629
-0.00046544723 0.03859666 -0.044800684 0.04567755 0.013046922 0.034357898 -0.06312301 0.05397251
-0.092842415 0.17675857 0.057224486 -0.09523933 0.12981315 0.07341872 0.07690687 -0.08683907
-0.17829567 -0.16102141 0.18170251 -0.21596844 0.03834702 0.13718353 -0.14697689 -0.048953507
0.061962053 -0.13456257 0.027570222 -0.07060199 0.13549076 -0.12764283 0.1555528 0.07712663
0.10037401 0.013137162 -0.018996054 0.18452992 -0.029440057 0.09774774 0.16206655 0.09310854
0.05146934 -0.081814036 -0.009012574 0.02419356 -0.091489755 0.023347499 0.07390431 0.073834546
-0.097701 -0.01335799 0.03469617 -0.081206135 0.18276086 -0.021983398 0.015773362 0.01777982
-0.045360282 0.040587552 0.11217488 0.06607345 0.11899731 0.07019842 0.05050055 -0.07225319
0.10402299 0.087870054 0.019732656 0.08972635 -0.13801543 -0.033985153 -0.06573409 0.18337758
-0.07659753 -0.056770172 0.008401236 0.05204289 -0.07139112 -0.04266819 -0.068797715 -0.100893185
0.09767871 0.053675372 -0.14933884 -0.042797107 0.11104343 -0.1767331 0.22286004 0.11703702
-0.08316786 -0.03570452 0.038124595 0.06743513 -0.07703881 -0.057698812 -0.10073836 0.040405966
0.052546844 0.037614357 0.007568478 -0.10935925 0.111452654 0.09609142 0.021728078 -0.14040138
0.020409953 -0.15011522 0.07773508 -0.15987803 -0.03466203 0.08203802 -0.08099871 -0.1080477
0.05183851 -0.012617941 -0.0032714438 -0.021132164 0.19903168 0.13629608 0.07240613 -0.08203171
0.026440237 0.09723399 -0.03939263 -0.04471747 -0.09834446 -0.076633595 -0.04647991 -0.04810083
0.16732764 -0.037436273 0.10149584 -0.05982227 -0.072894715 0.14268152 0.1028573 0.0058054375
-0.08958091 0.058280684 0.008142868 -0.05289638 -0.0913594 -0.040755104 -0.0032611077 0.0766402
00000000: 4c55 eebd 2597 863e 1c54 513d e8ba 503d
00000010: b272 ec3d 3a7f 3438 7909 1fbe 4da5 6f3d
00000020: 5d6d e83d 3419 31be 7293 09be 1850 e7bb
00000030: 993c 34bd fd9c b7bd cda6 263e 2d89 043d
00000040: 815f 88bd b95d fa3c 2263 f13c 0042 0b3e
00000050: 76ac 00be ee78 1d3d e7dc b8bc 3e4d 333d
00000060: e775 e73d 815c 843c 80b2 153d c0c2 fbbc
00000070: 0017 383d e3de 85bc 94ab 78bd c843 a23d
00000080: 2792 113d 22b0 a1bc 10ca 973d 6026 07bd
00000090: dc1c 123e 111b 90bd f576 333e 4d94 b73d
000000a0: 7498 683d 4bb0 f13d 8485 913c 7f6c efbd
000000b0: e565 2abe f9f9 d5bc 5eb4 d13d 7a73 c73c
000000c0: 5563 a7bc c7e3 6b3d 96fe 9bbd bd72 853c
000000d0: d5f9 afbd 00da d43c d995 2dbc 1316 033d
000000e0: 2995 36bd b83c 82bc 7e3c 0ebd 8529 9f3c
000000f0: 0ba8 50bd 54fd b3bd 2f8a eebd 84f9 673d
00000100: 26fb 3dbd 6e86 083d 0222 4aba a654 e53d
00000110: c5e4 eb3d 8891 123d bf91 42be 986b d53d
00000120: dbda 533d 4f93 0abe b036 42be 4d92 9e3d
00000130: da53 1dbd 3090 863d 6da0 063e 9fec acbc
00000140: f9f2 363c 5502 c5bd 2a23 563d 8225 f53d
00000150: 271c c93d f8c9 163e da2d 133c b653 463e
00000160: 976e c3bd 5d0a 91bc 292a a2bd 32f2 343d
00000170: 7633 173e 5851 03bd aef9 443d 6b8e 99bd
00000180: 9d06 bdbd 363d 1f39 83c6 863d 5e14 843d
00000190: dda1 083e f805 d93a 555a e4ba 370f 893d
000001a0: 7d63 84bd b386 d33d 222a 7cbc 9347 88bd
000001b0: 771c 293e e545 ae3d f062 043c 433f d4bd
000001c0: 4507 f4b9 8817 1e3d ec80 37bd 6218 3b3d
000001d0: c2c2 553c deba 0c3d a346 81bd 4712 5d3d
000001e0: 2a24 bebd 3300 353e 3964 6a3d d60c c3bd
000001f0: bded 043e 8e5c 963d 5981 9d3d afd8 b1bd
00000200: 2493 36be cce2 24be 3910 3a3e d526 5dbe
00000210: c411 1d3d d779 0c3e 1c81 16be 7983 48bd
00000220: eccb 7d3d c5ca 09be f2da e13c c797 90bd
00000230: 17be 0a3e cdb4 02be 3c49 1f3e 91f4 9d3d
00000240: e490 cd3d 403d 573c 9d9d 9bbc 69f5 3c3e
00000250: 462c f1bc f82f c83d c6f4 253e b1af be3d
00000260: 84d1 523d 1e8e a7bd 7aa9 13bc 9331 c63c
00000270: fb5e bbbd 4143 bf3c 255b 973d 9136 973d
00000280: 7617 c8bd 79db 5abc 921d 0e3d 674f a6bd
00000290: aa25 3b3e 8716 b4bc 2337 813c fca6 913c
000002a0: b4cb 39bd 223f 263d f2bb e53d 8451 873d
000002b0: ddb4 f33d 30c4 8f3d aad9 4e3d 7bf9 93bd
000002c0: 010a d53d 37f5 b33d 61a6 a13c 73c2 b73d
000002d0: eb53 0dbe 0434 0bbd 989f 86bd 55c7 3b3e
000002e0: 2adf 9cbd d787 68bd 56a5 093c ed2a 553d
000002f0: 8235 92bd d7c4 2ebd d1e5 8cbd 16a1 cebd
00000300: c70b c83d b5da 5b3d 48ec 18be 054c 2fbd
00000310: bd6a e33d 86f9 34be 6c35 643e 1bb1 ef3d
00000320: e953 aabd e73e 12bd 8928 1c3d 6e1b 8a3d
00000330: 86c6 9dbd 9755 6cbd ea4f cebd ba80 253d
00000340: 5c3b 573d 8311 1a3d ff00 f83b bef7 dfbd
00000350: 4a41 e43d 94cb c43d 15ff b13c 61c5 0fbe
00000360: c632 a73c ceb7 19be 9233 9f3d 11b7 23be
00000370: c6f9 0dbd 8d03 a83d a7e2 a5bd 1d48 ddbd
00000380: 9e54 543d 7bbb 4ebc b865 56bb 5c1d adbc
00000390: f6ce 4b3e 3391 0b3e aa49 943d 3e00 a8bd
000003a0: 3299 d83c 9d22 c73d 2b5a 21bd aa29 37bd
000003b0: d268 c9bd 13f2 9cbd b861 3ebd 6005 45bd
000003c0: f057 2b3e c756 19bd 0ddd cf3d 3208 75bd
000003d0: d349 95bd 1b1b 123e d9a6 d23d 8a3b be3b
000003e0: 3276 b7bd bab7 6e3d aa69 053c e0a9 58bd
000003f0: a31a bbbd d3ee 26bd 4fb8 55bb 8af5 9c3d

layer2.weight f4 [150, 200]
-0.0013858182 0.024933822 -0.11221937 0.049448013 -0.014299558 0.116262294 -0.061960656 -0.029441925
0.09480373 0.13192485 -0.007569464 -0.000910438 0.013988549 0.03517107 -0.25784275 0.119250745
-0.0603728 0.059050296 0.07958346 0.050367404 0.09056646 -0.031686462 -0.03412333 0.028866732
-0.024569394 -0.057222772 -0.010307194 -0.06474896 0.01187872 -0.012496714 0.13475357 0.06311937
0.10381188 -0.16461691 0.071613364 0.011068964 -0.04821422 0.02902203 0.05748085 -0.040100727
0.04764615 -0.057877496 0.053687356 -0.13738221 -0.090597816 -0.018772507 -0.09151633 -0.05996234
0.10041175 -0.13798162 0.03443224 -0.06397607 0.048450854 -0.07183098 0.048137262 0.0179017
0.0150191225 -0.0745833 -0.024796307 0.0013351782 0.04803343 0.0017155906 0.032518294 0.05754495
0.0008579827 -0.019181967 0.037481777 0.09146106 -0.01008911 -0.0037146881 0.021124389 -0.07356404
0.062752366 0.017283961 -0.07294174 -0.06475426 0.0143459365 0.018898422 0.19221772 -0.005540243
0.025563318 0.02213254 0.02101617 0.0142563535 0.05294163 0.022534555 -0.05302294 -0.0022896428
0.030811222 -0.015215083 -0.07361584 -0.04438159 0.021526417 0.043821238 0.07655008 0.05651054
-0.022910848 0.039754763 -0.019833138 -0.037058763 0.050590817 0.0018058663 -0.022387292 -0.07784928
0.08120468 -0.005625131 0.034781713 -0.06570495 -0.065463655 -0.044740397 -0.0396879 -0.06969538
0.059506804 -0.03688664 0.17517571 0.00681055 -0.028791478 -0.06349178 0.12227664 0.06657579
-0.0053165155 0.013633042 0.010539548 -0.013106061 -0.19554527 -0.02540175 0.03219326 0.09608627
-0.018664114 0.12637536 0.019634569 -0.071289726 0.16411512 0.05085316 0.05468924 -0.0077869263
-0.0561283 -0.04902245 0.03839357 0.111372516 0.07867812 0.037749548 -0.044012826 0.0050695753
-0.029886302 -0.014100275 0.031192757 0.07254903 -0.044152655 0.018137967 0.05855634 0.06155894
0.025532704 0.024559207 -0.05747563 -0.14511524 -0.06945304 0.055851795 0.07347401 -0.03834542
0.048577502 -0.042055935 -0.06000074 -0.027226552 0.020772148 -0.005442398 -0.05461377 0.044031292
-0.11306606 0.030757133 0.09396115 -0.05482426 -0.033693608 0.10298758 0.03384982 0.026673326
0.024264798 0.0021052533 0.06038049 -0.011490229 0.003947225 0.038531844 0.048156954 -0.05632478
0.04555597 0.007314843 0.047816865 -0.021003945 0.009751273 -0.03140533 0.0045723757 0.02832117
-0.03221683 -0.06426436 -0.1696457 0.040568538 -0.0054360246 0.041634817 0.00297192 0.021448193
-0.070367664 -0.030144323 -0.08634556 0.09365401 -0.08019612 -0.10123903 0.073366575 0.023674482
0.0139468135 -0.06702936 -0.062144183 -0.040066678 0.08351294 0.047620114 0.017197356 -0.0011338014
0.046916652 0.020007202 -0.045141064 -0.0907783 -0.08611987 0.0028511072 0.010505515 -0.050111458
-0.037557367 0.0012217023 -0.028803928 0.09588131 0.018607704 -0.021539599 0.05497175 -0.0053947107
0.064534605 -0.107118584 0.052325655 0.043518987 0.09342115 -0.035035342 -0.01218102 -0.0110102445
0.012944188 0.008684293 0.037885655 0.009734786 0.015027957 0.018016009 0.027978582 -0.005573231
0.042603377 -0.06575928 -0.029589752 0.1512988 0.011526183 0.032195594 0.0099296 0.06932326
00000000: 58a4 b5ba 0442 cc3c 45d3 e5bd 008a 4a3d
00000010: b148 6abc ed1a ee3d 75ca 7dbd 3130 f1bc
00000020: 7528 c23d 4f17 073e 4409 f8bb 76aa 6eba
00000030: 3a30 653c 8a0f 103d f703 84be bc39 f43d
00000040: 7849 77bd b9de 713d a7fc a23d 0d4e 4e3d
00000050: e87a b93d aac9 01bd e8c4 0bbd ed79 ec3c
00000060: c145 c9bc 6d62 6abd 81df 28bc 1a9b 84bd
00000070: f69e 423c 04bf 4cbc d7fc 093e ba44 813d
00000080: 539b d43d 5691 28be 07aa 923d 9a5a 353c
00000090: 467c 45bd 9cbf ed3c 0a71 6b3d a940 24bd
000000a0: 9c28 433d f410 6dbd 46e7 5b3d ecad 0cbe
000000b0: 598b b9bd cdc8 99bc ea6c bbbd 129b 75bd
000000c0: ada4 cd3d 0e4b 0dbe d208 0d3d e305 83bd
000000d0: 6774 463d 1f1c 93bd 942b 453d 96a6 923c
000000e0: c412 763c 21bf 98bd a021 cbbc 2501 af3a
000000f0: b4be 443d abdd e03a e731 053d 41b4 6b3d
00000100: 3fea 603a 8023 9dbc 7e86 193d f04f bb3d
00000110: cb4c 25bc 2072 73bb 0e0d ad3c bea8 96bd
00000120: 5084 803d 1897 8d3c 7b62 95bd e29d 84bd
00000130: 380b 6b3c ddd0 9a3c b9d4 443e ed8a b5bb
00000140: 2a6a d13c 4d4f b53c 1a2a ac3c 7b93 693c
00000150: 53d9 583d 639a b83c 952e 59bd d50d 16bb
00000160: d167 fc3c af48 79bc e7c3 96bd 78c9 35bd
00000170: 2b58 b03c e67d 333d 4ac6 9c3d 9977 673d
00000180: 88af bbbc e4d5 223d 1b79 a2bc eeca 17bd
00000190: 5138 4f3d d1b2 ec3a 8e65 b7bc 716f 9fbd
000001a0: a44e a63d 0553 b8bb 4577 0e3d 5190 86bd
000001b0: cf11 86bd b541 37bd c88f 22bd 74bc 8ebd
000001c0: 68bd 733d 7216 17bd 4361 333e 092b df3b
000001d0: 1bdc ebbc fa07 82bd 2d6c fa3d e358 883d
000001e0: 2a36 aebb 1f5d 5f3c 11ae 2c3c ceba 56bc
000001f0: 053d 48be 5517 d0bc 14dd 033d e1c8 c43d
00000200: 7ce5 98bc 8b68 013e add8 a03c 5900 92bd
00000210: cb0d 283e 674b 503d d301 603d 7929 ffbb
00000220: cae6 65bd c4cb 48bd 9342 1d3d 4617 e43d
00000230: ff21 a13d 459f 1a3d cb46 34bd ae1e a63b
00000240: 1ed4 f4bc d704 67bc f487 ff3c 9694 943d
00000250: 6ad9 34bd 1396 943c c6d8 6f3d 3a25 7c3d
00000260: f629 d13c 6430 c93c 916b 6bbd 1799 14be
00000270: 653d 8ebd dac4 643d 8b79 963d 1610 1dbd
00000280: 34f9 463d d842 2cbd 56c3 75bd 380a dfbc
00000290: 5a2a aa3c 2556 b2bb b0b2 5fbd 285a 343d
000002a0: 2e8f e7bd 62f6 fb3c b46e c03d 678f 60bd
000002b0: 4f02 0abd 27eb d23d 1ca6 0a3d 0582 da3c
000002c0: f8c6 c63c 4af8 093b 8851 773d 8341 3cbc
000002d0: b957 813b 91d3 1d3d 3a40 453d d0b4 66bd
000002e0: e698 3a3d 5ab1 ef3b 9edb 433d 7710 acbc
000002f0: cec3 1f3c e0a2 00bd ded3 953b cc01 e83c
00000300: cbf5 03bd 089d 83bd 9ab7 2dbe 322b 263d
00000310: ae20 b2bb 4589 2a3d 8bc4 423b 1fb4 af3c
00000320: ec1c 90bd 3af1 f6bc f1d5 b0bd accd bf3d
00000330: dd3d a4bd 6956 cfbd 3741 963d fdf0 c13c
00000340: 2d81 643c b046 89bd e68a 7ebd f51c 24bd
00000350: d508 ab3d 4f0d 433d 78e1 8c3c 109c 94ba
00000360: ad2b 403d 25e6 a33c d6e5 38bd f9e9 b9bd
00000370: 9d5f b0bd a4d9 3a3b 531f 2c3c ac41 4dbd
00000380: c1d5 19bd 8721 a03a 37f6 ebbc 6c5d c43d
00000390: 2f6f 983c d073 b0bc 0f2a 613d 1dc6 b0bb
000003a0: b82a 843d fd60 dbbd 6d53 563d f740 323d
000003b0: 9753 bf3d 3881 0fbd e792 47bc 5064 34bc
000003c0: dc13 543c 9148 0e3c fd2d 1b3d a77e 1f3c
000003d0: d237 763c 4f96 933c 5733 e53c a69f b6bb
000003e0: e180 2e3d cdac 86bd 3566 f2bc 13ee 1a3e
000003f0: 51d8 3c3c 87df 033d c3af 223c 5af9 8d3d

layer2.bias f4 [150]
0.026746249 -0.023603275 0.009770641 0.058978487 -0.004549069 0.008358035 -0.046914462 -0.016265612
-0.01154283 0.0010125894 0.032189474 -0.027560513 0.04933841 0.07298172 0.035635635 -0.009641313
0.014051466 0.038015228 -0.0148134185 0.007275241 -0.03192466 0.07726066 -0.052644566 0.06312671
-0.043363266 -0.035781752 -0.05298576 -0.043900974 0.036382448 -0.046913352 -0.031394053 0.038860884
0.06738549 -0.04080664 -0.03934614 0.07315693 -0.029522236 0.005014902 0.009146431 -0.023494592
-0.06280879 -0.07666668 -0.04585764 -0.045027446 0.009351158 -0.041902997 0.06481829 -0.041616518
0.057638835 0.0043923166 0.06094304 0.020861723 0.07843155 -0.05915296 0.10741911 -0.021996569
0.00046035042 0.06193549 -0.043493886 -0.014177211 0.016667653 0.002329369 0.099836335 -0.002985499
0.065062575 0.027163558 0.061369095 -0.03205104 -0.045504328 0.016686006 -0.04293648 0.07819127
0.074245974 0.011139382 -0.043005418 -0.025406456 0.010537218 0.083588585 0.02319814 -0.06596651
-0.0031480566 0.051845457 0.083676144 -0.010212976 0.016483104 0.081196055 -0.042271495 0.00011249018
0.0052667274 -0.026221458 -0.0056865 -0.036832195 0.053749394 -0.008128865 -0.067938246 -0.0019458388
0.03359575 -0.020153439 0.046671156 -0.034690507 0.019292805 0.035567455 -0.0014504547 -0.0463234
-0.06717173 -0.022645358 -0.033854984 0.07250977 0.026058327 -0.029630559 -0.030404368 0.07097326
0.014645967 -0.036030795 0.0019102701 -0.032180324 0.0033825496 0.041473206 0.043224324 0.04155693
-0.005732948 -0.04233529 -0.030877085 -0.044845477 -0.043963358 0.038135596 0.0009411708 -0.059496548
-0.08423213 0.07974934 -0.05166781 -0.003254157 0.025306946 -0.052202996 0.04838145 0.03006852
0.03225447 -0.011415663 0.01129275 0.04404763 0.035023414 0.041193865 -0.02838023 0.03222688
0.018824706 0.0533744 0.0054354626 -0.035820507 -0.049765997 -0.010809138
00000000: f31a db3c a85b c1bc 0a15 203c 6d93 713d
00000010: 5b10 95bb 24f0 083c 6129 40bd 763f 85bc
00000020: 231e 3dbc ddb8 843a 1cd9 033d 96c6 e1bc
00000030: 1317 4a3d 7177 953d acf6 113d 99f6 1dbc
00000040: 1f38 663c dbb5 1b3d fbb3 72bc 2565 ee3b
00000050: 6fc3 02bd d63a 9e3d d4a1 57bd 9448 813d
00000060: ae9d 31bd e38f 12bd 9907 59bd 82d1 33bd
00000070: c305 153d 3728 40bd 0d97 00bd 972c 1f3d
00000080: 6701 8a3d dd24 27bd 6b29 21bd 4dd3 953d
00000090: 9ed8 f1bc 0c54 a43b eada 153c bb77 c0bc
000000a0: e5a1 80bd 6c03 9dbd 39d5 3bbd b36e 38bd
000000b0: 9935 193c 7aa2 2bbd 74bf 843d 1576 2abd
000000c0: b316 6c3d 6ced 8f3b 699f 793d 34e6 aa3c
000000d0: b8a0 a03d 604a 72bd 8dfe db3d 2632 b4bc
000000e0: 305b f139 12b0 7d3d a526 32bd 8847 68bc
000000f0: 9a8a 883c 54a8 183b fe76 cc3d 5da8 43bb
00000100: 873f 853d 1c86 de3c 295e 7b3d f447 03bd
00000110: bf62 3abd 17b1 883c 2ade 2fbd bf22 a03d
00000120: 460e 983d f481 363c 7326 30bd 3321 d0bc
00000130: 4ca4 2c3c 7e30 ab3d 070a be3c 7319 87bd
00000140: a04f 4ebb e75b 543d 665e ab3d 5354 27bc
00000150: 9307 873c 1e4a a63d e024 2dbd b5e8 eb38
00000160: 8394 ac3b 62ce d6bc d255 babb 5bdd 16bd
00000170: 5328 5c3d ee2e 05bc 3523 8bbd 840b ffba
00000180: b29b 093d d318 a5bc 412a 3f3d a217 0ebd
00000190: f20b 9e3c 2eaf 113d 2f1d beba 9bbd 3dbd
000001a0: 5591 89bd c282 b9bc 86ab 0abd 0180 943d
000001b0: 4678 d53c c9bb f2bc 9512 f9bc 6e5a 913d
000001c0: a3f5 6f3c 0795 13bd 0762 fa3a 84cf 03bd
000001d0: c4ad 5d3b cfdf 293d fd0b 313d 9937 2a3d
000001e0: 74db bbbb c567 2dbd f1f1 fcbc e4af 37bd
000001f0: ec12 34bd 1234 1c3d e7b8 763a a7b2 73bd
00000200: e581 acbd 9f53 a33d a0a1 53bd b243 55bb
00000210: 8350 cf3c cfd2 55bd a12b 463d 4252 f63c
00000220: 431d 043d c308 3bbc 3a05 393c 4a6b 343d
00000230: b674 0f3d e6ba 283d a87d e8bc 5500 043d
00000240: 4536 9a3c 1d9f 5a3d f71b b23b 86b8 12bd
00000250: 6ed7 4bbd d018 31bc

layer3.weight f4 [100, 150]
-0.043947134 0.038700044 0.0369808 0.03694935 0.15449674 0.016664663 0.002034443 0.08602203
0.029714651 0.12607363 -0.04783739 -0.08578534 -0.024207763 -0.053107344 -0.04317043 -0.05809401
0.030684115 -0.12021026 -0.014431076 0.12054956 -0.09807335 0.1111884 -0.103454664 0.0852321
-0.015233642 0.033624347 -0.07787308 0.16517456 0.070711754 0.0076449104 -0.11541833 -0.0123307025
0.08033408 0.050263144 -0.05786376 -0.015562017 -0.037440423 -0.010298486 0.08771567 0.15807709
0.050623097 -0.018876424 0.036942083 -0.065311134 -0.06724186 0.15435112 -0.002379838 0.099911064
0.08789221 -0.0939597 -0.017196596 0.028008463 0.015056559 0.0789663 -0.032918964 0.09290584
0.007140172 -0.10840847 -0.033057813 0.13571377 0.033150237 -0.0026207007 0.13082032 -0.17362039
0.019386183 -0.044207938 0.14516154 -0.016020393 -0.1593636 0.02028767 0.059784237 0.082267284
0.114993155 -0.063525766 0.01829481 0.09670266 -0.11279912 0.046054535 0.04153673 -0.06113394
0.10150198 0.033576693 -0.005319961 0.014142589 0.13444825 0.07025554 0.089980625 0.009307652
-0.04712839 -0.038006414 0.031133575 0.0027243055 0.024796868 0.116081186 0.085997656 -0.04213018
-0.08035771 -0.12617204 -0.04036448 -0.06446629 -0.026262343 0.09228829 -0.01595837 -0.010096238
0.015122771 -0.03032082 -0.09630183 0.03664075 -0.0008138851 0.08927041 0.12848894 -0.08419536
0.047789108 -0.031577434 0.05995603 -0.12527895 0.018801428 0.13670136 0.047538508 0.0435782
0.039968073 -0.037560996 -0.012820285 0.065261826 0.08860809 0.045106433 0.034698505 0.042119604
0.06035896 -0.05057191 -0.085760325 -0.08181124 0.081449926 -0.051660143 -0.013844514 0.07222971
0.13369624 0.02121204 -0.0126254205 0.048868075 0.12553231 -0.042805776 -0.034999553 0.05457275
0.09634136 -0.018221242 -0.0006525706 -0.08542567 0.11984814 -0.06425894 0.07842938 -0.019148605
-0.0033106233 0.055742167 0.05605563 -0.06946383 0.0038837062 -0.05452081 0.08223377 0.14498284
0.0057313717 -0.016155722 -0.014843409 0.027644556 0.08008433 0.0037239096 0.05846089 0.033661827
-0.07339195 -0.012124353 -0.003103625 -0.038778465 -0.0022044317 0.05011561 -0.04981101 -0.1230434
-0.010417633 -0.03151293 0.021123262 0.094900236 0.039214414 0.13528766 -0.0012697246 0.13076976
-0.060189977 -0.031561475 -0.056267604 -0.06591587 0.055735823 0.09185189 0.03626754 0.004701951
-0.029587857 -0.022946237 -0.020025568 -0.020871155 -0.020516083 0.08113803 -0.015385465 -0.057224657
-0.09126243 -0.090860054 0.10827828 0.11590863 0.01638974 -0.0110142585 -0.03803516 -0.003622683
-0.11379172 0.013363816 0.11034988 0.02846831 0.11750823 -0.15322101 -0.031616155 -0.05698139
0.046127643 0.06032249 -0.07640444 0.08218477 0.046349876 0.08999134 0.023347892 0.108513795
0.03621624 0.11285465 -0.097940564 0.034078293 -0.072997384 0.13451847 0.07153409 0.070348024
-0.099886686 -0.03214844 0.06101884 -0.061843432 -0.0019033351 -0.10919252 -0.08501791 0.028010076
0.0017009409 0.043015692 0.026763508 9.56746e-05 0.06849872 0.0476339 -0.1677712 -0.025859239
-0.08277566 -0.011768858 -0.05349145 0.0076248394 -0.08830045 0.059627797 0.04255992 0.100692876
00000000: e901 34bd f083 1e3d 2e79 173d 3458 173d
00000010: 6534 1e3e 5584 883c 4a54 053b 512c b03d
00000020: 246c f33c 7219 013e 24f1 43bd 39b0 afbd
00000030: 5c4f c6bc 1687 59bd 7ad3 30bd fcf3 6dbd
00000040: 415d fb3c cc30 f6bd 5270 6cbc b0e2 f63d
00000050: aeda c8bd beb6 e33d 0ae0 d3bd 2b8e ae3d
00000060: 8796 79bc afb9 093d ec7b 9fbd 8523 293e
00000070: 53d1 903d 2882 fa3b 7260 ecbd b706 4abc
00000080: 3286 a43d bae0 4d3d 8d02 6dbd d5f7 7ebc
00000090: 215b 19bd fbba 28bc 46a4 b33d f6de 213e
000000a0: 2a5a 4f3d bba2 9abc 9550 173d d8c1 85bd
000000b0: 1ab6 89bd 380e 1e3e 0ef7 1bbb 2c9e cc3d
000000c0: d500 b43d f16d c0bd e0df 8cbc 0172 e53c
000000d0: c9af 763c 15b9 a13d 09d6 06bd 6b45 be3d
000000e0: 1bf8 e93b 4305 debd a167 07bd 8df8 0a3e
000000f0: 8bc8 073d 10c0 2bbb c3f5 053e 8bc9 31be
00000100: c6cf 9e3c 6213 35bd 3aa5 143e 333d 83bc
00000110: 3630 23be 5432 a63c 51e0 743d c07b a83d
00000120: 8881 eb3d cc19 82bd ffde 953c 0b0c c63d
00000130: 3a03 e7bd aea3 3c3d 6b22 2a3d 9567 7abd
00000140: 45e0 cf3d b787 093d 1153 aebb 51b6 673c
00000150: cdac 093e 23e2 8f3d c347 b83d 1f7f 183c
00000160: b309 41bd 9dac 1bbd d70b ff3c 438a 323b
00000170: cd22 cb3c f9bb ed3d 8a1f b03d b290 2cbd
00000180: 9592 a4bd 3e33 01be 3a55 25bd e706 84bd
00000190: 2024 d7bc a501 bd3d 21bb 82bc b16a 25bc
000001a0: 80c5 773c 5e63 f8bc e539 c5bd 9c14 163d
000001b0: e85a 55ba 68d3 b63d 9b92 033e 9e6e acbd
000001c0: 83be 433d 5757 01bd 7494 753d 2049 00be
000001d0: 7405 9a3c 71fb 0b3e bdb7 423d 0e7f 323d
000001e0: 90b5 233d 8fd9 19bd 2c0c 52bc fea7 853d
000001f0: 2978 b53d 86c1 383d 0520 0e3d 9b85 2c3d
00000200: f53a 773d 7e24 4fbd 1ca3 afbd a78c a7bd
00000210: 38cf a63d 9699 53bd 1ad4 62bc 2ced 933d
00000220: abe7 083e dfc4 ad3c dada 4ebc e429 483d
00000230: 8b8b 003e 1c55 2fbd b15b 0fbd ad87 5f3d
00000240: 9e4e c53d b744 95bc 4611 2bba a7f3 aebd
00000250: f172 f53d 319a 83bd 959f a03d 89dd 9cbc
00000260: 0bf7 58bb e651 643d 979a 653d 0d43 8ebd
00000270: c785 7e3b 3651 5fbd 2e6a a83d 6276 143e
00000280: 3bce bb3b 0159 84bc c531 73bc d676 e23c
00000290: 4103 a43d d60c 743b b074 6f3d fce0 093d
000002a0: 854e 96bd 39a5 46bc 3066 4bbb 2bd6 1ebd
000002b0: 3a78 10bb 0746 4d3d a106 4cbd 2efe fbbd
000002c0: b8ae 2abc b413 01bd b10a ad3c 0e5b c23d
000002d0: 4b9f 203d d988 0a3e e36c a6ba 82e8 053e
000002e0: c489 76bd 9b46 01bd dc78 66bd e6fe 86bd
000002f0: 3f4b 643d d81c bc3d 468d 143d d312 9a3b
00000300: 3c62 f2bc bff9 bbbc a90c a4bc fcf9 aabc
00000310: 5811 a8bc b22b a63d 5113 7cbc 6764 6abd
00000320: cce7 babd d614 babd 01c1 dd3d 8161 ed3d
00000330: c743 863c 2675 34bc c2ca 1bbd 896a 6dbb
00000340: a20b e9bd e8f3 5a3c 1eff e13d 6036 e93c
00000350: 28a8 f03d f8e5 1cbe f17f 01bd 5165 69bd
00000360: 57f0 3c3d b714 773d ee79 9cbd 7d50 a83d
00000370: 5ed9 3d3d 614d b83d 1444 bf3c 7b3c de3d
00000380: 7b57 143d 5720 e73d 1095 c8bd ae95 0b3d
00000390: a77f 95bd 36bf 093e 7780 923d a012 903d
000003a0: 6491 ccbd 15ae 03bd e4ee 793d 8a4f 7dbd
000003b0: 5479 f9ba 54a0 dfbd df1d aebd 6375 e53c
000003c0: 1bf2 de3a 3931 303d 253f db3c e9a4 c838
000003d0: 0f49 8c3d c41b 433d 37cc 2bbe c1d6 d3bc
000003e0: 4986 a9bd 2bd2 40bc da19 5bbd cad9 f93b
000003f0: ded6 b4bd 473c 743d 5053 2e3d 1138 ce3d

layer3.bias f4 [100]
0.07010026 -0.057573404 0.043198124 0.058681987 0.08792975 0.10154665 0.020309318 0.07883037
-0.08221154 0.089081295 -0.06391888 0.068990305 -0.0091636665 -0.029823495 0.07472178 -0.08598679
-0.048894383 0.09660507 0.09414951 0.003918923 0.10476106 -0.008092184 0.110908374 0.07466755
0.09409866 -0.084530324 0.018274534 -0.047586534 -0.025375012 -0.0018274498 0.07717043 0.07974686
-0.038140755 0.086220056 -0.056582317 0.002362942 0.06116412 -0.07384237 -0.00042727648 -0.025642626
-0.008607281 -0.027881287 0.025784578 -0.0030033435 -0.05621512 0.03686913 0.026285358 0.05588525
-0.011079295 -0.0040140827 -0.00799081 -0.00589339 0.05240493 -0.060300443 0.06812869 0.024346443
0.0695277 0.111887336 0.09782766 0.08970587 -0.03682158 0.03957477 -0.01775366 0.071024835
0.07017571 0.06376234 0.046978038 0.060116313 -0.066159666 0.024772143 0.00020719056 -0.04341482
-0.02508177 -0.050467465 -0.040982857 0.1175585 -0.048900653 0.028845152 0.093404666 0.109545395
-0.07328245 -0.09356741 -0.052552715 0.006324537 -0.051969737 -0.002708648 -0.0148372995 0.096709594
0.061161555 0.016258195 0.062164817 0.029449385 0.0033058904 -0.027335338 -0.028693462 0.069245934
-0.07363636 0.03109083 -0.014025034 0.122927725
00000000: ba90 8f3d 17d2 6bbd 84f0 303d 865c 703d
00000010: 8314 b43d b1f7 cf3d ba5f a63c d171 a13d
00000020: 865e a8bd 4170 b63d e7e7 82bd ca4a 8d3d
00000030: 3423 16bc 6750 f4bc bc07 993d d819 b0bd
00000040: 7a45 48bd e1d8 c53d 75d1 c03d 4f6a 803b
00000050: f78c d63d 1495 04bc ee23 e33d 4deb 983d
00000060: ccb6 c03d 3c1e adbd 7ab4 953c 19ea 42bd
00000070: 42df cfbc 0a87 efba 880b 9e3d 5252 a33d
00000080: 7b39 1cbd 2494 b03d dcc2 67bd 97db 1a3b
00000090: 3a87 7a3d ab3a 97bd 1404 e0b9 7c10 d2bc
000000a0: 8e05 0dbc 4c67 e4bc 2e3a d33c bed3 44bb
000000b0: d341 66bd 1604 173d 6454 d73c efe7 643d
000000c0: ee85 35bc 9188 83bb e3eb 02bc 571d c1bb
000000d0: 8da6 563d 99fd 76bd 0e87 8b3d 3172 c73c
000000e0: 8a64 8e3d 3025 e53d de59 c83d b6b7 b73d
000000f0: 3ad2 16bd 2719 223d 2070 91bc 7875 913d
00000100: 48b8 8f3d d495 823d 0b6c 403d 863c 763d
00000110: b87e 87bd f3ee ca3c 4b41 5939 bdd3 31bd
00000120: 4978 cdbc f9b6 4ebd a4dd 27bd 83c2 f03d
00000130: 0d4c 48bd ab4c ec3c f24a bf3d 5659 e03d
00000140: 1c15 96bd 45a0 bfbd 8441 57bd 103e cf3b
00000150: 38de 54bd 9383 31bb 2518 73bc ae0f c63d
00000160: 8a84 7a3d e82f 853c 89a0 7e3d d63f f13c
00000170: a3a7 583b 5cee dfbc 8d0e ebbc d0d0 8d3d
00000180: a9ce 96bd 32b2 fe3c 42c9 65bc 88c1 fb3d

layer4.weight f4 [150, 100]
0.011824093 -0.00015944599 -0.11712806 -0.094869636 0.059151724 0.06469603 0.025210414 0.07214538
-0.026489329 -0.11145953 -0.10997791 -0.019258026 0.064751886 -0.122308806 -0.00398308 0.030464614
-0.054221783 0.1055562 0.0032798648 -0.09186157 0.02197428 -0.04876548 -0.079275474 0.059414774
0.083305836 0.067142226 -0.001289175 -0.12946522 -0.046913072 0.033806548 0.041711 0.0056374567
-0.04896848 -0.023047773 -0.10025343 -0.10225873 -0.12254423 -0.022018408 0.081407145 0.09204822
-0.13274916 -0.026594918 0.079344064 0.02606479 -0.05529452 0.0051621627 0.047683097 0.029869677
-0.026341073 -0.066223964 0.09293188 0.017143592 -0.04746386 -0.03293326 0.0057635116 0.07346308
-0.055726714 0.054630857 -0.0833701 0.017356662 0.03777656 0.04970788 0.10148389 -0.030993985
-0.042060167 -0.024317382 -0.19996916 0.03203449 -0.08692206 0.013340238 -0.077435076 0.020805253
-0.11117931 -0.055163328 -0.0015285009 -0.0425562 -0.06620157 0.10682324 0.077532455 0.07962681
-0.08090824 0.03173504 -0.07855628 0.003776291 -0.0008812198 -0.011413908 0.022662014 -0.03130892
0.06052666 0.020689307 -0.11063063 0.07071058 0.08469759 -0.06720058 0.09519546 0.13081868
0.045618083 0.087945975 0.0022688583 0.07721433 0.046995163 0.058493126 -0.016914193 0.020122902
-0.019280324 0.07020659 0.07897486 -0.06468111 0.036873884 -0.10107218 0.01378563 0.09558187
-0.0139586665 -0.09744578 -0.09836311 -0.023939848 -0.045943514 -0.10107794 -0.07829118 0.09238475
-0.037172996 -0.03459117 0.051579434 0.09093416 0.07580548 0.0025855773 0.09439556 -0.09416947
-0.01887811 -0.07956408 -0.0695203 0.06001969 -0.09500053 -0.0068638553 0.07230862 -0.06316914
-0.011595298 -0.009844637 -0.074123226 0.08678117 0.023816496 -0.01699874 0.015852842 0.0066540875
0.031971812 -0.0411189 -0.036486674 0.08455499 0.024713196 0.049757823 0.050706424 -0.01905096
-0.054963667 0.051247694 0.0038018937 0.062046077 -0.09524343 0.053773187 -0.07223771 0.030577647
0.074401826 -0.0701573 -0.089470305 0.050042454 -0.05362549 -0.097670265 0.07237255 -0.013013854
0.0011571797 0.0075874506 -0.06184631 -0.08285272 -0.09628681 0.026602486 -0.010607999 -0.09985456
-0.021133265 -0.08425978 -0.05111296 -0.06927741 -0.027741455 -0.09624475 0.03314329 0.0040141162
-0.06723009 0.027722517 0.04681669 -0.08087526 -0.021929787 -0.09846375 0.054031827 -0.05442719
-0.027218314 -0.08000259 -0.010551389 -0.040962067 0.074542396 -0.054231983 0.012243848 -0.024249211
0.090453975 0.050950054 -0.1478937 -0.027208172 -0.06066854 -0.009351088 -0.12820622 0.017782358
-0.16531427 -0.00932318 -0.0388546 0.017281651 -0.12670185 0.030882243 -0.07741431 0.0818926
-0.02667017 0.09021497 0.09065671 0.091374345 -0.07029568 0.084557086 0.0052722967 0.06293466
-0.078348845 0.14457946 0.033839256 -0.04173557 0.009618842 0.11442849 0.015948087 0.08842199
-0.060065772 0.04330079 0.04158552 0.003733455 0.11648662 0.09160161 -0.030006217 0.035816047
-0.10734065 0.085546546 0.08089729 -0.058129143 0.031334717 0.109894276 0.098282866 -0.04544979
-0.034739364 -0.1045458 0.085255995 0.082957305 0.08888687 -0.09091455 0.03030837 -0.09191483
00000000: d7b9 413c f530 27b9 d6e0 efbd 034b c2bd
00000010: 1449 723d 5a7f 843d 1286 ce3c f5c0 933d
00000020: 2600 d9bc e544 e4bd 193c e1bd 02c3 9dbc
00000030: a39c 843d 0a7d fabd 7f84 82bb ed90 f93c
00000040: a917 5ebd d92d d83d 00f3 563b eb21 bcbd
00000050: 6803 b43c 50be 47bd 2e5b a2bd e85c 733d
00000060: 409c aa3d dd81 893d 89f9 a8ba 8892 04be
00000070: ec27 40bd bc78 0a3d 27d9 2a3d 6aba b83b
00000080: 2c93 48bd afce bcbc ac51 cdbd 066d d1bd
00000090: 78f8 fabd f35f b4bc cab8 a63d c783 bc3d
000000a0: 65ef 07be 96dd d9bc 247f a23d d485 d53c
000000b0: 827c 62bd 5c27 a93b 5a4f 433d 41b1 f43c
000000c0: 3cc9 d7bc 6ea0 87bd 1253 be3d b870 8c3c
000000d0: 7769 42bd 07e5 06bd d7db bc3b d073 963d
000000e0: b241 64bd 9bc4 5f3d f1bd aabd 8f2f 8e3c
000000f0: 98bb 1a3d 7d9a 4b3d c9d6 cf3d 19e7 fdbc
00000100: 4847 2cbd 3f35 c7bc b7c4 4cbe 9936 033d
00000110: 3104 b2bd 0391 5a3c 4896 9ebd c76f aa3c
00000120: fab1 e3bd f1f2 61bd fb57 c8ba 694f 2ebd
00000130: b094 87bd 25c6 da3d 56c9 9e3d 6213 a33d
00000140: 38b3 a5bd 9afc 013d 1de2 a0bd a67b 773b
00000150: a901 67ba 6601 3bbc b0a5 b93c c83d 00bd
00000160: ceea 773d 9f7c a93c 5092 e2bd b5d0 903d
00000170: ee75 ad3d 75a0 89bd d6f5 c23d 55f5 053e
00000180: 07da 3a3d 051d b43d 20b1 143b 8c22 9e3d
00000190: 007e 403d 7d96 6f3d a28f 8abc c9d8 a43c
000001a0: c5f1 9dbc 79c8 8f3d 92bd a13d 8877 84bd
000001b0: 1209 173d eefe cebd 20dd 613c 6dc0 c33d
000001c0: e4b2 64bc a791 c7bd 9972 c9bd 801d c4bc
000001d0: 442f 3cbd f301 cfbd 2057 a0bd 3734 bd3d
000001e0: b642 18bd 78af 0dbd f544 533d b03b ba3d
000001f0: e73f 9b3d ca72 293b 7652 c13d ecdb c0bd
00000200: 44a6 9abc 7ef2 a2bd a960 8ebd 35d7 753d
00000210: a38f c2bd 31ea e0bb 8b16 943d d25e 81bd
00000220: 34fa 3dbc 664b 21bc ebcd 97bd 53ba b13d
00000230: d01a c33c f140 8bbc d2dd 813c 880a da3b
00000240: e0f4 023d 4b6c 28bd 0d73 15bd 2b2b ad3d
00000250: 5473 ca3c dcce 4b3d 8ab1 4f3d c210 9cbc
00000260: 9521 61bd 1ae9 513d 3129 793b 0724 7e3d
00000270: fd0e c3bd 4641 5c3d 5df1 93bd f97d fa3c
00000280: fc5f 983d a1ae 8fbd 353c b7bd 51f9 4c3d
00000290: 67a6 5bbd 5907 c8bd 0f38 943d 0f38 55bc
000002a0: 82ac 973a 26a0 f83b 8e52 7dbd b0ae a9bd
000002b0: 0532 c5bd 75ed d93c 2ccd 2dbc 8c80 ccbd
000002c0: ab1f adbc 6490 acbd d35b 51bd 51e1 8dbd
000002d0: 0c42 e3bc f81b c5bd 42c1 073d d988 833b
000002e0: eeaf 89bd 551a e33c dcc2 3f3d eea1 a5bd
000002f0: 19a6 b3bc 5da7 c9bd 7a50 5d3d 0cef 5ebd
00000300: f1f8 debc 66d8 a3bd bcdf 2cbc d7c7 27bd
00000310: afa9 983d 5b22 5ebd 6c9a 483c 48a6 c6bc
00000320: ef3f b93d 01b1 503d 7271 17be ace3 debc
00000330: 937f 78bd 4e35 19bc 7e48 03be 4fac 913c
00000340: 2548 29be 40c0 18bc 0026 1fbd 4092 8d3c
00000350: 21be 01be c2fc fc3c 658b 9ebd 4fb7 a73d
00000360: 667b dabc a0c2 b83d 3aaa b93d 7922 bb3d
00000370: 2ef7 8fbd 442c ad3d 3bc3 ac3b e3e3 803d
00000380: 5c75 a0bd a30c 143e 089b 0a3d ebf2 2abd
00000390: 5998 1d3c 7c59 ea3d 90a5 823c 9716 b53d
000003a0: 8707 76bd 2b5c 313d 9455 2a3d fbac 743b
000003b0: 8990 ee3d a099 bb3d 99cf f5bc d9b3 123d
000003c0: 6ad5 dbbd 0733 af3d 7aad a53d d318 6ebd
000003d0: d558 003d 4010 e13d 8748 c93d 8f29 3abd
000003e0: dd4a 0ebd 1c1c d6bd b29a ae3d 85e5 a93d
000003f0: 520a b63d 6831 babd 4249 f83c d83d bcbd

layer4.bias f4 [150]
0.010554907 0.04618809 0.031843618 -0.050168324 -0.05564746 0.0831617 0.069812916 0.017917799
0.009383431 0.046911135 0.089867316 0.053656004 -0.10944692 0.03123833 -0.013943576 -0.02237387
0.109077156 -0.0639596 -0.029941062 -0.08526091 0.05247495 -0.064128235 -0.08632521 0.045961175
0.08020852 0.085651584 0.0014028995 0.005215628 0.09532321 -0.04819095 0.063950524 -0.102903485
-0.060668506 -0.090636715 0.049993604 -0.027438534 -0.056194574 -0.06333277 0.124989614 -0.086814046
-0.041011736 -0.08607136 0.14581616 -0.052350476 0.072453715 0.072659604 -0.061830424 0.011399457
0.11064534 -0.029364487 -0.028919786 0.08336701 0.09552914 -0.0003001131 0.012977662 0.015432198
-0.025116052 0.0061672362 -0.0057804435 0.12601882 0.08236779 -0.056086183 -0.03150459 0.018120414
0.065720566 -0.064859726 0.056419753 -0.030750705 -0.014500862 -0.083655454 0.015720006 0.00596342
-0.048627254 0.015511287 -0.06567354 0.014056121 0.018021885 0.097702466 0.03896469 0.037791148
0.020742094 0.038824998 0.06750972 -0.07335869 0.11546276 0.05272881 0.11464199 0.06302849
0.10492805 0.08359788 -0.100741886 0.046482425 0.0419032 0.03243606 0.0062106005 -0.026433578
-0.03943862 -0.02235222 0.053457774 0.048014276 0.016122255 0.021408511 0.085294604 0.12942338
0.03067971 0.044624146 -0.06494762 -0.09772278 -0.013611791 0.12275558 0.021837825 0.007424823
-0.10059855 0.0031144973 0.0028191493 0.06190414 0.08660238 -0.05692663 0.0966898 0.019436691
0.009486838 -0.0014660556 0.057615235 -0.02091062 0.10938808 0.03338491 0.029792655 -0.050909348
-0.024603426 -0.099801816 -0.1160115 0.10076826 0.047176797 -0.07096035 0.01715902 -0.13222909
-0.030768428 0.07648507 0.054821964 -0.09036586 0.031107048 0.064627625 0.10419144 0.022987192
0.11166828 0.10586149 -0.078550816 0.06708697 0.101219796 0.1100883
00000000: 7dee 2c3c b92f 3d3d 746e 023d 4d7d 4dbd
00000010: 97ee 63bd ae50 aa3d 13fa 8e3d 59c8 923c
00000020: f6bc 193c e425 403d 5b0c b83d 66c6 5b3d
00000030: b525 e0bd 87e7 ff3c 9973 64bc 6849 b7bc
00000040: d863 df3d 40fd 82bd f546 f5bc 469d aebd
00000050: f9ef 563d aa55 83bd 46cb b0bd c941 3c3d
00000060: 5d44 a43d 196a af3d 7fe1 b73a dce7 aa3b
00000070: d138 c33d e063 45bd 7ef8 823d 10bf d2bd
00000080: 8a7f 78bd be9f b9bd 18c6 4c3d c7c6 e0bc
00000090: 482c 66bd 9cb4 81bd 8efa ff3d 90cb b1bd
000000a0: ecfb 27bd 2e46 b0bd d550 153e 746d 56bd
000000b0: 9d62 943d 8fce 943d e641 7dbd cac4 3a3c
000000c0: 069a e23d cb8d f0bc 30e9 ecbc 53bc aa3d
000000d0: c8a4 c33d 8058 9db9 42a0 543c 54d7 7c3c
000000e0: 2ec0 cdbc 8716 ca3b e069 bdbb 140b 013e
000000f0: 72b0 a83d a0ba 65bd f50a 01bd 4371 943c
00000100: 8198 863d 2dd5 84bd 6618 673d e7e8 fbbc
00000110: 0695 6dbc 8d53 abbd 3ec7 803c cb68 c33b
00000120: 5f2d 47bd 0e23 7e3c d97f 86bd a54b 663c
00000130: a2a2 933c 3b18 c83d 7099 1f3d e4ca 1a3d
00000140: 53eb a93c f606 1f3d 8942 8a3d 153d 96bd
00000150: bd77 ec3d 2afa 573d 6bc9 ea3d 1515 813d
00000160: 84e4 d63d 5e35 ab3d c351 cebd 5b64 3e3d
00000170: b1a2 2b3d addb 043d 4b82 cb3b 3b8b d8bc
00000180: 648a 21bd 011c b7bc 8af6 5a3d 9eaa 443d
00000190: d212 843c e760 af3c f0ae ae3d 9087 043e
000001a0: 0454 fb3c cfc7 363d 4203 85bd e222 c8bd
000001b0: fd03 5fbc 4767 fb3d 3de5 b23c ee4b f33b
000001c0: 9d06 cebd 981c 4c3b 7ac1 383b 328f 7d3d
000001d0: 975c b13d e62b 69bd 4d05 c63d b239 9f3c
000001e0: af6e 1b3c aa28 c0ba f4fd 6b3d c04c abbc
000001f0: dc06 e03d 9ebe 083d ba0f f43c 5286 50bd
00000200: 208d c9bc e564 ccbd 7097 edbd 975f ce3d
00000210: 753c 413d a953 91bd 1391 8c3c 1067 07be
00000220: 120e fcbc 34a4 9c3d ff8c 603d bc11 b9bd
00000230: 35d4 fe3c 7d5b 843d 5262 d53d a34f bc3c
00000240: 57b2 e43d e9cd d83d 40df a0bd e564 893d
00000250: 534c cf3d fa75 e13d
