GP_MVC_hw_3view/results/checkpoints/experiment_name/3_net_CLU.pth (torch_old, 4413 bytes, 1 tensors)

weights f4 [10, 100]
000000 cd 1a 80 3f 78 cb 2a 3f 56 57 4f 3f 2e 55 a8 3e
       1.0008179 0.6671672 0.8099264 0.32877487
000010 96 1e 45 3f 3b 6f ab 3f 29 1e 23 3f e6 dd fa 3e
       0.76999795 1.339332 0.63717896 0.4899742
000020 e5 bf cd 3e ec 08 32 3f d9 b1 42 3e 08 49 be 3e
       0.40185466 0.69544864 0.19013156 0.37165093
000030 f4 73 a7 3e b5 a0 68 3d 75 f1 0d 3f d0 64 8a b5
       0.32705653 0.056793887 0.5544656 -1.0311142e-06
000040 56 9f 2b 3c 91 57 40 3f 2e db ab 3e c9 d8 2e 3e
       0.010475 0.75133616 0.33565658 0.17074884
000050 58 23 8f 3f 0c cc ac 3f fe fb da 3f 5b bb ad 3e
       1.1182661 1.349977 1.7108152 0.33932003
000060 58 b1 f2 3e f7 f8 2d 3d 74 9c 8a 3e 9a 11 88 3f
       0.47400928 0.04247376 0.2707249 1.0630372
000070 12 a9 6c 3e 8f 2c 57 3f b6 79 fc 3e cd a7 84 3f
       0.2311137 0.84052366 0.49311608 1.0363709
000080 0b 2d 78 3e 81 c8 16 3f ea d9 d0 87 df af 3a 3d
       0.24235933 0.58899695 -3.142444e-34 0.04557788
000090 1d 04 eb 3e 55 4b b2 3c 4b 04 98 3f dc 67 51 3d
       0.45901576 0.021764437 1.187631 0.05112444
0000a0 b5 0d 4a 3f 29 7c 56 3d 02 53 71 3f 00 00 00 80
       0.78927165 0.052364502 0.94267285 -0.0
0000b0 24 9a 06 3f 50 95 5b 3f 15 fc a8 3d 6b fe 81 3f
       0.5257895 0.8577471 0.08251206 1.0155767
0000c0 d8 48 99 3e 58 dd 48 3e fb 1f 2e 3d 6b e7 ac 3f
       0.29938388 0.19615686 0.042510968 1.3508123
0000d0 45 05 7b 3f 4c 90 b3 3e 24 b5 57 3f 3f 0d 79 3f
       0.98054916 0.35071027 0.84260774 0.97285837
0000e0 8d cb e8 3e c7 46 5d 3f 13 a4 45 3f 3c 22 53 3c
       0.45467797 0.8643612 0.7720348 0.01288658
0000f0 00 00 00 00 55 73 f5 3e 99 1e 6c 3f a2 a4 27 3f
       0.0 0.47939554 0.9223419 0.65485585
000100 72 6d 1c 3a b8 3a 4c 3f ab e7 c5 3d c5 85 c8 3f
       0.00059672364 0.797771 0.09663328 1.5665823
000110 b4 1f 01 bd 9e 41 3d 3f 57 cf a6 3f 50 0a f8 3e
       -0.031524375 0.7392825 1.3032025 0.48445368
000120 99 94 9b 3b 01 d8 01 3f 82 ae af 3e 14 cb 3f 3f
       0.004747939 0.5072022 0.34312826 0.7491925
000130 5d 25 9b 3f e2 56 3c 3f b5 2a ce 3e cd 9d ef 3e
       1.2120777 0.7357007 0.40266958 0.4680008
000140 02 00 00 80 06 00 00 80 02 00 00 80 02 00 00 00
       -3e-45 -8e-45 -3e-45 3e-45
000150 01 00 00 80 e3 58 95 3f fb 1c 7d 3f 6a 60 62 3e
       -1e-45 1.1667751 0.98872346 0.22107092
000160 e9 4f b7 3f 6a 9b 4c 3f a0 bb 6c 3c 3d 62 3c 3f
       1.4321262 0.79924643 0.01444903 0.735874
000170 5c ad 0d 3f aa 1b 74 3f 9b 18 b1 3e 3f fe ae 3e
       0.5534265 0.9535471 0.34589085 0.3417835
000180 87 b1 e8 3e 31 c7 80 3f 2e 41 d0 3e b1 3a 7a 3f
       0.45447943 1.0060788 0.40674728 0.97745806
000190 69 63 48 3f 44 80 3d 3f 4a 2e 81 3e 8c 3f 53 3f
       0.7827669 0.7402384 0.25230628 0.8251884
0001a0 b9 1f 80 3f 9d 13 57 3f f0 d3 09 3f 82 52 29 3f
       1.0009681 0.840143 0.53839016 0.6614152
0001b0 c2 ce e6 3e b2 89 36 3f ba 40 5f 3f 87 f4 a7 3d
       0.4507962 0.71303856 0.8720814 0.08200937
0001c0 bd 16 10 3f 3e 98 8d 3d d6 0b 14 3f 02 00 00 80
       0.56284696 0.069138035 0.5783056 -3e-45
0001d0 60 1b d4 3b 94 15 85 3f 1d e9 25 3f 91 a3 08 3f
       0.00647299 1.039721 0.6480883 0.5337458
0001e0 f1 a3 6e 3f 80 8a 8c 3f 60 43 41 3f b7 af 25 3f
       0.93218905 1.0979767 0.7549343 0.64721245
0001f0 8d c7 68 3f d8 05 3b bb db b6 fa 3e cb 38 b5 3e
       0.9092949 -0.0028537419 0.48967633 0.35394892
000200 c8 22 5c 3e 46 33 3a 3f b7 8f 83 3f dc 4b a4 3f
       0.21497643 0.7273449 1.0278233 1.283565
000210 1e 51 ef 3e 53 e1 fa 3e 55 58 98 00 75 b5 74 3d
       0.46741575 0.49000034 1.3990683e-38 0.059743363
000220 09 51 8b 3f cd 7a 4f 3d f8 cf 0e 3f 88 60 30 3f
       1.0884105 0.05065422 0.55786085 0.68897295
000230 6d bb cb 3e 1d 67 2f 3d aa d5 e3 3e 02 00 00 80
       0.39791432 0.042822946 0.4449895 -3e-45
000240 76 8a 97 3f 75 6d 1d 3f 16 86 0c 3e 85 50 a7 3e
       1.183913 0.61495143 0.13723025 0.3267862
000250 d9 61 c6 3e 84 b6 73 3e 4a 22 ee 3b 71 47 bc 3f
       0.38746527 0.23800093 0.007267271 1.4709302
000260 ac 49 6a 3f b9 df a2 3e 33 52 91 3f ff d0 1d 3f
       0.91518664 0.31811312 1.135321 0.6164703
000270 fa 90 9a 3f 38 7d 1e 3f d0 f3 4b 3f bf b7 03 3e
       1.2075493 0.6190982 0.79668903 0.12863062
000280 00 00 00 00 66 af c3 3f e1 a1 98 3f 47 92 00 3f
       0.0 1.5287902 1.1924402 0.502232
000290 06 d2 78 3b c5 6b e3 3e 94 4f 3e 3e 8e f2 e2 3f
       0.003796698 0.4441816 0.18585044 1.7730272
0002a0 4b de 1e 3f f9 ff 8c 3f 7f ae 40 3f b0 54 b2 3e
       0.6205794 1.1015617 0.7526626 0.34830236
0002b0 96 47 e1 3c fc b9 6f 3f 93 e2 9c 3f 33 f7 07 3f
       0.027499955 0.93643165 1.2256645 0.5311157
0002c0 a1 0c 15 3f cf b5 ae 3f 92 06 4c 3f 88 24 76 3f
       0.58222395 1.3649234 0.79697526 0.9614949
0002d0 58 36 1a 07 cd 5f 3e 0b 93 c6 c4 92 03 00 00 00
       1.1601643e-34 3.666474e-32 -1.2418291e-27 4e-45
0002e0 03 00 00 00 54 64 e1 3e 8f 73 16 3f ec d7 b3 3f
       4e-45 0.44021857 0.5877008 1.4050269
0002f0 66 f5 1a 3f 3e 48 21 3f c4 37 54 3d cd a0 16 3f
       0.605307 0.6300086 0.051810995 0.5883911
000300 3f dc 36 3f c6 b9 81 3f c4 52 47 3f d3 50 3f 3f
       0.7142982 1.0134819 0.77860665 0.747327
000310 57 8b 6d 3f b8 98 58 3f 16 57 73 3f 38 d7 1a 3f
       0.9279074 0.8460803 0.9505476 0.6048465
000320 dd 35 f8 3f b3 89 3d 3f de c6 cd 3d 7d 4d 37 3f
       1.9391438 0.7403824 0.100476965 0.7160261
000330 bd 62 90 3e 3d c2 c4 3f 65 8d 7f 3f d3 64 c9 3e
       0.2820033 1.5371777 0.99825126 0.39334735
000340 a0 a5 92 3e f5 67 04 3f 4b 0a 2d bc fc 85 22 3f
       0.28641987 0.51721126 -0.010561536 0.63485694
000350 8e ea 0b 3f f9 e7 0f 3d e1 c8 1e 3f 01 00 00 00
       0.5465478 0.035133336 0.62025267 1e-45
000360 da ee 46 3a 5b b7 c8 3f 41 91 c2 3e c3 69 ea 3d
       0.0007588692 1.5680956 0.38001445 0.11445954
000370 8c 98 22 3f 6d ee 03 3f 64 af fa 3f ac 10 ae 3e
       0.6351402 0.51535684 1.9584775 0.33997095
000380 5d 4d 18 3e ea e4 93 3d 6a df 85 3e 41 ff 8a 3f
       0.14873262 0.07221396 0.26147014 1.0859147
000390 73 3e 7b 3e dd 2c 9d 3f 6c ef 03 3f 24 d3 a6 3f
       0.24535541 1.2279316 0.51537204 1.3033185
0003a0 25 02 3a 3f e0 f9 4e 3f 3b f3 b3 0f 30 6b 39 3f
       0.7265952 0.8085003 1.7744452e-29 0.7242918
0003b0 9d 21 f1 3e e4 a1 f1 3c fc bd 6c 3f f3 af e6 ba
       0.47095957 0.02949614 0.92477393 -0.0017600044
0003c0 c2 78 9a 3f 81 8e 65 3d 19 b9 64 3f 02 00 00 80
       1.2068102 0.056044105 0.89344937 -3e-45
0003d0 25 83 07 3f ea 5d 16 3f d2 60 01 bc aa 74 61 3f
       0.52934486 0.5873705 -0.007896619 0.8806864
0003e0 66 81 93 3f 89 af 2c 3e fe ed 42 3d 48 d7 ab 3f
       1.1523864 0.16863836 0.04759025 1.3425074
0003f0 40 27 e6 3e b0 da 79 3f 2f d2 57 3f ae ac d7 3f
       0.4495182 0.97599316 0.8430509 1.6849573
