GP_MVC_hw_3view/results/checkpoints/experiment_name/8_net_CLU.pth (torch_old, 4413 bytes, 1 tensors)

weights f4 [10, 100]
0	0x3f762a7e	0.9615859
1	0x3f1d9620	0.615572
2	0x3f6b0262	0.9180051
3	0x3e5ba155	0.21448262
4	0x3f427205	0.7595523
5	0x3fb93ee3	1.4472317
6	0x3f19b55e	0.6004237
7	0x3eccdfee	0.40014595
8	0x3eb9dbf1	0.36300614
9	0x3f337f7e	0.7011641
10	0x3e1d65cf	0.15370868
11	0x3e8ece00	0.2789154
12	0x3eae6f4a	0.34069282
13	0x3d9c8506	0.0764256
14	0x3f0b87bc	0.5450399
15	0x1b65e5a1	1.9016633e-22
16	0x3b025e63	0.0019892685
17	0x3f386786	0.72032964
18	0x3e61e436	0.22059712
19	0x3de7305e	0.11288522
20	0x3f9517c2	1.1647875
21	0x3fb31c79	1.3993064
22	0x3fe3a55a	1.7784836
23	0x3e4bdfe6	0.19909629
24	0x3ec4ea45	0.38459983
25	0x3dcf9a72	0.1013688
26	0x3e5d635c	0.21619934
27	0x3f97b63f	1.1852492
28	0x3e1d9190	0.15387559
29	0x3f4fca90	0.8116846
30	0x3ee51235	0.44740453
31	0x3f831c8d	1.0243088
32	0x3e42c690	0.19021058
33	0x3f13e4da	0.57771075
34	0x00000001	1e-45
35	0x3d16325c	0.03666912
36	0x3ed388d6	0.41315335
37	0x3c27a256	0.010231575
38	0x3fa52dfb	1.2904657
39	0x3c8eaf20	0.01741749
40	0x3f57085d	0.83997136
41	0x3dd64ce6	0.10463886
42	0x3f800043	1.000008
43	0x3a9edf02	0.0012120905
44	0x3f029b6a	0.51018393
45	0x3f5a54ff	0.85285944
46	0x3d6e2217	0.05813798
47	0x3f841be6	1.0321014
48	0x3e97bede	0.29637808
49	0x3e3c3369	0.18378986
50	0x3c4fb066	0.012676334
51	0x3fa79dba	1.3095009
52	0x3f7f3d87	0.9970326
53	0x3e8e76ed	0.27825108
54	0x3f4ef42e	0.8084134
55	0x3f7e1429	0.9924951
56	0x3ecb55ce	0.397139
57	0x3f680f0f	0.9064798
58	0x3f3ecf02	0.7453462
59	0x3d016765	0.031592745
60	0x00000000	0.0
61	0x3ecf5469	0.40494087
62	0x3f72323d	0.9460791
63	0x3f319e20	0.69381905
64	0xbbe5af39	-0.0070094136
65	0x3f28c001	0.65917975
66	0x3d51f636	0.051260196
67	0x3fd17610	1.6364155
68	0xbcae0e26	-0.02124698
69	0x3f4567ce	0.7711152
70	0x3faae655	1.3351542
71	0x3f1165d1	0.56795985
72	0x3c2ca40c	0.010537159
73	0x3f0521db	0.52004784
74	0x3e8f0388	0.27932382
75	0x3f348cfc	0.70527625
76	0x3f9ab53a	1.2086556
77	0x3f3a9510	0.728837
78	0x3eabd66f	0.33562037
79	0x3ef1e274	0.47243083
80	0x80000002	-3e-45
81	0xaa624765	-2.0097602e-13
82	0x80000002	-3e-45
83	0x00000002	3e-45
84	0x80000001	-1e-45
85	0x3f9eb75b	1.2399706
86	0x3f815786	1.0104835
87	0x3dbeabf3	0.093101405
88	0x3fc5ca07	1.5452279
89	0x3f581f93	0.8442318
90	0x3ce8f09e	0.028435048
91	0x3f1ea868	0.6197572
92	0x3eeab4c5	0.4584104
93	0x3f651bb6	0.8949541
94	0x3eaa1cbf	0.33225057
95	0x3ea5a3d4	0.32351553
96	0x3ee2672a	0.44219333
97	0x3f87ebe5	1.0618864
98	0x3eaf5224	0.34242356
99	0x3f8ae5d0	1.0851383
100	0x3f373703	0.71568316
101	0x3f36632d	0.7124508
102	0x3e5009c7	0.2031623
103	0x3f5cd3e9	0.8626085
104	0x3f83aa83	1.0286411
105	0x3f4c49d8	0.79800177
106	0x3f0b9fd7	0.5454077
107	0x3f292230	0.6606779
108	0x3f01575e	0.50523937
109	0x3f325d8a	0.6967398
110	0x3f7a46a5	0.97764045
111	0x3d30a3b3	0.043124866
112	0x3f2ad349	0.66728646
113	0x3dd27f54	0.10278192
114	0x3f0ea0b3	0.5571396
115	0xb73a98ae	-1.1122012e-05
116	0x3b000f23	0.0019540272
117	0x3f83c455	1.0294291
118	0x3f2f5d3b	0.68501633
119	0x3f24cf99	0.6437927
120	0x3f6e56e8	0.9310136
121	0x3f8bb9f2	1.0916121
122	0x3f222303	0.63334674
123	0x3f2be58a	0.67147124
124	0x3f71a321	0.9438954
125	0x3b85691e	0.004071369
126	0x3f0f0cb9	0.5587879
127	0x3e90f0f2	0.28308827
128	0x3e3133ac	0.17304868
129	0x3f362be2	0.7116071
130	0x3f8e27f3	1.1105942
131	0x3fa686c0	1.3009872
132	0x3ed48d47	0.41514036
133	0x3f0acf73	0.5422279
134	0x00000001	1e-45
135	0x3d8eea2a	0.06978257
136	0x3f969441	1.1763994
137	0x3d2ca785	0.042151947
138	0x3efeb7c8	0.4974959
139	0x3f48df3a	0.78465617
140	0x3eaa3ff7	0.33251926
141	0x3d9b8852	0.075943604
142	0x3ebafff1	0.36523393
143	0x09cc5380	4.9189737e-33
144	0x3fa1fef0	1.2655926
145	0x3f14e5d2	0.5816318
146	0x3deef751	0.116682656
147	0x3e801054	0.25012457
148	0x3ea6ede1	0.32603362
149	0x3e5a8874	0.21341115
150	0x3bea945e	0.0071588
151	0x3fbc996a	1.4734318
152	0x3f65c45d	0.8975275
153	0x3e58863d	0.21144958
154	0x3f93a409	1.1534435
155	0x3f0db93e	0.5536078
156	0x3fa82d7b	1.313888
157	0x3f1b02fc	0.6055143
158	0x3f41979c	0.7562196
159	0x3e0418c2	0.1290007
160	0x00000000	0.0
161	0x3fd050de	1.6274679
162	0x3f9dcec8	1.232873
163	0x3eefa72c	0.4680723
164	0x3c7069e3	0.014673683
165	0x3ebe0f71	0.37121156
166	0x3e59c1c2	0.21265319
167	0x3fe7de29	1.8114673
168	0x3f2ea5b1	0.68221575
169	0x3f934fd7	1.150874
170	0x3f29812b	0.6621272
171	0x3eab2bc5	0.3343183
172	0x3cb7195d	0.022350961
173	0x3f816575	1.0109087
174	0x3faabc25	1.3338667
175	0x3efd324b	0.49452433
176	0x3ef227e3	0.47296056
177	0x3fb81c1e	1.4383581
178	0x3f581afd	0.8441618
179	0x3f7feece	0.9997376
180	0xba11ad86	-0.0005557168
181	0x00000003	4e-45
182	0x00000003	4e-45
183	0x00000003	4e-45
184	0x00000003	4e-45
185	0x3eb61175	0.35560194
186	0x3efda53b	0.49540123
187	0x3fbcb069	1.4741336
188	0x3f07489f	0.52845186
189	0x3f202592	0.6255733
190	0x3d55d8bb	0.052208643
191	0x3f031f34	0.5121949
192	0x3f2fee5e	0.68723094
193	0x3f78ee21	0.97238356
194	0x3f52f719	0.8240829
195	0x3f46c26f	0.7764043
196	0x3f798ec9	0.974835
197	0x3f501651	0.8128405
198	0x3f7c83b8	0.98638487
199	0x3f16b235	0.5886567
200	0x4004a825	2.0727627
201	0x3f3b3d80	0.73140717
202	0x3d3bc22a	0.045839466
203	0x3f413bfc	0.75482154
204	0x3e329b54	0.17442065
205	0x3fd3305d	1.6499134
206	0x3f856b6f	1.0423411
207	0x3ea58a5f	0.3233213
208	0x3ea01019	0.31262282
209	0x3efb46fc	0.49077594
210	0xbc1aced4	-0.009448726
211	0x3f29532d	0.6614254
212	0x3f083aa2	0.53214467
213	0x3d74fdcc	0.059812352
214	0x3f1991f2	0.5998832
215	0xb2799ba1	-1.45290935e-08
216	0xbad9be4a	-0.0016612497
217	0x3fd57092	1.6674979
218	0x3e8f0b20	0.27938175
219	0x3d2fbe65	0.042906184
220	0x3f184d2d	0.5949276
221	0x3ee751b5	0.45179525
222	0x4004bba4	2.0739527
223	0x3e7231c3	0.23651795
224	0x3d8734e4	0.06601885
225	0x3e01709e	0.12640616
226	0x3e411e77	0.18859278
227	0x3f98a877	1.1926411
228	0x3e50edd0	0.20403218
229	0x3faa2c9d	1.3294865
230	0x3eedbaf6	0.46431702
231	0x3fad5277	1.3540791
232	0x3f525493	0.821603
233	0x3f582040	0.8442421
234	0xb5710539	-8.9787096e-07
235	0x3f5a9e42	0.8539773
236	0x3ed5b6de	0.4174108
237	0x3ccce1be	0.025009986
238	0x3f78c199	0.97170407
239	0xbc3ec660	-0.011643976
240	0x3fa51547	1.2897118
241	0x3dd976cb	0.10618361
242	0x3f6f5987	0.9349598
243	0x9fafe81b	-7.449937e-20
244	0x3eeddf60	0.46459484
245	0x3f10ebe0	0.56609917
246	0xbb4d8f90	-0.0031366087
247	0x3f57e405	0.84332305
248	0x3fa0c79b	1.2560915
249	0x3e133f61	0.14379646
250	0x3d20d7dd	0.039268363
251	0x3fb0bea6	1.3808181
252	0x3ea7e67a	0.32793027
253	0x3f8ed319	1.1158172
254	0x3f4920d2	0.78565705
255	0x3fe9e953	1.827433
