GP_MVC_hw_3view/results/checkpoints/experiment_name/8_net_AE.pth (torch_old, 935829 bytes, 17 tensors)

layer1_1.weight f4 [200, 216]
00000000: d32a e33b ee8d 49bd ce0c 3dbd de5e 053d
00000010: 9d2e 7f3c 9a04 84bb a353 fd3b bbbe 463d
00000020: 1752 80bd 2ced 2cbd 4011 3fbd eace 3abd
00000030: 3ff1 963b 7a6d c7bc 158f 3bbd f7a2 81bc
00000040: 141f 90bc 94bf 4cbd eac1 57bd bbca 523d
00000050: 5829 203d b39f 6e3d 7dfa 66bc 5a0c 173c
00000060: da1b 6abc 351b 35bd 7fbf 113d e500 ccbc
00000070: fcb0 a43b ee3d 023b e600 583c ffad 8abc
00000080: 9aa3 233d 484b 1a3d 440a 133b a1c3 273d
00000090: b09e 23bc 653f 713d a5ef 66bd aad4 4ebd
000000a0: 3670 643d fac7 1f3d 6e87 813d 4e98 85bd
000000b0: c614 273d b5da 47bd b7b4 713b 3d4e 7c3d
000000c0: 573d 71bd f697 5abc 9146 3bbc b52a 11bd
000000d0: 3100 513d 279d 16bd e128 b6bc 3a4f 9db9
000000e0: 214d 27bc a4cd 1fbc 007d 7dbc 3bd6 1f3d
000000f0: 36b8 463d 3c28 113d 4d11 27bd a0ce 3abb
00000100: afd4 c03c 644c 54bd 6758 883d adfc 3f3d
00000110: 79e1 703c 1342 313d e451 4cbd 357c 43bd
00000120: 5634 30bd 3fad 663c aeb6 84bd 3b66 51bd
00000130: 8b34 8ebd 5b62 4b3d 2cc6 1bbd d493 ac3c
00000140: 4c26 f93c f18d f6bc 8c79 6e3d 388e 81bd
00000150: 9f48 963c a23b 893d ada5 cbbc cea3 2cbd
00000160: 9016 3fbd e90c ecbc 7f65 f8bc 692d 41bd
00000170: c1e5 2ebd 01fc 86bb 25fe 693b 1a48 443c
00000180: 2a8d 293d 354b 753d ae04 11bd d13f 98ba
00000190: 0b59 67bd 490e d73c fad7 463d e80a 46bd
000001a0: 7b51 2bbd f045 f6bc dd61 d1bc e17e 0c3d
000001b0: 0c79 d63c 2c9f 823d bd2c 1d3d 0d2b 23bb
000001c0: f5e2 2abd 0fa8 db3c 2437 6b3b 8988 8d3d
000001d0: 25e5 ccbc 30a0 953b fd43 2d3d 6b76 8a3d
000001e0: cd10 763c fc70 69bd 72ab 213d 2cdb 6cbd
000001f0: 1b93 0bbd 57af 4d3d 364a f23c 8315 613c
00000200: b779 fdbb 8698 3c3d 19ea 013c ac08 873d
00000210: 7be1 5abd dbe6 e0bb 54a4 353d 2dba c73c
00000220: ad9f 693c a080 793b 9f56 4bbd 2823 83bc
00000230: 9ef7 253d e378 1b3d d1c5 36bd f63d b63c
00000240: 1541 493c 9ba2 49bd 4bdf 11bc f50b 96bc
00000250: e1b7 213d 8a0a ba3c 0223 72bd 3a81 12bd
00000260: 46df bc3c 0b6f 5c3d 69fd 193d 6ab1 3cbd
00000270: 58cd f73c e6f5 c7bc 22ae 84bd 524d 4bbd
00000280: ad09 633d 9b7e f2bc feba 61bd 8a83 213d
00000290: 6cdf fdbc e5ff 5a3a 8cfa 823d c398 503d
000002a0: 94d6 62bd 19b1 dbbc 1a9b 773d 38f2 80bd
000002b0: 6e9f 84bc c9f5 10bd 5068 3dbd 95c6 a13c
000002c0: b28e 48bd 80b7 753b c6b5 433c ac01 c83b
000002d0: 5401 713d 5622 713d 5e16 1f3a 55b0 4c3d
000002e0: d83a 3f3d cf0c 49bd 5943 4bbd e523 a13c
000002f0: 1872 d33b 0d62 21bd d30a ebbb db73 1abd
00000300: 4ad3 703d 9986 10bd 5a1c 2fbd 6c98 bebc
00000310: 6f81 203c e758 45bd 058c 113d ad0f 523b
00000320: b971 c3bc bafe 803c 16d4 b53c 6417 c83c
00000330: ac39 28bc 8ec1 1b3d b462 5b3d f2b8 19bd
00000340: 067d 6c3d b5b6 30bc 5d48 7d3d 1bee 863d
00000350: ee67 efbc d734 f33c 65ab 863c 59f3 eb3b
00000360: 00f4 54bb 4e9e 1cbd ca86 a4bc 30e2 633c
00000370: 78b8 81bd aeb9 3c3d 208a 983c f244 363d
00000380: dcf6 563d 5c33 67bc 860c 93bc 0e1d 9bbc
00000390: 38c6 85bd 30e1 22bc 6eae 043d 763b 543d
000003a0: 408e 70bc e6ad 3d3d 559a 74bd 1480 713d
000003b0: 209d 403c d0a6 7d3d 9c79 dabc f03e 5a3d
000003c0: e400 c43c 76f2 6ebd 14cc 7dbc 48cd 713d
000003d0: 44df 4cbd e4c5 ce3c 1ca0 75bc d265 183d
000003e0: 2e6c 7ebd c0bb b1ba 24d9 c63c 340b 40bc
000003f0: 177d 2fbd bae8 083d bca3 42bd 224d 573d
0.0069325953 -0.04920762 -0.04615479 0.032561176 0.015575078 -0.004028869 0.0077309175 0.04852174
-0.062656574 -0.042218372 -0.04664731 -0.045607485 0.0046063955 -0.024344195 -0.04579075 -0.015824778
-0.017592944 -0.04998739 -0.052675165 0.05146287 0.03910193 0.05825777 -0.014097807 0.009219253
-0.014288867 -0.0442154 0.035583016 -0.02490277 0.005025981 0.0019873339 0.013183808 -0.01692867
0.039950944 0.03766945 0.0022436539 0.04095805 -0.0099865645 0.05889835 -0.056380887 -0.05049578
0.055771075 0.039009072 0.06324659 -0.065231904 0.040791295 -0.04879256 0.0036881396 0.06159805
-0.05889639 -0.013341894 -0.011430399 -0.03544112 0.051025573 -0.036770966 -0.02223629 -0.00030004402
-0.01021126 -0.009753618 -0.015471697 0.039022665 0.04851552 0.03543876 -0.040787984 -0.0028504506
0.023538915 -0.051830664 0.066574864 0.04687183 0.014702194 0.043275904 -0.049882784 -0.047725875
-0.04301866 0.014079391 -0.06480156 -0.051122885 -0.069436155 0.049654346 -0.03803079 0.021066584
0.03041377 -0.03009698 0.058221385 -0.06325954 0.018345175 0.06700827 -0.024859274 -0.042148404
-0.046652377 -0.02881475 -0.030321835 -0.047162447 -0.04269958 -0.0041193967 0.003570446 0.011980081
0.04139439 0.059886176 -0.035404854 -0.0011615698 -0.056481402 0.026251929 0.048545815 -0.048350245
-0.041825753 -0.030062646 -0.02555936 0.03430069 0.026180767 0.06378016 0.038372744 -0.0024897486
-0.04172035 0.026813535 0.003589102 0.06910808 -0.025011608 0.004566215 0.042301167 0.06760868
0.015018654 -0.056992516 0.039470144 -0.057826206 -0.034075838 0.050216045 0.029576402 0.013738039
-0.007735457 0.046043895 0.007929348 0.06593451 -0.05343769 -0.0068634576 0.04434617 0.024380768
0.014259261 0.0038071051 -0.049643155 -0.016007975 0.04051935 0.037957083 -0.044622246 0.022246342
0.012283583 -0.04922734 -0.008903335 -0.018316248 0.039482 0.022710104 -0.059115417 -0.03576777
0.023055684 0.053816836 0.037595186 -0.046067633 0.030249283 -0.024409246 -0.06478526 -0.049634285
0.05542915 -0.029601386 -0.05510997 0.039432086 -0.030990325 0.00083541713 0.06395444 0.050926935
-0.05538042 -0.026817845 0.06045065 -0.062961996 -0.016189303 -0.03539065 -0.04624206 0.019748012
-0.04896421 0.0037493408 0.011945194 0.006103715 0.058839157 0.058870636 0.00060687016 0.04997285
0.046686977 -0.04908448 -0.049624775 0.019670436 0.00645281 -0.03940015 -0.007172921 -0.037708145
0.05879525 -0.035284612 -0.042751648 -0.02326604 0.009796484 -0.048180487 0.035533924 0.00320528
-0.023857938 0.015746463 0.022195857 0.024425216 -0.010267656 0.038026385 0.053560928 -0.037529893
0.05773642 -0.010785748 0.06183659 0.06588384 -0.029224362 0.029688282 0.01643915 0.00720064
-0.0032494068 -0.03823691 -0.020083804 0.013908908 -0.06334013 0.046075515 0.01862055 0.044499345
0.052481517 -0.014111366 -0.017950308 -0.018934753 -0.06531948 -0.009941384 0.03239291 0.05181452
-0.014682353 0.04630842 -0.059717495 0.058960035 0.0117562115 0.061926663 -0.026669316 0.053282678
0.023926206 -0.058336698 -0.015490551 0.059033662 -0.05001761 0.025240846 -0.014991786 0.03720648
-0.062114887 -0.0013559982 0.024273463 -0.011721421 -0.042843904 0.03342507 -0.04751943 0.052563794

layer1_2.weight f4 [200, 76]
00000000: 22f0 09bd cf65 1d3e 17f4 5bbc 313e 1d3d
00000010: 6317 c7bc 51b0 1abe 2769 09be a805 a2bd
00000020: b231 26be be37 c9bd 79fa c9bc aff6 0dbe
00000030: 8f88 dabd 522d f6bd 109b b9bd c3da 063d
00000040: 8b8b b3bd 7d5a 563d 44fd c13d 0231 33bd
00000050: 36f3 8fbd 5905 06bc 0e51 cabd 3930 8abc
00000060: faa9 343d f271 c9bd 5025 8dbd b848 6c3d
00000070: ae8d 42bd 869c 363d 2127 7ebd da63 ce3d
00000080: 4012 acbd 38c4 ec3d d2f3 2c3b 12f0 e33c
00000090: eee3 debb d5e6 c1bd cd1c e2bb aaa8 b2bc
000000a0: cc73 7f3d 5bfb 4dbd 15c6 dc39 506a 643d
000000b0: 05c2 083d 2cef 7e3d a415 e9bc 735d 09bd
000000c0: 806d 663b 14e7 a8bd 1ad4 913d c887 14bd
000000d0: 05ba 063d c580 d0bd 4057 07bd b424 893c
000000e0: a2b1 98bd 8383 a6bd fa7c 3dba ddc0 af3d
000000f0: 75af a9bd 524e 823d 250e 383d 646e 07bd
00000100: 389b d3bd af67 f0bc 91a9 8cbc 97b3 78bd
00000110: 182d 413d d04c 7b3d 6ef1 cb3c 9800 22bd
00000120: 0c6b a4bd 7184 003e df28 703d 0c36 483d
00000130: 5e48 25be b0bf 05bd c64f cabd 0a9a 843d
00000140: 1e07 263e aa5c 37be ffbc 3a3d 6ff9 09be
00000150: ae65 573e 6657 603d 51cb a5bc e88e f2bd
00000160: 264f d9bd f7f2 a23d e4ae 6f3d dd7d e8bd
00000170: 044b 4c3d e2ed b4bd ee74 99bc b66b a5ba
00000180: bca1 9b3d b31f bfbd 84ac 553c 0d6d 573d
00000190: 7f5b d93d a299 ac3c a4c6 bfbd d717 073c
000001a0: ed55 d13d 1aa2 693c 5142 8bbc a41b 433d
000001b0: fffb d13d 7e42 e03b 9fb0 dfbd 0eba 7d3d
000001c0: 8bfb 78bc 3323 0fbd d126 abbd 8a45 ee3d
000001d0: 65ed 72bd dcd0 9a3b c445 bdbd 4274 91bd
000001e0: 33af 86bb 61dd 373d 5c6a b73a 3b66 a83d
000001f0: 584e 313d b7bf 03be 4ef6 093d 77f1 a03d
00000200: fbf1 a13d cd12 153d ccf8 edbd a64d 9ebd
00000210: e16c 373d de90 3d3d 4a99 b93c 52e5 37bd
00000220: 3953 183c dc59 0abe f149 5bbb 5073 0d3e
00000230: af17 36bd 12d6 30bc c46a 85bd 2bd4 02bd
00000240: d5a2 47bd 5fb4 a2bd 3deb 5fbd 4dec a13d
00000250: a8c8 cabd 97a0 353e eea9 a0bd 6d42 643e
00000260: afe2 a4bd c522 28bd 1283 35be 8588 20be
00000270: 1280 253e 1501 8ebd 23dc e7bc 94ff f0bd
00000280: cabc cbbb b29d 61bd c23f 053c b8e7 1a3d
00000290: ab03 22bd 7870 4d3e 2b5c 993d 4798 87bc
000002a0: 0402 b13d 7858 523d 40a6 95bc 60fa 96bd
000002b0: c618 7c3d fb22 6f3d 1247 2f3d ece7 6fbd
000002c0: db26 2f3d 6a54 a23d 72b2 7f3d c446 63bd
000002d0: a2e4 8d3d 3b1f b5bd c64c d3bd e943 89bd
000002e0: c14d 753d 1e34 9d3d c036 a13d e870 6a3d
000002f0: dbb5 b33d 3df6 743d 2c29 893c cdc1 bb3d
00000300: dc4e 5fbd c1b7 d63d 8230 ebbc 3afb 4f3d
00000310: 9083 c8bd 446f 91bd 5bb5 94bc d5f6 933d
00000320: df7b 9abd 8705 5c3d b88f c63c 88ed b23c
00000330: eb98 e33c 826e 54bd e07d bebd 612b 36bc
00000340: bcf4 243d 73ca f93c 8fde 5dbd 4b62 c5bd
00000350: 46e8 1f3d 8cd3 ecbd e7ce 05bd 9216 4f3d
00000360: 8818 24be 265f f73d 920a 303d c47c e23c
00000370: 9c85 0dbe 9a05 8e3d 5834 edbd f42c 1e3e
00000380: 9dda a5bd 6cf7 173d 576f ce3a bbc0 d43d
00000390: a836 0e3d 2060 98bc b318 8fbd acbf bb3d
000003a0: 01ce c6bc ace4 e6bc b73c ae3d 5867 a73d
000003b0: 48d7 313c 4583 dd3d 2b6b 11bc 529a 993d
000003c0: 5421 87bd 4a59 b0bd 9960 e33d 7cc4 f43b
000003d0: f322 e03d c9ea 8c3d 1eeb 12bd d54d f43c
000003e0: c085 00bd ea65 d43d 9bf8 b73d e65c 00bd
000003f0: 00c3 aebd bc0e b43b 2c23 65bd 08e3 b0bd
-0.033676274 0.15370868 -0.013424895 0.03838939 -0.024303144 -0.15106322 -0.13419019 -0.07911235
-0.16229895 -0.09825085 -0.024655567 -0.13863634 -0.10670578 -0.12020363 -0.09062779 0.03292347
-0.0876685 0.05233239 0.09472135 -0.04374791 -0.07028811 -0.008179986 -0.09878741 -0.016868697
0.044107415 -0.098361865 -0.068918824 0.057686538 -0.047498398 0.044582866 -0.062049035 0.10077639
-0.084019184 0.11560863 0.0026390445 0.027824435 -0.0068020737 -0.09467856 -0.006900406 -0.02180894
0.062366292 -0.05028854 0.00042109253 0.05576545 0.033388156 0.06223981 -0.028452702 -0.033536386
0.0035160482 -0.082472 0.07120533 -0.036262304 0.032892246 -0.10180811 -0.033042192 0.016741134
-0.07455756 -0.081305526 -0.0007228401 0.085817076 -0.08285419 0.06362595 0.044935364 -0.03306426
-0.1033234 -0.029346315 -0.0171707 -0.060718145 0.047162145 0.06135255 0.024895396 -0.039551347
-0.0802823 0.12550522 0.058632728 0.048879668 -0.16140887 -0.03265351 -0.09878497 0.06474693
0.16213652 -0.17906442 0.045590397 -0.13474058 0.21034881 0.05477085 -0.02023855 -0.118436635
-0.106107995 0.07956498 0.058516398 -0.113521315 0.049876228 -0.08834435 -0.018732514 -0.0012620601
0.07599208 -0.09332218 0.013041619 0.052594233 0.106131546 0.021069352 -0.093640596 0.00824543
0.10221467 0.014259839 -0.016999396 0.047633782 0.102531426 0.006843864 -0.1092236 0.061945014
-0.015196691 -0.034945678 -0.08357013 0.11634357 -0.05930843 0.004724605 -0.09241822 -0.071022525
-0.004110241 0.044888858 0.001399349 0.08222624 0.043287605 -0.12866102 0.03368216 0.07858556
0.07907482 0.036394883 -0.1161972 -0.07729654 0.04478157 0.046280734 0.022656102 -0.04489643
0.009297186 -0.13510841 -0.003346082 0.1381352 -0.04445618 -0.010793226 -0.065145046 -0.03194062
-0.048739273 -0.07944559 -0.0546677 0.07906399 -0.099015534 0.17737041 -0.078449115 0.22290964
-0.08051049 -0.041048784 -0.1772578 -0.15677078 0.16162136 -0.069338 -0.028303212 -0.11767498
-0.006217574 -0.05508203 0.008132877 0.03781864 -0.03955428 0.20062435 0.07488283 -0.016552104
0.086429626 0.0513539 -0.01826775 -0.07371974 0.061547063 0.05838297 0.042792387 -0.058570787
0.042761665 0.07926257 0.062426038 -0.05548741 0.06928374 -0.08843847 -0.10317378 -0.06702406
0.059888605 0.07675956 0.07871771 0.057236582 0.087749206 0.059805144 0.016743265 0.09167824
-0.054518566 0.10484267 -0.028709654 0.050776698 -0.097907186 -0.071013 -0.018152883 0.07224814
-0.07543158 0.05371621 0.024238452 0.02184178 0.027782878 -0.0518632 -0.093013525 -0.011118741
0.04027246 0.030492043 -0.054167327 -0.096378885 0.039039873 -0.11563787 -0.03266802 0.050558634
-0.16024983 0.12078695 0.04297883 0.027647384 -0.13820499 0.06934662 -0.115822494 0.15446836
-0.08098338 0.037101194 0.0015749735 0.10388323 0.034720093 -0.018600523 -0.06987133 0.09167418
-0.024268152 -0.028185211 0.08507674 0.08174008 0.01085455 0.10816053 -0.0088756485 0.075001374
-0.06598154 -0.086107805 0.11102409 0.007469712 0.10944166 0.06880719 -0.035868756 0.02982227
-0.031377554 0.10371001 0.089829646 -0.031338595 -0.08533287 0.0054949205 -0.055941746 -0.08637053

layer1_3.weight f4 [200, 64]
00000000: 1562 f4bd 9322 953e f537 7e3d 2a3a 073d
00000010: 3415 d13d 0def b53a 20ef 1fbe b0de 883d
00000020: 70b1 e53d 07da 21be e7e9 09be 0877 0abb
00000030: f6cd 5dbd 3158 b3bd bbd5 163e 932b cf3c
00000040: d08d a9bd 7515 ea3b 8df6 5a3c a639 093e
00000050: 6261 03be 8847 b13c a12f 4ebc a47f 3c3d
00000060: e8f4 013e f6ab 1c3d 4dde 5a3d 0f8b 4bbd
00000070: 75e4 213d 81a0 a9bc ae1e 58bd 5d78 b53d
00000080: d442 263d 337a d9bc 4b68 8e3d b0a1 05bd
00000090: c021 0b3e 9466 87bd f630 2f3e 6279 be3d
000000a0: 6a27 8e3d 16ad eb3d dc9b 233a a15f efbd
000000b0: 91b6 1fbe 2a4a 55bc e294 da3d 8a5d 1d3d
000000c0: cfe1 f4bb 4655 533d a8b1 90bd 529f c73b
000000d0: f38d b6bd a2f5 f83c e8c4 cabc c1f9 193d
000000e0: 297a 44bd 8444 86bc 4032 fbbc d220 b13c
000000f0: 78cc 28bd 0154 c6bd 1024 f2bd 31d3 7e3d
00000100: 405e 16bd 75b0 573d 9c58 59bc d8bb da3d
00000110: 2fad c03d 6b8a b03c 308a 4cbe 45d4 c73d
00000120: a118 5a3d eb12 09be 5e91 3dbe 3e7f a23d
00000130: db0e f8bc 8b0d 9a3d 3f85 ef3d 5959 03bd
00000140: 2ecf de3c 7f3b debd c844 763d 7a98 f83d
00000150: 3a4b c83d 1887 0c3e 8836 58bc 35c7 463e
00000160: 5700 9ebd c927 b83a 50b0 c1bd 4383 3e3d
00000170: f44a 1f3e cc11 16bd 1f35 683d ecfd adbd
00000180: c8b3 8ebd bb8f 0ebc 08c4 6a3d 046b 943d
00000190: e042 033e 9953 a63c 3ffc 68bc beb0 6d3d
000001a0: 7566 7abd b8d4 a13d 35d4 0bbd b9ac 5dbd
000001b0: 660e 2c3e ab2d 913d 3e16 713b 75a5 bcbd
000001c0: 11f4 7f3b df03 253d dc9c 28bd e5b2 fa3c
000001d0: bb66 613c 5cd6 373d e97d 8fbd b1a8 613d
000001e0: 4ae3 b6bd b0e0 383e d724 a03d 8761 e1bd
000001f0: 20f7 023e 249b 933d 90df 943d debc bbbd
00000200: c813 41be 92da 2abe 79b8 343e 7b98 55be
00000210: 0bbb 073d 1c24 ee3d f6d1 28be 7967 54bd
00000220: 19ed 3c3d 1151 0bbe f027 343d 7469 85bd
00000230: f4d4 1a3e fb2d 20be 8b0f 203e b070 b13d
00000240: 7362 0b3e 9e0d 7c3c 73d7 fcbc 4a09 303e
00000250: 82fa 1fbd 74f0 ae3d afab 243e 241f b63d
00000260: 53ab 083d bf36 c3bd 47b3 f9bc 4f11 483d
00000270: bd47 b9bd 79e7 483d b484 9e3d 219f a63d
00000280: d4ed ebbd d618 7b3b 2005 723c a080 98bd
00000290: e854 2e3e 6bfb 82bb 9675 273b 5e7b 933b
000002a0: 98c2 31bd f475 e33c 2f4c cc3d e412 953d
000002b0: 363d e83d c752 693d 6364 0f3d 7396 99bd
000002c0: 0e26 bd3d 98c0 cc3d f602 883c 865c af3d
000002d0: 4661 0dbe 4c35 99bc c6a8 91bd d983 343e
000002e0: 4e01 79bd 6c9a 7cbd 29b5 dd3c d76e 163d
000002f0: add1 78bd c0a3 febc d726 b4bd 4aef ccbd
00000300: f4d2 f93d f7bc 883d 886b 2abe 2c46 19bd
00000310: d542 f23d 8048 37be 5800 5d3e 2cae ae3d
00000320: 4b19 cfbd bd81 02bc 333e 2f3d 8a94 9b3d
00000330: 0ed1 86bd 4761 50bd ad9e d6bd e601 583d
00000340: decf 693d a542 2a3d d18d e43c 55fc dcbd
00000350: 83cd 023e 4dda e33d 85db b73b 5bc6 08be
00000360: 0ea7 d53c 62c9 f5bd 9dd6 a23d b312 1ebe
00000370: d2f0 21bd 0d5d 9a3d b217 9fbd 80e1 d5bd
00000380: 9200 1f3d cbb6 6cbc 36ba 91bb 20d0 f7bc
00000390: 06a8 443e ae5d 063e 618c 9a3d f8c8 b8bd
000003a0: 8534 8d3c 3c9d bd3d 621f 34bd a78d 24bd
000003b0: f5ce a3bd e790 a9bd 9865 34bd fdae 31bd
000003c0: 29b8 203e 8188 edbc 094a cd3d 9d8b 4bbd
000003d0: 5c46 2fbd c6ce 1c3e 5e52 c83d cf65 37bc
000003e0: 8509 8dbd 5d36 6f3d 5617 8d3c 8fb2 55bd
000003f0: 0d45 acbd eb4b 4abd ff52 7b3b 2307 b23d
-0.1193277 0.2912794 0.062065084 0.033014454 0.10209122 0.0013880447 -0.15618563 0.06683099
0.11215484 -0.15805827 -0.13468133 -0.0021128077 -0.054151498 -0.087570556 0.14729969 0.025289332
-0.08279002 0.007143671 0.013364446 0.13400897 -0.12830117 0.021640554 -0.012584598 0.046020165
0.1269108 0.038249932 0.05343466 -0.049693163 0.039524514 -0.020706417 -0.052763633 0.08860848
0.040591076 -0.026547527 0.06953486 -0.0326249 0.13587093 -0.06611362 0.17108521 0.09300496
0.069411114 0.11507623 0.00062411814 -0.11688162 -0.15596987 -0.01301817 0.106729284 0.038419284
-0.0074732075 0.051594995 -0.07065135 0.0060919905 -0.089137934 0.030390564 -0.024752095 0.0375917
-0.047968064 -0.016390093 -0.03066361 0.021622095 -0.04121062 -0.09683991 -0.118232846 0.062213127
-0.036710978 0.052658517 -0.013265755 0.106803596 0.09408032 0.021550378 -0.1997459 0.09757284
0.053246144 -0.13386123 -0.18512484 0.07934426 -0.030280521 0.07522114 0.116953366 -0.03206763
0.0271984 -0.10851192 0.06012419 0.121384576 0.09779973 0.13723409 -0.013196595 0.19411929
-0.077149086 0.0014049943 -0.09457457 0.0465119 0.15555936 -0.036638066 0.056691285 -0.084956974
-0.06967884 -0.00870126 0.057315856 0.07246974 0.1281848 0.020303534 -0.014220296 0.058029883
-0.061132867 0.07901901 -0.034137923 -0.0541198 0.16802368 0.070887886 0.003678694 -0.09211246
0.0039055387 0.040286895 -0.041165218 0.030602882 0.013757403 0.044882163 -0.07006437 0.055092517
-0.08930071 0.18054461 0.07819527 -0.1100493 0.12789583 0.07207325 0.07269204 -0.09166883
-0.18855202 -0.1668494 0.17648496 -0.20858948 0.033137362 0.11627981 -0.16486344 -0.05185649
0.04612455 -0.13605143 0.0439834 -0.06514254 0.15120298 -0.1564254 0.15630929 0.086640716
0.13611774 0.015384106 -0.030864453 0.17191043 -0.039057262 0.085419565 0.16081117 0.08892658
0.033366513 -0.09531926 -0.030480994 0.04884463 -0.09046886 0.049048875 0.07740155 0.0813582
-0.115199715 0.0038314364 0.01477173 -0.07446408 0.17024577 -0.0039972565 0.0025552264 0.0045007905
-0.04339847 0.027766205 0.09975468 0.07278994 0.113398 0.05696371 0.035007846 -0.07499399
0.09235774 0.09997672 0.016602974 0.08562569 -0.13806638 -0.018702172 -0.07112269 0.17628421
-0.06079226 -0.061670706 0.027063923 0.0367268 -0.060746837 -0.031083941 -0.087964706 -0.10006578
0.12198439 0.06676667 -0.16642582 -0.037420437 0.118291534 -0.1789875 0.21582162 0.085293144
-0.10112246 -0.007965502 0.042783927 0.07596691 -0.06582843 -0.05087402 -0.10479484 0.052736185
0.057083003 0.041567463 0.027899655 -0.10790316 0.12773709 0.11125622 0.0056108856 -0.13356917
0.026080634 -0.12001301 0.079510905 -0.1543682 -0.039536305 0.07537279 -0.077681914 -0.10443401
0.038818903 -0.014447878 -0.004447247 -0.030250609 0.19204721 0.13121673 0.075463064 -0.09022707
0.017236957 0.09258506 -0.04397524 -0.040174153 -0.07998458 -0.08279591 -0.0440422 -0.043379772
0.15695252 -0.028995754 0.10023887 -0.049693692 -0.04279171 0.15313253 0.09781335 -0.011193707
-0.06886581 0.058401454 0.017223042 -0.05217224 -0.08411608 -0.049388807 0.003834903 0.086927675

layer2.weight f4 [150, 200]
00000000: 6115 6d3a 7c85 1c3d 0558 d0bd 996b 833d
00000010: b324 d3ba 14f5 ec3d aecb 7fbd 9f7e 29bc
00000020: c1d1 e23d bcff 143e 97b5 bf3b 8dbf 6dbb
00000030: b493 003a 9374 123d 4e82 8ebe 3ea2 f13d
00000040: d618 86bd 6c68 883d 68ea 9f3d 379f 0e3d
00000050: aa56 fb3d 4567 abbc f340 29bd cc07 f53c
00000060: 2507 9fbc 1cdb a3bc c529 c0bc d5ad a9bd
00000070: 8c76 603c bcfe 82bc 08f7 153e 4451 493d
00000080: 5fa7 e43d 40e6 03be 1c44 a13d 7c79 11bd
00000090: 6629 85bd 8e6c ae3c 077c 253d f38f 64bd
000000a0: 3d13 533d b461 46bd 3b04 963d 65df 02be
000000b0: dd8f aebd 487f c7bc 22f3 07be c627 79bd
000000c0: 3f45 fc3d e831 1ebe bdbc 0b3d 8537 43bd
000000d0: 6420 613d 023c d5bd 16b9 423d ab3e 243c
000000e0: 6050 293b 63e7 c7bd 8a38 71bb 8510 bbbb
000000f0: fbcf 443d 6238 c93b d2fc 1e3d ea5a 253d
00000100: d489 463c c9c0 f8bb 72da c53c 1b7f 633d
00000110: e215 2ebc b8a1 fe39 2a45 743c ca2a 86bd
00000120: 48f2 233d d43c 5b3c 6337 bcbd 9797 80bd
00000130: 1c6c aab9 183a 0c3d d110 3b3e 7d9f 08bc
00000140: b430 2d3c c38d c03c 9be1 693c b08b b13b
00000150: 4cf9 963d 15f2 143d c118 e8bc 66da 81bc
00000160: 3f00 083d 1d1e afbc 0671 acbd 3881 72bd
00000170: 927d 253d 1222 0e3d 4bc9 8e3d 9810 8f3d
00000180: 9a1a d7bc b5a1 a93c 788c 41bc 2bd1 c1bc
00000190: 1e24 773d fa30 823c 18c3 72bc af71 89bd
000001a0: 702b ae3d 9d09 80bc b0b7 613d e830 a7bd
000001b0: f532 90bd 5738 1bbd 0913 4cbd 44bd b7bd
000001c0: 2c5f a33d a4d6 2dbd c969 483e ebf2 3e3c
000001d0: 1469 48bc 8ae5 ecbc 6748 033e 36ea b93d
000001e0: cd4a bd3b dd5c 8d3b f320 353c f0f9 f2bc
000001f0: 7b60 2cbe c2fc 96bc 465c 023d 57f5 a23d
00000200: eea6 19bc f864 013e 8f62 ea3a b488 a5bd
00000210: d9f6 193e bae9 3e3d de17 653d 5d81 88bc
00000220: 1ea9 a2bd ede1 9ebd 6779 df3c 52ce db3d
00000230: 3499 9c3d c82f 5b3d 5299 8dbd 993c 0fbc
00000240: 64e9 98bc 19e7 fdbc b004 013d b724 363d
00000250: ec63 81bd 5cdc a93c b42e a13d b728 213d
00000260: c9d5 9e3c 8a9e abbb a6b8 69bd f774 01be
00000270: 140b b3bd ca3f 683d 9f9e 5a3d 7bc3 f4bc
00000280: 8ce0 2b3d e998 e7bc 2b18 b6bd 2ea1 5fbc
00000290: d7e7 b43c ca41 c13c 4fa9 91bd c777 ec3c
000002a0: 52a6 cabd 03f0 f13c ffd9 ce3d 590a 61bd
000002b0: fc0f 8abc 8e1c c13d 35b9 a73c 7c82 bf3c
000002c0: d501 ec3c 7dd4 a73c 0cee 413d 8ad6 27bd
000002d0: 06b3 753c f583 db3b 8af7 9c3d 0fe9 5cbd
000002e0: 4f69 773d b6ed 583a ccb9 5d3d 70d3 eebc
000002f0: c299 e63a c261 24bd 0fcd 503c fa51 093d
00000300: b3f5 6abd c535 89bd 9f80 30be eef2 5c3d
00000310: 6fff 24bc 4cd6 0b3d ee09 3d3b d9ce f73c
00000320: 9875 8fbd 4ccc abbc 5e6b 62bd e141 be3d
00000330: 6e35 a8bd bb06 f7bd b1df b83d f2ae f83c
00000340: e0f9 373d 0e78 9fbd 0a75 a0bd 5533 1dbd
00000350: 63f0 c13d 5554 363d 7864 d53c a4d8 edbb
00000360: 0890 143d d500 843c 4d0a 0cbd 8985 d4bd
00000370: 91b7 bdbd d503 f93b 6c76 a63c bfb7 29bd
00000380: d329 49bc b0c5 d53c 9406 2dbd b400 cd3d
00000390: ef32 b83c 4680 d6bc 2988 d73d 44a1 923c
000003a0: 324b 973d 29a0 b6bd f8b3 313d 1403 643c
000003b0: 6411 cb3d 0874 01bd 01cb b23b 7699 c4bc
000003c0: f9c2 773d a40b 833c 8839 423d 29e2 a83c
000003d0: 1934 0f3d e530 debb 5263 c73c 5477 02bd
000003e0: 19d0 7c3d 8f35 68bd b314 12bd 584f 223e
000003f0: 496a 6a3c e36b 2c3d 5a1e 833c da99 a23d
0.0009044018 0.038213238 -0.101730384 0.06417007 -0.001610896 0.115701824 -0.062450103 -0.01034513
0.11075164 0.1455068 0.0058505046 -0.0036277503 0.0004904822 0.035755705 -0.2783379 0.11798523
-0.06547706 0.06660542 0.07808381 0.034819808 0.12272389 -0.020923266 -0.041321706 0.029910944
-0.019412586 -0.02000194 -0.023457417 -0.08285109 0.013700139 -0.015990607 0.14645016 0.049149767
0.11164736 -0.12880802 0.07874319 -0.035516247 -0.06502037 0.021291997 0.040401485 -0.055801343
0.05153202 -0.04843302 0.07325026 -0.12780531 -0.085235335 -0.024352685 -0.13276342 -0.060828947
0.12317895 -0.15448725 0.03411554 -0.04766037 0.05496253 -0.10411836 0.047539793 0.010024707
0.002583526 -0.097609304 -0.0036807382 -0.0057087564 0.048049908 0.0061407546 0.038815327 0.040369906
0.012117822 -0.007591341 0.024152014 0.05554114 -0.010625334 0.00048567145 0.014909068 -0.0655113
0.04002598 0.013381202 -0.09190252 -0.062789135 -0.00032505475 0.03423509 0.18268134 -0.008338806
0.010570694 0.023505097 0.01427498 0.0054182634 0.07371768 0.03636368 -0.028332116 -0.01585121
0.03320336 -0.021376664 -0.08419995 -0.059205264 0.040402956 0.03470046 0.06971987 0.06985587
-0.026257802 0.02070699 -0.0118132755 -0.02365931 0.06033718 0.015892494 -0.014817022 -0.067111365
0.08504379 -0.015629584 0.05510682 -0.08163625 -0.07040969 -0.037895527 -0.04982284 -0.089716464
0.07977137 -0.042441025 0.19571604 0.011654596 -0.012232084 -0.028918047 0.12820588 0.09077875
0.005776739 0.0043140487 0.011055219 -0.029660195 -0.1683368 -0.018431071 0.03182628 0.07956951
-0.009378178 0.12636173 0.0017882156 -0.08082715 0.15035571 0.046609618 0.055930965 -0.016663248
-0.07942413 -0.07757936 0.027279569 0.10732712 0.07646409 0.053512365 -0.06914009 -0.008742475
-0.018665977 -0.030993985 0.03149861 0.044468608 -0.06317887 0.020734958 0.07870236 0.03934547
0.01938905 -0.005237405 -0.05706086 -0.12642275 -0.08742347 0.05670146 0.05337393 -0.029878369
0.04196219 -0.028271155 -0.088913284 -0.013649268 0.022083206 0.023590941 -0.07112371 0.028865708
-0.09895004 0.029533392 0.10100173 -0.05494151 -0.016853325 0.094292745 0.020474056 0.02337765
0.028809467 0.020487064 0.04734616 -0.040976085 0.014996296 0.00669908 0.07664402 -0.0539332
0.060403164 0.0008275168 0.054132268 -0.029153556 0.0017593431 -0.04013229 0.012744202 0.033525445
-0.057363223 -0.06699709 -0.17236565 0.053942613 -0.010070666 0.034139916 0.002884503 0.03025
-0.07004851 -0.02097144 -0.055278175 0.09289909 -0.08213316 -0.120618306 0.09027041 0.030356858
0.044916034 -0.077865705 -0.078348234 -0.038379032 0.09469678 0.04451402 0.026048884 -0.0072584916
0.03627017 0.016113678 -0.03418951 -0.10377032 -0.09263528 0.0075993338 0.02032014 -0.041435
-0.012278038 0.026095241 -0.0422426 0.100099 0.022485225 -0.026184212 0.10524017 0.017899163
0.07387389 -0.08917267 0.043384522 0.0139167495 0.099154264 -0.031604797 0.005456329 -0.023998957
0.060488675 0.015996762 0.047418147 0.020615654 0.034961794 -0.006780731 0.024339352 -0.03185208
0.061721895 -0.056691702 -0.03566427 0.1585058 0.014307567 0.042095076 0.016005684 0.07939501

layer2.bias f4 [150]
00000000: fc6f b23c 9641 c8bc aab1 683c 7885 813d
00000010: 726e c1bb 5519 203c a8da 61bd d1ae 35bc
00000020: d506 66bc c59e ed3c 278f 043d bc5b d3bc
00000030: fbf0 4b3d 6ca2 973d acf6 113d 2713 23bc
00000040: b242 813c 96e5 283d dcc2 75bc da11 083c
00000050: 6f3d 03bd beb6 a33d 1b5f 5bbd 70e6 8d3d
00000060: fc54 2dbd 6490 09bd 8291 5abd 25fe 22bd
00000070: 04c8 253d 350b 03bd e1fa e0bc bb42 353d
00000080: c348 9b3d 49ae 26bd 96d6 04bd 2d04 9c3d
00000090: 1efd eebc 9e95 3abb 0432 523c 2bcb acbc
000000a0: 32d9 81bd 2101 25bd c372 4bbd 2bb6 4ebd
000000b0: ed76 413c 1c3c 06bd 51b3 813d 7e9b 2dbd
000000c0: dc4a 5b3d 3999 8fba 66f9 893d e935 e53c
000000d0: 3c38 a13d e055 63bd 7b7b de3d bf30 a7bc
000000e0: c1e8 0abb d94d 743d de57 3bbd 8a23 a1bc
000000f0: e68f 7b3c 464a c53b fa59 ea3d 4c2d 633a
00000100: 633a 8b3d 7adc dc3c 0339 833d d20a febc
00000110: 87de 3bbd 3693 983c d7be 3abd 0b83 a13d
00000120: 0b1a a63d d32d a93b d14d 42bd 308e bdbc
00000130: 88d1 423c cffc b33d 9900 fe3c ef76 8bbd
00000140: 302b 85bb d792 6c3d 00f3 9f3d 5354 27bc
00000150: e141 7a3c fcc3 a53d 477e 34bd 4b44 923b
00000160: 4b86 b13b f2f7 ccbc e717 c53a 09c8 d9bc
00000170: 23e0 5f3d a5ff 99bb 3aef 33bd 21f1 a03a
00000180: bacc 053d d440 5fbc 9fdc 3f3d adb0 0bbd
00000190: dcfc bb3c 89eb 2b3d 4092 c53b 486f 33bd
000001a0: 83a5 96bd ee71 9ebc 4a69 12bd 3e1c a63d
000001b0: f9f8 e63c 2c3b 08bc f6df f6bc 0502 963d
000001c0: 896e 373c d5e3 23bd 7381 063b cc3e 05bd
000001d0: f35d 17bb 8b65 333d 9c6c 303d b293 353d
000001e0: 6e00 d7ba 38c9 09bd 7c6d 0bbd 6f49 24bd
000001f0: b511 37bd 4c05 283d 82ad f63a 18cc 89bd
00000200: 7a09 a3bd b37e a73d a411 5dbd d4e5 67bb
00000210: a761 ce3c d7ea 53bd 56f9 3e3d 9e02 1c3d
00000220: 876c 103d c308 3bbc bb64 503c 112d 443d
00000230: 5413 1c3d 4d50 2d3d 763a bfbc 5816 0f3d
00000240: 0c2d 653c 3035 753d 0016 6d3c d907 22bd
00000250: d63b 51bd b7a5 cbbb
0.021781914 -0.024445336 0.014202515 0.06324285 -0.0059030587 0.009771665 -0.055140167 -0.011089043
-0.014039715 0.029006371 0.032363083 -0.025800578 0.049790364 0.074040264 0.035635635 -0.009953297
0.015778873 0.041234575 -0.015000071 0.008305037 -0.03204101 0.0799384 -0.053557497 0.06928718
-0.042317376 -0.033584967 -0.053361423 -0.039793152 0.040473953 -0.03199311 -0.027463378 0.044253092
0.075822376 -0.040693555 -0.032431208 0.07617984 -0.02917343 -0.0028470526 0.0128293075 -0.021092972
-0.06340255 -0.04028428 -0.049669992 -0.050466698 0.011808139 -0.03277217 0.0633303 -0.042384617
0.05353819 -0.0010955698 0.06737022 0.027979808 0.07872054 -0.05550182 0.10863396 -0.020408986
-0.002119586 0.059644554 -0.045738094 -0.019670267 0.015354132 0.006020817 0.11442943 0.00086661126
0.06798246 0.0269606 0.064073585 -0.031011019 -0.045866515 0.018624883 -0.045592155 0.078863226
0.08110436 0.0051629334 -0.047437493 -0.02313909 0.011890776 0.08788454 0.031006144 -0.06809794
-0.0040639862 0.057757225 0.078100204 -0.010212976 0.015274496 0.08094022 -0.04406574 0.0044637076
0.0054176203 -0.025020573 0.0015037031 -0.026584642 0.054657113 -0.0046996647 -0.043929316 0.0012278893
0.032665946 -0.013626296 0.04684126 -0.034104038 0.022947721 0.04197267 0.0060293972 -0.043807298
-0.073557876 -0.019341435 -0.035744943 0.081108555 0.028194891 -0.008314889 -0.03013609 0.07324604
0.011195787 -0.0400122 0.0020523935 -0.03253059 -0.002309677 0.04379801 0.043072328 0.044330306
-0.0016403326 -0.033639163 -0.03403996 -0.040109094 -0.04469462 0.041020676 0.001882002 -0.06728381
-0.07960792 0.08178463 -0.0539719 -0.003538479 0.025193049 -0.051737633 0.046624504 0.038088433
0.03525975 -0.011415663 0.0127193285 0.04789454 0.03810437 0.04231291 -0.023343306 0.034933418
0.013987791 0.059865177 0.014470577 -0.039558265 -0.051082455 -0.006214823

layer3.weight f4 [100, 150]
00000000: a47e 40bd 391e 0d3d 2980 0b3d d939 fc3c
00000010: 1364 1c3e 365b 023d 7807 bdba 17f6 cf3d
00000020: 1c0f 1e3d ea24 893e f007 54bd e8db c1bd
00000030: e8f4 c6bc 2af8 51bd 7ad3 30bd e4bb 50bd
00000040: 8380 b73c 4770 09be a708 bebc ede1 fe3d
00000050: 3260 e9bd 3709 f43d 9d86 d2bd 1b5c bb3d
00000060: d253 f7bb 8f7d d03c a0a5 b6bd b0fe 253e
00000070: bb0d 893d 7651 193d 337e ffbd d37d 81bc
00000080: 2252 ac3d a0dd 323d c7dc 75bd a222 38bb
00000090: f766 5abd 028e a6ba f734 983d d1c1 1e3e
000000a0: 1f4a 413d 5315 9d3c b00f fd3c 4ed7 92bd
000000b0: 3f21 72bd 1b4c 2f3e 70c5 1bbc b0ad bf3d
000000c0: 6baa 9c3d 0ef1 b8bd 6904 e1bc dfb5 2b3d
000000d0: 5527 e23b ab0b 9b3d e968 14bd 72a5 b43d
000000e0: 493a 0a3b e5b1 18be 82dc bebc 34e5 f33d
000000f0: 69e4 043d fffc 82bb f383 083e 744b 4cbe
00000100: 91bb b73c 0bd3 55bd c41e 163e dd19 14bc
00000110: 8e2c 25be a09d 5a3c 4e73 643d 23d4 913d
00000120: d696 053e 93b2 a0bd 556d 8e3c 20bc c33d
00000130: 8240 cabd 9b87 413d d761 443d 4f14 8dbd
00000140: ff63 d13d 50c7 273d b5c6 823a 51b6 673c
00000150: 2125 0f3e 08bf 8b3d 8035 b33d d6f2 433c
00000160: 3a0c 16bd de04 58bd 255e 963c 630b 1b3c
00000170: 0b76 023d 38ff e93d e450 ec3c 9f89 2fbd
00000180: d615 9fbd db41 24be 9df9 45bd 8a42 58bd
00000190: 2b8f c1bc 0116 a83d 1864 dbbc 9611 f1bb
000001a0: 5d7f 3d3c 4e9b f8bc 0803 cabd 6870 223d
000001b0: a83c 933b 7bbd ef3d 93a6 ee3d 2d28 a9bd
000001c0: 4932 4e3d 2741 0dbd faed 743d adb7 f5bd
000001d0: 433a 76bb a9d0 163e adc7 e13c a905 1b3d
000001e0: 8817 103d d00a 27bd 3e51 25bc 0d3e 6b3d
000001f0: 6a0c b53d 87d0 2b3d 5cc4 0e3d c38f 053c
00000200: fc37 8e3d ba92 4ebd 1328 c2bd 0afe edbd
00000210: d423 8e3d e06d 5fbd 979d b8bc 93a7 bd3d
00000220: f463 113e dfc4 ad3c 6e73 9fbc 8bb4 553d
00000230: 81e1 fb3d a6a9 4dbd 5b19 2bbd bf6c 653d
00000240: 6f61 b33d 7097 fbbc 2528 933a a3c8 abbd
00000250: 4559 e33d 9228 95bd 88af a03d 154c 89bb
00000260: 5325 41bc 3abb 653d 0884 7f3d 22c1 8fbd
00000270: 715a 72bc 19ec 4ebd ee56 c63d 55c9 833e
00000280: 92b7 383c 0efc 8abc bf72 37bc 8a86 1b3d
00000290: 4103 a43d 7f20 cf3b 646f 813d d3a4 b63c
000002a0: 6f38 96bd 3956 aebc 7e54 b63a f901 00bd
000002b0: 2e85 2bbc d65c 403d 5f78 69bd a851 f5bd
000002c0: a12a 1fbc 8c33 1dbd 6260 bf3c 4b69 ed3d
000002d0: cc3d 113d c39a 0a3e ee15 6ebc 7a57 063e
000002e0: ada1 3fbd ebfb 38bd 683f 7ebd 9c5e 90bd
000002f0: 1f0e 303d 861f c73d 64e2 013d 35c9 353d
00000300: e4d9 b1bc e42d e4bc 8583 cbbc 4e25 d8bc
00000310: 2fab f4bc acc9 9e3d 33b4 9dbb 9e48 17bd
00000320: a2be a8bd 5bc6 e5bd 0208 d63d de3f ef3d
00000330: c540 e63c f191 b9bc 08a0 35bd 05d3 95bb
00000340: 0f5f dabd b707 bcbb c549 e13d 7c04 ba3c
00000350: b71f d43d 8732 27be 7730 eabc 2e02 91bd
00000360: 1594 3d3d 2835 7b3d 0c7f a1bd b69e a13d
00000370: 2385 423d 5e01 cb3d b0ef 203c 4735 fc3d
00000380: e657 223d 9f4d cd3d 3c60 babd 14e0 203d
00000390: cad6 89bd 73ed 0b3e bcb2 9b3d c175 853d
000003a0: 0c9e b0bd 15ae 03bd 6446 803d 7b3c 8ebd
000003b0: 895a 83bb 42a9 01be f796 c2bd 4e50 3c3c
000003c0: 6c0c 85bb fd26 443d 5c07 e93c abe7 2a3b
000003d0: 66ce 933d 1829 213d 556b 25be 9aa0 e7bc
000003e0: d2d9 acbd 39b6 1bbc 4f43 64bd 1add 013b
000003f0: aa1a a6bd eeca 823d 4bc5 0d3d f183 d13d
-0.046995774 0.03445265 0.03405777 0.030789303 0.1527255 0.031825267 -0.0014421782 0.1015436
0.03858863 0.26785976 -0.051765382 -0.09465772 -0.024286702 -0.05126206 -0.04317043 -0.050960436
0.022400146 -0.13421737 -0.023197485 0.12445436 -0.11395301 0.1191582 -0.10279582 0.09148427
-0.007547834 0.025450496 -0.08918309 0.16210437 0.06692072 0.037431203 -0.124752425 -0.015807068
0.08414103 0.04366839 -0.060025003 -0.0028096815 -0.05332085 -0.0012707117 0.07431977 0.15503623
0.047189828 0.019175207 0.03089127 -0.07169972 -0.059113737 0.17118876 -0.009507522 0.093593
0.07649692 -0.090303525 -0.027467923 0.041921493 0.0069016614 0.07570585 -0.036232863 0.08820619
0.002109187 -0.14911611 -0.023298506 0.119089514 0.03244439 -0.0039974446 0.13331585 -0.19950658
0.022428306 -0.05220322 0.14660174 -0.009039369 -0.16130278 0.013343245 0.055774026 0.0712054
0.1304582 -0.0784656 0.017386118 0.09557366 -0.09875585 0.047248464 0.04794487 -0.06888639
0.10224151 0.040961564 0.0009977432 0.014142589 0.13979007 0.06823546 0.08750439 0.011959752
-0.036632754 -0.052739017 0.018355438 0.009463164 0.031850856 0.11425632 0.028847165 -0.042855855
-0.07767837 -0.16040747 -0.048333753 -0.05279783 -0.023627838 0.08207322 -0.026781127 -0.0073568327
0.01156601 -0.030347493 -0.098638594 0.03965798 0.004493315 0.117060624 0.11652865 -0.08259616
0.050340924 -0.034485962 0.059797265 -0.11997924 -0.0037571348 0.14728035 0.027561033 0.037847195
0.03517869 -0.040781796 -0.01009017 0.057432223 0.088402584 0.041946914 0.03485523 0.008151951
0.06944272 -0.050432898 -0.094803 -0.1162072 0.069404274 -0.054548144 -0.022536082 0.09260478
0.14198285 0.02121204 -0.01946422 0.052174132 0.12298871 -0.050210617 -0.041772228 0.05601191
0.08758818 -0.03071186 0.0011227174 -0.08387878 0.11101011 -0.07283129 0.0784598 -0.004189978
-0.011788684 0.056086756 0.062381774 -0.07019259 -0.014792071 -0.05051813 0.09684549 0.25739542
0.011274235 -0.016965892 -0.011196791 0.037970103 0.08008433 0.0063210125 0.06320074 0.022295391
-0.073349826 -0.021281349 0.0013910679 -0.03125188 -0.010468764 0.046963535 -0.05699956 -0.11978465
-0.009714753 -0.038379237 0.023361389 0.11592349 0.035459325 0.135356 -0.014531596 0.13119307
-0.046785045 -0.045162123 -0.062072188 -0.07049295 0.042982217 0.097228095 0.031710044 0.04438134
-0.021710344 -0.027853914 -0.024842987 -0.026384976 -0.029866783 0.077533096 -0.004812741 -0.036934488
-0.08239485 -0.11219474 0.10450746 0.116821036 0.028107056 -0.022652598 -0.04434207 -0.0045722746
-0.10662662 -0.0057382244 0.110003985 0.022707216 0.103576116 -0.16327868 -0.028587563 -0.07080494
0.0462838 0.06132999 -0.078855604 0.078916 0.04749025 0.0991237 0.009822771 0.12314849
0.039634608 0.10024571 -0.091003865 0.039276198 -0.06730421 0.13664798 0.0760245 0.065166004
-0.08623895 -0.03214844 0.06263426 -0.069451295 -0.0040085954 -0.12662223 -0.095014505 0.0114937555
-0.0040603187 0.047888745 0.028445892 0.0026078026 0.07217102 0.03934583 -0.16154225 -0.028274823
-0.084399834 -0.0095038945 -0.055728253 0.0019815625 -0.081105545 0.06386362 0.03461198 0.10230244

layer3.bias f4 [100]
00000000: c07e 983d fdea 67bd d07b 673d 070b 853d
00000010: 4cf5 b43d 1132 d93d 91d1 d13c 0500 9e3d
00000020: bcd7 9dbd d13f b63d 36ee 67bd 0b7d 913d
00000030: 6da3 10bb 8f4e 09bd f39a 953d 5291 b6bd
00000040: 3a75 36bd cf94 db3d c32c c63d ca61 f43b
00000050: ec71 cd3d f228 d7bb 4411 df3d cced 9e3d
00000060: e768 c43d f163 a0bd 8b36 9b3c 1465 3bbd
00000070: 5716 afbc 9992 483a 9779 983d ebf2 993d
00000080: 91ce 01bd e753 ab3d dcc2 67bd 83ea 293c
00000090: 90ad 8b3d 03b2 8dbd fd82 e139 1b3e b4bc
000000a0: e717 f83a c818 d7bc e508 d23c f078 a339
000000b0: 7936 4ebd 1902 173d 5139 df3c 4456 703d
000000c0: 11ff febb 530b 7939 106d 303b a787 dfbb
000000d0: 23e7 4c3d 565f 60bd f858 793d 4443 f83c
000000e0: f12b 903d 0e1c e13d 54ee d23d eb46 c13d
000000f0: 3ad2 16bd bb44 303d 4f75 6fbc 17b8 963d
00000100: 1d3f a33d df5a 843d 9bc1 4a3d 129c 893d
00000110: 0ab7 7dbd 0802 103d bcfa c83b 8c03 1cbd
00000120: eac0 68bc 57c7 40bd f936 23bd 3a35 fb3d
00000130: ca79 20bd 5820 023d bff0 cd3d 5088 e13d
00000140: 1c15 96bd 45a0 bfbd 8441 57bd 103e cf3b
00000150: 38de 54bd 3f82 7a3b fda5 f6bb abad cf3d
00000160: 1188 793d f52c be3c f3b9 8d3d 2753 033d
00000170: 4d41 e03a 7095 06bd eef8 c7bc 048d 953d
00000180: 18bc 95bd 2fae 0e3d db7f 0cbc a129 073e
0.07446051 -0.056620587 0.05651456 0.06496244 0.08835849 0.106052525 0.025612624 0.077148475
-0.07707164 0.08898891 -0.05662366 0.07103928 -0.0022070066 -0.033522185 0.07304945 -0.089144364
-0.04454539 0.10721742 0.09676506 0.0074579464 0.100314945 -0.0065661604 0.10891965 0.077602
0.09590321 -0.07831562 0.018946907 -0.045750692 -0.021372957 0.0007651239 0.074450664 0.07517036
-0.031691138 0.083656125 -0.056582317 0.010370853 0.06820214 -0.06918719 0.00043012938 -0.02200227
0.0018928022 -0.026256934 0.025639007 0.00031179888 -0.050344918 0.036867235 0.02724901 0.05867602
-0.007781871 0.00023750709 0.0026920475 -0.006821591 0.050025117 -0.05477842 0.060875863 0.030305512
0.07039631 0.10991679 0.10299364 0.09437355 -0.03682158 0.043034296 -0.014615371 0.07359331
0.07971022 0.06462645 0.049501043 0.06719221 -0.061942138 0.035158187 0.0061334055 -0.03808932
-0.014206151 -0.047065105 -0.039847348 0.122660115 -0.039178647 0.031769127 0.10055684 0.11012328
-0.07328245 -0.09356741 -0.052552715 0.006324537 -0.051969737 0.0038224605 -0.0075271116 0.101405464
0.06092078 0.023214797 0.069202326 0.032061722 0.0017109305 -0.03285736 -0.024410691 0.07302287
-0.07311267 0.034834083 -0.008575405 0.13199474

layer4.weight f4 [150, 100]
00000000: d073 173c a079 743b 402f f7bd d08b d6bd
00000010: 3133 6c3d 13ce 793d 9a7f e13c 5e56 9c3d
00000020: ed6d f8bc 125e ddbd fdc7 e1bd ffc1 3fbc
00000030: e986 693d 2ed5 cdbd fd40 033c ed90 f93c
00000040: cc6f eebc b821 d73d 744a 513b 6ac5 a0bd
00000050: 702f ab3c 7a61 44bd 3c8e a9bd df3d 7a3d
00000060: 21a3 ab3d a60a 863d 966e a6bb ed5e 0ebe
00000070: c3a6 4abd b627 f63c b6e1 303d f277 e53b
00000080: c43a 55bd a835 f5bc ac51 cdbd bae7 e6bd
00000090: db96 05be 1642 7dbd 4d5e bf3d f263 c63d
000000a0: fc63 00be a1f9 53bc 560e b03d fdb3 303d
000000b0: e640 71bd a8f2 ab3c fafd 483d adba 183d
000000c0: 6aad f4bc c8d2 73bd 8f99 bd3d 905b b43c
000000d0: 1dfb 3abd c6a6 1bbd 8381 113c c219 883d
000000e0: d604 8cbd e8fe 603d 1095 b2bd 1892 d83c
000000f0: 98bb 1a3d fab4 413d 9fb9 d13d f7b8 c5bc
00000100: b793 f2bc e77f 8fbc 00ce 59be 4fa2 083d
00000110: 9980 b1bd e0a8 853c 05cc 99bd d92f 093c
00000120: 3b31 c7bd f98a 7bbd 0eb7 5ebb aa22 30bd
00000130: ba97 8fbd d3e0 db3d 8067 a13d 731f a93d
00000140: 38b3 a5bd 9afc 013d 1de2 a0bd a67b 773b
00000150: a901 67ba adc2 33bb 7091 d33c 1576 1cbd
00000160: f6c0 7c3d 9a62 6a3c 5064 debd 9e39 8c3d
00000170: 603f af3d 070e 87bd c43f d93d e296 123e
00000180: 31eb 513d d625 b13d a823 aebb 2ae1 a23d
00000190: 007e 403d 7d96 6f3d a28f 8abc c9d8 a43c
000001a0: c5f1 9dbc 79c8 8f3d 92bd a13d 8877 84bd
000001b0: 1209 173d eefe cebd 20dd 613c 6dc0 c33d
000001c0: e4b2 64bc a791 c7bd 9972 c9bd 801d c4bc
000001d0: 442f 3cbd f301 cfbd 2057 a0bd 3734 bd3d
000001e0: b642 18bd 78af 0dbd f544 533d b03b ba3d
000001f0: e73f 9b3d ca72 293b 7652 c13d ecdb c0bd
00000200: 44a6 9abc 7ef2 a2bd a960 8ebd 35d7 753d
00000210: a38f c2bd 31ea e0bb 8b16 943d d25e 81bd
00000220: 34fa 3dbc 664b 21bc ebcd 97bd 53ba b13d
00000230: d01a c33c f140 8bbc d2dd 813c 880a da3b
00000240: e0f4 023d 4b6c 28bd 0d73 15bd 2b2b ad3d
00000250: 5473 ca3c dcce 4b3d 8ab1 4f3d c210 9cbc
00000260: 9521 61bd 1ae9 513d 3129 793b 0724 7e3d
00000270: fd0e c3bd 4641 5c3d 5df1 93bd f97d fa3c
00000280: fc5f 983d a1ae 8fbd 353c b7bd 51f9 4c3d
00000290: 67a6 5bbd 5907 c8bd 0f38 943d 0f38 55bc
000002a0: 82ac 973a 26a0 f83b 8e52 7dbd b0ae a9bd
000002b0: 0532 c5bd 75ed d93c 2ccd 2dbc 8c80 ccbd
000002c0: ab1f adbc 6490 acbd d35b 51bd 51e1 8dbd
000002d0: 0c42 e3bc f81b c5bd 42c1 073d d988 833b
000002e0: eeaf 89bd 551a e33c dcc2 3f3d eea1 a5bd
000002f0: 19a6 b3bc 5da7 c9bd 7a50 5d3d 0cef 5ebd
00000300: f1f8 debc 66d8 a3bd bcdf 2cbc d7c7 27bd
00000310: afa9 983d 5b22 5ebd 6c9a 483c 48a6 c6bc
00000320: 3205 ac3d 30a4 433d 188a 10be 5ada 05bd
00000330: ddee 77bd 6529 42bc 5cda 0dbe c099 b73c
00000340: 3dcb 3ebe 16e1 85bb b5a7 2abd 94db 6d3c
00000350: f211 1cbe ffe4 503d 6c39 a9bd 4fb7 a73d
00000360: efd0 d1bc 0bf0 ad3d 07ab b43d b28e aa3d
00000370: b1d8 a2bd cabd be3d 809b 803b 8a65 713d
00000380: 48e8 a0bd 8c69 203e 3667 833c abee 5bbd
00000390: fb1b 043c 88a4 e43d 6e78 1b3c 1b11 b23d
000003a0: da83 87bd edbd fa3c 9455 2a3d dd5c a63b
000003b0: 2bda da3d 9220 de3d 7b33 e1bc ace2 0e3d
000003c0: cb99 ebbd 1f1f c83d 0b8f a53d a26f 51bd
000003d0: 42cb c73c a5d3 fd3d 0d94 da3d a463 32bd
000003e0: 2ed9 15bd 5055 e9bd ff2d a23d 4f79 a73d
000003f0: 1570 c13d 09cf c3bd 91b6 013d 44ba cabd
0.00924392 0.003730394 -0.12069559 -0.10475886 0.057666007 0.060987543 0.027526665 0.07633661
-0.030325854 -0.10808958 -0.11024473 -0.011703967 0.057013426 -0.100504264 0.0080111 0.030464614
-0.029106043 0.10504478 0.0031935247 -0.07850154 0.020896643 -0.047944523 -0.08279082 0.06109416
0.08380724 0.06545 -0.005079101 -0.13903399 -0.049475443 0.030048233 0.043184005 0.007002824
-0.052057996 -0.029932812 -0.10025343 -0.11274667 -0.13045828 -0.061830603 0.09344158 0.09687032
-0.12538141 -0.012937934 0.08596484 0.0431404 -0.058899783 0.020989731 0.049070336 0.037287403
-0.029867847 -0.05952719 0.092578046 0.022016317 -0.045649637 -0.038000844 0.008880976 0.06645538
-0.0683686 0.054930598 -0.08719838 0.02643685 0.03777656 0.047291733 0.102404825 -0.02413605
-0.029611452 -0.017517043 -0.21269989 0.033357915 -0.08667106 0.016315877 -0.07509617 0.008373224
-0.09726187 -0.06141183 -0.003398362 -0.04300181 -0.070113614 0.10736241 0.07881069 0.082579516
-0.08090824 0.03173504 -0.07855628 0.003776291 -0.0008812198 -0.0027429268 0.025826186 -0.03819855
0.06170746 0.014305735 -0.10858977 0.06846927 0.0855701 -0.065944724 0.106078655 0.1431537
0.051249687 0.08649795 -0.005314309 0.07953103 0.046995163 0.058493126 -0.016914193 0.020122902
-0.019280324 0.07020659 0.07897486 -0.06468111 0.036873884 -0.10107218 0.01378563 0.09558187
-0.0139586665 -0.09744578 -0.09836311 -0.023939848 -0.045943514 -0.10107794 -0.07829118 0.09238475
-0.037172996 -0.03459117 0.051579434 0.09093416 0.07580548 0.0025855773 0.09439556 -0.09416947
-0.01887811 -0.07956408 -0.0695203 0.06001969 -0.09500053 -0.0068638553 0.07230862 -0.06316914
-0.011595298 -0.009844637 -0.074123226 0.08678117 0.023816496 -0.01699874 0.015852842 0.0066540875
0.031971812 -0.0411189 -0.036486674 0.08455499 0.024713196 0.049757823 0.050706424 -0.01905096
-0.054963667 0.051247694 0.0038018937 0.062046077 -0.09524343 0.053773187 -0.07223771 0.030577647
0.074401826 -0.0701573 -0.089470305 0.050042454 -0.05362549 -0.097670265 0.07237255 -0.013013854
0.0011571797 0.0075874506 -0.06184631 -0.08285272 -0.09628681 0.026602486 -0.010607999 -0.09985456
-0.021133265 -0.08425978 -0.05111296 -0.06927741 -0.027741455 -0.09624475 0.03314329 0.0040141162
-0.06723009 0.027722517 0.04681669 -0.08087526 -0.021929787 -0.09846375 0.054031827 -0.05442719
-0.027218314 -0.08000259 -0.010551389 -0.040962067 0.074542396 -0.054231983 0.012243848 -0.024249211
0.083994284 0.047764003 -0.14115179 -0.03267894 -0.060530532 -0.01185069 -0.13852829 0.02241218
-0.18632217 -0.00408567 -0.041663844 0.014517684 -0.1524122 0.050999638 -0.082629055 0.0818926
-0.025612323 0.0849305 0.088216834 0.08327998 -0.07951487 0.09313543 0.003924787 0.058934726
-0.07856804 0.15665263 0.016040426 -0.05369441 0.008063312 0.11164194 0.009489162 0.08694669
-0.066169456 0.030608142 0.04158552 0.005076988 0.106861435 0.10846056 -0.027490368 0.03488414
-0.11503943 0.09771561 0.08083924 -0.051131852 0.024388913 0.123938836 0.1067277 -0.043552056
-0.03658407 -0.11393225 0.07918929 0.08177435 0.09445206 -0.09560973 0.03166825 -0.098988086

layer4.bias f4 [150]
00000000: 3660 533c b92f 3d3d 88d7 c93c 99c1 59bd
00000010: 97ee 63bd 7c13 a93d d5d3 983d 0167 763c
00000020: 0c55 b43b 94af 383d d9d8 bb3d 0dd4 523d
00000030: 31f7 d2bd b15c f23c 9c1a a1bc a571 9ebc
00000040: f666 da3d 24e9 9abd f546 f5bc b415 afbd
00000050: bc98 6d3d 1ca6 5dbd 2736 c2bd 887d 2f3d
00000060: 59d9 a13d b03a a33d 3352 b2bb 2325 be3b
00000070: aaa6 d13d aec1 3abd 47ed 7e3d 04b9 d5bd
00000080: 8a7f 78bd be9f b9bd abe8 483d 0e38 16bd
00000090: ac79 72bd d6e9 83bd 3511 f73d 9969 bcbd
000000a0: bb2b 0fbd 58b6 c0bd b027 1a3e 352b 36bd
000000b0: b1e6 923d c3b6 9d3d 0f61 8cbd aef8 233c
000000c0: 1af6 e73d 1512 24bd 30e9 ecbc dc7b b33d
000000d0: aa73 c03d 1cc0 94bb 82aa f5ba 1895 2e3c
000000e0: 3d18 abbc 8fc6 8e3b 9686 60bc 5e63 003e
000000f0: 39bb a43d a0ba 65bd f50a 01bd df99 b43c
00000100: 49c5 843d 6293 7cbd db7f 3e3d 45ee dabc
00000110: f67c a4bc 2284 a4bd b20a cb3c 67b4 303b
00000120: 069a 3ebd c793 933c 8415 87bd 8d78 043c
00000130: 407f 793c 1b12 cc3d 895d 063d f418 013d
00000140: fe5d 843c b217 1e3d 0e1c 853d c39e 97bd
00000150: 6e63 eb3d 387a 533d 804a e73d 1515 813d
00000160: b7ee da3d 8f50 bc3d c351 cebd db4c 473d
00000170: 3533 003d eac3 f03c 58e9 833b a94a 0abd
00000180: cc8c 37bd bcaf 30bc 88be 4b3d 36b3 253d
00000190: d212 843c 6009 c63c b18c ab3d 1a63 003e
000001a0: f3c3 c83c 7036 3b3d 12d1 8ebd 7e4a e3bd
000001b0: 5e89 30bc bfc3 f73d 80a7 6b3c 4657 c13b
000001c0: f21c d7bd 0a5e a33b 2151 733b 1b16 873d
000001d0: 7f3e a63d fb5d 6cbd 87e5 c53d 000b 9e3c
000001e0: 48d6 9b3c bc16 443b 62b6 683d a928 a3bc
000001f0: 7249 dc3d c232 0b3d 06aa dc3c b43a 5bbd
00000200: 208d c9bc 91ef cabd febb efbd f26a d63d
00000210: 11bd 583d 964f 9cbd 30d8 0c3c 71f8 03be
00000220: 120e fcbc aec8 913d b529 483d 9d83 bcbd
00000230: 1ee5 d13c 8579 6c3d 79a8 d23d 52c2 8a3c
00000240: c190 d03d 5916 df3d e323 a0bd 30f6 8d3d
00000250: c54d ce3d 6f3f db3d
0.012901356 0.04618809 0.024638906 -0.053163145 -0.05564746 0.082556695 0.07462279 0.0150392065
0.0055033024 0.04508932 0.0917222 0.05147176 -0.10301054 0.029585214 -0.019666009 -0.0193413
0.106641695 -0.07563999 -0.029941062 -0.085490614 0.058006987 -0.054113492 -0.09482985 0.042844325
0.07902784 0.07970178 -0.005441928 0.005802767 0.10236867 -0.045594864 0.062238004 -0.104356796
-0.060668506 -0.090636715 0.049050014 -0.03667455 -0.059198067 -0.06441085 0.12063829 -0.09199829
-0.034953814 -0.09409779 0.15054202 -0.0444748 0.07172907 0.07700875 -0.0685445 0.01000802
0.11326237 -0.040056307 -0.028919786 0.08763859 0.09397061 -0.004539503 -0.0018742832 0.010655664
-0.020885581 0.004357166 -0.013703963 0.12537906 0.080435224 -0.056086183 -0.03150459 0.022046028
0.06482942 -0.061663993 0.04650865 -0.026724944 -0.020079117 -0.08033015 0.024785373 0.0026962997
-0.046533607 0.018014802 -0.06595901 0.008085382 0.015228093 0.09964391 0.032804046 0.031517938
0.0161581 0.038596816 0.06499492 -0.07403328 0.11493574 0.05163023 0.112935066 0.06302849
0.106900625 0.09195053 -0.100741886 0.04865728 0.031298835 0.029390294 0.0040256195 -0.033762608
-0.04481201 -0.010784086 0.04974225 0.040454112 0.016122255 0.024174392 0.08376444 0.12537804
0.024507498 0.045706213 -0.06973471 -0.11098193 -0.010774938 0.120978825 0.014383197 0.0059002964
-0.10503568 0.0049855756 0.0037127214 0.06596013 0.08117389 -0.057706814 0.096629195 0.019292355
0.019023076 0.0029920777 0.05681456 -0.01991685 0.10756196 0.033983953 0.026936542 -0.05352278
-0.024603426 -0.09908975 -0.117057785 0.10469617 0.052914683 -0.07632367 0.008596465 -0.12887742
-0.030768428 0.07118355 0.0488679 -0.09204791 0.025621947 0.057733078 0.1028604 0.016938362
0.101838596 0.10892934 -0.07819345 0.06931722 0.10073427 0.107054584
