GP_MVC_hw_3view/results/checkpoints/experiment_name/9_net_AE.pth (torch_old, 935829 bytes, 17 tensors)

layer1_1.weight f4 [200, 216]
0.0069325953 -0.04920762 -0.04615479 0.032561176 0.015575078 -0.004028869 0.0077309175 0.04852174
-0.062656574 -0.042218372 -0.04664731 -0.045607485 0.0046063955 -0.024344195 -0.04579075 -0.015824778
-0.017592944 -0.04998739 -0.052675165 0.05146287 0.03910193 0.05825777 -0.014097807 0.009219253
-0.014288867 -0.0442154 0.035583016 -0.02490277 0.005025981 0.0019873339 0.013183808 -0.01692867
0.039950944 0.03766945 0.0022436539 0.04095805 -0.0099865645 0.05889835 -0.056380887 -0.05049578
0.055771075 0.039009072 0.06324659 -0.065231904 0.040791295 -0.04879256 0.0036881396 0.06159805
-0.05889639 -0.013341894 -0.011430399 -0.03544112 0.051025573 -0.036770966 -0.02223629 -0.00030004402
-0.01021126 -0.009753618 -0.015471697 0.039022665 0.04851552 0.03543876 -0.040787984 -0.0028504506
0.023538915 -0.051830664 0.066574864 0.04687183 0.014702194 0.043275904 -0.049882784 -0.047725875
-0.04301866 0.014079391 -0.06480156 -0.051122885 -0.069436155 0.049654346 -0.03803079 0.021066584
0.03041377 -0.03009698 0.058221385 -0.06325954 0.018345175 0.06700827 -0.024859274 -0.042148404
-0.046652377 -0.02881475 -0.030321835 -0.047162447 -0.04269958 -0.0041193967 0.003570446 0.011980081
0.04139439 0.059886176 -0.035404854 -0.0011615698 -0.056481402 0.026251929 0.048545815 -0.048350245
-0.041825753 -0.030062646 -0.02555936 0.03430069 0.026180767 0.06378016 0.038372744 -0.0024897486
-0.04172035 0.026813535 0.003589102 0.06910808 -0.025011608 0.004566215 0.042301167 0.06760868
0.015018654 -0.056992516 0.039470144 -0.057826206 -0.034075838 0.050216045 0.029576402 0.013738039
-0.007735457 0.046043895 0.007929348 0.06593451 -0.05343769 -0.0068634576 0.04434617 0.024380768
0.014259261 0.0038071051 -0.049643155 -0.016007975 0.04051935 0.037957083 -0.044622246 0.022246342
0.012283583 -0.04922734 -0.008903335 -0.018316248 0.039482 0.022710104 -0.059115417 -0.03576777
0.023055684 0.053816836 0.037595186 -0.046067633 0.030249283 -0.024409246 -0.06478526 -0.049634285
0.05542915 -0.029601386 -0.05510997 0.039432086 -0.030990325 0.00083541713 0.06395444 0.050926935
-0.05538042 -0.026817845 0.06045065 -0.062961996 -0.016189303 -0.03539065 -0.04624206 0.019748012
-0.04896421 0.0037493408 0.011945194 0.006103715 0.058839157 0.058870636 0.00060687016 0.04997285
0.046686977 -0.04908448 -0.049624775 0.019670436 0.00645281 -0.03940015 -0.007172921 -0.037708145
0.05879525 -0.035284612 -0.042751648 -0.02326604 0.009796484 -0.048180487 0.035533924 0.00320528
-0.023857938 0.015746463 0.022195857 0.024425216 -0.010267656 0.038026385 0.053560928 -0.037529893
0.05773642 -0.010785748 0.06183659 0.06588384 -0.029224362 0.029688282 0.01643915 0.00720064
-0.0032494068 -0.03823691 -0.020083804 0.013908908 -0.06334013 0.046075515 0.01862055 0.044499345
0.052481517 -0.014111366 -0.017950308 -0.018934753 -0.06531948 -0.009941384 0.03239291 0.05181452
-0.014682353 0.04630842 -0.059717495 0.058960035 0.0117562115 0.061926663 -0.026669316 0.053282678
0.023926206 -0.058336698 -0.015490551 0.059033662 -0.05001761 0.025240846 -0.014991786 0.03720648
-0.062114887 -0.0013559982 0.024273463 -0.011721421 -0.042843904 0.03342507 -0.04751943 0.052563794
00000000: d32a e33b ee8d 49bd ce0c 3dbd de5e 053d
00000010: 9d2e 7f3c 9a04 84bb a353 fd3b bbbe 463d
00000020: 1752 80bd 2ced 2cbd 4011 3fbd eace 3abd
00000030: 3ff1 963b 7a6d c7bc 158f 3bbd f7a2 81bc
00000040: 141f 90bc 94bf 4cbd eac1 57bd bbca 523d
00000050: 5829 203d b39f 6e3d 7dfa 66bc 5a0c 173c
00000060: da1b 6abc 351b 35bd 7fbf 113d e500 ccbc
00000070: fcb0 a43b ee3d 023b e600 583c ffad 8abc
00000080: 9aa3 233d 484b 1a3d 440a 133b a1c3 273d
00000090: b09e 23bc 653f 713d a5ef 66bd aad4 4ebd
000000a0: 3670 643d fac7 1f3d 6e87 813d 4e98 85bd
000000b0: c614 273d b5da 47bd b7b4 713b 3d4e 7c3d
000000c0: 573d 71bd f697 5abc 9146 3bbc b52a 11bd
000000d0: 3100 513d 279d 16bd e128 b6bc 3a4f 9db9
000000e0: 214d 27bc a4cd 1fbc 007d 7dbc 3bd6 1f3d
000000f0: 36b8 463d 3c28 113d 4d11 27bd a0ce 3abb
00000100: afd4 c03c 644c 54bd 6758 883d adfc 3f3d
00000110: 79e1 703c 1342 313d e451 4cbd 357c 43bd
00000120: 5634 30bd 3fad 663c aeb6 84bd 3b66 51bd
00000130: 8b34 8ebd 5b62 4b3d 2cc6 1bbd d493 ac3c
00000140: 4c26 f93c f18d f6bc 8c79 6e3d 388e 81bd
00000150: 9f48 963c a23b 893d ada5 cbbc cea3 2cbd
00000160: 9016 3fbd e90c ecbc 7f65 f8bc 692d 41bd
00000170: c1e5 2ebd 01fc 86bb 25fe 693b 1a48 443c
00000180: 2a8d 293d 354b 753d ae04 11bd d13f 98ba
00000190: 0b59 67bd 490e d73c fad7 463d e80a 46bd
000001a0: 7b51 2bbd f045 f6bc dd61 d1bc e17e 0c3d
000001b0: 0c79 d63c 2c9f 823d bd2c 1d3d 0d2b 23bb
000001c0: f5e2 2abd 0fa8 db3c 2437 6b3b 8988 8d3d
000001d0: 25e5 ccbc 30a0 953b fd43 2d3d 6b76 8a3d
000001e0: cd10 763c fc70 69bd 72ab 213d 2cdb 6cbd
000001f0: 1b93 0bbd 57af 4d3d 364a f23c 8315 613c
00000200: b779 fdbb 8698 3c3d 19ea 013c ac08 873d
00000210: 7be1 5abd dbe6 e0bb 54a4 353d 2dba c73c
00000220: ad9f 693c a080 793b 9f56 4bbd 2823 83bc
00000230: 9ef7 253d e378 1b3d d1c5 36bd f63d b63c
00000240: 1541 493c 9ba2 49bd 4bdf 11bc f50b 96bc
00000250: e1b7 213d 8a0a ba3c 0223 72bd 3a81 12bd
00000260: 46df bc3c 0b6f 5c3d 69fd 193d 6ab1 3cbd
00000270: 58cd f73c e6f5 c7bc 22ae 84bd 524d 4bbd
00000280: ad09 633d 9b7e f2bc feba 61bd 8a83 213d
00000290: 6cdf fdbc e5ff 5a3a 8cfa 823d c398 503d
000002a0: 94d6 62bd 19b1 dbbc 1a9b 773d 38f2 80bd
000002b0: 6e9f 84bc c9f5 10bd 5068 3dbd 95c6 a13c
000002c0: b28e 48bd 80b7 753b c6b5 433c ac01 c83b
000002d0: 5401 713d 5622 713d 5e16 1f3a 55b0 4c3d
000002e0: d83a 3f3d cf0c 49bd 5943 4bbd e523 a13c
000002f0: 1872 d33b 0d62 21bd d30a ebbb db73 1abd
00000300: 4ad3 703d 9986 10bd 5a1c 2fbd 6c98 bebc
00000310: 6f81 203c e758 45bd 058c 113d ad0f 523b
00000320: b971 c3bc bafe 803c 16d4 b53c 6417 c83c
00000330: ac39 28bc 8ec1 1b3d b462 5b3d f2b8 19bd
00000340: 067d 6c3d b5b6 30bc 5d48 7d3d 1bee 863d
00000350: ee67 efbc d734 f33c 65ab 863c 59f3 eb3b
00000360: 00f4 54bb 4e9e 1cbd ca86 a4bc 30e2 633c
00000370: 78b8 81bd aeb9 3c3d 208a 983c f244 363d
00000380: dcf6 563d 5c33 67bc 860c 93bc 0e1d 9bbc
00000390: 38c6 85bd 30e1 22bc 6eae 043d 763b 543d
000003a0: 408e 70bc e6ad 3d3d 559a 74bd 1480 713d
000003b0: 209d 403c d0a6 7d3d 9c79 dabc f03e 5a3d
000003c0: e400 c43c 76f2 6ebd 14cc 7dbc 48cd 713d
000003d0: 44df 4cbd e4c5 ce3c 1ca0 75bc d265 183d
000003e0: 2e6c 7ebd c0bb b1ba 24d9 c63c 340b 40bc
000003f0: 177d 2fbd bae8 083d bca3 42bd 224d 573d

layer1_2.weight f4 [200, 76]
-0.032282867 0.15331627 -0.015259731 0.03693795 -0.02223249 -0.15203573 -0.13323317 -0.07890284
-0.1667162 -0.09855465 -0.021463787 -0.135867 -0.105818026 -0.12097582 -0.088626094 0.03333178
-0.08766611 0.05320044 0.096514285 -0.04375858 -0.06940333 -0.0076710996 -0.09856797 -0.015176661
0.044005718 -0.09798511 -0.07044358 0.058452204 -0.04545041 0.045700874 -0.061957046 0.10135321
-0.084146105 0.115485884 0.0028458722 0.028090041 -0.00768665 -0.094970584 -0.0068445206 -0.021448873
0.062112026 -0.049560327 -0.00053011725 0.055430386 0.033031326 0.06316691 -0.027984776 -0.033854686
0.0031446847 -0.082792476 0.07068498 -0.036334913 0.033026583 -0.10136543 -0.033119746 0.016420139
-0.074155584 -0.082624 -0.0015685296 0.08626861 -0.0831764 0.064262666 0.045016702 -0.032803245
-0.102573976 -0.029678436 -0.016195776 -0.059754707 0.049163207 0.062320236 0.023122478 -0.04202916
-0.07798591 0.124692105 0.056720417 0.04875728 -0.16086775 -0.032488912 -0.09659187 0.06342724
0.16365263 -0.18201108 0.043181412 -0.13481674 0.20725973 0.058563985 -0.020271242 -0.12039197
-0.10514069 0.08102709 0.059742704 -0.11219572 0.04922625 -0.089085825 -0.02110817 -0.00089164166
0.077751234 -0.09493728 0.013991392 0.05274444 0.10759606 0.021644903 -0.09330424 0.009031061
0.10136171 0.015199831 -0.01542211 0.046337627 0.10344072 0.0055491803 -0.10880718 0.06215559
-0.014790593 -0.03496294 -0.084226795 0.115999594 -0.0581163 0.0051081283 -0.09212778 -0.07169574
-0.0036158576 0.045608606 0.00082506385 0.08189549 0.043471932 -0.1291335 0.03330644 0.078096606
0.0780805 0.036337826 -0.115896486 -0.07819638 0.044851564 0.045426697 0.021783521 -0.043959584
0.009077094 -0.13526753 -0.0020553852 0.1382878 -0.044307485 -0.010084413 -0.06498417 -0.03203502
-0.049105484 -0.07819338 -0.055588365 0.07452315 -0.098022744 0.17928872 -0.07800017 0.22677746
-0.08093469 -0.037768364 -0.17389785 -0.15834281 0.1673265 -0.06902786 -0.028793423 -0.118547715
-0.0079121115 -0.05314403 0.008152625 0.042684834 -0.036636908 0.1993447 0.07623487 -0.015805
0.08862317 0.05316855 -0.019582968 -0.07243536 0.063136324 0.05682673 0.044863254 -0.05668397
0.043087073 0.07938031 0.06281924 -0.05302828 0.06848885 -0.088188075 -0.10203127 -0.067225605
0.060831588 0.07748491 0.07822873 0.057484794 0.087347 0.06114602 0.016576298 0.091977686
-0.052904714 0.10518045 -0.028357847 0.051657107 -0.09718808 -0.07048751 -0.016622523 0.074023
-0.07425257 0.05459022 0.025668548 0.02285198 0.02853171 -0.050727624 -0.09122856 -0.009721545
0.042057272 0.03129361 -0.053593557 -0.095966265 0.039744336 -0.116376765 -0.03151947 0.052277412
-0.15888354 0.123894036 0.04398784 0.028819162 -0.1387385 0.07532303 -0.11508034 0.1580451
-0.083352305 0.04020772 0.00089599186 0.10269419 0.034720093 -0.018600523 -0.06987133 0.09167418
-0.024268152 -0.028185211 0.08507674 0.08174008 0.01085455 0.10816053 -0.0088756485 0.075001374
-0.06598154 -0.086107805 0.11102409 0.007469712 0.10944166 0.06880719 -0.035868756 0.02982227
-0.031377554 0.10371001 0.089829646 -0.031338595 -0.08533287 0.0054949205 -0.055941746 -0.08637053
00000000: 0a3b 04bd f1fe 1c3e f303 7abc 3f4c 173d
00000010: e920 b6bc 41af 1bbe 476e 08be d097 a1bd
00000020: a7b7 2abe 05d7 c9bd d3d4 afbc b820 0bbe
00000030: 1fb7 d8bd 2cc2 f7bd 9981 b5bd e886 083d
00000040: 4a8a b3bd b4e8 593d 48a9 c53d 323c 33bd
00000050: 5523 8ebd d95d fbbb 01de c9bd 88a7 78bc
00000060: 573f 343d 6bac c8bd b944 90bd 946b 6f3d
00000070: 362a 3abd d730 3b3d acc6 7dbd 4692 cf3d
00000080: cb54 acbd dd83 ec3d d081 3a3b 161d e63c
00000090: 4be0 fbbb f07f c2bd 0048 e0bb 8cb5 afbc
000000a0: 2e69 7e3d c5ff 4abd 91f7 0aba f90a 633d
000000b0: db4b 073d a75d 813d 5440 e5bc 36ab 0abd
000000c0: 0e17 4e3b 1a8f a9bd 49c3 903d ebd3 14bd
000000d0: e246 073d ae98 cfbd 92a8 07bd 8783 863c
000000e0: e2de 97bd c636 a9bd 1f97 cdba 99ad b03d
000000f0: 6358 aabd 259c 833d 6f63 383d b25c 06bd
00000100: 4e12 d2bd 3120 f3bc 01ad 84bc 5ac1 74bd
00000110: 5c5f 493d 8143 7f3d 5a6b bd3c c526 2cbd
00000120: 14b7 9fbd 935e ff3d ab53 683d b7b5 473d
00000130: 84ba 24be 1813 05bd f5d1 c5bd 24e6 813d
00000140: 8e94 273e 1d61 3abe fede 303d 660d 0abe
00000150: e53b 543e cae0 6f3d e00f a6bc 1190 f6bd
00000160: 0154 d7bd 88f1 a53d c4b4 743d dfc6 e5bd
00000170: 77a1 493d a172 b6bd 0aeb acbc 0fbd 69ba
00000180: 0a3c 9f3d 7a6e c2bd 273c 653c 8e0a 583d
00000190: 535b dc3d a750 b13c 4b16 bfbd 04f7 133c
000001a0: ba96 cf3d b608 793c 05ad 7cbc 86cc 3d3d
000001b0: bad8 d33d e6d5 b53b 4cd6 debd dc96 7e3d
000001c0: 3e54 72bc 4d35 0fbd 197f acbd 3291 ed3d
000001d0: 5b0b 6ebd 1662 a73b 7dad bcbd 37d5 92bd
000001e0: 06f8 6cbb 17d0 3a3d 1949 583a d3b8 a73d
000001f0: a00f 323d 923b 04be 556c 083d 1df1 9f3d
00000200: abe8 9f3d f9d6 143d 235b edbd 6c25 a0bd
00000210: 46b6 373d 5811 3a3d 5b73 b23c f70e 34bd
00000220: 17b8 143c 9283 0abe a4b3 06bb 519b 0d3e
00000230: c47b 35bd 1839 25bc 6c16 85bd 2737 03bd
00000240: d522 49bd da23 a0bd a0b0 63bd 989f 983d
00000250: 26c0 c8bd 7697 373e 8ebe 9fbd 5a38 683e
00000260: 16c1 a5bd 00b3 1abd 4712 32be 9e24 22be
00000270: a357 2b3e 7b5e 8dbd 2fe0 ebbc 25c9 f2bd
00000280: cda1 01bc 8ead 59bd 9692 053c 4bd6 2e3d
00000290: 9510 16bd 0421 4c3e 0721 9c3d 7d79 81bc
000002a0: 1180 b53d 44c7 593d 766c a0bc fd58 94bd
000002b0: 9e4d 813d 25c3 683d 88c2 373d 732d 68bd
000002c0: 127c 303d 2592 a23d 60a7 803d 2f34 59bd
000002d0: e243 8c3d f39b b4bd c5f5 d0bd 94ad 89bd
000002e0: 8b2a 793d 69b0 9e3d 6236 a03d 2d75 6b3d
000002f0: fce2 b23d 4074 7a3d 04cb 873c cc5e bc3d
00000300: 9db2 58bd d968 d73d b74e e8bc 6796 533d
00000310: 8b0a c7bd c15b 90bd f52b 88bc 5f99 973d
00000320: bb11 98bd ff99 5f3d d946 d23c 1334 bb3c
00000330: 55bb e93c c5c7 4fbd 0ad6 babd 1d47 1fbc
00000340: 3f44 2c3d ba2d 003d eb84 5bbd f689 c4bd
00000350: f5ca 223d f156 eebd 8f1a 01bd d720 563d
00000360: 5eb2 22be 28bc fd3d 982c 343d 2a16 ec3c
00000370: 7711 0ebe f642 9a3d 3eaf ebbd 93d6 213e
00000380: 9db4 aabd dab0 243d ffe0 6a3a 5551 d23d
00000390: a836 0e3d 2060 98bc b318 8fbd acbf bb3d
000003a0: 01ce c6bc ace4 e6bc b73c ae3d 5867 a73d
000003b0: 48d7 313c 4583 dd3d 2b6b 11bc 529a 993d
000003c0: 5421 87bd 4a59 b0bd 9960 e33d 7cc4 f43b
000003d0: f322 e03d c9ea 8c3d 1eeb 12bd d54d f43c
000003e0: c085 00bd ea65 d43d 9bf8 b73d e65c 00bd
000003f0: 00c3 aebd bc0e b43b 2c23 65bd 08e3 b0bd

layer1_3.weight f4 [200, 64]
-0.118291125 0.2961501 0.066068 0.029064545 0.098834656 0.0014501435 -0.15489425 0.06833145
0.11154757 -0.1533528 -0.13625725 -0.0025044268 -0.056097824 -0.087140225 0.14684284 0.02293852
-0.08671668 0.0024825444 0.012733863 0.13304979 -0.12846044 0.019383686 -0.010126291 0.04750358
0.12950695 0.044026602 0.055282753 -0.05508592 0.03831545 -0.02115074 -0.052875467 0.08915379
0.043360792 -0.027973512 0.07089517 -0.033805575 0.13305362 -0.06537323 0.17163692 0.09479452
0.07213098 0.115796775 -0.0006744959 -0.11664801 -0.15579517 -0.011399504 0.108451255 0.040411517
-0.0046551605 0.050012555 -0.06887902 0.004888825 -0.08999366 0.031693958 -0.025826499 0.0383376
-0.04643269 -0.0159667 -0.029633386 0.021691348 -0.039638355 -0.0992364 -0.11709497 0.06302861
-0.03384251 0.055381216 -0.014950345 0.10609398 0.093205296 0.018061588 -0.19873051 0.09700415
0.053930134 -0.13377975 -0.18464456 0.08040796 -0.02846087 0.079069845 0.115973815 -0.033936713
0.030681849 -0.11002704 0.061118253 0.12202202 0.09953906 0.1355067 -0.016890962 0.19271556
-0.071411476 0.006643224 -0.09772227 0.047916625 0.15728441 -0.036822513 0.05612622 -0.086115554
-0.06313855 -0.010850683 0.058049046 0.075055 0.12745725 0.023929453 -0.0151088685 0.058544654
-0.058705017 0.07557085 -0.036620885 -0.05068982 0.16895214 0.06910009 0.006073555 -0.08842576
0.005771806 0.040052183 -0.039286617 0.029355898 0.014265533 0.046714127 -0.070266105 0.055785827
-0.08678494 0.18147221 0.08262701 -0.11219508 0.12691258 0.071936384 0.073859215 -0.092201844
-0.1897848 -0.16803111 0.17470182 -0.20962262 0.032757774 0.112826385 -0.16715173 -0.05178771
0.043504097 -0.1369308 0.045108724 -0.06521249 0.15488586 -0.16188249 0.15821728 0.08922858
0.14218476 0.017895717 -0.032556918 0.1693566 -0.039523628 0.08299922 0.16161832 0.08992703
0.030447118 -0.0990079 -0.035225872 0.053762842 -0.089217424 0.055090867 0.078398794 0.08273081
-0.11830964 0.008387603 0.011623952 -0.073062606 0.16801855 -0.0020274327 0.00022518141 0.0017205445
-0.04198379 0.02553747 0.100638404 0.075518854 0.11358251 0.054565597 0.034002896 -0.074177645
0.089860976 0.103003815 0.016530922 0.08421023 -0.1381352 -0.015907126 -0.07193002 0.17536435
-0.058134124 -0.062133588 0.030267287 0.03422522 -0.060480684 -0.02878617 -0.09120894 -0.098984785
0.12321181 0.07059432 -0.17195866 -0.039049633 0.12078954 -0.17877883 0.21602385 0.07989065
-0.10615251 -0.0041319947 0.046030685 0.077333264 -0.06604068 -0.04682823 -0.10373344 0.056629024
0.05846557 0.041550398 0.02880771 -0.10709971 0.12995999 0.11438488 0.00301741 -0.13240881
0.026163971 -0.116350986 0.08033721 -0.1534184 -0.041402243 0.0759961 -0.07562389 -0.10356566
0.03549584 -0.014568424 -0.004053732 -0.031563587 0.1939618 0.12959842 0.07602752 -0.0925684
0.016430398 0.09232315 -0.043095082 -0.039791033 -0.07579249 -0.08349208 -0.043186516 -0.043976296
0.15456195 -0.0274571 0.10058105 -0.04769642 -0.039005812 0.15274309 0.0972453 -0.01313064
-0.06619129 0.058475096 0.020246284 -0.051652882 -0.08167579 -0.049958788 0.005506843 0.08831253
00000000: 9e42 f2bd fca0 973e a94e 873d c518 ee3c
00000010: d369 ca3d be12 be3a 999c 1ebe 5cf1 8b3d
00000020: 0d73 e43d 8408 1dbe 0587 0bbe 4f21 24bb
00000030: d5c6 65bd 9376 b2bd f85d 163e 90e9 bb3c
00000040: 8498 b1bd 2fb2 223b b1a1 503c 343e 083e
00000050: 228b 03be 89ca 9e3c bee8 25bc 1d93 423d
00000060: 789d 043e 3d55 343d 2b70 623d c6a1 61bd
00000070: a9f0 1c3d 5144 adbc f293 58bd 4396 b63d
00000080: 169b 313d b528 e5bc 7d31 913d b777 0abd
00000090: 353f 083e 66e2 85bd 97c1 2f3e a123 c23d
000000a0: 68b9 933d dc26 ed3d a7d0 30ba 27e5 eebd
000000b0: c588 1fbe fcc4 3abc b11b de3d 8c86 253d
000000c0: 518a 98bb f7d9 4c3d 7210 8dbd 7032 a03b
000000d0: 994e b8bd 86d1 013d 1892 d3bc e307 1d3d
000000e0: 3430 3ebd 99cc 82bc b7c1 f2bc 0eb2 b13c
000000f0: d45b 22bd 743c cbbd 7dcf efbd 2515 813d
00000100: 729e 0abd 6ad7 623d 4bf2 74bc cd47 d93d
00000110: 6be2 be3d e5f5 933c 0380 4bbe 1daa c63d
00000120: d8e5 5c3d 8ffd 08be 7713 3dbe eeac a43d
00000130: c526 e9bc 5fef a13d ae83 ed3d 3901 0bbd
00000140: 8058 fb3c db55 e1bd 2257 7a3d aee6 f93d
00000150: 22db cb3d 45c2 0a3e ea5e 8abc 3a57 453e
00000160: 2e40 92bd 67af d93b 9d22 c8bd 3944 443d
00000170: 2a0f 213e 34d3 16bd 9be4 653d 5a5d b0bd
00000180: c94e 81bd 10c7 31bc d6c4 6d3d 70b6 993d
00000190: 2784 023e b307 c43c 308b 77bc 85cc 6f3d
000001a0: ac74 70bd e4c4 9a3d c8ff 15bd 21a0 4fbd
000001b0: ca01 2d3e 5984 8d3d ac04 c73b 9118 b5bd
000001c0: 6b21 bd3b c20d 243d 01eb 20bd c87b f03c
000001d0: fbb9 693c 5057 3f3d ade7 8fbd ae7f 643d
000001e0: 4dbc b1bd dad3 393e 5a38 a93d 89c6 e5bd
000001f0: 5ff5 013e 6253 933d 8043 973d 52d4 bcbd
00000200: f256 42be 5910 2cbe 09e5 323e 50a7 56be
00000210: 042d 063d 8511 e73d d329 2bbe 5a1f 54bd
00000220: 5a31 323d 9637 0cbe edc3 383d 208e 85bd
00000230: 669a 1e3e 86c4 25be b603 223e 79bd b63d
00000240: e298 113e 0a9a 923c 675a 05bd d16b 2d3e
00000250: 87e3 21bd 7ffb a93d 467f 253e aa2b b83d
00000260: 3c6c f93c a7c4 cabd 0149 10bd 6d36 5c3d
00000270: a0b7 b6bd f6a6 613d 8c8f a03d c56e a93d
00000280: 534c f2bd 286c 093c 6372 3e3c d9a1 95bd
00000290: 0e0d 2c3e adde 04bb ad1e 6c39 e583 e13a
000002a0: 32f7 2bbd f533 d13c 821b ce3d a1a9 9a3d
000002b0: f29d e83d 2d80 5f3d 9f46 0b3d 73ea 97bd
000002c0: 0809 b83d aaf3 d23d db6b 873c 6a76 ac3d
000002d0: 5073 0dbe a94f 82bc 0c50 93bd b692 333e
000002e0: 0c1e 6ebd ca7f 7ebd 1af3 f73c bf2f 0c3d
000002f0: 98ba 77bd f9d0 ebbc c1cb babd 89b8 cabd
00000300: 7956 fc3d c193 903d ee15 30be 82f2 1fbd
00000310: 8260 f73d cc11 37be 5b35 5d3e b69d a33d
00000320: 7d66 d9bd af65 87bb ac8a 3c3d e760 9e3d
00000330: 5640 87bd f5ce 3fbd 3372 d4bd d6f3 673d
00000340: 9879 6f3d c030 2a3d 26fe eb3c 1857 dbbd
00000350: 3b14 053e 9f42 ea3d bdbf 453b 2d96 07be
00000360: d355 d63c 6d49 eebd d687 a43d b719 1dbe
00000370: 6695 29bd d8a3 9b3d b3e0 9abd 3c1a d4bd
00000380: 1664 113d 66b0 6ebc 2bd5 84bb d248 01bd
00000390: ec9d 463e 73b5 043e 51b4 9b3d 8094 bdbd
000003a0: 0b99 863c eb13 bd3d 7884 30bd ecfb 22bd
000003b0: 1839 9bbd e5fd aabd 58e4 30bd 7d20 34bd
000003c0: 7d45 1e3e b6ed e0bc 70fd cd3d 525d 43bd
000003d0: 8fc4 1fbd af68 1c3e 8b28 c73d e521 57bc
000003e0: 4d8f 87bd 9583 6f3d 89db a53c f991 53bd
000003f0: a345 a7bd 96a1 4cbd bf72 b43b 33dd b43d

layer2.weight f4 [150, 200]
0.002574314 0.0410582 -0.10103048 0.06445521 -0.0009279553 0.11595429 -0.06274799 -0.005626057
0.11321023 0.14610791 0.007974846 -0.0036762378 -0.0029583771 0.035884403 -0.28025106 0.11727222
-0.066180974 0.0715349 0.07796074 0.031248333 0.12912147 -0.019433087 -0.042204596 0.030223586
-0.020251237 -0.013611228 -0.027053138 -0.08440761 0.014152327 -0.015955517 0.14651783 0.043418597
0.11277322 -0.12192553 0.07977344 -0.044572596 -0.067279465 0.01990884 0.0383958 -0.058296386
0.052600875 -0.047221996 0.07652891 -0.12555021 -0.08393488 -0.025690347 -0.13912211 -0.05819957
0.12425299 -0.15670113 0.035984833 -0.04407887 0.056493897 -0.111840054 0.048020434 0.007808383
0.0008030365 -0.10174613 -0.0007559671 -0.0072315517 0.047997028 0.0075282156 0.040850934 0.038636554
0.015742468 -0.0073170657 0.024719805 0.050262067 -0.013092629 0.00032469194 0.014167591 -0.063934505
0.036374636 0.012574535 -0.094678134 -0.06233381 -0.003739685 0.03747218 0.18089873 -0.010231336
0.008173038 0.02080332 0.013666191 0.004657649 0.076826304 0.03862248 -0.026307985 -0.019069096
0.033316664 -0.020333888 -0.08595731 -0.061661284 0.04506592 0.033441763 0.06839498 0.07152437
-0.026533693 0.016414912 -0.012412474 -0.023206484 0.060972493 0.020003077 -0.014499693 -0.065277666
0.086501166 -0.019582987 0.058939215 -0.085314155 -0.07044309 -0.036762185 -0.05127276 -0.09171312
0.08637066 -0.043270666 0.19813345 0.011359122 -0.008788984 -0.021646962 0.12887934 0.09492231
0.006686589 0.0019690362 0.010022593 -0.03246783 -0.16075255 -0.016894205 0.030781507 0.07625
-0.0078084427 0.12374319 -0.00095161423 -0.082365304 0.14757729 0.046121713 0.056220416 -0.018567923
-0.08486073 -0.08435116 0.025307415 0.103794694 0.074934006 0.056505483 -0.0717328 -0.010173631
-0.015068978 -0.033737767 0.031742986 0.040256467 -0.06539616 0.021153117 0.08133612 0.034606826
0.017933361 -0.009228348 -0.059021715 -0.12385179 -0.09085473 0.05627343 0.04857535 -0.03017147
0.040602487 -0.026941296 -0.0958997 -0.010985816 0.021283032 0.02749601 -0.07383704 0.026847923
-0.09685895 0.029305635 0.10146048 -0.05458264 -0.015050441 0.09298547 0.018583883 0.023012172
0.029317273 0.022645822 0.045472093 -0.04589325 0.017940342 0.0017989926 0.082550876 -0.053338695
0.06285842 0.0003579843 0.055038117 -0.029545728 -0.0021454613 -0.040639613 0.016076166 0.03456642
-0.06194803 -0.0650305 -0.17180885 0.05791679 -0.012199629 0.032446742 0.0015568472 0.032537866
-0.07143847 -0.019906182 -0.05152099 0.09448008 -0.08373655 -0.124888085 0.09101914 0.030851647
0.05019049 -0.079912245 -0.08347112 -0.038876273 0.097250886 0.044219323 0.025510421 -0.009202319
0.032232467 0.017896872 -0.031009128 -0.10659834 -0.09437543 0.005986207 0.020967644 -0.039845116
-0.008729218 0.030693255 -0.046278104 0.09802238 0.023210332 -0.027906775 0.11458829 0.020777117
0.0750516 -0.08327408 0.04016624 0.0057377834 0.09826017 -0.030592758 0.010029087 -0.027872995
0.07014651 0.015889458 0.04883539 0.019974392 0.040102687 -0.0121794585 0.024409449 -0.038290646
0.06560393 -0.05734049 -0.039954886 0.15530577 0.0133576635 0.04240236 0.017136686 0.08285647
00000000: d2b5 283b a52c 283d 11e9 cebd 1801 843d
00000010: 0742 73ba 7179 ed3d 0582 80bd c95a b8bb
00000020: c4da e73d 509d 153e eea8 023c 09ed 70bb
00000030: 55e1 41bb 86fb 123d 117d 8fbe 6b2c f03d
00000040: e489 87bd e480 923d e1a9 9f3d 81fc ff3c
00000050: 6b38 043e 2332 9fbc bade 2cbd 7497 f73c
00000060: ece5 a5bc a101 5fbc 8b9e ddbc e6dd acbd
00000070: 29df 673c 25b5 82bc c508 163e b3d7 313d
00000080: a5f5 e63d 18b4 f9bd 4260 a33d c191 36bd
00000090: d1c9 89bd dd17 a33c ea44 1d3d 31c8 6ebd
000000a0: 0474 573d da6b 41bd 30bb 9c3d 3c90 00be
000000b0: 0de6 abbd 9074 d2bc 0776 0ebe ac62 6ebd
000000c0: 5a78 fe3d 4376 20be d564 133d 0c8c 34bd
000000d0: 2566 673d 660c e5bd 13b1 443d 77dd ff3b
000000e0: de82 523a 4660 d0bd 182c 46ba a7f6 ecbb
000000f0: 8898 443d 40af f63b 4f53 273d 5d41 1e3d
00000100: 59f6 803c ffc3 efbb 3081 ca3c 99df 4d3d
00000110: 7782 56bc 6a3b aa39 2f1f 683c 18f0 82bd
00000120: 92fd 143d 6c05 4e3c 9ce6 c1bd bd51 7fbd
00000130: 8115 75bb 6e7c 193d 843d 393e 55a1 27bc
00000140: 35e8 053c b96b aa3c 29e8 5f3c 319f 983b
00000150: 1c57 9d3d 9b32 1e3d d883 d7bc cb36 9cbc
00000160: 0e77 083d 4193 a6bc 630a b0bd 8b90 7cbd
00000170: 0b97 383d 3bfa 083d ab12 8c3d 5e7b 923d
00000180: 305d d9bc 9178 863c b05d 4bbc 861b bebc
00000190: 4bbe 793d 7edd a33c 1f90 6dbc 4cb0 85bd
000001a0: 8627 b13d 806c a0bc 3f6a 713d 30b9 aebd
000001b0: 7744 90bd f293 16bd 6303 52bd 17d4 bbbd
000001c0: 1ae3 b03d 953c 31bd 7fe3 4a3e 9c1b 3a3c
000001d0: acff 0fbc f854 b1bc f2f8 033e a166 c23d
000001e0: 2d1b db3b f20a 013b cd35 243c fdfc 04bd
000001f0: 519c 24be b765 8abc 8029 fc3c f628 9c3d
00000200: f7dd ffbb 126d fd3d c075 79ba 24af a8bd
00000210: 801e 173e 1fea 3c3d 6147 663d c21b 98bc
00000220: 76cb adbd 4dc0 acbd 7f51 cf3c 5092 d43d
00000230: 0077 993d 4b72 673d a5e8 92bd 4daf 26bc
00000240: e0e3 76bc 9d30 0abd ef04 023d f7e3 243d
00000250: 6cee 85bd 4d49 ad3c 8d93 a63d e3bf 0d3d
00000260: fce8 923c 7f32 17bc c1c0 71bd 02a6 fdbd
00000270: 0b12 babd f87e 663d f2f6 463d 292a f7bc
00000280: cb4e 263d feb3 dcbc 1067 c4bd dafd 33bc
00000290: c159 ae3c 503f e13c e037 97bd 2df0 db3c
000002a0: fc5d c6bd 5f12 f03c 83ca cf3d 0c92 5fbd
000002b0: 2096 76bc 2b6f be3d 3a3d 983c 0684 bc3c
000002c0: c72a f03c bb83 b93c f240 3a3d 8ffa 3bbd
000002d0: a0f7 923c 2dcc eb3a 6f10 a93d ad79 5abd
000002e0: eabb 803d d7af bb39 a66f 613d e209 f2bc
000002f0: de9a 0cbb b975 26bd 2ab2 833c 8595 0d3d
00000300: 38bd 7dbd b62e 85bd a9ee 2fbe 283a 6d3d
00000310: f4e0 47bc e0e6 043d 200f cc3a 6d46 053d
00000320: 554e 92bd 4a12 a3bc ac07 53bd c67e c13d
00000330: 117e abbd 53c5 ffbd 3e68 ba3d 98bc fc3c
00000340: 8b94 4d3d 08a9 a3bd e8f2 aabd ba3c 1fbd
00000350: 792b c73d 521f 353d 3bfb d03c 53c5 16bc
00000360: 3106 043d 769c 923c db06 febc 3b50 dabd
00000370: e847 c1bd f227 c43b 56c4 ab3c a234 23bd
00000380: fe04 0fbc 6c70 fb3c 1c8e 3dbd f5bf c83d
00000390: 9823 be3c c09c e4bc 44ad ea3d c634 aa3c
000003a0: a7b4 993d 9a8b aabd 5b85 243d 0404 bc3b
000003b0: a13c c93d aa9d fabc 0a51 243c e855 e4bc
000003c0: f9a8 8f3d 9c2a 823c 9e07 483d 56a1 a33c
000003d0: b742 243d 5a8c 47bc 53f6 c73c a7d6 1cbd
000003e0: 5a5b 863d dddd 6abd bca7 23bd 7a08 1f3e
000003f0: 1ada 5a3c 19ae 2d3d 3c62 8c3c a7b0 a93d

layer2.bias f4 [150]
0.020878796 -0.024625804 0.015202509 0.06515319 -0.0057054097 0.009894604 -0.055951115 -0.009829809
-0.013307213 0.034668125 0.032877706 -0.025219887 0.05018758 0.074316554 0.035635635 -0.009636244
0.0162386 0.04188139 -0.0138236275 0.009121213 -0.03208676 0.08031626 -0.053332746 0.070587754
-0.041795623 -0.033513065 -0.05339103 -0.03936378 0.041198265 -0.02809046 -0.026643729 0.0452684
0.0769368 -0.04045414 -0.030490069 0.07650898 -0.0294908 -0.0045722676 0.013646855 -0.021192698
-0.06378048 -0.036308963 -0.05054646 -0.05163908 0.012235561 -0.030407643 0.062863775 -0.042215027
0.052943952 -0.0011589502 0.068710625 0.029700099 0.0786429 -0.054009926 0.10895684 -0.019945258
-0.0025376603 0.059521273 -0.046369344 -0.020166079 0.015052864 0.006806252 0.11734755 0.002149786
0.06846955 0.026928175 0.06489062 -0.030924812 -0.04536829 0.018848334 -0.04562102 0.07899438
0.08267959 0.0043280716 -0.04784018 -0.022217708 0.011655931 0.088343255 0.03234871 -0.06777824
-0.0040600374 0.059073705 0.076798216 -0.010212976 0.016430443 0.0818421 -0.043890502 0.005438781
0.0053824657 -0.025488142 0.0027444812 -0.024175521 0.055526275 -0.003385857 -0.04179409 0.0016265457
0.032309275 -0.011798742 0.04769418 -0.033496052 0.02361778 0.043989696 0.006114027 -0.04410587
-0.07388733 -0.018694758 -0.035170496 0.08224136 0.028778112 -0.003750735 -0.030051392 0.07362917
0.010835494 -0.04078562 0.00210693 -0.032513693 -0.0036890607 0.044260077 0.043407433 0.04499286
-0.0010317827 -0.031578813 -0.03403996 -0.039185613 -0.04440946 0.041399304 0.0024207146 -0.06843742
-0.0782636 0.08271574 -0.05419528 -0.0046967794 0.02565658 -0.051455364 0.046741754 0.039564654
0.03632767 -0.011415663 0.013576396 0.04847842 0.03850922 0.04258953 -0.022458674 0.035105255
0.01362172 0.061964516 0.015540045 -0.03977984 -0.0510827 -0.0053600357
00000000: 020a ab3c 0ebc c9bc f213 793c 096f 853d
00000010: 72f4 babb fa1c 223c ff2c 65bd 350d 21bc
00000020: 7f06 5abc 2a00 0e3d c6aa 063d f099 cebc
00000030: 7e91 4d3d 4733 983d acf6 113d 56e1 1dbc
00000040: d006 853c d28b 2b3d 7f7c 62bc 2471 153c
00000050: 686d 03bd da7c a43d 7073 5abd 5090 903d
00000060: e331 2bbd ff44 09bd 8db0 5abd ea3b 21bd
00000070: 83bf 283d f71d e6bc f343 dabc 5c6b 393d
00000080: 0a91 9d3d 3eb3 25bd 4fc6 f9bc bdb0 9c3d
00000090: b196 f1bc f6d2 95bb 0f97 5f3c 4f9c adbc
000000a0: 579f 82bd b5b8 14bd ce09 4fbd 8083 53bd
000000b0: aa77 483c 7319 f9bc b9be 803d aae9 2cbd
000000c0: c2db 583d eae7 97ba 28b8 8c3d 9f4d f33c
000000d0: 870f a13d 8339 5dbd c424 df3d 3d64 a3bc
000000e0: e04e 26bb 94cc 733d c8ed 3dbd 5533 a5bc
000000f0: 4aa0 763c fb06 df3b ea53 f03d 6de3 0c3b
00000100: c339 8c3d 7a98 dc3c 60e5 843d 0856 fdbc
00000110: 1ad4 39bd d267 9a3c 1bdd 3abd cec7 a13d
00000120: eb53 a93d 7fd2 8d3b 11f4 43bd e901 b6bc
00000130: 85f8 3e3c 4fed b43d 1580 043d 51cf 8abd
00000140: 100a 85bb 45f7 713d 6248 9d3d 5354 27bc
00000150: 2399 863c d59c a73d 87c6 33bd cd37 b23b
00000160: 655f b03b 82cc d0bc c1dc 333b be0b c6bc
00000170: 856f 633d 41e5 5dbb 4830 2bbd d131 d53a
00000180: bb56 043d 834f 41bc f95a 433d 2833 09bd
00000190: 137a c13c 8a2e 343d 2d58 c83b 5ba8 34bd
000001a0: 3e52 97bd c025 99bc f00e 10bd 286e a83d
000001b0: 13c0 eb3c e4ce 75bb 562e f6bc e4ca 963d
000001c0: 5b87 313c d30e 27bd 6b14 0a3b 142d 05bd
000001d0: 2bc4 71bb 0e4a 353d fecb 313d 6f4a 383d
000001e0: e23c 87ba c958 01bd 7c6d 0bbd 1881 20bd
000001f0: b2e6 35bd 5192 293d daa4 1e3b eb28 8cbd
00000200: ab48 a0bd df66 a93d dffb 5dbd 71e7 99bb
00000210: c02d d23c dcc2 52bd 4874 3f3d 8c0e 223d
00000220: 53cc 143d c308 3bbc 886f 5e3c 4f91 463d
00000230: d8bb 1d3d 5c72 2e3d 41fb b7bc 87ca 0f3d
00000240: a22d 5f3c 81ce 7d3d ac9b 7e3c 2ff0 22bd
00000250: 183c 51bd 3da3 afbb

layer3.weight f4 [100, 150]
-0.047663707 0.033351664 0.032631684 0.029069118 0.15254061 0.03395269 -0.002472155 0.10331601
0.03972258 0.29254487 -0.052880082 -0.09610327 -0.024498885 -0.05129787 -0.04317043 -0.05079646
0.021515522 -0.13717692 -0.023882952 0.12531127 -0.11688797 0.120318994 -0.10176945 0.09125387
-0.0077079916 0.02451013 -0.090661876 0.16141465 0.06596769 0.042282283 -0.12627287 -0.016398463
0.08471067 0.04217892 -0.06063838 -0.0001933677 -0.05614261 -0.00011105686 0.07253509 0.15442026
0.046359096 0.024996307 0.029960442 -0.072087415 -0.056570925 0.17247483 -0.010437562 0.092339285
0.075087264 -0.08992412 -0.028558183 0.044223342 0.005974829 0.07491321 -0.037135653 0.08858146
0.0018178597 -0.15670599 -0.022011431 0.11703461 0.03222877 -0.0043284874 0.13310534 -0.2035904
0.022069363 -0.053892184 0.1460124 -0.008234662 -0.16198911 0.012105088 0.054142408 0.06889085
0.1322617 -0.081594154 0.01723102 0.0949684 -0.09758605 0.04653628 0.049072176 -0.0696766
0.10265022 0.04175425 0.0023053759 0.014142589 0.14085047 0.06844633 0.08737148 0.01240671
-0.036229078 -0.05223712 0.016689725 0.008034927 0.032880057 0.1131017 0.020036984 -0.042788904
-0.07736457 -0.16317378 -0.049060058 -0.051728968 -0.02168502 0.08011893 -0.028727528 -0.0053813844
0.01034644 -0.030596668 -0.09932448 0.039685167 0.005483673 0.120856784 0.114074536 -0.08170663
0.050444793 -0.034504473 0.059715893 -0.119355 -0.008162219 0.15000425 0.024310466 0.037055805
0.034391727 -0.042104475 -0.01009017 0.056148674 0.08887208 0.04142068 0.03466241 0.0027549088
0.07070833 -0.050486274 -0.095927015 -0.11833464 0.068154916 -0.05525676 -0.024495466 0.09507343
0.1423071 0.02121204 -0.020432057 0.052200153 0.121287465 -0.051586624 -0.043816186 0.056535777
0.08618773 -0.033262007 0.0018072991 -0.083740555 0.10961332 -0.073984884 0.07815018 -0.0021795514
-0.01396733 0.057657454 0.06254775 -0.072436616 -0.019682897 -0.049573604 0.099957295 0.27729118
0.012524417 -0.01694905 -0.010583061 0.03962968 0.08008433 0.0072786184 0.063759066 0.020209482
-0.07265459 -0.02237205 0.0026310675 -0.031015065 -0.012152623 0.04600293 -0.060421783 -0.11977699
-0.0108372895 -0.03958538 0.023959272 0.117113955 0.03429612 0.13582948 -0.01668269 0.1303144
-0.04371096 -0.047092747 -0.06248045 -0.07403715 0.040679287 0.098159276 0.027733289 0.05237499
-0.020926408 -0.028971395 -0.025042055 -0.028298521 -0.030802574 0.07603416 -0.0031687345 -0.03340502
-0.07957257 -0.11681636 0.10398958 0.11826592 0.029891863 -0.024624884 -0.045891404 -0.006173442
-0.10480814 -0.009547614 0.10870915 0.022517785 0.102092944 -0.16586053 -0.029031787 -0.07375693
0.04615919 0.061824437 -0.07907175 0.07861379 0.0466021 0.101439334 0.008100153 0.1241268
0.03941975 0.09911917 -0.08816935 0.03969931 -0.06675967 0.13724898 0.07655901 0.06401624
-0.08426676 -0.03214844 0.0642381 -0.07042792 -0.0036673096 -0.12939554 -0.09789259 0.010498012
-0.0042262278 0.04792457 0.028352803 0.0028972607 0.07554996 0.038343742 -0.16130869 -0.028101813
-0.084279895 -0.009232519 -0.05563095 0.0026342028 -0.07994822 0.06581893 0.03445369 0.10279413
00000000: 053b 43bd c19b 083d cda8 053d 5c22 ee3c
00000010: 9b33 1c3e fa11 0b3d e103 22bb 5897 d33d
00000020: 25b4 223d 71c8 953e c998 58bd cbd1 c4bd
00000030: e3b1 c8bc b71d 52bd 7ad3 30bd f30f 50bd
00000040: 5241 b03c 1b78 0cbe 2ea6 c3bc 9951 003e
00000050: f662 efbd ce69 f63d 806c d0bd 4fe3 ba3d
00000060: 5293 fcbb 78c9 c83c efac b9bd e249 253e
00000070: 111a 873d 3030 2d3d ad4d 01be 1256 86bc
00000080: ca7c ad3d cec3 2c3d f35f 78bd bfc2 4ab9
00000090: cbf5 65bd 33e7 e8b8 478d 943d 5820 1e3e
000000a0: 09e3 3d3d 0ec5 cc3c 9a6f f53c 91a2 93bd
000000b0: eab6 67bd 3e9d 303e 4f02 2bbc 611c bd3d
000000c0: 5ac7 993d 232a b8bd daf2 e9bc 8923 353d
000000d0: 80c8 c33b 196c 993d 8e1b 18bd 326a b53d
000000e0: 4045 ee3a 8977 20be 5151 b4bc d7af ef3d
000000f0: 5102 043d fcd5 8dbb c44c 083e 007a 50be
00000100: cfca b43c 0dbe 5cbd 4684 153e adea 06bc
00000110: 79e0 25be 6b54 463c 6ec4 5d3d a516 8d3d
00000120: 9c6f 073e d61a a7bd 1128 8d3c cb7e c23d
00000130: 32db c7bd d49c 3e3d e8ff 483d 9bb2 8ebd
00000140: 473a d23d 8106 2b3d ca15 173b 51b6 673c
00000150: 1b3b 103e 972d 8c3d d2ef b23d 8345 4b3c
00000160: f164 14bd 97f6 55bd e4b8 883c eda4 033c
00000170: 3dad 063d dda1 e73d 9a24 a43c 6b43 2fbd
00000180: 5171 9ebd 0717 27be 33f3 48bd c1e1 53bd
00000190: c8a4 b1bc 6515 a43d fe55 ebbc 5356 b0bb
000001a0: 1d84 293c dda5 fabc a26a cbbd ea8c 223d
000001b0: 62b0 b33b c383 f73d e99f e93d ce55 a7bd
000001c0: 339f 4e3d 9054 0dbd a798 743d 6570 f4bd
000001d0: d4ba 05bc b79a 193e be26 c73c d4c7 173d
000001e0: 57de 0c3d be75 2cbd 3e51 25bc 27fc 653d
000001f0: 9102 b63d bba8 293d 2cfa 0d3d b38b 343b
00000200: 87cf 903d b2ca 4ebd 6275 c4bd 6f59 f2bd
00000210: ce94 8b3d ea54 62bd b7aa c8bc dcb5 c23d
00000220: f4b8 113e dfc4 ad3c 2161 a7bc d4cf 553d
00000230: 9065 f83d 7f4c 53bd 9a78 33bd 0f92 673d
00000240: 3183 b03d be3d 08bd e5e2 ec3a 2b80 abbd
00000250: f37c e03d 6385 97bd 340d a03d ced6 0ebb
00000260: 3ad7 64bc 392a 6c3d 0919 803d a659 94bd
00000270: 073e a1bc b10d 4bbd 69b6 cc3d 1cf9 8d3e
00000280: 3633 4d3c bcd8 8abc 9364 2dbc bb52 223d
00000290: 4103 a43d 7a81 ee3b 1d94 823d 5b8e a53c
000002a0: eecb 94bd 9745 b7bc fd6d 2c3b 4e13 febc
000002b0: cc1b 47bc 916d 3c3d d57c 77bd a34d f5bd
000002c0: e38e 31bc 4824 22bd 3c46 c43c 71d9 ef3d
000002d0: 177a 0c3d e216 0b3e 23aa 88bc 2371 053e
000002e0: 430a 33bd 53e4 40bd 80eb 7fbd caa0 97bd
000002f0: 539f 263d bb07 c93d ec30 e33c 2887 563d
00000300: dc6d abbc 6b55 edbc ff24 cdbc 4dd2 e7bc
00000310: ae55 fcbc ccb7 9b3d 8baa 4fbb b4d3 08bd
00000320: f2f6 a2bd 6a3d efbd 7df8 d43d 6735 f23d
00000330: c8df f43c 20ba c9bc a0f8 3bbd 964a cabb
00000340: a6a5 d6bd 986d 1cbc e7a2 de3d 3877 b83c
00000350: 1b16 d13d 58d7 29be 12d4 edbc e00d 97bd
00000360: 6b11 3d3d 9f3b 7d3d 5ff0 a1bd 4400 a13d
00000370: d8e1 3e3d 6dbf cf3d 81b6 043c 3136 fe3d
00000380: 9b76 213d fefe ca3d 2292 b4bd be9b 223d
00000390: 4bb9 88bd ff8a 0c3e f8ca 9c3d f21a 833d
000003a0: 0d94 acbd 15ae 03bd 448f 833d 833c 90bd
000003b0: 3f57 70bb 4480 04be e97b c8bd dbff 2b3c
000003c0: 2b7c 8abb 8e4c 443d 2344 e83c f8df 3d3b
000003d0: f0b9 9a3d 540e 1d3d 1b2e 25be c635 e6bc
000003e0: f09a acbd fe43 17bc 47dd 63bd 97a2 2c3b
000003f0: e4bb a3bd 13cc 863d 501f 0d3d bb85 d23d

layer3.bias f4 [100]
0.07521239 -0.0559843 0.05914436 0.065977275 0.08869153 0.10680163 0.0265722 0.07742126
-0.07653834 0.08911986 -0.055168934 0.071527354 -0.0013685682 -0.03340863 0.07335715 -0.089144364
-0.04373706 0.10936945 0.09661332 0.008124144 0.09980866 -0.0058774725 0.10864114 0.07805142
0.096346505 -0.07773872 0.01946028 -0.044890422 -0.02063696 0.0016743395 0.073644005 0.074702434
-0.030045304 0.08306852 -0.056582317 0.012047619 0.06952095 -0.068486325 0.0010752791 -0.020933034
0.0031718547 -0.025936265 0.02543624 0.0017382789 -0.048922118 0.037129685 0.027416743 0.05917583
-0.00774705 0.0013368622 0.0039671687 -0.0066243466 0.050250214 -0.053709157 0.059787203 0.031615745
0.07123681 0.109720275 0.10384462 0.0956451 -0.03682158 0.04377077 -0.014144176 0.074828036
0.08110115 0.06453023 0.05080031 0.06886274 -0.0613082 0.037634924 0.007642973 -0.037289307
-0.0122262435 -0.046330057 -0.039965704 0.1232554 -0.037575565 0.03275867 0.10162369 0.110399775
-0.07328245 -0.09356741 -0.052552715 0.006324537 -0.051969737 0.0051715896 -0.0058686077 0.102466606
0.06139457 0.024464285 0.0703732 0.032518033 0.0016691929 -0.033532705 -0.023051579 0.073758535
-0.07245831 0.03635076 -0.006897642 0.13382243
00000000: f408 9a3d cb4f 65bd 5b41 723d 181f 873d
00000010: e8a3 b53d d0ba da3d f1ad d93c 0a8f 9e3d
00000020: 22c0 9cbd 7984 b63d d2f8 61bd ef7c 923d
00000030: 8761 b3ba 7dd7 08bd 463c 963d 5291 b6bd
00000040: a225 33bd 17fd df3d 34dd c53d 211b 053c
00000050: 7c68 cc3d d097 c0bb 3f7f de3d 6cd9 9f3d
00000060: 5151 c53d 7a35 9fbd 2a6b 9f3c 05df 37bd
00000070: d80e a9bc 8375 db3a abd2 963d 97fd 983d
00000080: 9221 f6bc d41f aa3d dcc2 67bd 6063 453c
00000090: 0061 8e3d 8f42 8cbd 61f0 8c3a c17b abbc
000000a0: e4de 4f3b 4a78 d4bc a95f d03c f6d6 e33a
000000b0: 8f62 48bd 4c15 183d 1499 e03c 5b62 723d
000000c0: f7da fdbb a739 af3a 06ff 813b 0c11 d9bb
000000d0: 2bd3 4d3d 22fe 5bbd 6de3 743d 837f 013d
000000e0: 9be4 913d 06b5 e03d 7dac d43d 94e1 c33d
000000f0: 3ad2 16bd fb48 333d f9bc 67bc 713f 993d
00000100: 5c18 a63d 6d28 843d fc13 503d e907 8d3d
00000110: 4f1e 7bbd 1427 1a3d e871 fa3b acbc 18bd
00000120: 9550 48bc 96c4 3dbd 14b3 23bd 546d fc3d
00000130: d6e8 19bd f52d 063d 1520 d03d 4719 e23d
00000140: 1c15 96bd 45a0 bfbd 8441 57bd 103e cf3b
00000150: 38de 54bd 7076 a93b 734d c0bb 03da d13d
00000160: df78 7b3d 5369 c83c d31f 903d a131 053d
00000170: d2c8 da3a 9759 09bd aad6 bcbc b70e 973d
00000180: 0665 94bd 89e4 143d 9d05 e2bb bf08 093e

layer4.weight f4 [150, 100]
0.009386493 0.0044100597 -0.12162447 -0.10648424 0.057428475 0.060754508 0.028415533 0.07739153
-0.030864127 -0.10714899 -0.109797664 -0.010415026 0.05607018 -0.09185716 0.011072283 0.030464614
-0.028207894 0.10508345 0.0032813658 -0.07707288 0.020792132 -0.04737183 -0.08290049 0.061749212
0.08360353 0.06534159 -0.005124287 -0.14009395 -0.050126083 0.0295257 0.043690667 0.008609907
-0.051606406 -0.03151869 -0.10025343 -0.11407119 -0.1317501 -0.06737611 0.09615709 0.09830067
-0.12395675 -0.008407302 0.087800935 0.050566405 -0.0597239 0.02436003 0.049195375 0.038616154
-0.030138655 -0.059233572 0.091869965 0.02368687 -0.045690913 -0.038058482 0.010304065 0.0658361
-0.07038941 0.05592418 -0.08692677 0.02877004 0.03777656 0.04753147 0.10279583 -0.02247141
-0.0277716 -0.015962254 -0.21426985 0.033577975 -0.086908676 0.016642181 -0.07480516 0.007174256
-0.09466554 -0.062324207 -0.003302909 -0.041679446 -0.07094416 0.10759039 0.079225324 0.084172316
-0.08090824 0.03173504 -0.07855628 0.003776291 -0.0008812198 -0.0010073059 0.026308969 -0.038822822
0.06281837 0.0137193035 -0.10618838 0.068593204 0.08574854 -0.06488402 0.107182905 0.14533661
0.052367385 0.08646787 -0.0073206834 0.08008205 0.046995163 0.058493126 -0.016914193 0.020122902
-0.019280324 0.07020659 0.07897486 -0.06468111 0.036873884 -0.10107218 0.01378563 0.09558187
-0.0139586665 -0.09744578 -0.09836311 -0.023939848 -0.045943514 -0.10107794 -0.07829118 0.09238475
-0.037172996 -0.03459117 0.051579434 0.09093416 0.07580548 0.0025855773 0.09439556 -0.09416947
-0.01887811 -0.07956408 -0.0695203 0.06001969 -0.09500053 -0.0068638553 0.07230862 -0.06316914
-0.011595298 -0.009844637 -0.074123226 0.08678117 0.023816496 -0.01699874 0.015852842 0.0066540875
0.031971812 -0.0411189 -0.036486674 0.08455499 0.024713196 0.049757823 0.050706424 -0.01905096
-0.054963667 0.051247694 0.0038018937 0.062046077 -0.09524343 0.053773187 -0.07223771 0.030577647
0.074401826 -0.0701573 -0.089470305 0.050042454 -0.05362549 -0.097670265 0.07237255 -0.013013854
0.0011571797 0.0075874506 -0.06184631 -0.08285272 -0.09628681 0.026602486 -0.010607999 -0.09985456
-0.021133265 -0.08425978 -0.05111296 -0.06927741 -0.027741455 -0.09624475 0.03314329 0.0040141162
-0.06723009 0.027722517 0.04681669 -0.08087526 -0.021929787 -0.09846375 0.054031827 -0.05442719
-0.027218314 -0.08000259 -0.010551389 -0.040962067 0.074542396 -0.054231983 0.012243848 -0.024249211
0.08304367 0.047808185 -0.13973327 -0.034152642 -0.060838047 -0.012562375 -0.1398522 0.02252155
-0.18924323 -0.003405612 -0.04208046 0.012863647 -0.15647161 0.054856278 -0.08303238 0.0818926
-0.027284505 0.08398252 0.0875614 0.0816811 -0.08079273 0.09459602 0.003362959 0.05819572
-0.0789745 0.15857826 0.013274005 -0.055042587 0.007288793 0.1113754 0.0086538205 0.08758654
-0.06630214 0.0285928 0.04158552 0.0052495105 0.10554138 0.10869812 -0.02706789 0.034452856
-0.11639302 0.10153213 0.08156079 -0.049536176 0.02344905 0.12594295 0.109180875 -0.043425556
-0.03665338 -0.11543272 0.077899225 0.081720576 0.094998516 -0.095790714 0.03218434 -0.10019443
00000000: cec9 193c 4382 903b 4016 f9bd 6914 dabd
00000010: 1f3a 6b3d b8d9 783d b1c7 e83c 737f 9e3d
00000020: c4d6 fcbc ee70 dbbd 99dd e0bd c9a3 2abc
00000030: d8a9 653d 9b1f bcbd 8568 353c ed90 f93c
00000040: 3e14 e7bc fe35 d73d 2f0c 573b 63d8 9dbd
00000050: 4354 aa3c f708 42bd bbc7 a9bd beec 7c3d
00000060: 5438 ab3d d0d1 853d a3e9 a7bb ca74 0fbe
00000070: 0251 4dbd e1df f13c fcf4 323d 9110 0d3c
00000080: 3d61 53bd be19 01bd ac51 cdbd 289e e9bd
00000090: 80e9 06be 7cfc 89bd 02ee c43d dd51 c93d
000000a0: 09dd fdbd c8be 09bc fad0 b33d b81e 4f3d
000000b0: 0ca1 74bd b08e c73c 1781 493d f92b 1e3d
000000c0: 57e5 f6bc e79e 72bd 5226 bc3d f70a c23c
000000d0: 6526 3bbd 36e3 1bbd 62d2 283c 14d5 863d
000000e0: 5328 90bd c110 653d aa06 b2bd 26af eb3c
000000f0: 98bb 1a3d 5cb0 423d 9f86 d23d f615 b8bc
00000100: 4481 e3bc 46c3 82bc 8e69 5bbe 0f89 093d
00000110: 2dfd b1bd 2f55 883c 7333 99bd 0516 eb3b
00000120: 02e0 c1bd ab47 7fbd 9e75 58bb 11b8 2abd
00000130: 2c4b 91bd 5a58 dc3d e340 a23d 8962 ac3d
00000140: 38b3 a5bd 9afc 013d 1de2 a0bd a67b 773b
00000150: a901 67ba 9407 84ba e885 d73c ae04 1fbd
00000160: eba6 803d eec6 603c 4b79 d9bd 987a 8c3d
00000170: ee9c af3d eae1 84bd b682 db3d 1fd3 143e
00000180: 2f7f 563d 1116 b13d 58e2 efbb 0f02 a43d
00000190: 007e 403d 7d96 6f3d a28f 8abc c9d8 a43c
000001a0: c5f1 9dbc 79c8 8f3d 92bd a13d 8877 84bd
000001b0: 1209 173d eefe cebd 20dd 613c 6dc0 c33d
000001c0: e4b2 64bc a791 c7bd 9972 c9bd 801d c4bc
000001d0: 442f 3cbd f301 cfbd 2057 a0bd 3734 bd3d
000001e0: b642 18bd 78af 0dbd f544 533d b03b ba3d
000001f0: e73f 9b3d ca72 293b 7652 c13d ecdb c0bd
00000200: 44a6 9abc 7ef2 a2bd a960 8ebd 35d7 753d
00000210: a38f c2bd 31ea e0bb 8b16 943d d25e 81bd
00000220: 34fa 3dbc 664b 21bc ebcd 97bd 53ba b13d
00000230: d01a c33c f140 8bbc d2dd 813c 880a da3b
00000240: e0f4 023d 4b6c 28bd 0d73 15bd 2b2b ad3d
00000250: 5473 ca3c dcce 4b3d 8ab1 4f3d c210 9cbc
00000260: 9521 61bd 1ae9 513d 3129 793b 0724 7e3d
00000270: fd0e c3bd 4641 5c3d 5df1 93bd f97d fa3c
00000280: fc5f 983d a1ae 8fbd 353c b7bd 51f9 4c3d
00000290: 67a6 5bbd 5907 c8bd 0f38 943d 0f38 55bc
000002a0: 82ac 973a 26a0 f83b 8e52 7dbd b0ae a9bd
000002b0: 0532 c5bd 75ed d93c 2ccd 2dbc 8c80 ccbd
000002c0: ab1f adbc 6490 acbd d35b 51bd 51e1 8dbd
000002d0: 0c42 e3bc f81b c5bd 42c1 073d d988 833b
000002e0: eeaf 89bd 551a e33c dcc2 3f3d eea1 a5bd
000002f0: 19a6 b3bc 5da7 c9bd 7a50 5d3d 0cef 5ebd
00000300: f1f8 debc 66d8 a3bd bcdf 2cbc d7c7 27bd
00000310: afa9 983d 5b22 5ebd 6c9a 483c 48a6 c6bc
00000320: cd12 aa3d 84d2 433d 3d16 0fbe a4e3 0bbd
00000330: 5131 79bd 6bd2 4dbc 6a35 0fbe 1d7f b83c
00000340: fac8 41be b030 5fbb 8f5c 2cbd 0cc2 523c
00000350: 183a 20be fab0 603d e10c aabd 4fb7 a73d
00000360: c183 dfbc 07ff ab3d 6453 b33d 6c48 a73d
00000370: a976 a5bd 8fbb c13d 1765 5c3b a35e 6e3d
00000380: 62bd a1bd 5762 223e 367b 593c 5674 61bd
00000390: d4d6 ee3b c918 e43d c1c8 0d3c 9260 b33d
000003a0: 6bc9 87bd 733b ea3c 9455 2a3d 1604 ac3b
000003b0: 1426 d83d 1f9d de3d 7bbd ddbc 701e 0d3d
000003c0: 775f eebd 14f0 cf3d 5809 a73d 72e6 4abd
000003d0: 3918 c03c 30f7 003e 399a df3d ffde 31bd
000003e0: db21 16bd fd67 ecbd a189 9f3d 1e5d a73d
000003f0: 958e c23d ec2d c4bd bad3 033d bd32 cdbd

layer4.bias f4 [150]
0.013781115 0.04618809 0.023492975 -0.0539255 -0.05564746 0.0832257 0.07603233 0.014266682
0.004628063 0.044778667 0.09126794 0.050714534 -0.10218079 0.030224623 -0.020712951 -0.018360397
0.1061679 -0.07775857 -0.029941062 -0.08550728 0.05867766 -0.052330654 -0.09636176 0.04304565
0.07865446 0.07831861 -0.0067386106 0.0050886567 0.103357494 -0.044930458 0.06211395 -0.10420037
-0.060668506 -0.090636715 0.04872693 -0.038307052 -0.059613146 -0.06413457 0.120112956 -0.09249392
-0.034175914 -0.09542934 0.15082324 -0.04310173 0.07149884 0.07820219 -0.069966234 0.010615947
0.11322969 -0.041767813 -0.028919786 0.08878153 0.09383638 -0.005219562 -0.00417821 0.0106195975
-0.019690713 0.0038150626 -0.014955711 0.12527913 0.0806373 -0.056086183 -0.03150459 0.022703217
0.06413471 -0.06156203 0.044629004 -0.025468675 -0.021501118 -0.079700306 0.026267132 0.0022517685
-0.046160493 0.018287325 -0.06610183 0.0063494323 0.0146445315 0.0994472 0.031556085 0.030219108
0.014758972 0.037870575 0.064666435 -0.0735777 0.11445239 0.051955722 0.112540305 0.06302849
0.1076948 0.09306082 -0.100741886 0.04925376 0.029811852 0.029120363 0.003517066 -0.035159364
-0.045723088 -0.008513008 0.048335314 0.03945278 0.016122255 0.024892738 0.083695866 0.124808855
0.023462027 0.046100754 -0.070307985 -0.11351337 -0.010490227 0.12017541 0.01337198 0.0058291266
-0.10496731 0.00590614 0.0032822709 0.06688353 0.08018553 -0.057781886 0.09733917 0.019200513
0.020963704 0.0037271506 0.057117198 -0.020036865 0.107090205 0.034247003 0.026526522 -0.05390741
-0.024603426 -0.09880884 -0.117243424 0.10541893 0.05469773 -0.07738783 0.007303797 -0.12837155
-0.030768428 0.0705561 0.047620457 -0.09219271 0.02428811 0.056662858 0.10212276 0.016096147
0.10001312 0.10933211 -0.07794177 0.06978662 0.1012403 0.10671847
00000000: 30ca 613c b92f 3d3d 5774 c03c fce0 5cbd
00000010: 97ee 63bd 3c72 aa3d d7b6 9b3d cdbe 693c
00000020: 02a7 973b d669 373d b0ea ba3d 0bba 4f3d
00000030: 2944 d1bd a199 f73c 35ae a9bc 8b68 96bc
00000040: 8e6e d93d e33f 9fbd f546 f5bc 711e afbd
00000050: fc57 703d ab58 56bd 5059 c5bd a350 303d
00000060: 9715 a13d 8265 a03d 90cf dcbb bfbe a63b
00000070: 18ad d33d 0009 38bd 326b 7e3d 0167 d5bd
00000080: 8a7f 78bd be9f b9bd e495 473d dbe7 1cbd
00000090: ea2c 74bd fc58 83bd c8fd f53d 746d bdbd
000000a0: 0bfc 0bbd 7570 c3bd 6871 1a3e 718b 30bd
000000b0: fc6d 923d 7828 a03d 754a 8fbd 82ee 2d3c
000000c0: f8e4 e73d ba14 2bbd 30e9 ecbc 17d3 b53d
000000d0: 4a2d c03d dc08 abbb 5ee9 88bb d2fd 2d3c
000000e0: 6b4e a1bc 2106 7a3b cc08 75bc 2c49 003e
000000f0: 2b25 a53d a0ba 65bd f50a 01bd 19fc b93c
00000100: 0f59 833d 7828 7cbd e7cc 363d afa3 d0bc
00000110: 1d23 b0bc ea39 a3bd 2b2e d73c 6892 133b
00000120: c912 3dbd 4dcf 953c 6560 87bd e60e d03b
00000130: 9eef 6f3c f9aa cb3d f440 013d 108e f73c
00000140: 9ecf 713c 2d1e 1b3d d66f 843d e8af 96bd
00000150: 0466 ea3d 86cf 543d 887b e63d 1515 813d
00000160: 178f dc3d ac96 be3d c351 cebd 50be 493d
00000170: fc37 f43c d48d ee3c 937e 663b 4403 10bd
00000180: 2248 3bbd 257a 0bbc 40fb 453d 3d99 213d
00000190: d212 843c dbeb cb3c bd68 ab3d c99b ff3d
000001a0: 7033 c03c 25d4 3c3d a2fd 8fbd b379 e8bd
000001b0: 33df 2bbc 861e f63d 2616 5b3c 4202 bf3b
000001c0: 1af9 d6bd 4b88 c13b 5e1b 573b 3bfa 883d
000001d0: 5038 a43d b3ac 6cbd c259 c73d 654a 9d3c
000001e0: 13bc ab3c 3643 743b b9f3 693d 5a24 a4bc
000001f0: 1c52 db3d 9646 0c3d 264e d93c 04ce 5cbd
00000200: 208d c9bc 4a5c cabd 521d f0bd e1e5 d73d
00000210: ba0a 603d 837d 9ebd b154 ef3b d573 03be
00000220: 120e fcbc b77f 903d ab0d 433d 88cf bcbd
00000230: dcf7 c63c 5017 683d bd25 d13d 11dc 833c
00000240: aed3 cc3d 83e9 df3d ef9f 9fbd 4aec 8e3d
00000250: 1357 cf3d 378f da3d
