GP_MVC_hw_3view/results/checkpoints/experiment_name/9_net_CLU.pth (torch_old, 4413 bytes, 1 tensors)

weights f4 [10, 100]
00000000: a9a6 743f 2997 1a3f 209e 6f3f 974b 413e
00000010: 8cd7 413f fc53 bb3f 9bbd 173f 2492 c43e
00000020: f98b b73e f829 343f 28ee 153e 29cb 883e
00000030: 9a92 aa3e c10b a03d 4dc1 0a3f 25e5 9623
00000040: b45f b03a df71 363f b17a 523e dc9a c93d
00000050: 2047 963f b744 b43f 8c6f e53f 599c 313e
00000060: 7b7d bc3e 8b08 e23d a104 503e 1958 9a3f
00000070: 0769 0d3e 552c 4f3f 5441 df3e ef2f 833f
00000080: bb1c 363e 86df 123f 0100 0000 3e25 113d
00000090: af6a ce3e 31d6 073c 7e79 a73f d13a 593c
000000a0: 79ac 593f c41c de3d b5c3 803f 7837 1b3a
000000b0: 94d8 013f bdac 593f 70f5 5a3d a5d4 843f
000000c0: 631f 963e 0c4e 3c3e ab77 f13b e6c6 a63f
000000d0: b317 803f 978a 863e ea57 4d3f 69f1 7e3f
000000e0: 2121 c53e 1a9e 6a3f 2bcc 3d3f c627 263d
000000f0: 0000 0000 2d99 c93e ea8d 733f 7d76 333f
00000100: cb57 e2bb 0a1e 223f 810e 383d 13d0 d23f
00000110: 7d1a 90bc 9038 473f 05cf ab3f 74d0 153f
00000120: e1e7 3c3c bf36 043f abec 883e 0bfe 323f
00000130: 1590 9a3f 2006 393f b0e6 a53e 7fe7 f23e
00000140: 0200 0080 5039 d699 0200 0080 0200 0000
00000150: 0100 0080 2791 a03f beb5 813f 6e51 a13d
00000160: ef27 c83f 245a 593f 8b05 063d 604b 193f
00000170: acbf e23e 01e9 633f 1bbb a73e f388 a23e
00000180: 5153 df3e f24d 893f 7d13 a93e 5935 8d3f
00000190: e78c 333f e0b8 343f b8d0 483e 4cf9 5e3f
000001a0: 5778 843f 63dc 493f 6363 0c3f d291 293f
000001b0: d2c8 023f 0431 313f a216 7e3f 38ec 2b3d
000001c0: 413e 2f3f 6148 d63d 351e 0d3f 324d 3ca6
000001d0: d4b7 733a e4a2 833f 73a1 303f 159d 293f
000001e0: f828 6d3f fa2e 8b3f 6242 1c3f 2baa 2d3f
000001f0: 07df 723f bf68 b53b bfd7 113f b453 863e
00000200: 149d 2b3e cdfa 333f 65c8 8f3f c086 a63f
00000210: 8a08 d03e 091f 0a3f 0100 0000 5dfb 8d3d
00000220: 6234 983f 49ba 093d a41a f83e a80b 4d3f
00000230: b997 a43e 968b a33d dd30 b43e 19d1 ac96
00000240: f04e a33f 60c4 143f ea23 eb3d 343c 733e
00000250: 1462 a03e e7c9 553e 751a be3b a2c9 bc3f
00000260: 00ef 643f 4e2e 3b3e e5b2 933f 637a 0a3f
00000270: f02e aa3f 636f 1a3f 04b9 3e3f a804 043e
00000280: 0000 0000 e07c d23f 228c 9e3f 809d eb3e
00000290: d69d 7c3c 4fbb b93e f69f 523e c362 e83f
000002a0: db1c 313f 343c 943f 94f7 253f b857 a93e
000002b0: bf83 9a3c 6b34 833f acfc ac3f 5deb fb3e
000002c0: 8d0b e83e b147 b93f 2495 5a3f 8a39 813f
000002d0: ea1d c18f 0300 0000 0300 0000 0300 0000
000002e0: 0300 0000 bd9b ad3e 4c21 f53e dc3b be3f
000002f0: b4ac 043f 5135 1f3f ee63 673d 7582 fe3e
00000300: 131a 2f3f 7ae2 753f cdec 543f 50ac 473f
00000310: ff85 7b3f fda5 4d3f fb45 7e3f a6f1 143f
00000320: 530a 0640 dc39 3b3f f089 0f3d 3937 433f
00000330: fac9 1f3e 479b d53f 0d91 863f 7e37 9d3e
00000340: 8e37 9f3e e120 f93e 948c 10bc 4c11 2a3f
00000350: 10b8 063f 196d 863d ae23 183f a1cb ea8e
00000360: a30b aeba 93b5 d73f 8bb2 853e d2a3 f33c
00000370: e199 153f 5bb2 e13e 3312 0640 6276 5b3e
00000380: 40ca 533d 9773 0b3e 24de 2e3e 01f5 9a3f
00000390: 25bc 443e 3b69 ac3f 7b16 e93e dd8b ae3f
000003a0: 30fa 563f fce6 593f 4857 f5aa 060a 603f
000003b0: a617 d03e 8795 a03c 320d 7b3f 5744 29bc
000003c0: 8430 a73f 4278 dc3d 6bf5 703f 0a8b 8799
000003d0: c86c e63e e5b6 113f 062b 39bb 98e2 553f
000003e0: 27c9 a23f d053 0a3e 8b47 f93c 7b03 b23f
000003f0: 7f03 a03e 155d 923f bfb9 463f 5229 ed3f
0.95566803 0.603869 0.93600655 0.18876491 0.75719523 1.4635005 0.5927369 0.38392746
0.35848978 0.7037654 0.1464163 0.267175 0.33314973 0.07814742 0.54201204 1.6360079e-17
0.0013456256 0.71267503 0.20554616 0.0984399 1.1740456 1.408347 1.7924666 0.17344798
0.36814484 0.11036786 0.20314266 1.2058135 0.13809596 0.8092702 0.4360453 1.0249003
0.17784397 0.5737232 1e-45 0.035435908 0.40315768 0.008290813 1.3083951 0.013258652
0.850288 0.1084533 1.0059725 0.0005921046 0.50721097 0.850292 0.053456724 1.0377394
0.2932082 0.18389148 0.007369002 1.3029449 1.0007232 0.2627761 0.8021227 0.9958711
0.38501838 0.91647494 0.7413966 0.040565275 0.0 0.39374676 0.9513842 0.70102674
-0.0069074384 0.63327086 0.044935707 1.6469749 -0.017590756 0.7782068 1.3422552 0.585212
0.011529894 0.51646036 0.26743063 0.6991889 1.207522 0.7227497 0.32402563 0.47442243
-3e-45 -2.215023e-23 -3e-45 3e-45 -1e-45 1.2544297 1.0133588 0.078768596
1.5637187 0.8490317 0.03272013 0.5988064 0.4428686 0.8902741 0.32759938 0.3174511
0.43618253 1.0726912 0.3302268 1.1031905 0.70136875 0.70594597 0.1961087 0.87099147
1.0349225 0.7885191 0.5483915 0.6623813 0.5108768 0.69215417 0.99253285 0.041973323
0.68454367 0.10463024 0.5512422 -6.533022e-16 0.0009297107 1.0284085 0.6899635 0.66255313
0.9264064 1.0873711 0.6103879 0.6783778 0.9487156 0.0055361683 0.5696983 0.26235735
0.1675914 0.70304567 1.123303 1.3009872 0.40631515 0.53953606 1e-45 0.06932709
1.1890986 0.03362492 0.48457825 0.8009591 0.32147005 0.07985608 0.3519353 -2.7920058e-25
1.2758465 0.58112144 0.114814594 0.23753434 0.31324828 0.20877801 0.005801494 1.4749033
0.89427185 0.18279383 1.1538969 0.54093 1.3295574 0.6032621 0.7450106 0.12892401
0.0 1.6444359 1.2386515 0.460186 0.01541849 0.36275718 0.20568833 1.815514
0.69184655 1.1580873 0.648309 0.33074737 0.01886165 1.0250372 1.3514609 0.49203005
0.45321313 1.4475003 0.8538382 1.0095685 -1.9042792e-29 4e-45 4e-45 4e-45
4e-45 0.3390788 0.47876966 1.4862018 0.51826024 0.6219073 0.056491785 0.49708906
0.6839916 0.960487 0.8317383 0.77997303 0.98251337 0.80331403 0.9932553 0.58181226
2.0943801 0.7313516 0.035043657 0.7625614 0.15604392 1.6688012 1.0513016 0.307064
0.31097072 0.48657897 -0.008822579 0.6643264 0.5262461 0.065637775 0.5942944 -5.788154e-30
-0.0013278614 1.6852287 0.2611278 0.029741202 0.58437926 0.44081387 2.0948608 0.21431878
0.051706553 0.13618313 0.17076927 1.2106019 0.19212396 1.3469614 0.45524964 1.3636433
0.83975506 0.8511808 -4.3581306e-13 0.87515295 0.40643042 0.01960255 0.9806701 -0.010331235
1.3061681 0.10765125 0.9412448 -1.401483e-23 0.45004869 0.569197 -0.0028254404 0.8354888
1.2717637 0.13508534 0.030429622 1.3907312 0.31252667 1.1434656 0.77627176 1.8528235
