GP_MVC_hw_3view/results/checkpoints/experiment_name/latest_net_AE.pth (torch_old, 935829 bytes, 17 tensors)

layer1_1.weight f4 [200, 216]
0	0x3be32ad3	0.0069325953
1	0xbd498dee	-0.04920762
2	0xbd3d0cce	-0.04615479
3	0x3d055ede	0.032561176
4	0x3c7f2e9d	0.015575078
5	0xbb84049a	-0.004028869
6	0x3bfd53a3	0.0077309175
7	0x3d46bebb	0.04852174
8	0xbd805217	-0.062656574
9	0xbd2ced2c	-0.042218372
10	0xbd3f1140	-0.04664731
11	0xbd3aceea	-0.045607485
12	0x3b96f13f	0.0046063955
13	0xbcc76d7a	-0.024344195
14	0xbd3b8f15	-0.04579075
15	0xbc81a2f7	-0.015824778
16	0xbc901f14	-0.017592944
17	0xbd4cbf94	-0.04998739
18	0xbd57c1ea	-0.052675165
19	0x3d52cabb	0.05146287
20	0x3d202958	0.03910193
21	0x3d6e9fb3	0.05825777
22	0xbc66fa7d	-0.014097807
23	0x3c170c5a	0.009219253
24	0xbc6a1bda	-0.014288867
25	0xbd351b35	-0.0442154
26	0x3d11bf7f	0.035583016
27	0xbccc00e5	-0.02490277
28	0x3ba4b0fc	0.005025981
29	0x3b023dee	0.0019873339
30	0x3c5800e6	0.013183808
31	0xbc8aadff	-0.01692867
32	0x3d23a39a	0.039950944
33	0x3d1a4b48	0.03766945
34	0x3b130a44	0.0022436539
35	0x3d27c3a1	0.04095805
36	0xbc239eb0	-0.0099865645
37	0x3d713f65	0.05889835
38	0xbd66efa5	-0.056380887
39	0xbd4ed4aa	-0.05049578
40	0x3d647036	0.055771075
41	0x3d1fc7fa	0.039009072
42	0x3d81876e	0.06324659
43	0xbd85984e	-0.065231904
44	0x3d2714c6	0.040791295
45	0xbd47dab5	-0.04879256
46	0x3b71b4b7	0.0036881396
47	0x3d7c4e3d	0.06159805
48	0xbd713d57	-0.05889639
49	0xbc5a97f6	-0.013341894
50	0xbc3b4691	-0.011430399
51	0xbd112ab5	-0.03544112
52	0x3d510031	0.051025573
53	0xbd169d27	-0.036770966
54	0xbcb628e1	-0.02223629
55	0xb99d4f3a	-0.00030004402
56	0xbc274d21	-0.01021126
57	0xbc1fcda4	-0.009753618
58	0xbc7d7d00	-0.015471697
59	0x3d1fd63b	0.039022665
60	0x3d46b836	0.04851552
61	0x3d11283c	0.03543876
62	0xbd27114d	-0.040787984
63	0xbb3acea0	-0.0028504506
64	0x3cc0d4af	0.023538915
65	0xbd544c64	-0.051830664
66	0x3d885867	0.066574864
67	0x3d3ffcad	0.04687183
68	0x3c70e179	0.014702194
69	0x3d314213	0.043275904
70	0xbd4c51e4	-0.049882784
71	0xbd437c35	-0.047725875
72	0xbd303456	-0.04301866
73	0x3c66ad3f	0.014079391
74	0xbd84b6ae	-0.06480156
75	0xbd51663b	-0.051122885
76	0xbd8e348b	-0.069436155
77	0x3d4b625b	0.049654346
78	0xbd1bc62c	-0.03803079
79	0x3cac93d4	0.021066584
80	0x3cf9264c	0.03041377
81	0xbcf68df1	-0.03009698
82	0x3d6e798c	0.058221385
83	0xbd818e38	-0.06325954
84	0x3c96489f	0.018345175
85	0x3d893ba2	0.06700827
86	0xbccba5ad	-0.024859274
87	0xbd2ca3ce	-0.042148404
88	0xbd3f1690	-0.046652377
89	0xbcec0ce9	-0.02881475
90	0xbcf8657f	-0.030321835
91	0xbd412d69	-0.047162447
92	0xbd2ee5c1	-0.04269958
93	0xbb86fc01	-0.0041193967
94	0x3b69fe25	0.003570446
95	0x3c44481a	0.011980081
96	0x3d298d2a	0.04139439
97	0x3d754b35	0.059886176
98	0xbd1104ae	-0.035404854
99	0xba983fd1	-0.0011615698
100	0xbd67590b	-0.056481402
101	0x3cd70e49	0.026251929
102	0x3d46d7fa	0.048545815
103	0xbd460ae8	-0.048350245
104	0xbd2b517b	-0.041825753
105	0xbcf645f0	-0.030062646
106	0xbcd161dd	-0.02555936
107	0x3d0c7ee1	0.03430069
108	0x3cd6790c	0.026180767
109	0x3d829f2c	0.06378016
110	0x3d1d2cbd	0.038372744
111	0xbb232b0d	-0.0024897486
112	0xbd2ae2f5	-0.04172035
113	0x3cdba80f	0.026813535
114	0x3b6b3724	0.003589102
115	0x3d8d8889	0.06910808
116	0xbccce525	-0.025011608
117	0x3b95a030	0.004566215
118	0x3d2d43fd	0.042301167
119	0x3d8a766b	0.06760868
120	0x3c7610cd	0.015018654
121	0xbd6970fc	-0.056992516
122	0x3d21ab72	0.039470144
123	0xbd6cdb2c	-0.057826206
124	0xbd0b931b	-0.034075838
125	0x3d4daf57	0.050216045
126	0x3cf24a36	0.029576402
127	0x3c611583	0.013738039
128	0xbbfd79b7	-0.007735457
129	0x3d3c9886	0.046043895
130	0x3c01ea19	0.007929348
131	0x3d8708ac	0.06593451
132	0xbd5ae17b	-0.05343769
133	0xbbe0e6db	-0.0068634576
134	0x3d35a454	0.04434617
135	0x3cc7ba2d	0.024380768
136	0x3c699fad	0.014259261
137	0x3b7980a0	0.0038071051
138	0xbd4b569f	-0.049643155
139	0xbc832328	-0.016007975
140	0x3d25f79e	0.04051935
141	0x3d1b78e3	0.037957083
142	0xbd36c5d1	-0.044622246
143	0x3cb63df6	0.022246342
144	0x3c494115	0.012283583
145	0xbd49a29b	-0.04922734
146	0xbc11df4b	-0.008903335
147	0xbc960bf5	-0.018316248
148	0x3d21b7e1	0.039482
149	0x3cba0a8a	0.022710104
150	0xbd722302	-0.059115417
151	0xbd12813a	-0.03576777
152	0x3cbcdf46	0.023055684
153	0x3d5c6f0b	0.053816836
154	0x3d19fd69	0.037595186
155	0xbd3cb16a	-0.046067633
156	0x3cf7cd58	0.030249283
157	0xbcc7f5e6	-0.024409246
158	0xbd84ae22	-0.06478526
159	0xbd4b4d52	-0.049634285
160	0x3d6309ad	0.05542915
161	0xbcf27e9b	-0.029601386
162	0xbd61bafe	-0.05510997
163	0x3d21838a	0.039432086
164	0xbcfddf6c	-0.030990325
165	0x3a5affe5	0.00083541713
166	0x3d82fa8c	0.06395444
167	0x3d5098c3	0.050926935
168	0xbd62d694	-0.05538042
169	0xbcdbb119	-0.026817845
170	0x3d779b1a	0.06045065
171	0xbd80f238	-0.062961996
172	0xbc849f6e	-0.016189303
173	0xbd10f5c9	-0.03539065
174	0xbd3d6850	-0.04624206
175	0x3ca1c695	0.019748012
176	0xbd488eb2	-0.04896421
177	0x3b75b780	0.0037493408
178	0x3c43b5c6	0.011945194
179	0x3bc801ac	0.006103715
180	0x3d710154	0.058839157
181	0x3d712256	0.058870636
182	0x3a1f165e	0.00060687016
183	0x3d4cb055	0.04997285
184	0x3d3f3ad8	0.046686977
185	0xbd490ccf	-0.04908448
186	0xbd4b4359	-0.049624775
187	0x3ca123e5	0.019670436
188	0x3bd37218	0.00645281
189	0xbd21620d	-0.03940015
190	0xbbeb0ad3	-0.007172921
191	0xbd1a73db	-0.037708145
192	0x3d70d34a	0.05879525
193	0xbd108699	-0.035284612
194	0xbd2f1c5a	-0.042751648
195	0xbcbe986c	-0.02326604
196	0x3c20816f	0.009796484
197	0xbd4558e7	-0.048180487
198	0x3d118c05	0.035533924
199	0x3b520fad	0.00320528
200	0xbcc371b9	-0.023857938
201	0x3c80feba	0.015746463
202	0x3cb5d416	0.022195857
203	0x3cc81764	0.024425216
204	0xbc2839ac	-0.010267656
205	0x3d1bc18e	0.038026385
206	0x3d5b62b4	0.053560928
207	0xbd19b8f2	-0.037529893
208	0x3d6c7d06	0.05773642
209	0xbc30b6b5	-0.010785748
210	0x3d7d485d	0.06183659
211	0x3d86ee1b	0.06588384
212	0xbcef67ee	-0.029224362
213	0x3cf334d7	0.029688282
214	0x3c86ab65	0.01643915
215	0x3bebf359	0.00720064
216	0xbb54f400	-0.0032494068
217	0xbd1c9e4e	-0.03823691
218	0xbca486ca	-0.020083804
219	0x3c63e230	0.013908908
220	0xbd81b878	-0.06334013
221	0x3d3cb9ae	0.046075515
222	0x3c988a20	0.01862055
223	0x3d3644f2	0.044499345
224	0x3d56f6dc	0.052481517
225	0xbc67335c	-0.014111366
226	0xbc930c86	-0.017950308
227	0xbc9b1d0e	-0.018934753
228	0xbd85c638	-0.06531948
229	0xbc22e130	-0.009941384
230	0x3d04ae6e	0.03239291
231	0x3d543b76	0.05181452
232	0xbc708e40	-0.014682353
233	0x3d3dade6	0.04630842
234	0xbd749a55	-0.059717495
235	0x3d718014	0.058960035
236	0x3c409d20	0.0117562115
237	0x3d7da6d0	0.061926663
238	0xbcda799c	-0.026669316
239	0x3d5a3ef0	0.053282678
240	0x3cc400e4	0.023926206
241	0xbd6ef276	-0.058336698
242	0xbc7dcc14	-0.015490551
243	0x3d71cd48	0.059033662
244	0xbd4cdf44	-0.05001761
245	0x3ccec5e4	0.025240846
246	0xbc75a01c	-0.014991786
247	0x3d1865d2	0.03720648
248	0xbd7e6c2e	-0.062114887
249	0xbab1bbc0	-0.0013559982
250	0x3cc6d924	0.024273463
251	0xbc400b34	-0.011721421
252	0xbd2f7d17	-0.042843904
253	0x3d08e8ba	0.03342507
254	0xbd42a3bc	-0.04751943
255	0x3d574d22	0.052563794

layer1_2.weight f4 [200, 76]
0	0xbd0d5a9e	-0.034510247
1	0x3e0c782f	0.13717721
2	0xbc6f8668	-0.014619447
3	0x3be65030	0.007028602
4	0xbcfd8450	-0.03094688
5	0xbe14b442	-0.14521888
6	0xbe0aed06	-0.1356698
7	0xbdb83260	-0.08993983
8	0xbe70dad7	-0.23520981
9	0xbdd84fb9	-0.10562081
10	0xbbb192b8	-0.0054191016
11	0xbdf09969	-0.11748011
12	0xbddb31c7	-0.10702854
13	0xbe00bd3d	-0.12572189
14	0xbdb8b8cb	-0.090196215
15	0x3ce1f64d	0.027583266
16	0xbdab84d8	-0.08374947
17	0x3d3fb6e6	0.046805285
18	0x3e0ce6e8	0.13759959
19	0xbd3efe31	-0.046629135
20	0xbd8ff97e	-0.07030009
21	0xbca3fbaf	-0.020017473
22	0xbdbe158b	-0.09281453
23	0x3cce8d46	0.025213849
24	0x3d668dd6	0.05628761
25	0xbdd99bf0	-0.10625446
26	0xbddd39e4	-0.108020574
27	0x3d8d2ac3	0.06892922
28	0xbcbbb18e	-0.022911813
29	0x3d2cbf9b	0.042174917
30	0xbd7eabb2	-0.06217546
31	0x3dcc2ec4	0.09969857
32	0xbdb1ac2a	-0.08675416
33	0x3df595c5	0.11991457
34	0x3c378b80	0.011202693
35	0x3ccfea2d	0.025380218
36	0xbcf65643	-0.03007043
37	0xbdc5eae3	-0.09663942
38	0x3b9ba58c	0.0047499593
39	0xbcc3401a	-0.023834277
40	0x3d6975bb	0.056997042
41	0xbd4b27b2	-0.049598403
42	0xbbf655d5	-0.007517556
43	0x3d4cafb8	0.049972266
44	0x3ceab952	0.02865282
45	0x3d9088f6	0.07057373
46	0xbd14f931	-0.03637046
47	0xbd0e6f4a	-0.034774102
48	0xbb49cd75	-0.0030792628
49	0xbdc8248b	-0.09772595
50	0x3d613c3d	0.05498909
51	0xbcf1bd00	-0.029509068
52	0x3d1ade33	0.037809562
53	0xbdc74476	-0.09729855
54	0xbcd0255f	-0.025408445
55	0x3c310b23	0.010805878
56	0xbdb407f8	-0.087905824
57	0xbdc8b994	-0.09801021
58	0xbbb8cd88	-0.0056397356
59	0x3da1c75f	0.07899355
60	0xbdc2c322	-0.09509875
61	0x3d99c49d	0.07508204
62	0x3d861bd0	0.065482736
63	0xbd1b5e36	-0.037931643
64	0xbd916d9f	-0.07100987
65	0xbd1ec8f2	-0.038765855
66	0xbbb21206	-0.0054342775
67	0xbd298cab	-0.041393917
68	0x3db139f9	0.086536355
69	0x3d855f27	0.065122895
70	0xbca8ebdd	-0.02062028
71	0xbdd60d87	-0.10451799
72	0xbd9ab16a	-0.0755337
73	0x3da7abeb	0.081870876
74	0x3d659ccd	0.05605774
75	0x3c94d5d0	0.01816836
76	0xbe39b435	-0.1813515
77	0x3bd10143	0.0063783242
78	0xbd22a3e9	-0.0397071
79	0x3cfd7220	0.030938208
80	0x3e261d33	0.16222076
81	0xbe1e9f35	-0.1549042
82	0x3ce742ec	0.028230153
83	0xbe11e2f4	-0.14246732
84	0x3e5175d8	0.2045511
85	0x3db6b924	0.089220315
86	0xbc825284	-0.015908487
87	0xbe1e333e	-0.15449235
88	0xbd84ad19	-0.06478328
89	0x3db79e16	0.089656994
90	0x3d8ae07f	0.067811005
91	0xbdbd7414	-0.09250656
92	0x3d4d4b1d	0.05012046
93	0xbdf7283d	-0.12068222
94	0xbd21b221	-0.039476518
95	0x3c0c7e74	0.008575071
96	0x3db7067f	0.08936786
97	0xbdefe1c9	-0.11712987
98	0x3c4a8f13	0.012363213
99	0x3d2a97af	0.041648563
100	0x3e017ffb	0.12646477
101	0x3cee7fa5	0.0291136
102	0xbdb9de4f	-0.09075605
103	0x3c24cf1d	0.010059145
104	0x3dab3187	0.08359056
105	0x3c77fbe5	0.01513574
106	0x3bbfa92b	0.005849024
107	0x3ca2ad79	0.019858109
108	0x3de16377	0.110052995
109	0x39a979be	0.00032324897
110	0xbdc02971	-0.09382904
111	0x3d693696	0.056936823
112	0xbc8b054d	-0.016970301
113	0xbd144f40	-0.03620839
114	0xbdc41442	-0.09574176
115	0x3dda7e3c	0.106686085
116	0xbd336227	-0.043794777
117	0x3b41a819	0.0029549657
118	0xbdbf223c	-0.093327016
119	0xbd983cde	-0.074334845
120	0x3bcbc534	0.006218577
121	0x3d410f50	0.047133744
122	0xbc7e904a	-0.015537331
123	0x3d9ec881	0.07753087
124	0x3d408160	0.04699838
125	0xbe0515db	-0.12996618
126	0x3d0af890	0.033928454
127	0x3da1a55a	0.078928664
128	0x3d9a1262	0.075230375
129	0x3d000662	0.031256087
130	0xbdd7db3d	-0.10539863
131	0xbdb8e186	-0.0902739
132	0x3d409d1e	0.04702484
133	0x3d408655	0.04700311
134	0x3bd74953	0.00657002
135	0xbcd75dc4	-0.026289828
136	0x3c06bebb	0.008224185
137	0xbe11af42	-0.14227012
138	0x3cffa83b	0.031208148
139	0x3e0ca171	0.1373346
140	0xbc6d2857	-0.01447495
141	0xbadf6118	-0.0017042486
142	0xbd84c5ad	-0.06483016
143	0xbcbffdf5	-0.023436526
144	0xbd144bad	-0.036204983
145	0xbd89e789	-0.06733615
146	0xbd808aa8	-0.062764466
147	0xbb9ae2eb	-0.0047267578
148	0xbd7b2b9d	-0.06132089
149	0x3e3d7a27	0.18503629
150	0xbd51dfb3	-0.051238727
151	0x3e796956	0.24356589
152	0xbd52db8c	-0.051478907
153	0x3d696a37	0.05698606
154	0xbdec74fc	-0.115457505
155	0xbe38354a	-0.17989078
156	0x3e4e7430	0.2016151
157	0xbceb973f	-0.028758643
158	0x3c882912	0.016621146
159	0xbdb08380	-0.08618832
160	0x3c764e4e	0.015033318
161	0x3c6a7ed8	0.0143124685
162	0x3cf5600e	0.029953029
163	0x3d51861a	0.05115328
164	0x3c115f5d	0.008872834
165	0x3dfe9f16	0.12432687
166	0x3d3ee559	0.04660544
167	0xbc1918b1	-0.009344266
168	0x3e1f94a2	0.15584043
169	0x3dac83b4	0.08423558
170	0xbd1c44cf	-0.03815156
171	0xbd8a8628	-0.067638695
172	0x3db2ca0d	0.087299444
173	0x3d401b2e	0.04690092
174	0x3d804b4f	0.06264364
175	0xbd29376a	-0.041312613
176	0x3d0228bc	0.03177713
177	0x3d9d6996	0.076861545
178	0x3d65c6d7	0.05609783
179	0xbc9fdf7c	-0.019515745
180	0x3d7792da	0.060442783
181	0xbdc2dd71	-0.09514893
182	0xbdb86270	-0.090031505
183	0xbda6753f	-0.08127832
184	0x3d93e225	0.07220868
185	0x3d8c0375	0.06836597
186	0x3d9bed87	0.07613664
187	0x3d6cec64	0.057842627
188	0x3dbc1d53	0.09185281
189	0x3d8ca830	0.06868017
190	0xbbb241fe	-0.005439996
191	0x3dc58b7e	0.09645747
192	0xbd29d924	-0.041466847
193	0x3de261d5	0.11053816
194	0xbd153cca	-0.036434926
195	0x3d84c0b3	0.06482067
196	0xbdd7f6e3	-0.10545137
197	0xbd8fe9e4	-0.07027033
198	0xbc3ea25c	-0.011635389
199	0x3daa8158	0.083254516
200	0xbd76ebbb	-0.060283404
201	0x3d7836e8	0.060599238
202	0x3ccb1ca7	0.024793936
203	0x3cfe30ce	0.031029131
204	0x3d00278a	0.031287707
205	0xbd58d74e	-0.052939706
206	0xbd91b778	-0.07115072
207	0x3be8a8ac	0.0071001854
208	0x3d84192f	0.06450116
209	0x3d0ed162	0.03486765
210	0xbd6a2192	-0.05716092
211	0xbdb30214	-0.08740631
212	0x3d06cf0d	0.032912303
213	0xbe006790	-0.12539506
214	0xbc648783	-0.013948324
215	0x3d3b0a14	0.045663908
216	0xbe0e2039	-0.1387948
217	0x3e3825c7	0.17983161
218	0x3d5b7d1e	0.053586118
219	0x3d08f8f8	0.03344056
220	0xbe1bb142	-0.15204337
221	0x3dc9ea7b	0.09859177
222	0xbda73c76	-0.08165829
223	0x3dd6cbe1	0.104881056
224	0xbd8c0d74	-0.068385035
225	0x3dba5bbc	0.09099528
226	0x3d0546a2	0.032538064
227	0x3ddf96c4	0.10917428
228	0x3d0e36a8	0.034720093
229	0xbc986020	-0.018600523
230	0xbd8f18b3	-0.06987133
231	0x3dbbbfac	0.09167418
232	0xbcc6ce01	-0.024268152
233	0xbce6e4ac	-0.028185211
234	0x3dae3cb7	0.08507674
235	0x3da76758	0.08174008
236	0x3c31d748	0.01085455
237	0x3ddd8345	0.10816053
238	0xbc116b2b	-0.0088756485
239	0x3d999a52	0.075001374
240	0xbd872154	-0.06598154
241	0xbdb0594a	-0.086107805
242	0x3de36099	0.11102409
243	0x3bf4c47c	0.007469712
244	0x3de022f3	0.10944166
245	0x3d8ceac9	0.06880719
246	0xbd12eb1e	-0.035868756
247	0x3cf44dd5	0.02982227
248	0xbd0085c0	-0.031377554
249	0x3dd465ea	0.10371001
250	0x3db7f89b	0.089829646
251	0xbd005ce6	-0.031338595
252	0xbdaec300	-0.08533287
253	0x3bb40ebc	0.0054949205
254	0xbd65232c	-0.055941746
255	0xbdb0e308	-0.08637053

layer1_3.weight f4 [200, 64]
0	0xbdea7d5b	-0.11449691
1	0x3ea506b1	0.32231668
2	0x3e10428c	0.14087886
3	0xbd00755a	-0.031361915
4	0x3dc65fec	0.096862644
5	0xbd55dca3	-0.05221237
6	0xbe04a555	-0.12953694
7	0x3d9b3d49	0.075800486
8	0x3d1ebdef	0.038755354
9	0xbdf62b88	-0.12020022
10	0xbdf1237a	-0.11774345
11	0xbc9a1ad6	-0.018811624
12	0xbe25d59e	-0.1619477
13	0xbd9d0088	-0.07666117
14	0x3e2f3be6	0.17112693
15	0xbd180584	-0.037114635
16	0xbdcb39f7	-0.09923165
17	0xbca57f45	-0.020202288
18	0x3cf324d8	0.029680654
19	0x3db21724	0.0869582
20	0xbdf87a19	-0.12132663
21	0xbd8927da	-0.06697054
22	0x3d33cfbe	0.04389929
23	0x3dda72fa	0.10666461
24	0x3e088a14	0.13333923
25	0x3e045670	0.12923598
26	0x3db6a7c7	0.0891872
27	0xbe28c202	-0.16480258
28	0x3d3202bd	0.043459643
29	0xbd3756c6	-0.044760488
30	0xbd4486ac	-0.047979996
31	0x3dcd7ac5	0.10033182
32	0x3d9b6d5d	0.07589219
33	0xbc55118d	-0.013004673
34	0x3d822093	0.06353869
35	0xbda0d21d	-0.07852576
36	0x3e057838	0.13034141
37	0xbd87fd36	-0.06640093
38	0x3e34f560	0.17671728
39	0x3e00107c	0.12506288
40	0x3de9d2d6	0.11417167
41	0x3e23e071	0.16003586
42	0x3c4edb3b	0.012625511
43	0xbdd80480	-0.10547733
44	0xbde0426c	-0.10950169
45	0xbd21aac0	-0.03946948
46	0x3def05dd	0.1167104
47	0x3d3768b2	0.04477758
48	0x3d1a8706	0.037726425
49	0x3d012152	0.031525917
50	0x3a861b04	0.001023144
51	0xbbcac122	-0.006187574
52	0xbdea2c30	-0.11434209
53	0x3d1b8aaa	0.037974037
54	0xbd155dae	-0.036466293
55	0x3d1b1016	0.037857138
56	0xbc1a9b99	-0.009436511
57	0xbd247edb	-0.04016004
58	0xbc9545e3	-0.018221801
59	0xbc397966	-0.011320448
60	0xbc12db1a	-0.008963371
61	0xbdd4a319	-0.10382671
62	0xbdae7301	-0.08518029
63	0x3da63f7b	0.08117577
64	0xbc7ad7a0	-0.015310198
65	0x3da64565	0.08118705
66	0xbcd759fe	-0.026288029
67	0x3dd82b60	0.10555148
68	0x3dfa0380	0.12207699
69	0xbb5dd420	-0.003384836
70	0xbe65a9a3	-0.22427993
71	0x3dd3f91a	0.10350247
72	0x3d0cc643	0.034368765
73	0xbde40551	-0.111338265
74	0xbe289753	-0.16463976
75	0x3deaafe5	0.114593305
76	0xbca99e1a	-0.020705272
77	0x3df9142e	0.12162052
78	0x3db6de9c	0.08929178
79	0xbd9476c3	-0.072492145
80	0x3d5b804e	0.053589158
81	0xbe250143	-0.16113763
82	0x3d4f4cdc	0.05061041
83	0x3e1701a1	0.14746715
84	0x3dc5dce7	0.096612744
85	0x3e0bde19	0.13658942
86	0xbd6af02a	-0.057357945
87	0x3e2e7f59	0.17040767
88	0xbd240224	-0.040041104
89	0x3d67e816	0.05661782
90	0xbdee6dfc	-0.116420716
91	0x3d48cdaf	0.04902428
92	0x3e2afba8	0.16697562
93	0xbd98d0e5	-0.074617185
94	0x3cf7151e	0.030161437
95	0xbda51e7b	-0.08062454
96	0x3d003e06	0.03130915
97	0xbd31107d	-0.043228615
98	0x3de27303	0.11057093
99	0x3d5fcb60	0.054637313
100	0x3dd49716	0.1038038
101	0x3c98fc33	0.018674945
102	0xbca415d1	-0.020029934
103	0x3d54f52d	0.05199163
104	0x3c8e94b4	0.017404892
105	0x3d1233df	0.035694
106	0xbd36e7e1	-0.04465473
107	0xbc185729	-0.009298124
108	0x3e32a472	0.17445543
109	0x3cfdc960	0.030979812
110	0x3d24e480	0.040256977
111	0xbd9260f1	-0.07147396
112	0x3d5b67fd	0.053565968
113	0xbb0826e8	-0.0020775143
114	0xbabde774	-0.0014488534
115	0xbc146617	-0.009057543
116	0x3b8141f6	0.0039446307
117	0xbb668389	-0.0035173616
118	0xbdebe212	-0.11517729
119	0x3cd41682	0.025889639
120	0xbd8e8973	-0.0695981
121	0x3e2a10aa	0.1660792
122	0x3dd381b3	0.103274725
123	0xbe0b89af	-0.13626741
124	0x3dbfe829	0.09370453
125	0x3d6f194d	0.058373738
126	0x3dc4d33e	0.09610604
127	0xbe0c6925	-0.13711984
128	0xbe5d1fe8	-0.21594203
129	0xbe4ee43c	-0.20204252
130	0x3e115ce3	0.1419559
131	0xbe8763fb	-0.26443467
132	0x3d869ffe	0.06573485
133	0x3d53ee24	0.05174078
134	0xbe3f66de	-0.18691584
135	0xbd8924a1	-0.066964395
136	0xbbacdf22	-0.005275623
137	0xbe1f98c2	-0.15585616
138	0x3d3eda62	0.046594985
139	0xbd707939	-0.058709357
140	0x3e4787be	0.19485375
141	0xbe62c9e1	-0.22147323
142	0x3e399c45	0.18126018
143	0x3dfa03e7	0.122077756
144	0x3e487c5f	0.19578694
145	0x3bea7c13	0.007155904
146	0x3c6b9d2c	0.014380734
147	0x3e1483e6	0.1450344
148	0x3bf5f606	0.007506135
149	0x3da4ba29	0.0804332
150	0x3e4914fb	0.1963691
151	0x3dee88af	0.11647164
152	0xbc5a24f5	-0.013314475
153	0xbe0143cc	-0.12623519
154	0xbdd77370	-0.10520065
155	0x3db4a02b	0.08819612
156	0xbd9f34f7	-0.07773774
157	0x3dbeb207	0.093113
158	0x3dc5d83f	0.09660386
159	0x3e003f99	0.1252426
160	0xbdd85252	-0.10562576
161	0x3c6e052a	0.014527598
162	0x3b985ba9	0.0046495986
163	0xbd986736	-0.07441561
164	0x3e1917f7	0.14950548
165	0x3cc39ffd	0.02388
166	0xbd130673	-0.035894822
167	0x39e1d525	0.0004307415
168	0xbca92af7	-0.02065037
169	0x3b9e96eb	0.004839768
170	0x3dc56fa5	0.09640435
171	0x3df075de	0.117412314
172	0x3e08a7ad	0.13345213
173	0x3cff6399	0.031175422
174	0x3d2d855f	0.04236352
175	0xbd8bda7a	-0.068287805
176	0x3ddeb9b9	0.108752675
177	0x3df14192	0.11780085
178	0x3d4d415c	0.05011116
179	0x3d912a2b	0.07088121
180	0xbe10e75d	-0.14150758
181	0xbcad6e63	-0.0211708
182	0xbdbaff23	-0.09130695
183	0x3e052709	0.13003172
184	0xbc023fd6	-0.00794979
185	0xbdae30ba	-0.085053876
186	0x3d8cb2cc	0.0687004
187	0x3b28bba9	0.002574662
188	0xbd9fc572	-0.078013316
189	0xbcc9cd9d	-0.024634177
190	0xbdd9297e	-0.10603617
191	0xbdb90e69	-0.09035952
192	0x3e09b60c	0.13448352
193	0x3d8b3f12	0.06799139
194	0xbe6dea0b	-0.23233812
195	0xbe072acb	-0.13199918
196	0x3e176848	0.14785874
197	0xbe6cb4af	-0.231158
198	0x3e825916	0.25458592
199	0x3c50e28a	0.012749324
200	0xbe4e3cbc	-0.20140356
201	0x3c2697af	0.010168
202	0x3d30faa6	0.043207787
203	0x3dbcca3c	0.09218261
204	0xbdf3a838	-0.118973196
205	0xbc774964	-0.015093181
206	0xbda1fedb	-0.07909938
207	0x3da5e73c	0.08100745
208	0x3dce19d2	0.100635186
209	0x3bed9140	0.007249981
210	0x3d8b6fef	0.06808459
211	0xbda87b0d	-0.08226595
212	0x3e12c178	0.14331615
213	0x3da1d27f	0.07901477
214	0xbc1e5a8d	-0.009665144
215	0xbe0c3ec8	-0.13695824
216	0xbc01f286	-0.007931357
217	0xbdba7cab	-0.0910581
218	0x3d7cae75	0.061689813
219	0xbe4618d5	-0.1934541
220	0xbda3fb6b	-0.080069385
221	0x3de40cb4	0.111352354
222	0xbd8b9a3a	-0.06816526
223	0xbe0ac9fa	-0.1355361
224	0x3d7f6c7c	0.062359318
225	0xbbb7b60e	-0.0056064194
226	0xbd8ba9cf	-0.06819498
227	0xbd24adb3	-0.040204715
228	0x3e744489	0.23854269
229	0x3df3292c	0.11873087
230	0x3dc12844	0.09431508
231	0xbdb5419d	-0.08850405
232	0x3a5847ef	0.0008250465
233	0x3de9b1f4	0.11410895
234	0x3c1926f0	0.009347662
235	0xbd8c6e57	-0.06856983
236	0xbd4bdc23	-0.049770486
237	0xbd8c8746	-0.06861739
238	0xbd2849b0	-0.0410859
239	0xbdcf5093	-0.1012279
240	0x3dd1d9e0	0.102466345
241	0xbd135450	-0.03596908
242	0x3dc483e3	0.09595468
243	0xbc415694	-0.011800427
244	0x3c995285	0.018716106
245	0x3e0304c4	0.12794787
246	0x3da7c297	0.08191412
247	0x3aeba2de	0.0017977615
248	0xbd805b1d	-0.062673785
249	0x3db2da05	0.0873299
250	0x3d753126	0.059861325
251	0xbd4da83d	-0.050209273
252	0xbd21502d	-0.039383102
253	0xbd7a5e1d	-0.06112491
254	0x3ca6df10	0.020370036
255	0x3dd1aab8	0.1023764

layer2.weight f4 [150, 200]
0	0x3c88c81c	0.016696982
1	0x3d840169	0.064455815
2	0xbddd44c6	-0.10804133
3	0x3d384b91	0.04499394
4	0xbd42a08e	-0.047516398
5	0x3e0d4c62	0.13798669
6	0xbd4d1452	-0.050068207
7	0xbd2ba257	-0.041902866
8	0x3e1f32d3	0.15546732
9	0x3e06cfc7	0.13165198
10	0x3d25550d	0.040364314
11	0xbbabbef4	-0.0052412692
12	0xbdac19f3	-0.08403387
13	0x3d0964b6	0.03354331
14	0xbebcd654	-0.3688227
15	0x3df8c8a4	0.12147644
16	0xbdbc120b	-0.09183129
17	0x3e2f7ad8	0.17136705
18	0x3dbb50ce	0.09146272
19	0x3bec8237	0.0072176713
20	0x3e36b815	0.17843659
21	0xbb67e42a	-0.00353838
22	0xbd74dcc1	-0.05978084
23	0x3c962801	0.018329622
24	0xbd2dd756	-0.04244169
25	0x3d8f539b	0.06998368
26	0xbd78dcb6	-0.06075736
27	0xbd6de04f	-0.058075245
28	0x3cb6e6f8	0.022326931
29	0xbb636fb3	-0.003470403
30	0x3e19dd81	0.15025903
31	0xbd96b53b	-0.07358786
32	0x3e109576	0.14119515
33	0xbd22d0a4	-0.039749756
34	0x3ddaed09	0.10689742
35	0xbdc779f2	-0.09740056
36	0xbdcdd2d8	-0.10049981
37	0xbcced039	-0.025245773
38	0x3d2aaeae	0.041670494
39	0xbd941721	-0.07230974
40	0x3d2c4c10	0.042064726
41	0xbbed26df	-0.0072373
42	0x3dd5cd01	0.10439492
43	0xbe142ce3	-0.14470248
44	0xbdaf4b0d	-0.08559237
45	0xbd58e187	-0.052949455
46	0xbe5441ff	-0.207283
47	0x3c19080c	0.009340297
48	0x3de00112	0.10937704
49	0xbe50e823	-0.20401053
50	0x3d2ff777	0.04296061
51	0xbd95a6c9	-0.07307202
52	0x3db392b0	0.08768213
53	0xbe50689a	-0.20352402
54	0x3d804a48	0.06264168
55	0xbd0bf570	-0.034169614
56	0xbba3af67	-0.004995275
57	0xbe36b87a	-0.1784381
58	0x3bd284ba	0.0064245136
59	0xb805848e	-3.1833122e-05
60	0x3cbf4082	0.02334619
61	0x3cb8690e	0.022511031
62	0x3d9767bb	0.07392832
63	0x3ce5b8d1	0.028042229
64	0x3d8948b6	0.06703322
65	0xbd5668b0	-0.05234593
66	0x3d89ec39	0.06734509
67	0x3d57c451	0.052677456
68	0xbd07955b	-0.03310142
69	0xbcbdd159	-0.023171114
70	0x3d0c3503	0.034230243
71	0xbd03dc6f	-0.032192644
72	0xbc0519ec	-0.008123856
73	0x3c95940e	0.018259075
74	0xbdf1d0be	-0.118073925
75	0xbd34f270	-0.04417652
76	0x3b329d06	0.0027254238
77	0x3d6284b3	0.055302333
78	0x3e757325	0.23969705
79	0xbd11ae10	-0.03556639
80	0x3bab2492	0.0052228654
81	0xbc020d1d	-0.007937697
82	0x3cd19427	0.02558334
83	0x3d00dae7	0.03145876
84	0x3dc20a0c	0.094745725
85	0x3d9701ad	0.073733665
86	0xbce823c8	-0.028337374
87	0xbda6408f	-0.08117782
88	0x3d6e3202	0.05815316
89	0x3c8c81fb	0.017151823
90	0xbdcfce4d	-0.101467706
91	0xbdbae939	-0.09126515
92	0x3de32167	0.11090355
93	0x3cd2fd76	0.025755625
94	0x3d8100d3	0.06298985
95	0x3dae3310	0.08505833
96	0xbd50901e	-0.05091869
97	0xbd096734	-0.033545688
98	0xbdabeca0	-0.08394742
99	0xbd5c0a2a	-0.05372063
100	0x3d35b54c	0.04436235
101	0x3d340f11	0.04395968
102	0xbc492c0e	-0.01227857
103	0xbce4d2bd	-0.02793252
104	0x3dd9aade	0.106282935
105	0xbde6d643	-0.11271336
106	0x3dc2540f	0.09488689
107	0xbe0147bd	-0.12625022
108	0xbd52758d	-0.051381636
109	0xbcbff7ea	-0.023433644
110	0xbd01f890	-0.03173119
111	0xbcfc028f	-0.030762939
112	0x3e3067f9	0.17227162
113	0xbd8df29c	-0.0693104
114	0x3e64d075	0.22345145
115	0x3ba1e3aa	0.0049404697
116	0x3d33aa42	0.043863542
117	0x3cdec0cd	0.027191544
118	0x3e06e03f	0.1317148
119	0x3dfae6f4	0.12251082
120	0x3b6f1240	0.0036479384
121	0xbd0e03f1	-0.034671728
122	0xbcf0d705	-0.029399404
123	0xbd5edf22	-0.054412015
124	0xbdbd5a80	-0.09245777
125	0xbce1d4b9	-0.027567254
126	0x3ceed5cc	0.02915468
127	0x3ce9d5a0	0.028544247
128	0x3d14f395	0.03636511
129	0x3d81cadd	0.06337521
130	0x3c765752	0.015035467
131	0xbd97af84	-0.07406524
132	0x3da88523	0.08228519
133	0x3d1e1fd2	0.038604565
134	0x3dab4652	0.08363022
135	0xbc8e6744	-0.017383225
136	0xbdc275a4	-0.094950944
137	0xbe10f591	-0.14156176
138	0x3c1ed58a	0.009694466
139	0x3da51d2f	0.08062207
140	0x3c03171c	0.008001115
141	0x3da34998	0.07973021
142	0xbd9e7e22	-0.07738902
143	0xbc911d4c	-0.017714165
144	0x3d052d8c	0.03251414
145	0xbd07fdf7	-0.033201184
146	0x3dadca48	0.08485848
147	0x3d473562	0.048634894
148	0xbd6f484e	-0.058418564
149	0x3d3cbee3	0.04608048
150	0x3dc1d747	0.09464889
151	0xbdcd382c	-0.100204796
152	0x3c38c41e	0.011277227
153	0xbcacbca7	-0.02108605
154	0xbd90240b	-0.07038125
155	0xbde72060	-0.11285472
156	0xbde2b08c	-0.1106883
157	0x3d491866	0.049095534
158	0xbbd97edb	-0.006637437
159	0xbd0ce486	-0.034397624
160	0x3cfb1b7c	0.030652754
161	0xbbb7d06b	-0.005609562
162	0xbdef388f	-0.116807096
163	0xbbf2ed2d	-0.0074135275
164	0x35bee0ba	1.4221507e-06
165	0x3d6f1138	0.05836603
166	0xbd8d1900	-0.06889534
167	0x3c5694f6	0.0130970385
168	0xbd9d13de	-0.07669805
169	0x3c9ad90a	0.01890232
170	0x3de6cde1	0.11269737
171	0xbd9a0b21	-0.07521654
172	0xbc965ad6	-0.01835386
173	0x3d9d578d	0.076827146
174	0xbbe08680	-0.006851971
175	0x3cd2fa16	0.025754016
176	0x3d0c2c73	0.034222078
177	0x3d4c04e6	0.04980936
178	0x3d3c7197	0.046006765
179	0x3c74e9a5	0.014948283
180	0x3d8f92bc	0.07010409
181	0xbc95012a	-0.018189032
182	0x3e330d17	0.17485462
183	0xbd175f65	-0.03695621
184	0x3d9626bf	0.07331609
185	0x3d4dd2dd	0.050249923
186	0x3d8279dc	0.06370899
187	0xbd6972d1	-0.056994263
188	0xbe20546e	-0.15657207
189	0xbc4e8494	-0.012604851
190	0x3d96c0a0	0.07360959
191	0x3d526d36	0.051373683
192	0xbdc5033b	-0.09619757
193	0xbcd71260	-0.02625388
194	0xbe47cc42	-0.19511512
195	0x3df819e6	0.12114315
196	0xbdaf0ba1	-0.0854714
197	0x3cbbb053	0.022911226
198	0xbd177730	-0.0369789
199	0x3d988f7e	0.07449244
200	0xbdba9781	-0.09110928
201	0xbd333354	-0.043750122
202	0xbcaac6ed	-0.020846808
203	0x3da1f1e8	0.07907468
204	0xbd8c3c6d	-0.06847463
205	0xbe0c828e	-0.13721678
206	0x3e153556	0.14571127
207	0x3d0a983a	0.03383658
208	0x3de9cf38	0.11416477
209	0xbdaaeffb	-0.08346554
210	0xbd93f2e3	-0.07224061
211	0xbd36a9af	-0.044595417
212	0x3e2425df	0.16030072
213	0x3cbe4dee	0.02323052
214	0x3d03cbae	0.032176666
215	0xba04c746	-0.00050650944
216	0x3a85a3c0	0.0010195896
217	0x3ce13043	0.027488833
218	0xbbc3aaa8	-0.0059712715
219	0xbdb5f46b	-0.0888451
220	0xbe184334	-0.14869386
221	0x3c5e6235	0.013573219
222	0x3d010c43	0.031505834
223	0xbd09a372	-0.03360314
224	0x3d37903a	0.04481528
225	0x3d4c372f	0.049857315
226	0xbd8a1585	-0.06742386
227	0x3d9d0605	0.07667164
228	0x3cb56fc3	0.022148019
229	0xbd36b837	-0.044609275
230	0x3e3ac5ed	0.18239565
231	0x3daf8b19	0.08571453
232	0x3da4737f	0.08029842
233	0xbcad62b2	-0.021165226
234	0xbb21d360	-0.002469264
235	0xbdfbd403	-0.122962974
236	0x3ddee282	0.10883047
237	0x3bbf8d61	0.005845711
238	0x3ca3dd3b	0.020002952
239	0xbbf5fa92	-0.007506677
240	0x3e48cb02	0.19608691
241	0x3d627b68	0.05529347
242	0x3d897a3d	0.06712768
243	0x3c5fc5dd	0.013658014
244	0x3e04f72a	0.1298491
245	0xbd4952cb	-0.049151223
246	0x3d243546	0.040089868
247	0xbd887a5f	-0.066639654
248	0x3e23b1fd	0.15985866
249	0xbda059bc	-0.078296155
250	0xbd4645cf	-0.04840642
251	0x3d3c0c4e	0.045910172
252	0x3cceb6a6	0.025233578
253	0x3d65fe8d	0.05615096
254	0x3d77c0af	0.06048649
255	0x3deb2d44	0.11483243

layer2.bias f4 [150]
0	0x3c067bf0	0.00820826
1	0x3b273a43	0.0025516904
2	0x3ceff4fe	0.029291626
3	0x3dc742d7	0.097295456
4	0xbb3bab7a	-0.0028636144
5	0x3ca02e29	0.01955326
6	0xbdb8f4d3	-0.090310715
7	0x3becd058	0.007226985
8	0x3c242e5e	0.01002082
9	0x3e1d6569	0.15370716
10	0x3d37d48e	0.044880442
11	0xbc26e843	-0.010187211
12	0x3d8a87b6	0.06764166
13	0x3da804f7	0.08204072
14	0x3d050172	0.03247208
15	0xbae4f07d	-0.0017466691
16	0x3cce3adc	0.02517455
17	0x3d51ef0f	0.051253375
18	0x3cc72a09	0.024312036
19	0x3cb8ed10	0.022573978
20	0xbd0fd377	-0.035113778
21	0x3dbd2044	0.0923467
22	0xbd511c9e	-0.051052682
23	0x3dba7d5c	0.09105942
24	0xbd125b61	-0.035731677
25	0xbd15b420	-0.036548734
26	0xbd63ff75	-0.055663545
27	0xbcbcbeb2	-0.02304015
28	0x3d51e860	0.051247
29	0x3d79a854	0.060951546
30	0xbcbac400	-0.022798538
31	0x3d8e4558	0.0694682
32	0x3dd2bdd7	0.10290115
33	0xbd33efce	-0.043929867
34	0x3d388a30	0.04505366
35	0x3d9bc9dd	0.07606862
36	0xbcefa60a	-0.029253978
37	0xbc752902	-0.01496339
38	0x3cdd7d2b	0.027037224
39	0xbcc3e5bc	-0.023913257
40	0xbda00a88	-0.07814509
41	0x3d079081	0.033096794
42	0xbd807bc0	-0.062736034
43	0xbd5b76ab	-0.053579967
44	0x3d36577b	0.04451702
45	0x3bacc57b	0.005272565
46	0x3d53d2c9	0.051714692
47	0xbd2e1e9d	-0.042509664
48	0x3d6b474c	0.05744104
49	0x3bc07da1	0.005874351
50	0x3dbbf922	0.09178378
51	0x3d70ab9d	0.058757413
52	0x3d96a8d2	0.07356419
53	0xbcda558a	-0.026652116
54	0x3e06e8ff	0.13174818
55	0xbc0320b6	-0.008003404
56	0x38cb0a83	9.681752e-05
57	0x3d6adbef	0.05733865
58	0xbd5e1547	-0.05421951
59	0xbcf0d27b	-0.02939724
60	0x3b887121	0.0041638766
61	0x3cd01f93	0.02540568
62	0x3e23dac2	0.16001418
63	0x3ca5fa1a	0.02026086
64	0x3d8c6014	0.06854263
65	0x3d0c6d7f	0.03428411
66	0x3da6f7f6	0.081527635
67	0xbc96e33e	-0.018418904
68	0xbd219b06	-0.039454482
69	0x3cd6dc81	0.026228191
70	0xbd4d8efb	-0.050185185
71	0x3dd3f88f	0.10350143
72	0x3dfd23bd	0.12360332
73	0xbb35824d	-0.0027696074
74	0xbd5a4a8b	-0.053293746
75	0xbbdc95a2	-0.006731705
76	0x3c993345	0.018701205
77	0x3dc02016	0.0938112
78	0x3d3ae0d9	0.045624588
79	0xbd85c4dc	-0.065316886
80	0x3ba695cd	0.0050837756
81	0x3da0d4e2	0.07853104
82	0x3d8cd7c0	0.068770885
83	0xbc275453	-0.010212976
84	0x3d67d882	0.056602962
85	0x3dd5fca4	0.10448578
86	0xbd1654e4	-0.03670205
87	0x3c7ab934	0.015302945
88	0xbc05cd10	-0.0081665665
89	0xbccddc8e	-0.025129583
90	0x3cd379bb	0.025814882
91	0x3c94877b	0.018131008
92	0x3d986bb9	0.074424215
93	0x3caf5b08	0.021405712
94	0x3ca80847	0.02051176
95	0x3bd73836	0.00656798
96	0x3ca5359f	0.02016717
97	0x3c9835b5	0.018580297
98	0x3d9af121	0.07565523
99	0xbcaa62b4	-0.020799018
100	0x3d5d278d	0.053992797
101	0x3da5078f	0.08058082
102	0x3c12d630	0.008962199
103	0xbd3ba264	-0.045809165
104	0xbda4f9cb	-0.08055457
105	0x3c8a8ca3	0.016912764
106	0xbc8ffa14	-0.017575301
107	0x3ddde5f6	0.10834877
108	0x3d0d3c4a	0.034481324
109	0x3dc11e12	0.094295636
110	0xbd227085	-0.03965809
111	0x3db6b3ae	0.0892099
112	0x3c8fdc97	0.01756124
113	0xbd16440a	-0.03668598
114	0x3c98789e	0.018612202
115	0xbd0166cf	-0.031592187
116	0xbcb5376e	-0.022121157
117	0x3d4ea43a	0.050449587
118	0x3d5b66d8	0.053564876
119	0x3d5aa4ed	0.05337994
120	0x3c5e5b35	0.01357155
121	0x3c16382f	0.009168669
122	0xbd0b6d7c	-0.03403996
123	0xbc8045b2	-0.015658233
124	0xbd008921	-0.031380776
125	0x3d765e4d	0.060148526
126	0x3af86780	0.0018951744
127	0xbda7b077	-0.08187955
128	0xbd856384	-0.06513122
129	0x3de27bc8	0.11058766
130	0xbd2ac14d	-0.041688252
131	0xbc85ffbc	-0.016357295
132	0x3d3f6825	0.04673018
133	0xbcdfe9dd	-0.027333194
134	0x3d55ae71	0.052168313
135	0x3d72db8a	0.0592914
136	0x3d417c7d	0.047237862
137	0xbbe0039a	-0.006836367
138	0x3d01dbc8	0.03170374
139	0x3d8e9b0f	0.06963169
140	0x3d1c3a3b	0.03814147
141	0x3d3f090a	0.04663948
142	0xbc0a927c	-0.008457776
143	0x3d656e97	0.05601367
144	0x3c420a67	0.0118433
145	0x3de59fec	0.11212143
146	0x3d06f578	0.03294894
147	0xbcf3b2c5	-0.02974833
148	0xbd5b8ea9	-0.05360285
149	0x3c23cbdc	0.009997334

layer3.weight f4 [100, 150]
0	0xbd7faefb	-0.062422734
1	0x3d3e2125	0.046418328
2	0x3c19922a	0.009373227
3	0x3c2b1acb	0.0104434
4	0x3e3508ef	0.17679189
5	0x3d848639	0.064709134
6	0xbce20615	-0.02759079
7	0x3deecad1	0.11659778
8	0x3d3c6ddc	0.046003208
9	0x3f21758c	0.6306999
10	0xbd668ed2	-0.056288548
11	0xbdccfd72	-0.10009278
12	0xbd155d1b	-0.036465745
13	0xbd6d3c1f	-0.057918664
14	0xbd241ada	-0.04006467
15	0xbd82aca2	-0.06380583
16	0x3ce08718	0.027408168
17	0xbe37ab6e	-0.17936489
18	0xbc876b03	-0.01653052
19	0x3e2018fb	0.1563453
20	0xbe047dbd	-0.1293859
21	0x3dd91a12	0.10600676
22	0xbda97a73	-0.082753085
23	0x3d813507	0.06308942
24	0xbca74a04	-0.020421036
25	0xbb4e0ba1	-0.0031440037
26	0xbda9574b	-0.08268603
27	0x3e281b16	0.16416582
28	0x3d6331d1	0.05546743
29	0x3de169b4	0.110064894
30	0xbe0c2163	-0.13684611
31	0xbcd79ed6	-0.026320856
32	0x3da7301c	0.08163473
33	0x3d03e414	0.032199934
34	0xbd8684c0	-0.06568289
35	0x3ce923a5	0.02845938
36	0xbdde51db	-0.108554564
37	0xbc133888	-0.008985646
38	0x3d7d6298	0.061861604
39	0x3e0224cd	0.12709351
40	0x3cc171c1	0.023613812
41	0x3e08db64	0.13364941
42	0x3cdf9d1d	0.027296597
43	0xbda79d74	-0.08184329
44	0xbce14d2f	-0.027502624
45	0x3e5122dd	0.20423456
46	0xbd476428	-0.0486795
47	0x3dc7e754	0.09760919
48	0x3d8d7982	0.069079414
49	0xbd8d8eee	-0.06912027
50	0xbd316b21	-0.043315057
51	0x3d875850	0.06608641
52	0xbca4039c	-0.020021252
53	0x3d9215f9	0.07133097
54	0xbd381464	-0.04494132
55	0x3deb4bc8	0.114890635
56	0x3c15ee69	0.00915108
57	0xbe72d519	-0.23714103
58	0x3a53ed62	0.0008084384
59	0x3dc23a27	0.09483748
60	0x3b45eaa7	0.0030199678
61	0xbc7d6869	-0.015466788
62	0x3e02571d	0.12728544
63	0xbe84df89	-0.25951794
64	0x3bb0ab1e	0.0053914925
65	0xbd97e673	-0.074170016
66	0x3e123cd1	0.14281012
67	0xbcd24b50	-0.025670677
68	0xbe34956b	-0.17635123
69	0xbbb770dd	-0.005598171
70	0x3d4ac78b	0.049506705
71	0x3d5cfec4	0.0539539
72	0x3e14a462	0.14515832
73	0xbdaf12e8	-0.08548528
74	0x3cf96323	0.03044278
75	0x3dd44c2b	0.103660904
76	0xbe03d957	-0.12875877
77	0x3d184a1c	0.03718005
78	0x3d71e554	0.059056595
79	0xbc2a5e4e	-0.010398461
80	0x3ddc4e4c	0.107571214
81	0x3cf72529	0.030169087
82	0x3b68af24	0.0035504783
83	0x3c67b651	0.014142589
84	0x3e1cfaf1	0.15330102
85	0x3d9c8c99	0.076440044
86	0x3db8be55	0.09020678
87	0x3c96abeb	0.018392524
88	0xbd632207	-0.055452373
89	0xbd7ada8a	-0.06124357
90	0xbca353dd	-0.01993745
91	0xbb66e37d	-0.0035230808
92	0x3d3e6bc5	0.046489496
93	0x3dc2a364	0.095038205
94	0xbdac2251	-0.08404983
95	0xbc9752b0	-0.018472046
96	0xbde00e0c	-0.10940179
97	0xbe64bc20	-0.22337389
98	0xbdab7422	-0.0837176
99	0xbd2f17b5	-0.04274722
100	0x3c1af4f6	0.009457817
101	0x3da1636e	0.07880293
102	0xbd8bc77d	-0.06825159
103	0x3b8dc32c	0.004326245
104	0xbc2aea19	-0.01043179
105	0xbcde0cc2	-0.027105693
106	0xbdcb691b	-0.09932157
107	0x3ca15787	0.019695057
108	0x3d216840	0.03940606
109	0x3db5de75	0.08880321
110	0x3dc3fbde	0.09569524
111	0xbdb5d090	-0.08877671
112	0x3d980c9c	0.0742428
113	0xbccc2307	-0.024919046
114	0x3d99ea7b	0.07515427
115	0xbe047ec8	-0.12938988
116	0xbd188521	-0.037236337
117	0x3e3b1b07	0.18272029
118	0x3cbeadfc	0.023276322
119	0x3d150a52	0.036386795
120	0x3cb9f8c5	0.02270163
121	0xbd6b1564	-0.057393447
122	0xbc25513e	-0.01009017
123	0x3d0f9ec7	0.03506353
124	0x3dab3304	0.0835934
125	0x3d056774	0.032569364
126	0x3d1179f8	0.03551671
127	0xbd159449	-0.03651837
128	0x3d8f4902	0.06996347
129	0xbd5b8fa9	-0.053603802
130	0xbdc54aa8	-0.0963338
131	0xbdc3f54b	-0.0956827
132	0x3dae4df8	0.08510965
133	0xbd9416dc	-0.072309226
134	0xbd0fd5c3	-0.03511597
135	0x3dc0b1a3	0.094088815
136	0x3e09c376	0.13453469
137	0xbd38ca90	-0.045115054
138	0x3b99cc0b	0.0046935133
139	0x3d5cbf50	0.053893387
140	0x3dbcec00	0.09224701
141	0xbdd232af	-0.102635734
142	0xbd9f841f	-0.07788872
143	0x3d91073a	0.070814565
144	0x3da118c5	0.078660525
145	0xbe88282b	-0.26593146
146	0xb9d77ad0	-0.00041099498
147	0xbd6f96cb	-0.058493417
148	0x3dcea390	0.10089791
149	0xbdbea6c8	-0.09309155
150	0x3d9fcd1e	0.07802795
151	0x3d14d1df	0.03633296
152	0xbd057d28	-0.03259006
153	0x3da90df4	0.082546145
154	0x3d42ea75	0.047586877
155	0xbdd2083f	-0.10255479
156	0xbd7f43ba	-0.06232045
157	0xbcab813c	-0.020935647
158	0x3e09e91c	0.1346783
159	0x3ef01c4d	0.46896592
160	0x3ce28253	0.027650034
161	0xbc5f179f	-0.013616472
162	0xbba5660c	-0.0050475653
163	0x3d6f68c5	0.058449525
164	0x3d9da181	0.0769682
165	0x3d2b9d1a	0.04189787
166	0x3da94a0f	0.08266079
167	0xbb990eaa	-0.0046709375
168	0xbd53c37e	-0.051700108
169	0xbc6b7a29	-0.014372387
170	0x3a451288	0.0007517715
171	0xbd093f2a	-0.033507504
172	0xbc789ac2	-0.015173616
173	0x3d4f12e1	0.050555114
174	0xbe04ef2f	-0.12981866
175	0xbe03b540	-0.1286211
176	0xbd518ffe	-0.051162712
177	0xbd63dcb7	-0.055630412
178	0x3d045dc8	0.032316
179	0x3e0aa363	0.1353889
180	0x3c864716	0.016391318
181	0x3e063de5	0.13109548
182	0xbcfbe541	-0.030748965
183	0x3de0accb	0.10970458
184	0x3c60bcf7	0.013716928
185	0xbd6cecd3	-0.05784304
186	0xbd8bafd1	-0.06820644
187	0xbe13e9d3	-0.14444666
188	0x3d1a4cdc	0.037670955
189	0x3de45f22	0.11150958
190	0xbc87ad44	-0.016562112
191	0x3d955bdd	0.07292912
192	0xbc3435df	-0.010999172
193	0xbd275d08	-0.040860206
194	0xbcd36edf	-0.025809703
195	0xbd9f0357	-0.07764309
196	0xbce69556	-0.02814738
197	0x3d758e41	0.059950117
198	0x3c6915e6	0.014226412
199	0x3c13810f	0.009002938
200	0xbd0350a1	-0.032059316
201	0xbe1ed1d6	-0.15509734
202	0x3dbbee43	0.09176304
203	0x3e105c6a	0.14097753
204	0x3d599099	0.053116415
205	0xbd71c8ff	-0.059029575
206	0xbdc9c62d	-0.09852252
207	0xbcbc41a2	-0.022980515
208	0xbdba5097	-0.090974025
209	0xbd0d5fc6	-0.034515165
210	0x3d9e3e31	0.07726706
211	0x3d5afea7	0.05346551
212	0x3daa600e	0.08319102
213	0xbe63a74f	-0.22231792
214	0xbd2ea603	-0.04263879
215	0xbdfe617f	-0.1242094
216	0x3d492496	0.049107157
217	0x3d6be0b3	0.057587337
218	0xbd8b31a9	-0.06796581
219	0x3d96c40c	0.07361612
220	0x3d12d6ba	0.03584931
221	0x3e097522	0.13423589
222	0x3cba913c	0.022774331
223	0x3de02696	0.1094486
224	0x3d3967a8	0.04526487
225	0x3deb6146	0.11493163
226	0xbd594f25	-0.053053994
227	0x3d14d1aa	0.036332764
228	0xbd8fa95a	-0.07014723
229	0x3e10fa1a	0.14157906
230	0x3d90b15b	0.07065078
231	0x3d8d8c78	0.06911558
232	0xbd9a5a2a	-0.07536729
233	0xbd03ae15	-0.03214844
234	0x3d95c785	0.07313446
235	0xbd7d1aad	-0.061793018
236	0xbbcb9876	-0.006213243
237	0xbe1383cb	-0.14405744
238	0xbdc65eba	-0.096860364
239	0xbc654aff	-0.013994931
240	0x3bc7700d	0.0060863555
241	0x3c874bac	0.016515575
242	0x3cea257f	0.028582333
243	0x3cb19ded	0.02168175
244	0x3ddb2d71	0.10702027
245	0x3d887dcf	0.06664621
246	0xbe1881d4	-0.14893275
247	0xbccbea5c	-0.024892025
248	0xbdb5339c	-0.08847734
249	0xbd2c2dcc	-0.042035863
250	0xbd97359b	-0.07383271
251	0x3cb08a95	0.021550456
252	0xbd858138	-0.06518787
253	0x3d9c7957	0.07640331
254	0x3d3a5829	0.045494232
255	0x3e09ccb2	0.13456991

layer3.bias f4 [100]
0	0x3dabc06a	0.083863094
1	0xbd08ceae	-0.03340023
2	0x3dbf3660	0.09336543
3	0x3db0f212	0.08639921
4	0x3de35944	0.111010104
5	0x3dfd8cad	0.123803474
6	0x3d461811	0.048362795
7	0x3db851e4	0.089999944
8	0xbd9cf215	-0.07663361
9	0x3dbea3fc	0.09308621
10	0xbcf41910	-0.029797107
11	0x3dc687fd	0.096939065
12	0x3ba9e4fb	0.0051847673
13	0xbd16c598	-0.036809534
14	0x3dab4c77	0.08364194
15	0xbdb69152	-0.089144364
16	0xbc9e2198	-0.019303128
17	0x3e08d7f6	0.13363633
18	0x3dca4fc2	0.09878494
19	0x3ccaa9a0	0.024739087
20	0x3dd831aa	0.10556348
21	0x3c19cacf	0.009386732
22	0x3ddd2e9c	0.10799906
23	0x3dd02726	0.10163717
24	0x3dd9366d	0.10606084
25	0xbda0e544	-0.07856229
26	0x3d33178b	0.043723624
27	0xbc110cbf	-0.008853137
28	0xbc8564b0	-0.016283363
29	0x3ce6d210	0.028176337
30	0x3d75e32b	0.060031097
31	0x3d9b8d6e	0.07595335
32	0xbbdea491	-0.00679452
33	0x3db320bf	0.0874648
34	0xbd67c2dc	-0.056582317
35	0x3d2d3c8a	0.042294063
36	0x3db094ce	0.08622132
37	0xbd8a6600	-0.06757736
38	0x3ccf5e87	0.025313629
39	0xbb829d2b	-0.003986021
40	0x3c8b0100	0.01696825
41	0xbd0b99d9	-0.034082267
42	0x3cddf5fa	0.02709483
43	0x3d708b1e	0.058726422
44	0xbc73069e	-0.014833121
45	0x3d391c7f	0.04519319
46	0x3c80063f	0.015627978
47	0x3da5672c	0.08076319
48	0xbc7c26a5	-0.015390073
49	0x3c925b08	0.017865673
50	0x3cff454e	0.031160977
51	0x3b907461	0.0044084047
52	0x3d69f022	0.057113774
53	0xbcf72fe6	-0.030174207
54	0x3d59e42b	0.053196114
55	0x3d6cde4f	0.057829197
56	0x3dc7ed81	0.09762097
57	0x3ddb4263	0.10706022
58	0x3df8d4e2	0.12149979
59	0x3de24bf2	0.11049642
60	0xbd23c75a	-0.03998504
61	0x3d844cfa	0.064599946
62	0xbbf312b9	-0.0074180034
63	0x3da30301	0.07959557
64	0x3de52390	0.11188424
65	0x3d9056a3	0.07047775
66	0x3d8b3950	0.06798041
67	0x3dd42664	0.10358885
68	0xbd46a89e	-0.04850065
69	0x3db0e98a	0.08638294
70	0x3d300bf4	0.04298015
71	0xbcf1b3e6	-0.029504728
72	0x3aded5d3	0.001700098
73	0xbd04e09f	-0.032440778
74	0xbcf77ecf	-0.030211834
75	0x3e00318d	0.12518902
76	0xbc827c96	-0.015928548
77	0x3d5cab9d	0.0538746
78	0x3ded9d48	0.11602265
79	0x3de7b771	0.113142855
80	0xbd9c8b63	-0.076437734
81	0xbdbfa045	-0.09356741
82	0xbd574184	-0.052552715
83	0x3bcf3e10	0.006324537
84	0xbd059498	-0.032612413
85	0x3d2505aa	0.040288605
86	0x3c939549	0.01801552
87	0x3e0a0f63	0.13482432
88	0x3d9ac9ef	0.07558047
89	0x3d35be9c	0.044371232
90	0x3db8fe28	0.090328515
91	0x3d4f7ebc	0.050657973
92	0xba851438	-0.001015312
93	0xbd0263b6	-0.031833373
94	0x3c32fc19	0.010924363
95	0x3dae8cf8	0.085229814
96	0xbd70096a	-0.058602728
97	0x3d84a89c	0.06477472
98	0x3c808b58	0.015691444
99	0x3e293e89	0.16527762

layer4.weight f4 [150, 100]
0	0x3cb94468	0.022615626
1	0xba5d4b91	-0.0008441741
2	0xbe043438	-0.12910545
3	0xbdef7341	-0.11691905
4	0x3d585ad6	0.052821003
5	0x3d913340	0.07089853
6	0x3ce83947	0.028347624
7	0x3d9f7536	0.07786028
8	0xbd0879f8	-0.033319443
9	0xbdc1cfb6	-0.09463446
10	0xbdde338a	-0.10849674
11	0xbcb2d3c3	-0.021829491
12	0x3d5481cb	0.051881593
13	0xbcaee297	-0.02134828
14	0x3d3db462	0.046314605
15	0x3cf990ed	0.030464614
16	0xbd0cc3da	-0.034366466
17	0x3deae500	0.114694595
18	0x3b0393fe	0.0020077224
19	0xbd89f3a3	-0.06735923
20	0x3cc642da	0.0242018
21	0xbd7785e7	-0.060430434
22	0xbdb277df	-0.0871427
23	0x3d85dcc0	0.06536245
24	0x3da776c5	0.0817695
25	0x3d818d53	0.063257836
26	0x3cbd59a8	0.02311404
27	0xbe0133a7	-0.1261736
28	0xbd418ebb	-0.04725526
29	0x3ccb4e4e	0.024817612
30	0x3ce09ed7	0.02741949
31	0x3d1ce0aa	0.038300194
32	0xbd193b42	-0.03741003
33	0xbd5cb75b	-0.0538858
34	0xbdcd51ac	-0.10025343
35	0xbe0c9121	-0.13727237
36	0xbe2147e1	-0.15750076
37	0xbdaa7acb	-0.08324202
38	0x3e06e863	0.13174586
39	0x3df826f2	0.12116803
40	0xbdfceaea	-0.12349494
41	0x3d6dfe66	0.05810394
42	0x3dec2250	0.11529982
43	0x3d297bfc	0.041378006
44	0xbd7021a9	-0.05862585
45	0x3cbe3881	0.023220303
46	0x3cd89e18	0.026442572
47	0x3d22d6e7	0.039755728
48	0xbcd13d8d	-0.025542045
49	0xbd9a35e8	-0.07529813
50	0x3dddcdc4	0.10830262
51	0x3d258470	0.040409505
52	0xbd89a791	-0.06721414
53	0xbc91ac32	-0.017782304
54	0x3cce8bbc	0.025213115
55	0x3d8381cd	0.06421242
56	0xbdd284d8	-0.10279244
57	0x3d9d5bd9	0.07683534
58	0xbd830c58	-0.06398839
59	0x3d96582e	0.07341038
60	0x3d0e3edc	0.034727916
61	0x3d621aee	0.055201463
62	0x3de28554	0.110605866
63	0xbc81aed4	-0.015830435
64	0x3da53463	0.080666326
65	0xbb61ba62	-0.0034443368
66	0xbe6de684	-0.23232466
67	0x3cc0b8ea	0.023525674
68	0xbdae1660	-0.085003614
69	0x3c25692d	0.010095877
70	0xbd97f4d1	-0.07419742
71	0x3cd992ce	0.02655926
72	0xbd464047	-0.048401143
73	0xbd9e4d18	-0.07729548
74	0xbb1f8ec9	-0.0024346581
75	0xbcdcdaf9	-0.026959883
76	0xbd9929f9	-0.07478709
77	0x3dc06962	0.093951
78	0x3dbd934e	0.09256612
79	0x3db03244	0.086033374
80	0xbda5b338	-0.08090824
81	0x3d01fc9a	0.03173504
82	0xbda0e21d	-0.07855628
83	0x3b777ba6	0.003776291
84	0xbd6881ef	-0.05676454
85	0x3b4d1258	0.0031291451
86	0x3c9672f4	0.01836536
87	0xbd44e101	-0.048066143
88	0x3d8dfb1e	0.069326624
89	0x3c6bbf67	0.014388896
90	0xbdc76aa9	-0.09737141
91	0x3d711302	0.058856018
92	0x3daad0e6	0.083406255
93	0xbd4c4f0a	-0.049880065
94	0x3de5846d	0.11206899
95	0x3e1f475a	0.15554562
96	0x3d673c90	0.05645424
97	0x3daacc61	0.083397634
98	0xbd1667b3	-0.03671999
99	0x3dbcd8e4	0.09221056
100	0x3d407e00	0.046995163
101	0x3d6f967d	0.058493126
102	0xbc8a8fa2	-0.016914193
103	0x3ca4d8c9	0.020122902
104	0xbc9df1c5	-0.019280324
105	0x3d8fc879	0.07020659
106	0x3da1bd92	0.07897486
107	0xbd847788	-0.06468111
108	0x3d170912	0.036873884
109	0xbdcefeee	-0.10107218
110	0x3c61dd20	0.01378563
111	0x3dc3c06d	0.09558187
112	0xbc64b2e4	-0.0139586665
113	0xbdc791a7	-0.09744578
114	0xbdc97299	-0.09836311
115	0xbcc41d80	-0.023939848
116	0xbd3c2f44	-0.045943514
117	0xbdcf01f3	-0.10107794
118	0xbda05720	-0.07829118
119	0x3dbd3437	0.09238475
120	0xbd1842b6	-0.037172996
121	0xbd0daf78	-0.03459117
122	0x3d5344f5	0.051579434
123	0x3dba3bb0	0.09093416
124	0x3d9b3fe7	0.07580548
125	0x3b2972ca	0.0025855773
126	0x3dc15276	0.09439556
127	0xbdc0dbec	-0.09416947
128	0xbc9aa644	-0.01887811
129	0xbda2f27e	-0.07956408
130	0xbd8e60a9	-0.0695203
131	0x3d75d735	0.06001969
132	0xbdc28fa3	-0.09500053
133	0xbbe0ea31	-0.0068638553
134	0x3d94168b	0.07230862
135	0xbd815ed2	-0.06316914
136	0xbc3dfa34	-0.011595298
137	0xbc214b66	-0.009844637
138	0xbd97cdeb	-0.074123226
139	0x3db1ba53	0.08678117
140	0x3cc31ad0	0.023816496
141	0xbc8b40f1	-0.01699874
142	0x3c81ddd2	0.015852842
143	0x3bda0a88	0.0066540875
144	0x3d02f4e0	0.031971812
145	0xbd286c4b	-0.0411189
146	0xbd15730d	-0.036486674
147	0x3dad2b2b	0.08455499
148	0x3cca7354	0.024713196
149	0x3d4bcedc	0.049757823
150	0x3d4fb18a	0.050706424
151	0xbc9c10c2	-0.01905096
152	0xbd612195	-0.054963667
153	0x3d51e91a	0.051247694
154	0x3b792931	0.0038018937
155	0x3d7e2407	0.062046077
156	0xbdc30efd	-0.09524343
157	0x3d5c4146	0.053773187
158	0xbd93f15d	-0.07223771
159	0x3cfa7df9	0.030577647
160	0x3d985ffc	0.074401826
161	0xbd8faea1	-0.0701573
162	0xbdb73c35	-0.089470305
163	0x3d4cf951	0.050042454
164	0xbd5ba667	-0.05362549
165	0xbdc80759	-0.097670265
166	0x3d94380f	0.07237255
167	0xbc55380f	-0.013013854
168	0x3a97ac82	0.0011571797
169	0x3bf8a026	0.0075874506
170	0xbd7d528e	-0.06184631
171	0xbda9aeb0	-0.08285272
172	0xbdc53205	-0.09628681
173	0x3cd9ed75	0.026602486
174	0xbc2dcd2c	-0.010607999
175	0xbdcc808c	-0.09985456
176	0xbcad1fab	-0.021133265
177	0xbdac9064	-0.08425978
178	0xbd515bd3	-0.05111296
179	0xbd8de151	-0.06927741
180	0xbce3420c	-0.027741455
181	0xbdc51bf8	-0.09624475
182	0x3d07c142	0.03314329
183	0x3b8388d9	0.0040141162
184	0xbd89afee	-0.06723009
185	0x3ce31a55	0.027722517
186	0x3d3fc2dc	0.04681669
187	0xbda5a1ee	-0.08087526
188	0xbcb3a619	-0.021929787
189	0xbdc9a75d	-0.09846375
190	0x3d5d507a	0.054031827
191	0xbd5eef0c	-0.05442719
192	0xbcdef8f1	-0.027218314
193	0xbda3d866	-0.08000259
194	0xbc2cdfbc	-0.010551389
195	0xbd27c7d7	-0.040962067
196	0x3d98a9af	0.074542396
197	0xbd5e225b	-0.054231983
198	0x3c489a6c	0.012243848
199	0xbcc6a648	-0.024249211
200	0x3d9f8540	0.07789087
201	0x3d2e03e4	0.04248418
202	0xbdf1e5fe	-0.11811446
203	0xbd550b80	-0.05201292
204	0xbd7b365a	-0.06133113
205	0xbc27231b	-0.010201241
206	0xbe19bb16	-0.15012774
207	0x3c81845d	0.015810186
208	0xbe5467b2	-0.20742682
209	0xba91e720	-0.0011131503
210	0xbd405529	-0.046956215
211	0xbc909543	-0.017649299
212	0xbe47abef	-0.19499181
213	0x3e01e228	0.12683928
214	0xbdc9493e	-0.09828423
215	0x3da7b74f	0.0818926
216	0xbd62103f	-0.055191275
217	0x3dad6d49	0.0846811
218	0x3db5c7e5	0.088760175
219	0x3da6aad1	0.081380494
220	0xbdbc81f9	-0.09204478
221	0x3dd67ce6	0.10473041
222	0x3c3ac8f7	0.011400453
223	0x3d5be353	0.05368359
224	0xbda99eeb	-0.08282264
225	0x3e49eaa7	0.19718419
226	0x3acf9948	0.0015838528
227	0xbd35e98a	-0.044412173
228	0x38617204	5.3750366e-05
229	0x3df25bac	0.11833891
230	0x3bf3f147	0.007444534
231	0x3dd12d18	0.10213679
232	0xbd9c8aa0	-0.07643628
233	0x3cc1749f	0.02361518
234	0x3d2a5594	0.04158552
235	0x3c26c029	0.0101776505
236	0x3dcf0c85	0.1010981
237	0x3dbe839a	0.09302445
238	0xbcff23d7	-0.03114502
239	0x3d0741c4	0.033021703
240	0xbdfb21c8	-0.12262303
241	0x3e1d4de9	0.15361752
242	0x3db1491b	0.08656522
243	0xbd582eac	-0.052778885
244	0x3ceea5af	0.029131738
245	0x3e0ae76b	0.13564841
246	0x3e0f412f	0.1398971
247	0xbd655b70	-0.055995405
248	0xbd092925	-0.033486504
249	0xbe0c8f49	-0.13726534
250	0x3da96ee2	0.08273102
251	0x3db142cc	0.086553186
252	0x3dbbce61	0.09170223
253	0xbdb0e5c9	-0.08637578
254	0x3d3217a4	0.043479577
255	0xbdd55a97	-0.10417669
